new experiments/Transformer results on MNIST/checkpoints_mnist_transformer/transformer_mnist_epoch_5.pth (torch, 300463 bytes, 32 tensors)

cls_token f4 [1, 1, 64]
00000000: 102e 903e 2c70 733d 9dd5 15bf ba5e 85bf
00000010: 1c8f 70bf e7d1 b2bf 406e 493f 7704 643f
00000020: 0968 c2be 01b4 f1bc b4c2 17bf 64f3 a83d
00000030: 8c70 543f ecbe 533f 4d88 b3be eb90 8ebd
00000040: eb2e e73d ad30 79bf 6603 5abf 3495 e33d
00000050: e350 ecbf 47b8 c83e bfd3 31bf a1eb aebd
00000060: 263a a4be 3798 c03d f9ba 74bf 0a22 d53f
00000070: 58bb 333f 836f 01be 1a0c aebe 92da 1c3f
00000080: febf 2dbd 9e74 6bbf c2be 6ebf b9b8 10bc
00000090: d13d cebe f93b 04c0 2eea 153f 2241 4abf
000000a0: 184b cfbe 01be 333f 1f00 a93f 3082 c93e
000000b0: 42cb 1dbf b2cc b6bd 3db0 25bf 6f26 0bbf
000000c0: 7bff 223f 15f2 91bf e7e9 69be b2b9 023f
000000d0: 8909 a9bd 5e8b adbe c20e 303e 5dea 8b3e
000000e0: 9c52 83bf 9f4e 683f 092f 07bf 12a1 ebbe
000000f0: bde1 ab3e 2b96 943e 5fcb 0d3f cff2 53bf
0.28160143 0.059433147 -0.58529073 -1.0419533 -0.9396837 -1.3970307 0.78683853 0.8906931
-0.37969998 -0.029504778 -0.5928147 0.08249548 0.8298423 0.827132 -0.35064927 -0.06961235
0.11288246 -0.973399 -0.85161436 0.111124426 -1.8462185 0.39203092 -0.69463724 -0.085410364
-0.32075614 0.09404033 -0.955978 1.6651013 0.7020774 -0.12640195 -0.33993608 0.6127101
-0.042419426 -0.9197482 -0.93259823 -0.008833104 -0.40281537 -2.0661604 0.58560455 -0.79005635
-0.4048698 0.702118 1.3203162 0.39357138 -0.6163827 -0.08925761 -0.64722043 -0.5435552
0.6367108 -1.1402003 -0.22843133 0.510646 -0.08253772 -0.3389539 0.1719313 0.27327242
-1.0259585 0.90744966 -0.52806145 -0.46021324 0.33570662 0.2902082 0.55388445 -0.8279237

pos_embed f4 [1, 50, 64]
00000000: be96 bebe a24b 293d e956 503f ab26 debe
00000010: d8ee 8abe d874 b3bf 0a7f fe3f ae5f 0d3e
00000020: 1cf2 febd c9ce cdbf 695b b33d a9bc aebf
00000030: ee21 4bbf 050e 403f 53af b93f 6bfd 4c3f
00000040: c191 4fbe 33d8 163f 12c1 003f 1ddb 0e3e
00000050: cc6b 28be 1a0e ccbe a84f e73e 7041 893f
00000060: 3990 77be af34 c9bd 8172 3a3f 1c3f 893b
00000070: e69f 8a3d 7dd4 00bd 94a9 953d eeb1 e1bf
00000080: a0e2 b43e 1195 d83f 068f 1c3d 8de1 babe
00000090: 6b7e 81be befe 5fbf fdb6 9dbe b684 a33f
000000a0: 1b96 433f 8849 c13f 6d02 a9bf 30fa 633e
000000b0: 4469 483f e754 a83f 3121 683f 9495 e83e
000000c0: 29ed 103d b9aa 8bbe fe4f 46bf 14a3 83bf
000000d0: a8d6 8ebf 0e33 9ebf 3a29 c5bf ca05 16bf
000000e0: 9fd5 573f 25cd c1bd 63b9 8dbb 333a 9dbe
000000f0: 8c67 7abf f7f1 8b3f d391 66bf 15db 7dbf
00000100: 56f2 673f 25c6 6d3f 4186 673f da17 9a3f
00000110: 7138 8e3f f1a4 f93f 3fdc bebe fb0e 12bf
00000120: 8d3b 383d 07a5 07bf 6fc7 39bf d8a3 8abe
00000130: 18c7 153d d965 07bf 6b78 44bf f516 1c3f
00000140: f5b1 22c0 6038 c83e 453c d23e c6ab 303f
00000150: a0a6 ef3e 5678 6b3f e508 c9bf 15e4 d63e
00000160: cfc0 eebf 97df acbf cd8c 6bbd 99a7 1abf
00000170: 58a1 cc3e 9f3d 1cbf 08f2 173e b529 b73d
00000180: bf57 b6bf bc2e b43f 0f40 6fbf 0c81 d13d
00000190: 5911 b4bf 2dcc d93f a0b2 21bf 54ee e83e
000001a0: 72eb 1ebf 876e 40bf 0651 c83e 40e1 0840
000001b0: 49ed 7bbf 0c4f 82bd 684d c8be 6c25 103f
000001c0: 3e15 973e 089f e33f b6d6 f73e c07c adbe
000001d0: 66b5 0a3f baa1 273f 7095 5a3f a0d0 bdbe
000001e0: 71e0 d4bd 5dca e3bf c521 cebd 60c0 943e
000001f0: ac43 823f b506 aa3e cc03 95bc 0e8b bdbf
00000200: 685f 233f 2014 063d 97a6 febe 39c9 273f
00000210: 6c91 f1bd e8fb 1bc0 1107 a0bf 093d d5be
00000220: 71a1 c53e fc53 cc3e 4991 febe 19d2 17bf
00000230: f9fd 0c3f b9a0 cbbf b131 37bf 9976 8b3f
00000240: 34b0 873f a677 e5be 2bd3 793f 1c07 00bf
00000250: 5d19 4b3e 9021 c33f 992c ed3e 7962 ca3f
00000260: 2f8d 32bf ff9f 35be 97db 39bd b483 e03f
00000270: b724 56be d0e0 593f 8a6f ac3f 5376 18be
00000280: 9ecf 4ebd 2127 d03f 0573 1ec0 56c4 7abe
00000290: 5ee0 1fc0 782b 60bf 52a6 113f 30a9 b4bf
000002a0: ed7d 0d3f 82e1 8f3f 6aa0 cc3f 3660 c6bf
000002b0: bfac febf 4329 b7be 8975 39bf 264d 86be
000002c0: 86c6 c6bd 1d5c 8e3d db0c dc3c c2dc d6be
000002d0: c47a 323e 939b a7be 4c95 3dbf 83af f4bd
000002e0: b02e 333f 96b1 f8bf 32ca 8bbf dab1 6c3e
000002f0: 68ff 0c40 bc7f b0be 7415 5abf a966 f23e
00000300: 5266 76bf 8f36 a1bf 3750 0abc 84e6 cc3e
00000310: c2c1 82bf 1aff f4be 8198 adbe b8d6 b9bc
00000320: cca6 9f3d 34d5 873f f25d 45be 327f 2bbe
00000330: b180 763f d849 933e 2607 7abc 941d 3e3f
00000340: d94b 403f f924 04bf a071 cbbe a944 e63e
00000350: b37c 69bf 68e1 e8bc bc0c 133f f4e0 e3bf
00000360: 6ebc 02bd 9e93 2b40 00e6 a73f 1fa4 1abe
00000370: e3b5 10bf ee77 1abf 5103 b33e 25dd 7abe
00000380: cc71 3c3f 5f47 3bbe 7a9a 973e d07a b03f
00000390: 05a5 0dbf b7c8 67be 36b0 123e 54f9 993e
000003a0: 8db9 85be 9b55 b1bf 8308 1e40 cb83 27bf
000003b0: 347f 0b3e 1872 34bf ca68 ef3e 5b22 12bf
000003c0: 66c4 38bf 99fa 5b3f ea21 273f 7428 723f
000003d0: 7565 cebc bc53 a73f e9e5 8f3d 2543 863d
000003e0: 17e3 bb3e 1bee c83a 47b6 82be 2148 c03f
000003f0: 399a a0bf eeef fd3f ae83 943e 80a2 19bf
-0.37224382 0.041331895 0.81382614 -0.43388876 -0.27135348 -1.4020033 1.9882519 0.1380603
-0.124485224 -1.6078731 0.087576695 -1.3651325 -0.7934865 0.7502139 1.450663 0.80074185
-0.20270444 0.58923644 0.502946 0.13950773 -0.16447371 -0.3985451 0.4517796 1.0723095
-0.2417611 -0.09824502 0.7283097 0.0041884314 0.067687795 -0.031452645 0.07307735 -1.7632425
0.3532915 1.6920491 0.038222335 -0.36500207 -0.25291762 -0.8749808 -0.3080367 1.2774875
0.7640092 1.5100565 -1.3203865 0.22263408 0.7828562 1.315091 0.90675646 0.4542662
0.035382424 -0.2727869 -0.7746581 -1.0284142 -1.1159258 -1.2359331 -1.5403206 -0.58602583
0.84310335 -0.09462956 -0.0043250783 -0.30708465 -0.9781425 1.0933217 -0.9006626 -0.9916242
0.9060415 0.9288047 0.9043923 1.2038529 1.1110975 1.9503461 -0.3727741 -0.5705411
0.044978667 -0.52986187 -0.72569937 -0.27078128 0.036566824 -0.5288978 -0.76746243 0.6097253
-2.5421116 0.3910551 0.41061607 0.69012105 0.46806812 0.91980493 -1.5705839 0.41970888
-1.865259 -1.3505734 -0.057507325 -0.60411984 0.39966846 -0.61031526 0.14838421 0.08943502
-1.4245528 1.4076762 -0.9345712 0.10229692 -1.4067794 1.7015435 -0.63163185 0.4549433
-0.6207801 -0.7516865 0.39124316 2.1387482 -0.98408943 -0.06362733 -0.39121556 0.563071
0.29508394 1.7782907 0.48406 -0.3388424 0.5418304 0.6548115 0.85384274 -0.3707323
-0.10394371 -1.7796131 -0.10065035 0.2905302 1.0176902 0.33208242 -0.018190287 -1.4808061
0.63817453 0.032734036 -0.49736473 0.65541416 -0.11795315 -2.4372501 -1.2502156 -0.4164813
0.38599733 0.39907825 -0.4972022 -0.5930496 0.5507503 -1.5908424 -0.715602 1.0895568
1.0600648 -0.44817847 0.9758784 -0.5001085 0.19833894 1.5244617 0.46323088 1.5811301
-0.6974668 -0.17736815 -0.045375433 1.7540193 -0.20912443 0.8510866 1.3471539 -0.14888887
-0.050490968 1.6261941 -2.4757702 -0.24488959 -2.4980693 -0.8756633 0.5689441 -1.4114132
0.5527027 1.1240695 1.5986454 -1.5498111 -1.9896468 -0.35773668 -0.7244497 -0.26230735
-0.09705834 0.06951163 0.026861599 -0.419653 0.17429644 -0.3273588 -0.74055934 -0.11947539
0.69993114 -1.9429195 -1.092108 0.2311472 2.2030888 -0.34472454 -0.85188985 0.47343948
-0.9624988 -1.2594775 -0.008441976 0.4001962 -1.021538 -0.47850877 -0.33905414 -0.022685394
0.07795486 1.061194 -0.19274119 -0.1674774 0.9629012 0.28767276 -0.015260493 0.7426388
0.75115734 -0.51618916 -0.39735126 0.4497426 -0.912059 -0.028427795 0.57441306 -1.7803025
-0.03191798 2.6808848 1.3117065 -0.1510167 -0.5652754 -0.6033925 0.34963468 -0.24498422
0.7361114 -0.18288945 0.29610044 1.3787479 -0.55329925 -0.2263516 0.14325032 0.30073035
-0.26118127 -1.385425 2.4692695 -0.65435475 0.13622743 -0.70486593 0.46759635 -0.5708367
-0.7217468 0.85929257 0.65286124 0.94592977 -0.025194863 1.3072429 0.07026274 0.065557756
0.36696693 0.001532975 -0.25529692 1.5022012 -1.2547065 1.9838846 0.29006714 -0.6001358

patch_embed.projection.weight f4 [64, 1, 4, 4]
00000000: 5e85 37be 8254 0bbd 1b86 f43c b93a a43d
00000010: 34eb 8dbe 7709 60bd b26e 9bbc 0705 c73d
00000020: b879 abbe 23a3 63bd 6eab 533e 9f86 7e3e
00000030: cc0b 52be 245b 913d 5fe6 4e3e bcf4 be3e
00000040: a149 a5bd 8a48 2bbe c904 393e 535e 82bd
00000050: dab9 38be 2568 88be e98d 08be 4590 20be
00000060: c189 1dbc 3c8d 58bd de36 ea3d 3278 abbd
00000070: c63f a43d 9144 993e 74a9 a03e 6db7 97bc
00000080: dec9 5dbe d3cf 4cbe f8e0 93be 1a5f 6fbe
00000090: c3ef cbbd 5963 51bd 0c2a 8bbe 5d9b 103e
000000a0: 690d ad3d 1170 17bd dc74 64be e2be ba3d
000000b0: 5cea edbd eee0 8fbd 0dfa 8e3d 322b 7a3e
000000c0: 1f35 11be 7c74 10be fa76 38be e51c 84be
000000d0: 0ce3 debd 07fc 2e3d c745 893d 4d88 bb3c
000000e0: 6854 4f3e 17c3 a93d bb42 513e 0d51 97bd
000000f0: 7891 8d3e 12cf 913e ef7a 6c3e 02ae c3bd
00000100: 3fdf 613e 20bd 2f3e f4c0 893e 65be 803b
00000110: df99 663c 5184 bdbb f221 43be 26fc 8ebe
00000120: e63d 2a3e 8780 963d 870f b6bd 2953 6dbe
00000130: 906e 7f3e 170c b23d 443b 733b ec7e 58bd
00000140: 6f1c d3bd 0967 113e 13f7 683e 5103 78bd
00000150: 5a04 f23b eb74 763d 1faf 093d 4e36 0bbe
00000160: c5a7 57bd 3325 8c3e 2595 8e3e 62dd 09be
00000170: 4cd0 b03d 2272 5abc b00b 613c 7ac0 4cbb
00000180: 7e78 5c3e fe8d 86bd e81c 233e 16a3 1c3e
00000190: dc83 1c3d 8179 1cbe 3264 7abe ed4a 1a3e
000001a0: d092 953a 4c6e d3bc 69e5 973d 2e45 66bc
000001b0: a785 8f3d a159 07bd 3879 98bd 6ac4 97be
000001c0: abad 1d3e 3c0a 9b3d 6529 08bd 1166 f23d
000001d0: 7457 32be ddc3 aabe 681c 7b3d f689 ddbd
000001e0: 83ca 33be bba0 89be bf12 693d 818f 14be
000001f0: 0bf7 113e ea83 f8bd f2df a4bd 14e2 4a3e
00000200: 4fb0 24be fcee a53c 6690 5d3e 2f60 17bc
00000210: 25d3 46bd 926c b93d 5e12 3a3e d968 c7bd
00000220: a2d5 20bd 333c a8bd 4288 8e3d 410b 4f3d
00000230: ed05 0fbe 7764 52be 1732 813e 6cd8 153e
00000240: 3841 a93e f3af 0ebc 314a a03d 1dac dbbd
00000250: 3782 213d 7c50 89be f2dd 293e 9186 8dbe
00000260: 4c3b ee3d e629 a6bc bc96 2c3e df54 f63d
00000270: ae68 b7be aae8 a1be d051 9abe 57b8 17be
00000280: ae3a c83d 5049 0bbd b17e 813d 948c 0e3e
00000290: 3af9 2c3e 6d49 5abe 38ee 0ebe 0130 cb3e
000002a0: 5779 42be 189a 0abe 9df7 f7bd dcea 833e
000002b0: 1f84 78bd 0938 c8bb d8a4 cebd 140e 973b
000002c0: 036a 6e3e e8bb fa3d a6c1 b4bc 5cd7 493e
000002d0: 60a3 433e 9c15 47be 698d 483e 4653 71be
000002e0: 8203 da3d 330d 333e 1c1e e23d 2287 cc3d
000002f0: 0803 3e3d 39ea 22be d5a3 8abe f722 98be
00000300: 5f32 a93d 61e5 d73d 5bde 583e bc45 373e
00000310: d3b9 ed3b 46eb 0d3e 2438 62bc c9a0 813c
00000320: 2190 b8bd 8298 c0bc bbc6 5b3e 5da4 45be
00000330: db7b 3a3b 490d e3bb cbc9 13bd 7017 02be
00000340: aed3 d3bd 1035 893e b608 973d 34dc 873e
00000350: f1cc 593d bbe4 303e eb4a f3bd 6e37 823c
00000360: fc53 b0ba 84b7 a9bd ffdf 363e 7d83 ec3d
00000370: 84cd cb3d 179f 43bd c25e fe3c cbc4 643d
00000380: 43f8 a3bc 5a2f 6b3c 289b fb3c 8512 a23e
00000390: 7d25 38be fcef 123d 7486 81bd b695 923d
000003a0: 0ff3 15be f65b 25be b794 5f3e 67a7 26be
000003b0: f065 c33d 8f87 a93d f48a 97bd 5b98 353d
000003c0: abc2 b63e eb4a 98be 7908 5bbe 1196 c9bd
000003d0: b914 933e 7a8a 3cbe 269e f83c b3c6 383e
000003e0: 298a 903e 1a54 353b a811 56be 3560 813e
000003f0: 1dfa f0bd 76dd edbd c6d2 99be 26bf c63d
-0.1792197 -0.03401614 0.029849103 0.08019013 -0.27718508 -0.054696526 -0.018973682 0.09717756
-0.33491302 -0.0555755 0.20670864 0.24856041 -0.20512313 0.07097462 0.20205067 0.37296093
-0.08070684 -0.1672689 0.18068232 -0.06365647 -0.18039647 -0.26641956 -0.13335384 -0.15680034
-0.009615363 -0.052869067 0.11436246 -0.08372535 0.08019976 0.29935125 0.31379282 -0.018520081
-0.21659037 -0.20001154 -0.28882575 -0.23376122 -0.0995784 -0.051120136 -0.27180517 0.14121766
0.084498234 -0.03697211 -0.22310203 0.09118439 -0.11616966 -0.07025324 0.06981287 0.2443054
-0.1418042 -0.14106935 -0.18014136 -0.25803295 -0.108831495 0.04272082 0.06702762 0.022892142
0.20247042 0.082891636 0.20435612 -0.07388506 0.27650046 0.28478295 0.2309377 -0.09554674
0.22057818 0.17161989 0.26905024 0.003928947 0.014074772 -0.0057835956 -0.19055918 -0.2792675
0.16625175 0.073487334 -0.0888968 -0.23176254 0.2494452 0.08693712 0.0037114182 -0.052855417
-0.10308158 0.14199461 0.22750501 -0.060550038 0.0073857727 0.060170095 0.033614274 -0.13594934
-0.052650232 0.2737213 0.27848163 -0.13463357 0.086334795 -0.013332875 0.013735697 -0.0031242655
0.21530339 -0.065700516 0.15928996 0.15296587 0.03821169 -0.15280725 -0.24452284 0.15067644
0.0011411551 -0.02580943 0.074168034 -0.01405458 0.07007914 -0.03304446 -0.07444996 -0.2964204
0.1539828 0.075703114 -0.033242602 0.11835874 -0.17416173 -0.33352557 0.061306387 -0.108173296
-0.17557721 -0.2688044 0.056902643 -0.14507867 0.14254396 -0.121345356 -0.08050527 0.19812804
-0.16082881 0.020255558 0.21637115 -0.009239241 -0.048541207 0.09053911 0.18171069 -0.09736795
-0.039266236 -0.08214607 0.06959583 0.050547842 -0.13967104 -0.20546137 0.25233528 0.1463334
0.3305757 -0.008708942 0.07826651 -0.107261874 0.039430823 -0.26819217 0.16588572 -0.2764173
0.11632404 -0.02028365 0.16854376 0.120279066 -0.35822052 -0.3162282 -0.30140543 -0.14816414
0.09776817 -0.034005463 0.063229926 0.13920814 0.16891947 -0.21317072 -0.1395806 0.39685062
-0.189916 -0.13535345 -0.12107775 0.2576512 -0.060672875 -0.0061101955 -0.10090035 0.0046098325
0.23282628 0.122428715 -0.022064995 0.1971106 0.19105291 -0.19441837 0.19585194 -0.23566923
0.106452 0.17485504 0.11040899 0.09986712 0.04638961 -0.15909661 -0.2707812 -0.29714176
0.08261561 0.105417974 0.21178572 0.17897695 0.007254818 0.13859281 -0.01380733 0.015823739
-0.090118654 -0.023510221 0.21462528 -0.19300981 0.0028455171 -0.006929074 -0.036081117 -0.12704253
-0.10343109 0.26798296 0.07374708 0.2653519 0.053173963 0.17274754 -0.11879524 0.015895572
-0.0013452764 -0.08286956 0.17858885 0.11548517 0.09951308 -0.04775914 0.031051043 0.05585174
-0.020015841 0.014354551 0.030713633 0.31654754 -0.1798305 0.0358734 -0.06324473 0.07157461
-0.14643501 -0.16148362 0.21834074 -0.16274796 0.095409274 0.08277809 -0.0739955 0.04433475
0.35695395 -0.29744658 -0.21389951 -0.09843076 0.28726748 -0.184122 0.030348849 0.18044548
0.28230408 0.0027668537 -0.20905173 0.25268713 -0.11766455 -0.11614506 -0.3004362 0.097044274

patch_embed.projection.bias f4 [64]
00000000: c936 64be af15 84bd 8733 0fbe d028 513d
00000010: d2e3 28be b932 153e b524 a4bd da16 44bb
00000020: bda2 d43d 661f 42be 253e 33be 964d 9abd
00000030: fa0b 283e 10db b53d 4930 323e d707 b03e
00000040: 06d9 81bc c3ba 1f3b 0f9b 353e 8d87 45bd
00000050: f94c 55be fe8d 1a3c bac8 aa3d 1dcf e8bd
00000060: 9586 68bc cc7a 13bc 61ac 033e a5c7 bfbd
00000070: 34fd 0abe b6a6 fc3d 5680 213e 59cd 313e
00000080: 4319 80be 6dc1 acbc 8553 59be c997 26bd
00000090: 5ac1 33bd 50e8 53be e50a f2bc ca59 013c
000000a0: 05f2 ae3d 1365 c63d 23a1 cb3d 6e10 07be
000000b0: 0259 f1bb 188f 1ebd 7cbb e8bd 4cf3 063e
000000c0: 7316 61be 6f0f edbd 42f2 583e 92fb 193e
000000d0: dfc5 93bd c83d dabd e8eb 073e 9cd1 85bc
000000e0: 7b59 983d f3db 91be a512 a6bd 2e4f 493d
000000f0: e8d8 bebd 77fa a23d e5bc 1f3e 40e7 62be
-0.22286524 -0.06449448 -0.139845 0.051064312 -0.16493157 0.1457013 -0.08014814 -0.0029920847
0.10382602 -0.1895729 -0.17504175 -0.075343296 0.16410819 0.088796735 0.17401232 0.3438098
-0.015850555 0.0024372793 0.17734931 -0.048224974 -0.20830144 0.009433268 0.08339067 -0.11367629
-0.014192243 -0.009001445 0.12858726 -0.09364251 -0.13573152 0.12336485 0.15771613 0.1736349
-0.25019273 -0.021088326 -0.21223266 -0.040672097 -0.043885566 -0.20694089 -0.02954621 0.007894943
0.08542255 0.09687247 0.09942844 -0.13189861 -0.007365347 -0.038710684 -0.11363885 0.13178748
-0.2198122 -0.11575209 0.21186164 0.15037373 -0.07215475 -0.10656315 0.13273585 -0.016335301
0.07438942 -0.2848812 -0.08109025 0.049147777 -0.09318715 0.07957929 0.15599401 -0.22158527

blocks.0.norm1.weight f4 [64]
00000000: 3b05 643f 3b73 813f 8a2d 733f c5eb 6b3f
00000010: 262f 6a3f 643c 7b3f dc7a 683f 5df9 7c3f
00000020: 67fd 893f 4f61 653f c590 753f 0439 763f
00000030: bdc4 753f db9a 433f 1a8e 803f b954 763f
00000040: 2d53 603f eecb 7a3f fd05 783f a756 783f
00000050: 9d48 703f 0886 823f 59cf 733f 9ff7 573f
00000060: f119 763f f3eb 813f bef8 773f 5155 6c3f
00000070: 8d31 5f3f 23b2 793f f08b 833f ca7a 653f
00000080: 8995 7e3f 8e4a 7b3f bf4f 863f 91d1 803f
00000090: 7718 773f 26e8 603f 92fa 893f 58ed 833f
000000a0: 4268 833f 2ff0 7b3f dcb0 803f 2fbb 7e3f
000000b0: 1793 6c3f 7572 6c3f 991f 763f 77b3 723f
000000c0: 9468 813f a2a8 803f f5a8 843f 5fea 723f
000000d0: 9738 843f f8ee 803f ae72 623f fd6c 923f
000000e0: 295d 863f 2b77 813f f260 7f3f bed4 5d3f
000000f0: 03cf 853f 9c7a 603f f300 813f 28b5 7e3f
0.8907048 1.011329 0.9499136 0.9215663 0.9147819 0.98139024 0.9081247 0.98818
1.0780457 0.89601606 0.95924026 0.9618075 0.96003324 0.76408166 1.0043366 0.96223027
0.87626916 0.9796742 0.9688414 0.9700722 0.938608 1.0197153 0.9523826 0.84362215
0.96133333 1.0150131 0.96863925 0.9231768 0.87184983 0.9753744 1.027708 0.89640486
0.9944692 0.98160636 1.0493087 1.0063955 0.96521705 0.8785423 1.0779593 1.0306807
1.0266192 0.98413366 1.0053973 0.9950437 0.9241194 0.9236215 0.96141964 0.9480509
1.011004 1.0051463 1.0364062 0.9488887 1.032977 1.0072927 0.8845624 1.143951
1.049718 1.0114492 0.997573 0.86652744 1.04538 0.8768709 1.0078415 0.9949517

blocks.0.norm1.bias f4 [64]
00000000: 71b1 77bd 5997 cdbd 3d20 68bd 313c 593d
00000010: 29c1 9c3b d0bb 133d 18b2 a3bd f7ee 41bd
00000020: 2781 a63d 7686 aa3b ac23 4dbd 3f5f 963d
00000030: d39f 803d b8c7 2bbd 68fc 6bbc 4d63 643b
00000040: c10c c43b 01dd cc3c 0f0b d2bc d028 6b3d
00000050: aa5a 10bb 5c8b 5a3c f081 b7bd a4f9 5abd
00000060: ac3b c4bc a905 873d 8a8d 493d 8649 aebd
00000070: 0738 1fbd 6567 7fbd f922 1f3d 2ab3 9cbc
00000080: 6588 2fbd 18c0 573d b228 f5bc 49a6 d4bd
00000090: bdb6 863c 7b29 da3c cf34 243e 1653 2ebe
000000a0: cfa3 ca3c 3db9 4dbd 966c 02be e4aa 4d3d
000000b0: 8c02 293d 6b18 4dbc 1e2e d7bc 7406 3f3d
000000c0: d3b8 bdbd 2c14 733d 4334 323d c9e9 8d3d
000000d0: 9e18 c9bc d780 253d b34e c03b dcfc debc
000000e0: c7b0 963d 5ef7 06bc d961 413d 84b7 c93d
000000f0: 005f 783d ae50 993b d008 293d f6de 573c
-0.060471956 -0.10038633 -0.05667137 0.05303592 0.0047837687 0.036067784 -0.07992953 -0.047347035
0.081301026 0.0052040173 -0.050082847 0.073423855 0.06280484 -0.041938514 -0.01440344 0.0034849227
0.0059829657 0.025007727 -0.025640039 0.05741197 -0.0022026696 0.01333889 -0.089603305 -0.053460732
-0.023954235 0.065928765 0.049207248 -0.08510117 -0.03887179 -0.062354464 0.038851712 -0.0191284
-0.042854685 0.05267343 -0.029926632 -0.10383279 0.016444558 0.026631108 0.1603577 -0.17023882
0.024736313 -0.050225485 -0.12736735 0.050211802 0.041262195 -0.012518029 -0.026267108 0.046637014
-0.09263768 0.05934541 0.043506872 0.069293566 -0.024547871 0.040406074 0.0058687567 -0.027220182
0.07357936 -0.008237688 0.047212455 0.09849456 0.060637474 0.004678807 0.04126817 0.013175717

blocks.0.attn.qkv.weight f4 [192, 64]
00000000: ceb0 62bd f54d e8bc eeea b8bd c3b2 fb3c
00000010: 774e 84bc 73d1 1d3d c1d2 413e b022 933d
00000020: b302 9fbd 59b0 e0bd 56a2 9a3d 5204 b0bd
00000030: db2e be3d 5de1 d6bd 3bd2 953d b0e3 1abe
00000040: 9f43 3a3e 614c 25be e8ce 683d ce34 00be
00000050: edb6 883c 8717 f8bc 3a36 783c 3b77 c73d
00000060: b864 5cbd 07f6 983d 5dd1 44be 0e7c 873b
00000070: 4add 91bd 5e22 783d 5ead 97bd 2e0a 0d3e
00000080: 67d3 d93c 9628 d73c 2666 3e3c 1b3b 013e
00000090: 7307 3b3c 48a1 7fbd eef9 4abc 0769 05be
000000a0: 81fe a53d edb5 f3bd 5ccc 40bd 8ef0 b83d
000000b0: 8833 99bd d78a bc3d 8732 fe3c 158f 00bd
000000c0: 4b8e b2bd b300 89bc bcde 97bd 2189 9abd
000000d0: e8fd d03d 63be 0dbe b5b5 cbbd b2e9 b13d
000000e0: e6ec 523d 45e1 613e e789 aebd b6c3 20be
000000f0: 3748 80ba bc40 d5bd 624d 07bd bf59 90bd
00000100: 50d6 053e 4426 f53d 6766 303e 796a 66bd
00000110: 17eb 893d 1c7f 44bd 255f e83d b973 ce3d
00000120: a461 21be 48d1 8abd a649 1c3d 4eaf 173b
00000130: 203c 87be de68 a53d 62df 983e efd0 9cbd
00000140: c073 1f3e 03cc 6ebe b255 f1bd 71ff 11be
00000150: e960 ce3c c500 203e bbd4 15bd 21ec b13e
00000160: 91f7 ad3c 26e5 ab3c bbab 19bd eebe 32be
00000170: e859 4c3e 47ca 983e 0d5e d1bd 67f1 c43c
00000180: 73b5 313e dc04 613d 1286 b0bb 1306 42bd
00000190: 1eab 6abe 253f da3b 1da7 f63c f5e0 5d3e
000001a0: ab0e bc3d 01d5 823d f814 7b3e 9c1a 9fbd
000001b0: 2bff 23bd 5977 723e e399 ff3d c963 a4be
000001c0: eda4 133e ffa8 6ebc 3c27 23be 3f3b 9cbd
000001d0: 4fbc 303e 1cab 4ebe d252 84bd e8a7 4dbe
000001e0: 16a9 36be 2860 2fbd 15c4 363e 845b 67be
000001f0: 5019 19be 8b8c c93d a4a5 80be d2cc d53d
00000200: 5cd5 933d bedc a1bd 14c1 b3bd 9411 353e
00000210: 2379 5bbd 29da 1f3d 771e 7ebd 5343 dcbd
00000220: c236 493e aa68 a7bd 0207 3a3d dda1 83bd
00000230: b6a5 213e 3590 d6bc 9034 62be 3269 acbd
00000240: d11b 6bbd 3852 ff3d 899f 42bd 1873 663d
00000250: 2682 cf3d 2232 96be 3c4a 3c3d fb9e b43d
00000260: 291d f43d 2a96 fabd 3717 713d bba0 0d3d
00000270: 1f30 64be eb3a 7c3b 6b7b 023e 6475 41bc
00000280: 4287 93be 0f8f cf3d 23bf f8bc 2c08 84be
00000290: ca69 b9bd 53eb 3639 b55e 05be e866 97bd
000002a0: 32d1 0cbc bffe f3bd ac86 8fbd 827b e63c
000002b0: e5a9 d4bd 6207 23bd 75fe 6f3e f640 82bc
000002c0: 92a0 53bd ed69 943d 5513 61bd 919b b6bd
000002d0: 90b5 9fbc 6a30 2e3d aa30 0bbe 31a5 18be
000002e0: 10aa 163d 5035 513e 9ac2 5dbe 308f 953d
000002f0: b0ed 823e fe88 cdbc 6468 2a3d 0a5d 173c
00000300: 0951 613d 5bda 133e 17ae a33d c418 b53d
00000310: 10fd c1bd b6ba acbd dc51 0ebe 6fee 3dbe
00000320: 2c6f f03d 3813 373e 7804 873d 2ee8 72bd
00000330: b109 17be 39d2 a6bd 90a6 863d 7aac d9bd
00000340: a91a b23d 8cfa 7cbe e2d8 083e cb97 3abd
00000350: 73bc 593d 1600 593d 4288 02be edda 483c
00000360: 79a9 533d ff78 21be f11a 2dbe 6528 673d
00000370: 1767 cc3d 207e 613e c093 28be 7d2a d2bd
00000380: bd57 c83d 127a 4f3d d69d 283e 2078 91bc
00000390: d9b8 be3d e8a4 dbbd 88a2 bfbd c739 e0bb
000003a0: 8c44 243d 40b5 863c d4e9 153e c79a d0bc
000003b0: f3bf 073e e404 203d d129 72bd e912 48be
000003c0: 3565 003e e69e 62bd 5ac9 25bd ea98 5f3d
000003d0: 7993 23bd b9a6 5ebc ba4c a1bc 90c2 d3ba
000003e0: 1d34 adba 2ffa 1d3e e733 863d f94e d8bd
000003f0: 6796 12be 0dd7 c13c 9f17 debd cfc8 93bc
-0.055344395 -0.028357485 -0.09029184 0.030724889 -0.016150696 0.038529824 0.18928052 0.071843505
-0.07764187 -0.10971136 0.075504944 -0.08594574 0.09286281 -0.104922034 0.07315489 -0.15125918
0.18189858 -0.16142417 0.056837946 -0.12520143 0.016688788 -0.030284656 0.015149647 0.09739538
-0.05380699 0.07468801 -0.19220491 0.0041346615 -0.07122286 0.06057965 -0.07406114 0.13773414
0.026590062 0.02626447 0.011621034 0.12620203 0.01141535 -0.06240967 -0.012388689 -0.13028346
0.081051834 -0.11899934 -0.047069892 0.09030257 -0.07480532 0.09206169 0.031029953 -0.031386454
-0.087185465 -0.016723966 -0.0741553 -0.075456865 0.10204679 -0.13842158 -0.09946767 0.08687152
0.051495455 0.2205859 -0.085223965 -0.15699658 -0.0009787147 -0.10412738 -0.033032782 -0.07048368
0.13070035 0.11970189 0.17226563 -0.056253884 0.06734293 -0.047972783 0.113462724 0.10080666
-0.15759903 -0.067781985 0.038156174 0.0023145261 -0.2641306 0.080766425 0.29857928 -0.076570384
0.15571499 -0.23320012 -0.11783923 -0.142576 0.025192695 0.15625294 -0.03657983 0.34750465
0.021236213 0.02098329 -0.03751729 -0.17455646 0.19956172 0.29841825 -0.10223017 0.02404089
0.17354374 0.054936275 -0.005387076 -0.047369074 -0.22916839 0.0066603594 0.030108983 0.21667846
0.09182485 0.063882835 0.24519718 -0.07768747 -0.04003827 0.2367834 0.124805234 -0.3210738
0.14418383 -0.014566659 -0.15932935 -0.07628488 0.17259334 -0.2018246 -0.06461109 -0.20083582
-0.17837939 -0.04281631 0.17848237 -0.22593504 -0.14951062 0.098412596 -0.25126374 0.10439457
0.072184294 -0.07903431 -0.08777061 0.17682487 -0.05358232 0.039026413 -0.062040772 -0.107550286
0.19649795 -0.0817426 0.04541684 -0.06427357 0.1578587 -0.02619181 -0.22090364 -0.08418502
-0.057399575 0.12466854 -0.047515426 0.056262106 0.10132246 -0.29335123 0.045969233 0.088193856
0.11919624 -0.12235673 0.05886003 0.034577113 -0.22283982 0.0038487266 0.12742393 -0.011807773
-0.2881413 0.10134708 -0.030364579 -0.25787485 -0.09053381 0.00017444538 -0.13024409 -0.07392675
-0.008594798 -0.11913823 -0.070081085 0.028135065 -0.10383967 -0.039801963 0.23436911 -0.015900116
-0.051666804 0.07246766 -0.054950077 -0.08916391 -0.019495755 0.04252664 -0.13592783 -0.14906766
0.036783278 0.20430493 -0.21656266 0.073027015 0.25571966 -0.025089737 0.04160346 0.009238491
0.05500892 0.14438765 0.079921894 0.08842614 -0.09472096 -0.0843405 -0.13898414 -0.18547986
0.11739954 0.17878425 0.06592649 -0.059303455 -0.1474979 -0.081455655 0.06574738 -0.106286004
0.08696491 -0.24704951 0.13363984 -0.045554917 0.053158235 0.052978598 -0.1274729 0.012259227
0.051675294 -0.15768813 -0.16904809 0.056435008 0.099806 0.22020769 -0.16462612 -0.1026201
0.0978236 0.050653525 0.1646646 -0.017757475 0.09312601 -0.10724813 -0.09357172 -0.006842825
0.040104434 0.016443849 0.1463998 -0.025464429 0.13256817 0.039067164 -0.05912191 -0.19538464
0.12538607 -0.05532732 -0.040475227 0.05458919 -0.039935563 -0.0135895545 -0.019689906 -0.0016156007
-0.0013214384 0.15427469 0.06552868 -0.10561938 -0.14315186 0.023662115 -0.10844349 -0.018040089

blocks.0.attn.qkv.bias f4 [192]
00000000: 021f 18be 38a3 b0be c2a8 89bd d760 9c3d
00000010: ab03 8d3d a5ae e7bc 426a 0d3e 29eb 293e
00000020: 0a10 53bd 30a9 18be be7d 9f3d 1031 abbd
00000030: 4379 c5bb 18ab 32be 5ac5 593e 774d 32be
00000040: 73a1 263d 7bca 2dbd e6aa 1b3d 98d1 403d
00000050: 1609 c73d 1014 4a3d 81c8 0dbe fbfa 3a3e
00000060: bbde 66bd caa0 cebd f219 843c d9df bf3c
00000070: 9d78 c93d ed9c 283e 283b b83d 37d0 46be
00000080: 4f94 b8bd 7452 013e c8a6 4e3c b5b6 a7bc
00000090: 3a01 e1bd 28a2 953d 32f4 0d3d e7b3 25be
000000a0: ce5a 013e ff28 a5bd 3834 423e 9037 17be
000000b0: ccd4 13be e6b8 4abe 0508 b53d 4ede c43d
000000c0: a1d0 b03d 1dd7 fc3c 39c0 7a3b 6efb 023e
000000d0: ba7a 993c 5911 a9be daa2 82bd bc14 1b3d
000000e0: 4c5b 79bd 3b40 24bd 8fe2 d33d b8ea 3d3d
000000f0: 7c8e 86be 83dc 1e3e 6a79 e4bd 8138 7d3c
00000100: af4c b93d 9026 a73d dabc 573d fe05 a53d
00000110: 81c1 423d 8d60 bbbd a489 5ebd 7b3b 483c
00000120: 52fa bc3d 3c0f ccbd 72b0 103c 8ffe f0bc
00000130: 66e7 babd e046 61bc 9b1c b6bd d05f 5d3d
00000140: 7c3d e8bc 5a00 8a3b 0292 05be 2b08 06bd
00000150: 5e47 07bd 395b 013d 30b1 37bd 3b8b be3d
00000160: 7c3a 00bd b15a 21bc 0a7a 803d f0d1 97bd
00000170: aef7 d43d d6e4 debc 9a05 c23d 1f9f e53d
00000180: ac7e 283c b421 863d f0df dfbc e6fa 93bd
00000190: 6328 bebd 089e dc3d d382 c5bc 8be3 a93d
000001a0: ece6 f73c 0678 86bd 1bef 1e3d d862 d6bd
000001b0: 0913 a8bd 8098 033c caa8 a73d f0bf d33d
000001c0: 56b5 4abc 435c c43c d83e 34bc 4002 bd3d
000001d0: f799 0abd be63 b2bc f633 9dbd dd2a 50bd
000001e0: 7ab3 c13d b8a9 a33c 46d2 ddbd 39f4 79bd
000001f0: 4650 213b d3fb 973d a7f7 b53d 44b5 883d
00000200: 0079 043b 34fc 06bd fb23 0f3d ad79 49bd
00000210: f71e 94bc ea90 01bd 9db6 adbd aafd c23d
00000220: 0b02 0cbd 1754 82bd ece9 4b3d f4a3 83bd
00000230: a1d6 933a 2d04 7bbd b4d4 773d bd90 8a3c
00000240: fd64 29bd e6e5 bfbc 5417 e0bd c83a d9bd
00000250: bfba 4e3d bebd 1d3d dab5 323d 5c78 8fbd
00000260: 6463 643d 4259 053d 3281 9abd 527f a1bd
00000270: 3751 9ebb c93c 4b3e 1f27 a93b b68e 98bd
00000280: fc62 50bd 3273 7e3c f487 963d 56f8 9cbd
00000290: 8432 0dbc 3e5e 573d 4729 153d 7a35 453d
000002a0: 49c0 4dbc b983 863d 8487 abbd b7ed 903d
000002b0: cdfc b3bc 41eb c8bd 42d4 9ebd 2ec5 ccbd
000002c0: 0cbc 983b 3d38 6e3d b378 f93d 4f98 d13d
000002d0: 2ef0 693c 6592 f43c 62c5 debd 7df2 8a3d
000002e0: db62 a33d b5ac d63d 37b9 033d 4447 243d
000002f0: 27cb 04be 353c 2abc 86c6 ea3d 6036 68bd
-0.14855579 -0.34499526 -0.06721641 0.07635658 0.06885465 -0.02828152 0.13810065 0.16593613
-0.051528968 -0.1490829 0.07787655 -0.08358967 -0.0060264184 -0.1744808 0.2126669 -0.17412363
0.040681314 -0.04242943 0.03800478 0.047074884 0.0971853 0.04933554 -0.13846017 0.18259804
-0.056364756 -0.10089262 0.016125653 0.023422169 0.09837458 0.16466112 0.08995658 -0.19415365
-0.090126626 0.1262911 0.012613006 -0.020472864 -0.10986562 0.073063195 0.03465671 -0.16181909
0.12632295 -0.0806446 0.18965232 -0.14767289 -0.14436644 -0.19797096 0.0883942 0.09612714
0.08633543 0.030864293 0.0038261546 0.12791225 0.018735278 -0.33021048 -0.06378718 0.03786157
-0.060878083 -0.040100317 0.10345947 0.046366423 -0.26280582 0.15513806 -0.111559704 0.015455366
0.09047829 0.08161652 0.052670337 0.080577835 0.04754782 -0.09149275 -0.054330483 0.0122212125
0.09227432 -0.09963843 0.00883113 -0.029418258 -0.09126167 -0.013749808 -0.08892175 0.054046452
-0.02834963 0.0042114677 -0.13043979 -0.032722633 -0.033027045 0.031581137 -0.044846714 0.093039
-0.031305775 -0.009848283 0.06273277 -0.07413089 0.10398804 -0.027208727 0.09473725 0.112119906
0.010284107 0.06549397 -0.027328461 -0.072255895 -0.09285047 0.107723296 -0.024110233 0.082953535
0.03026148 -0.065658614 0.038802247 -0.10468072 -0.08206756 0.008031964 0.08186491 0.103393435
-0.012372335 0.023969775 -0.011001311 0.09228945 -0.03383824 -0.021776076 -0.076759264 -0.050822128
0.094580606 0.01997839 -0.10831122 -0.061023924 0.0024614497 0.074210785 0.088851266 0.06675199
0.0020213723 -0.032955363 0.034946423 -0.049188305 -0.018081171 -0.03163234 -0.08482096 0.09521039
-0.034181636 -0.06363695 0.049783632 -0.06427756 0.0011279174 -0.06128328 0.060505584 0.01691472
-0.041356076 -0.023425054 -0.109419495 -0.10606915 0.050471064 0.03851103 0.04363046 -0.070053786
0.05575885 0.032555826 -0.07544173 -0.078856125 -0.004831459 0.19847406 0.0051621343 -0.07449095
-0.05087565 0.015530394 0.0735015 -0.07664554 -0.008618001 0.05258011 0.03641632 0.048146702
-0.012558051 0.06568093 -0.08375457 0.070765905 -0.02197113 -0.09810496 -0.07755329 -0.099985465
0.004661089 0.0581591 0.12181225 0.10234129 0.014278455 0.029854963 -0.108774915 0.06784532
0.079778396 0.1048216 0.032159057 0.040107027 -0.12968121 -0.010390331 0.114636466 -0.05669248

blocks.0.attn.proj.weight f4 [64, 64]
00000000: e0b9 73bd 4146 e5bd b50c ed3d 8afa b03d
00000010: d5a7 303c b734 953d e23e 69bd 87bd edbd
00000020: fb79 58bd 535e 0b3e cefd 9c3c 7f91 863d
00000030: 5ad6 d53d aa6f 99bc 359a 0a3e 3570 da3d
00000040: 6d79 b6bd 6693 70bd b3fe 22bd 3be1 8fbd
00000050: 4eef 4e3d 3201 1b3c 904b ac3d a355 22be
00000060: dece fe3d 766b acbc 47cc 25be 1142 eebd
00000070: 8e9a 343d a41c 30be d585 a6bd e5f6 9cbd
00000080: ebc1 073d 0b22 c3bd 92ac 863d 7115 08be
00000090: 0672 83bc e326 10be 39ce 9dbd dc38 f73c
000000a0: 087d b23d af03 58bd 90d7 18bd 6852 473d
000000b0: 282e 933d df1e c9bd 942a 743d da24 bb3d
000000c0: 0b6b 333e 7844 f83d be33 07bd ea99 0e3d
000000d0: 2689 2abd 7f3f 73bb 0d25 333d 311d a23d
000000e0: a6e4 6bbc 102a 03be 874d c73d 028c 97bd
000000f0: f93d 433e 0643 073d 2e72 b3bd ab38 dbbd
00000100: c1f4 1a3d d1a6 eabd 078b a1bd c840 eebc
00000110: 606b 27bc cfaf 11bd 520c cebb c06e ac3d
00000120: cfc6 433e 0b0b c9bd 885e fc3d 298f 893d
00000130: 2728 b23d 74ca 2fbc 5c1f 4abe 9293 e13d
00000140: e66f 2cbd c07f 7dbd f923 91bb f72a e1bd
00000150: 2c0f 0f3d ff01 9d3d d666 21be 33d9 063e
00000160: c66d 5bbd b8a7 733d 8c56 8f3d c269 013c
00000170: 5f10 b3bc c4a3 a8bd b186 42bc 9c47 1bbe
00000180: cd48 a7bd 47bd 9c3d d40b 193e b858 ad3d
00000190: 9ed4 9639 3e2d a43e c134 063d 46d9 a4bc
000001a0: 089e 1dbe 8c08 203d 57d2 423e 9274 8bbd
000001b0: 4907 3c3d 9907 273e 9030 6d3d a9df 003e
000001c0: 6458 4fbe 9904 b03c 2b81 ed3d 4a34 9d3d
000001d0: 3e4c db3d bd4a b93d dd63 4bbd c679 5f3d
000001e0: 2794 c3bc e729 2ebd a89a 2fbe 3756 80bd
000001f0: 4638 b9ba 1c56 ec3c b6e0 693d fc7e b93d
00000200: 1482 343c 2722 0b3e 9aa9 cdbc 8ace 94bd
00000210: 6eca d13d ed86 e6bc abba 52bd 851b 27bd
00000220: e45d a9bd a15e 123d 52ed 233e 834e 1abe
00000230: 1fa9 96bc 7e7a f33d 33f2 27be dbf2 29bb
00000240: 4ad2 07be 9c58 1b3e 072f b63d e0fa ebbd
00000250: 4e2f 5a3d c087 ccbd 07b2 4ebd 2d2c 993c
00000260: c824 083e 9cde ac3c 6238 83bd 40b0 803c
00000270: b230 1f3b 10f0 fcbc 4d5b 44bb 491c 96bc
00000280: 8cdb 703e 9d5a e1bd c743 df3d 45d8 a2bd
00000290: 7625 3dbe fb03 063e 3781 3ebe b001 463e
000002a0: fd62 1e3d 8125 9cbd 5969 0ebc 9c68 e2bd
000002b0: 694f 0c3e e6da 953d 994d 233d 7501 57be
000002c0: 2fbd 39be b51d 4abd 64c9 0d3e 5630 10bd
000002d0: bdbb c83d 6dbb 29bd 9f1d adbc 815f 17be
000002e0: 5b9e f5bd 19a3 39bd 2f9d 03bd 85a1 39bd
000002f0: a6bf 1f3d 9cbf 39be a89c 1dbd 0dd5 2fbd
00000300: 20cd c2bd 5802 4c3e f7ec 03be 8229 8b3d
00000310: 1961 01be 50ae 1d3d 3ddf 263d 45c6 003e
00000320: a1ed 773d ea2a 06bc c564 b63d f8a6 65bd
00000330: c8a7 9d3d 7129 8c3d e622 58bc 5558 b83d
00000340: 26d9 c5bd 0602 0cbd 603f 0e3e a5ed ef3d
00000350: 2b91 80bd a2dc 1e3d 1440 f6bd 0e13 953d
00000360: 075c 42bd 441c c93c 7edb 8a3d 24c5 383e
00000370: 6b88 91bc 49cb 4b3d d368 e23d e3ee cb3d
00000380: 0c98 6ebc b951 abbc d388 c6bd 4960 7fbd
00000390: b658 063e a8bf 8f3d 7e53 943d c0b9 32bd
000003a0: 0fd7 0dbd f1ee 52bd 1315 273d c858 293b
000003b0: 30c9 dbbd 100a 843d 83a7 e43b e306 8a3d
000003c0: 96be 0a3e 644c 923d 65b8 23bd df5d 463d
000003d0: 223d 69be 6521 153e 54a6 19be b42b 43be
000003e0: 86e7 ecbb 5910 e4bd 95c8 81bc e81e 253e
000003f0: e04a 413d 512a d1bd 3419 1abe 937f 25be
-0.059503436 -0.111950405 0.11574689 0.086415365 0.010782202 0.07285445 -0.056944735 -0.11608415
-0.052850705 0.136102 0.019163992 0.0657072 0.10441275 -0.018730003 0.13535388 0.10665933
-0.08909879 -0.05873432 -0.03979368 -0.07025381 0.050521187 0.009460734 0.0841285 -0.1585298
0.124418005 -0.021047335 -0.16191207 -0.11633695 0.044092707 -0.17198426 -0.08130995 -0.07664279
0.03314392 -0.095279776 0.06575884 -0.13289429 -0.016045582 -0.14077334 -0.077053495 0.03017848
0.08715254 -0.052737888 -0.03731495 0.048662573 0.07186538 -0.09820341 0.05961092 0.09137888
0.17521302 0.121224344 -0.03300833 0.034814753 -0.0416347 -0.0037116704 0.043736506 0.07915724
-0.014397776 -0.12809014 0.09731584 -0.07399751 0.1906661 0.033022903 -0.087620124 -0.10704168
0.03783107 -0.11457599 -0.078878455 -0.029083624 -0.010218471 -0.035568055 -0.00628809 0.084195614
0.19118808 -0.098165594 0.12322718 0.06716759 0.08699065 -0.010729421 -0.19738525 0.11014475
-0.042098902 -0.06188941 -0.004429337 -0.10994523 0.03492658 0.07666396 -0.15761885 0.13168792
-0.053571485 0.05948612 0.069989294 0.00789875 -0.021858392 -0.08234361 -0.011872933 -0.15164036
-0.081681825 0.07653289 0.14945918 0.084641874 0.00028768642 0.32065767 0.032765154 -0.020123135
-0.15392315 0.03907065 0.19025551 -0.068093434 0.045905385 0.16311492 0.05790764 0.1258532
-0.20248562 0.021486567 0.115969025 0.07675989 0.107079014 0.09047458 -0.049655784 0.05455949
-0.023874355 -0.04252043 -0.1714884 -0.06266444 -0.0014131151 0.028849654 0.057099067 0.090574235
0.011017341 0.13587247 -0.025105286 -0.07265957 0.102436885 -0.02814051 -0.05144755 -0.04079773
-0.08269861 0.035734776 0.160085 -0.15069012 -0.01839119 0.11888598 -0.16400985 -0.0025932107
-0.13263813 0.1517052 0.088956885 -0.1152246 0.05326777 -0.0998683 -0.05046275 0.018697822
0.13295281 0.021102242 -0.064072385 0.015709043 0.00242905 -0.03087619 -0.0029961646 -0.018324034
0.2352125 -0.11003611 0.109015994 -0.079514064 -0.18471321 0.13087456 -0.18603979 0.19336581
0.03866862 -0.07624341 -0.008692109 -0.11055109 0.13702168 0.07317142 0.039868925 -0.2099665
-0.18138574 -0.049344737 0.13846356 -0.035202347 0.09801433 -0.04143851 -0.021132289 -0.14782526
-0.119930945 -0.045321558 -0.032132324 -0.045320053 0.03900113 -0.181395 -0.038479477 -0.04292779
-0.09511781 0.19922769 -0.12883364 0.06795026 -0.12634696 0.038496315 0.04074024 0.12575634
0.060529355 -0.008188942 0.08905939 -0.056067437 0.07698017 0.06843842 -0.013191914 0.09001223
-0.096605584 -0.034181617 0.13891363 0.11715249 -0.062776886 0.03878463 -0.12023941 0.07279025
-0.047451045 0.02454961 0.06780146 0.18043953 -0.017765244 0.049754415 0.1105515 0.099576734
-0.014562618 -0.020912992 -0.09694066 -0.062347684 0.13119778 0.070189774 0.07242487 -0.043634176
-0.034628924 -0.051497404 0.040791582 0.0025840271 -0.10731733 0.06447232 0.0069779768 0.06739595
0.13549265 0.071434766 -0.039970774 0.048429366 -0.22777227 0.1456352 -0.15004855 -0.1905964
-0.007229748 -0.111359306 -0.015842715 0.16125071 0.047190547 -0.10213149 -0.15048677 -0.16161947

blocks.0.attn.proj.bias f4 [64]
00000000: 2ac2 30be 460d 823d ca05 4cbd 9a48 0ebc
00000010: 81be 46bd 5936 b9bb f7a8 cd3d bbc0 85bd
00000020: 33e7 84bc b7f3 0a3e ab80 f63c 6eb0 873d
00000030: 1721 213d 59d2 093d ba90 47bc 7390 2abd
00000040: b5ef 93bd da92 29be 8358 5d3c e7e4 39bb
00000050: 1aec 9dbd 5e36 ed3d ef1c 15bc 0930 183d
00000060: e965 c73d a84f 00bd 1570 ffbc 3f74 05bd
00000070: 0ff8 8d3c 22ea ff3d 35f9 b53d a9db 23bb
00000080: d4da 20be 77a4 2e3d 38ce dbbd f2ed 17be
00000090: 598e 99bd 0569 04be a676 ac3d d81b 40bc
000000a0: e28a d03d 60f8 8e3d 7f79 ff3d 7b5f a8bd
000000b0: 3bc5 363d 8a66 e3bd 2349 92bb 9428 013d
000000c0: 9dcf 033c 448a 863b 3694 c73d 4628 a6bd
000000d0: afb4 64bd 3a30 60bd f057 76bc 4999 b93d
000000e0: 201b ba3b e70d df3d e16d f1bd a446 b43d
000000f0: 77d3 db3c d8b1 c7bd 97c4 dd3c e4fa 193d
-0.17261568 0.06350188 -0.04981021 -0.008684302 -0.048521522 -0.0056522307 0.10041993 -0.06530901
-0.016223526 0.13569532 0.03009065 0.06625448 0.039338198 0.03364787 -0.012180502 -0.041641664
-0.07223455 -0.16559926 0.013509872 -0.0028365196 -0.077110484 0.11582635 -0.009101137 0.037155185
0.09736235 -0.031325966 -0.031181375 -0.032581564 0.017330198 0.12495829 0.08885423 -0.0025002754
-0.15708476 0.042637315 -0.107326925 -0.14836863 -0.07497854 -0.12930687 0.08421068 -0.0117253885
0.1018274 0.069809675 0.124743454 -0.082213365 0.044621687 -0.11103542 -0.004464285 0.03153284
0.008045104 0.004105838 0.09745066 -0.0811315 -0.055836376 -0.054733492 -0.015035614 0.0906244
0.005679503 0.108913235 -0.11788536 0.08802536 0.026834233 -0.09750718 0.02707128 0.037592784

blocks.0.norm2.weight f4 [64]
00000000: 9b75 863f 7282 913f 9ac2 843f 625b 673f
00000010: 3b9d 853f 87c2 563f ed7f 713f 8d91 743f
00000020: 31a7 823f b924 843f ff38 893f 6c78 633f
00000030: 389f 8c3f 484f 853f 4f27 743f b889 863f
00000040: 97fb 7e3f 49ee 5e3f 755f 7c3f 2b6d 923f
00000050: e0df 893f ab83 913f baf7 883f f0db 6c3f
00000060: d132 843f 3780 763f 9ba7 853f 50ce 3c3f
00000070: 8450 6c3f 1818 773f 73c7 863f 6fcc 7d3f
00000080: 7958 853f d8f1 7e3f 255a 803f bb9b 963f
00000090: c44a 883f 0f39 463f eb86 883f 0fb1 5c3f
000000a0: 21f5 863f a7d1 663f 70c4 7e3f fc4e 7f3f
000000b0: 6705 963f 5ac0 773f 3988 883f b22d 843f
000000c0: 34e4 783f 62ff 7f3f 7e16 653f 2258 843f
000000d0: 4dd5 993f d165 8b3f b4a3 7c3f c47e 883f
000000e0: a01a 8e3f 232a 8a3f c94e 883f a2f2 693f
000000f0: 8574 853f 005f 6c3f cb47 713f bf8c 603f
1.050464 1.1367934 1.0371888 0.90373814 1.0438608 0.83890575 0.94335824 0.9553459
1.0207273 1.0323707 1.0720519 0.88855624 1.098609 1.041482 0.9537248 1.0510778
0.99602646 0.87082344 0.98583156 1.1439565 1.0771446 1.1368307 1.07006 0.925231
1.0328008 0.9628939 1.0441774 0.7375231 0.9231036 0.9652114 1.0529617 0.99140066
1.0417625 0.99587774 1.002751 1.1766275 1.0647817 0.77430815 1.0666174 0.8620767
1.0543557 0.90163654 0.9951849 0.99729896 1.1720399 0.9677788 1.0666572 1.0326445
0.9722321 0.9999906 0.89487445 1.0339396 1.2018219 1.0890447 0.9868729 1.0663686
1.1101875 1.0794109 1.0649043 0.91385853 1.0426184 0.9233246 0.9425017 0.8771476

blocks.0.norm2.bias f4 [64]
00000000: 4ea0 563d d54d abbd 37e7 84bd deee 74bc
00000010: 8ecf 58bd da65 c93c be7b e53d 1d7e 403e
00000020: 5482 a2bd ae23 013e 74ca 0fbb e40e 68bd
00000030: 3891 a83d 3e67 2f3d e5f9 0b3e 2b51 15bd
00000040: 9cd4 8e3b 84a3 11bd ed0a e5bd f864 213e
00000050: 9174 81bd 5f8c 8fbb 464e 593d 751a 25be
00000060: 7627 ec3c ad02 07bd f9e8 f13c cebf 33bd
00000070: 9dfb 19be b881 01bd e8ed 3f3e 7151 663d
00000080: fc58 3cbe b31e 923d 0bc4 56bc 7594 0b3d
00000090: 35b6 b03b 85d1 11be 3064 9a3b 8069 3b3b
000000a0: dac7 cb3c 1474 0d3d ae4a 6d3d c6d5 403e
000000b0: d2a5 97bc a97b 163d 3c9a 5dbb 597b ef3d
000000c0: a303 923d f735 ffbc 4107 46bc 3b59 ef3c
000000d0: f83d 39be 8b5f 61bd 7306 f7bd 4dfc ae3d
000000e0: d162 923d 27c6 a23c 0432 ffbd d09d 433d
000000f0: 86ed f33a 6923 bbbc 6836 de3d bf73 6cbc
0.052398972 -0.08364455 -0.06489413 -0.0149495285 -0.052932315 0.0245847 0.112052426 0.18798108
-0.07935014 0.12611267 -0.002194074 -0.056654826 0.08230823 0.04282307 0.13669546 -0.03645436
0.004358841 -0.03555633 -0.111837246 0.15761173 -0.063210614 -0.004380747 0.053053163 -0.16123374
0.02882741 -0.032961536 0.029530035 -0.04388409 -0.15037389 -0.03161785 0.18743098 0.056230012
-0.1839332 0.07134762 -0.013108264 0.034077127 0.0053928145 -0.14240082 0.0047116503 0.0028596818
0.02487557 0.03453453 0.05793255 0.18831548 -0.018511686 0.036739025 -0.0033813855 0.116934486
0.071296 -0.031153662 -0.01208669 0.029217353 -0.18090045 -0.055022758 -0.12061777 0.08544216
0.07147754 0.019869877 -0.124607116 0.047757924 0.0018610216 -0.022844033 0.10850221 -0.014431893

blocks.0.ffn.net.0.weight f4 [128, 64]
00000000: 4dec fbbd 038d 813c 38f2 2c3e 5b7a a5bd
00000010: 5a65 913d 975b e53c 4fe7 04bc 65d1 6bbd
00000020: 86e8 cb3c 05b5 083e b44c e93d e5d3 8539
00000030: 05fc 94bd b446 50bc fbfa d63d 6c48 1ebe
00000040: c7c8 b9bd 0ae6 1dbe b222 0c3d d1f4 28bd
00000050: 0b18 2b3e 3d4e 89bd 2cb8 953c 361b d4bd
00000060: 8f5c bc3d 2a24 85bd fdcd 573d 903d dcbd
00000070: 2592 c23d a6fc e93d 7525 3dbe ad92 27be
00000080: 8b75 0f3e dd98 093e 3185 423e 0074 1dbe
00000090: 961d 063e 4a50 68bd 6e49 db3c 9c4d 083e
000000a0: 9666 c63c 5780 bdbc 0509 173e 95fc eebd
000000b0: 8e2b 71bd 0099 b53d 57fa 30bd fa44 4dbe
000000c0: 9137 88bd b4cc bdbd 55c9 153e b3df 133e
000000d0: 1a34 49bb 6c51 ecbc 0684 883e ac4d 8cbe
000000e0: b839 cbbc 5227 1a3e d61a 3b3d b374 a73d
000000f0: fee6 e13b 11fe 843d 9086 d1bd 5494 73bd
00000100: 7bc4 433d 6bc2 813c d930 1a3e b39c cebd
00000110: 591d 02bd f6ee cbbd 1b07 a53c a330 803c
00000120: 1072 12be 4522 513e eabc 223e ac1e 18bd
00000130: e9ad 403b 6609 18be f978 f1bc b3ad 023e
00000140: 3e1a c4bc b500 9fbd 4a1c 693d 39d5 7c3d
00000150: ce3a 3e3e dd54 0a3e 8173 d63d 731c afbd
00000160: eb9c 1fbe 980a 94bc 74f6 28bd e5ae 0a3e
00000170: f7fd 503d a4cd e2bc bd3b 84be 0423 b2bd
00000180: cf43 c13c 7a6b 64bd 4a78 0e3b cb8d 033e
00000190: 284e 81bd b044 8e3c f1c0 5abe 1cd5 143d
000001a0: b679 0cbe 02b8 323b 5c2d a93d 32f4 ad3d
000001b0: ee87 c1bd a73a 85bb 9661 193e 65d0 13bd
000001c0: e2b4 663d d7bc 323c 0b29 283e 6717 213e
000001d0: fe2e 12be 0794 9e3e c0ac 43bc 4402 52bc
000001e0: eadf 213e 8ddd 07be 7886 c3bd 54ef 8fbc
000001f0: 9511 23be b87a a03d 93ee 01bd 2cd7 5b3e
00000200: 9bc8 9dbd 6535 913e dd7c 3b3e 1829 633e
00000210: 9da6 3abe 1a03 3abd 41ad cb3b 10f7 313c
00000220: 1ba4 ccbd 3fd9 d13d 7bce 35be a313 0f3e
00000230: 2f35 01be 64fa 1cbe c111 64be 27e1 71bd
00000240: 7d69 09be 48ea fd3d a8cc e73d a1f5 1f3e
00000250: 280e 4a3e ffa6 b73d f4d9 fdbd e46d 083e
00000260: c945 4a3d d833 f43d 2164 18bd 6980 023d
00000270: 67d0 053e 8e04 353e 7fbd 44be f9d9 e5bc
00000280: 2dbd 1bbe e839 22be 28c2 14bc 4a10 28be
00000290: 549c fbbd 813f 813d 4b6d 03bb 4cba 17be
000002a0: c0bd 57be bfa9 15be 58ce c43d 2e99 973d
000002b0: 1268 423d 62d3 f03d 1e1b fc3d ec12 d73d
000002c0: b18a 3bbd cdb5 88bd 5673 ec3d e5b0 a03d
000002d0: 5e0d fd3d e9e7 8d3c 4c8a 4ebd b718 853d
000002e0: 58db 4f3d 2a98 c9bd 8da7 253e ea0d 02be
000002f0: 9b37 2ebe 1d74 d7bd b5a2 99bd 1597 043e
00000300: 3a9b aa3d bf6b a03d a0cd 93bd 733f 23bb
00000310: 30a3 5d3e 35e7 e0ba 75bf 0abd de6c 293e
00000320: 056f 493e 254c 003e c9bd 683d ea2b 333d
00000330: f7d7 d63d 0f76 2d3d 960f b43d de35 3abe
00000340: 084a 563d 5b20 7cbd 38e0 a73d 6eeb afbe
00000350: 381b e73d a501 0d3e 688a 8ebb ce48 c5bd
00000360: a677 27be ac6a 9dbd fe3c bdbd cbec 78bd
00000370: 0216 293d 5853 7f3d cba4 8d3c 4eed 17bd
00000380: 407e 3a3e 18a0 55be 47a4 9e3d 42c6 9c3e
00000390: 15cf 473d e957 5e3d 5d63 2f3e f4f1 9dbd
000003a0: e590 cbbd 1351 f2bd 9219 fd38 a182 973d
000003b0: b208 adbe ca7b 1a3e 6ed0 92bd 65a1 c73d
000003c0: 9be1 8f3d eb90 5abd 445f 17bb 72d9 813d
000003d0: 2595 863e 6723 823d e132 0fbe 7c54 c73d
000003e0: 7ff3 8b3d f3aa dcbd d10f 813d 0a99 ac3c
000003f0: 8131 2abd e52d 873b 1812 9dbd a2e3 323d
-0.1230093 0.01581431 0.16889274 -0.08079978 0.070994094 0.027997775 -0.008111789 -0.05757274
0.02489115 0.13350303 0.11391583 0.0002552561 -0.072746314 -0.012712169 0.104970895 -0.15457314
-0.09071498 -0.15419784 0.034212776 -0.0412491 0.1670839 -0.06704376 0.018276297 -0.103567526
0.09197342 -0.06501038 0.05268668 -0.107539296 0.09500531 0.11425142 -0.1847132 -0.16364546
0.14009683 0.13437219 0.18996121 -0.15376282 0.13097224 -0.056717195 0.026768412 0.13310856
0.024218839 -0.023132486 0.14749534 -0.1166927 -0.058879428 0.08867073 -0.043207493 -0.20045844
-0.066512235 -0.0926756 0.14627583 0.14440803 -0.003070122 -0.028847419 0.26663226 -0.2740301
-0.024807796 0.15054062 0.04567989 0.081765555 0.0068939915 0.06493772 -0.10230744 -0.05946763
0.0477948 0.015839776 0.15057696 -0.10088482 -0.03176627 -0.099576876 0.02014499 0.015648192
-0.14301324 0.20423229 0.15892377 -0.037138626 0.0029400534 -0.14847335 -0.02947663 0.12761573
-0.023938295 -0.07763807 0.056911744 0.061726782 0.1857712 0.13508935 0.10471249 -0.08550348
-0.15587203 -0.018071458 -0.04125066 0.1354328 0.05102345 -0.027685948 -0.25826827 -0.08698085
0.023591904 -0.05576656 0.0021739178 0.12847058 -0.06313735 0.017366737 -0.21362664 0.03633605
-0.13718304 0.0027270322 0.08260605 0.08493842 -0.09449755 -0.00406583 0.14978632 -0.036087412
0.056324847 0.010909281 0.16421907 0.15731584 -0.14275739 0.3097231 -0.011943042 -0.012817923
0.15808073 -0.13268109 -0.09547132 -0.017570175 -0.15924676 0.07835907 -0.031721663 0.214688
-0.07704278 0.2836105 0.1830935 0.22183645 -0.1822762 -0.045413114 0.006215722 0.010862127
-0.09992238 0.102465145 -0.17754547 0.13972335 -0.12617944 -0.15329891 -0.22272398 -0.059052613
-0.13419147 0.12398201 0.11318332 0.15621044 0.19731963 0.08967399 -0.12395087 0.1332317
0.04938296 0.11923951 -0.037204865 0.031860743 0.1306778 0.17677519 -0.19212912 -0.028058039
-0.15208884 -0.15842402 -0.009079494 -0.16412464 -0.122856766 0.063109405 -0.0020054157 -0.1481716
-0.21068478 -0.14615534 0.096096694 0.074022636 0.04746253 0.11759068 0.1230986 0.10501656
-0.045786563 -0.06675301 0.11545436 0.0784624 0.12356065 0.017322497 -0.05042486 0.064988546
0.050746292 -0.09843476 0.16177197 -0.1270062 -0.170134 -0.10520194 -0.07501737 0.12948258
0.08330388 0.07833051 -0.07216954 -0.0024909645 0.21644282 -0.0017158749 -0.033873994 0.16545436
0.19671257 0.12529047 0.05682162 0.04374305 0.10490411 0.042348918 0.08792035 -0.18184611
0.052316695 -0.061554294 0.08197063 -0.34359306 0.112844884 0.13770159 -0.0043499954 -0.09633027
-0.16354236 -0.07686362 -0.09240149 -0.0607727 0.041280754 0.062335342 0.017290493 -0.037091546
0.18212223 -0.20861852 0.07746177 0.3062001 0.048781473 0.054283056 0.17127748 -0.077121645
-0.09939746 -0.1183187 0.00012068743 0.07397962 -0.33795696 0.15086284 -0.07168661 0.097475804
0.07025453 -0.05336086 -0.0023097554 0.063403025 0.26285663 0.06354409 -0.13984253 0.09732911
0.068335526 -0.107747935 0.06301845 0.021069068 -0.041551117 0.004125344 -0.07669467 0.04367412

blocks.0.ffn.net.0.bias f4 [128]
00000000: 2cf6 46bd 351a 40bd 154b c7bd d0e6 32be
00000010: dfc0 06be 5045 a5bd 9662 a63c 1149 29be
00000020: aaa8 8dbd 9b3a 7bbd 715e 4bbc 3b25 21be
00000030: c416 77bd 3608 dabd dccb 39bc 1e67 38bd
00000040: e1dd c7bd e190 ffbd 48d1 adbd 4346 1fbe
00000050: ca8a 9bbc dc4d 47be 3685 96bc ad42 263c
00000060: 0876 b2bd 7b4a 8ebb c422 a4bb 8e96 3dbe
00000070: 9ce5 98bd f657 53bd f7b8 69be a235 e9bd
00000080: 936e 17be e127 14be 0e5b 18bd d224 08be
00000090: dc54 77be ee70 c4bc 6f74 b3bc 8a49 5fbe
000000a0: 0a61 c63c a879 21bd 2c8d df3c b014 a5b7
000000b0: 318a 23bd 26e2 24be 551f b23c e9d8 ecbd
000000c0: 94c1 0fbd 3a40 2ebe 1a8f dabd 45c6 48be
000000d0: e758 03be a4ee 36be 11bb 17bd 3589 f93c
000000e0: ca49 73be 335e 4dbe 483b 21be 5c0d 2dbe
000000f0: 86b1 2bbe b567 4cbe 8a34 09be d359 09be
00000100: ab69 d5bd f1ea 00be 55d5 493c 26af 9dbd
00000110: 7a65 51be 91f6 afbd 0409 0ebe 2bb6 f5bd
00000120: 370b 05bd 961f 68bd e832 12be 9ab0 31be
00000130: 19c0 60be 7a7a 1cbe 3040 01be 3ca7 15be
00000140: 3936 7abe d44a 33be 083a c83d e415 ecbd
00000150: c411 0abe 5536 e3bd e4e7 e9bc 86d0 16be
00000160: 7e15 05bd 928c 72be 895c 39be 20e4 aabd
00000170: aa7c 30be 8a6d 48bd b922 38be 1f9e 2abe
00000180: 76c1 1cbe 4663 56be 506d dabd cba9 76bd
00000190: 23dc 13be e79e 45bd 0125 d3bd 80e7 543b
000001a0: 177f 15be ad65 0abe 5536 c0bd dd8d 3fbe
000001b0: 1a2e a9bd 9cd6 46bd 0776 29be dcf1 70be
000001c0: ebbf 55be 8b26 50be 1cda 3bbe 5532 cebd
000001d0: d776 c6bd 6e99 5fbd 8c06 39bd 2cd2 1fbe
000001e0: 4186 37ba bb02 dfbd 3619 a0bd 60c2 00be
000001f0: 9a02 b1bd 335f 21be 1f7f aebd 7afb 15be
-0.04857461 -0.046899993 -0.09731118 -0.1747086 -0.13159512 -0.08069861 0.020310681 -0.16531779
-0.06916936 -0.061335187 -0.012412653 -0.15736859 -0.060324445 -0.10646097 -0.011340108 -0.045020215
-0.09759117 -0.12478805 -0.08487183 -0.15554146 -0.018987078 -0.19463295 -0.018374067 0.010147733
-0.08713919 -0.004342375 -0.005009027 -0.18514463 -0.074656695 -0.051597558 -0.22824465 -0.11387183
-0.14788274 -0.14468338 -0.03719621 -0.13295296 -0.24153465 -0.02397963 -0.021906106 -0.21805397
0.024216194 -0.03942266 0.027288996 -1.9679166e-05 -0.03992671 -0.16101894 0.021743456 -0.1156481
-0.03509672 -0.17016688 -0.10671826 -0.19606884 -0.12826882 -0.17864472 -0.037043635 0.030460933
-0.23758617 -0.20055465 -0.1574527 -0.16899627 -0.16766939 -0.19961436 -0.13398948 -0.13413171
-0.10420545 -0.12589623 0.012318929 -0.076994225 -0.20448866 -0.08591951 -0.13870627 -0.119976364
-0.0324814 -0.056670748 -0.14277232 -0.17352524 -0.2194828 -0.15281096 -0.12622142 -0.14614576
-0.24434747 -0.17509013 0.097766936 -0.11527613 -0.1348334 -0.110943474 -0.028552957 -0.14727983
-0.0324912 -0.23686436 -0.18101706 -0.08344293 -0.17235056 -0.04893259 -0.17981996 -0.16661881
-0.15308174 -0.20936307 -0.10665381 -0.06022052 -0.14439444 -0.048247244 -0.10309792 0.0032486618
-0.14599262 -0.13515349 -0.09385363 -0.1870646 -0.08260746 -0.04854451 -0.1654893 -0.23529762
-0.20873992 -0.20327203 -0.18344921 -0.10068194 -0.09690636 -0.05458968 -0.04517226 -0.15607518
-0.00070009014 -0.10889193 -0.078173086 -0.12574148 -0.08643074 -0.15758972 -0.0852034 -0.14646712
