new experiments/Transformer results on MNIST/checkpoints_mnist_transformer/transformer_mnist_epoch_1.pth (torch, 300463 bytes, 32 tensors)

cls_token f4 [1, 1, 64]
0	0x3e8af139	0.27137163
1	0x3d941c37	0.07231944
2	0xbf01a9f7	-0.5064997
3	0xbf964362	-1.1739314
4	0xbf886589	-1.0655986
5	0xbfc56fc3	-1.5424732
6	0x3f56ff37	0.83983177
7	0x3f77409a	0.9658295
8	0xbef219e8	-0.4728539
9	0xbdff4e8d	-0.12466154
10	0xbf315d03	-0.6928255
11	0xbd8f1e00	-0.06988144
12	0x3f474307	0.7783665
13	0x3f763bd0	0.96185017
14	0xbe865e29	-0.26243713
15	0x3c32c8ed	0.010912162
16	0x3de6dd08	0.11272627
17	0xbf881744	-1.06321
18	0xbf6ee240	-0.9331398
19	0x3dd5d722	0.10441424
20	0xbffd91a2	-1.9810069
21	0x3ebac405	0.36477676
22	0xbf495c56	-0.7865652
23	0x3c70996a	0.014685014
24	0xbeaaffbc	-0.33398235
25	0x3da360f8	0.0797748
26	0xbf8847ed	-1.064695
27	0x3fe665fe	1.7999876
28	0x3f533c05	0.8251346
29	0xbe24fe7a	-0.161127
30	0xbecb8a8c	-0.3975414
31	0x3efccafc	0.49373615
32	0xbb2e5156	-0.0026598773
33	0xbf617ec9	-0.88084084
34	0xbf7f7794	-0.99791837
35	0xbd7f7f27	-0.06237712
36	0xbefe11f6	-0.49623078
37	0xc0085b21	-2.130562
38	0x3f263020	0.6491718
39	0xbf3a7a21	-0.72842604
40	0xbecffc6c	-0.4062227
41	0x3f3f2c26	0.7467674
42	0x3fb07816	1.3786647
43	0x3ef666d8	0.4812534
44	0xbf199fe2	-0.60009587
45	0x3b320478	0.0027163308
46	0xbf283fb4	-0.65722203
47	0xbf1dbca5	-0.61615974
48	0x3f459981	0.77187353
49	0xbfac55d6	-1.3463695
50	0xbea2282f	-0.31671283
51	0x3ee999a6	0.45625037
52	0xbe461f25	-0.19347818
53	0xbf0ae509	-0.5425573
54	0x3d9b2fae	0.075774536
55	0x3e6b5569	0.229818
56	0xbf86f16b	-1.0542425
57	0x3f80d4e1	1.0064965
58	0xbf0d37d0	-0.5516329
59	0xbf1eb455	-0.61993915
60	0x3e8084c2	0.25101286
61	0x3ebf1583	0.373211
62	0x3f046f3d	0.51732236
63	0xbf6328f2	-0.8873435

pos_embed f4 [1, 50, 64]
0	0xbed0a4de	-0.40750784
1	0x3d5b3d29	0.053525124
2	0x3f723934	0.94618535
3	0xbf0ae670	-0.5425787
4	0xbebe4c4a	-0.3716758
5	0xbfc618b2	-1.5476286
6	0x40059569	2.0872443
7	0x3e3ccf46	0.18438444
8	0xbe54daaa	-0.20786539
9	0xbfe1b895	-1.7634455
10	0x3c5ef49d	0.013608125
11	0xbfc95603	-1.5729374
12	0xbf683975	-0.9071267
13	0x3f61ca27	0.88199085
14	0x3fcdcdda	1.6078446
15	0x3f6a2218	0.9145827
16	0xbe5c1a12	-0.2149432
17	0x3f0f2b6a	0.5592562
18	0x3ef25120	0.47327518
19	0x3e09190e	0.13388464
20	0xbe70860a	-0.23488632
21	0xbee981cd	-0.45606843
22	0x3eceb7b6	0.40374535
23	0x3f9bbd7e	1.2167203
24	0xbe810158	-0.25196338
25	0xbdf57f85	-0.11987213
26	0x3f2f1ee2	0.684065
27	0x3d9a956e	0.07548033
28	0x3e2a74bb	0.16646092
29	0xbd8015fa	-0.06254192
30	0x3d00256e	0.031285696
31	0xbffc910b	-1.9731764
32	0x3ed0ffe0	0.40820217
33	0x3fea5cc9	1.8309566
34	0x3c24f763	0.010068747
35	0xbedd46db	-0.4321812
36	0xbeae624f	-0.34059379
37	0xbf64ccc3	-0.8937494
38	0xbe8eb08d	-0.27869073
39	0x3fb58a44	1.418282
40	0x3f4eb2a3	0.8074133
41	0x3fcaf66b	1.5856451
42	0xbfae7bb2	-1.3631499
43	0x3e9b87f6	0.30377167
44	0x3f5a4bf0	0.8527212
45	0x3fbafcce	1.46084
46	0x3f74ccac	0.95624804
47	0x3ed6f8dd	0.41986743
48	0x3e170f4e	0.14751932
49	0xbee437d6	-0.4457385
50	0xbf624431	-0.883853
51	0xbf9224f3	-1.1417526
52	0xbfa219e4	-1.2664151
53	0xbfbca854	-1.473887
54	0xbfd9db92	-1.7020133
55	0xbf29919b	-0.662378
56	0x3f62e9c4	0.8863795
57	0xbd0b12ba	-0.033953406
58	0xbc008667	-0.007844544
59	0xbeec015f	-0.46094796
60	0xbf8e7b88	-1.1131449
61	0x3f9a8138	1.2070684
62	0xbf7e2ffd	-0.99291974
63	0xbf875589	-1.0572978
64	0x3f7a597d	0.977928
65	0x3f84d05a	1.0376084
66	0x3f6b85b3	0.92000884
67	0x3f970ba0	1.1800423
68	0x3f965120	1.1743507
69	0x40022f45	2.034135
70	0xbe9d1f93	-0.30688152
71	0xbf393b0d	-0.7235573
72	0xbc945203	-0.018105512
73	0xbef7bc3f	-0.48385808
74	0xbf1cd7e0	-0.612669
75	0xbeae1ac2	-0.3400479
76	0x3d94af05	0.07259945
77	0xbf0a668f	-0.5406274
78	0xbf607661	-0.8768063
79	0x3f0a2315	0.5395978
80	0xc027e88c	-2.6235685
81	0x3eca34a3	0.39493284
82	0x3ef94157	0.48682663
83	0x3f1ffa44	0.6249125
84	0x3ec76a81	0.38948444
85	0x3f5e7342	0.8689462
86	0xbfc3928c	-1.5279098
87	0x3ee2d519	0.44303206
88	0xbff701e8	-1.9297457
89	0xbfb8368f	-1.439165
90	0xbd75e719	-0.060034845
91	0xbf327209	-0.69705254
92	0x3ec23fc1	0.37939265
93	0xbf21bf52	-0.63182557
94	0x3e4da385	0.20081909
95	0x3e15c9b9	0.14627732
96	0xbfc68e19	-1.5512115
97	0x3fb119ab	1.3835958
98	0xbf4efc4a	-0.8085371
99	0x3dfc2eb3	0.12313595
100	0xbfb75dee	-1.432554
101	0x3fe47a30	1.7849789
102	0xbf40d782	-0.7532884
103	0x3f10f233	0.56619567
104	0xbf2c376c	-0.6727207
105	0xbf2d86b6	-0.6778368
106	0x3ecf7922	0.40522105
107	0x4008610b	2.130923
108	0xbf7aa858	-0.9791312
109	0xbdc5d6b1	-0.0966009
110	0xbeebb1c8	-0.46034074
111	0x3eecc58b	0.46244463
112	0x3eb61f73	0.3557087
113	0x3ff4611f	1.9092139
114	0x3ee9ad93	0.4564024
115	0xbeb7f79b	-0.35931095
116	0x3f05a7dd	0.52209264
117	0x3f1db73e	0.6160773
118	0x3f81a002	1.0126956
119	0xbebda930	-0.37043142
120	0xbe0e290e	-0.13882849
121	0xbfdfea55	-1.7493387
122	0x3cd68ae0	0.026189268
123	0x3e8302a3	0.2558795
124	0x3f89ebe3	1.0775112
125	0x3ea57e47	0.32322904
126	0xbe292e90	-0.16521668
127	0xbfb752cd	-1.4322144
128	0x3f20bb0c	0.6278541
129	0xbdfa1047	-0.12210136
130	0xbf198f09	-0.5998388
131	0x3f3a28b1	0.7271834
132	0xbc6dd430	-0.0145159215
133	0xc025c0d5	-2.5898945
134	0xbf9f61da	-1.2451737
135	0xbf07c9d2	-0.5304233
136	0x3ec40d44	0.3829137
137	0x3ee8ce0f	0.4546971
138	0xbeb1d36a	-0.3473161
139	0xbf080124	-0.5312674
140	0x3f4a3b34	0.78996587
141	0xbfbdf395	-1.483996
142	0xbf62ab9c	-0.88543105
143	0x3f950b9a	1.1644166
144	0x3f81529e	1.0103338
145	0xbefbd58d	-0.49186364
146	0x3f75846d	0.9590519
147	0xbefb1bfe	-0.49044794
148	0x3db9fc3a	0.090813115
149	0x3fb855b9	1.440116
150	0x3ee5c556	0.44877118
151	0x3fd70b24	1.6800275
152	0xbf3f9065	-0.74829704
153	0xbe0668b3	-0.13125877
154	0xbda46216	-0.08026521
155	0x3fefab29	1.8724109
156	0xbec9c451	-0.3940759
157	0x3f5a39f2	0.8524467
158	0x3fc7f514	1.5621667
159	0xbda24afd	-0.07924459
160	0xbd195337	-0.037432875
161	0x3fc6c883	1.5529941
162	0xc02e8d4c	-2.727374
163	0xbe8b3f35	-0.2719666
164	0xc0278a8b	-2.617831
165	0xbf64bff7	-0.89355415
166	0x3f17a494	0.592355
167	0xbfc20b75	-1.5159746
168	0x3f196a56	0.5992788
169	0x3f9b156b	1.2115911
170	0x3fd56a4d	1.6673065
171	0xbfc24535	-1.517737
172	0xc0031cb8	-2.0486279
173	0xbef55a93	-0.47920665
174	0xbf43717e	-0.7634505
175	0xbe391bc0	-0.18076992
176	0xbe5c7d9f	-0.21532296
177	0x3db7e991	0.08980096
178	0x3c937e62	0.0180046
179	0xbeafcbd2	-0.3433519
180	0x3dd5ac14	0.10433212
181	0xbeda908d	-0.42688408
182	0xbf2a18a1	-0.6644383
183	0xbe0ffcad	-0.14061232
184	0x3f4a8248	0.79105043
185	0xbfd60778	-1.6721029
186	0xbf8d1010	-1.1020527
187	0x3e522455	0.20521672
188	0x401b11e4	2.422967
189	0xbec38c46	-0.38192958
190	0xbf6bc62b	-0.92099255
191	0x3ed236ed	0.4105753
192	0xbf5e56a4	-0.86850953
193	0xbf7f3e76	-0.9970468
194	0x3e1a1aa6	0.15049228
195	0x3e9af060	0.30261517
196	0xbf8d7a96	-1.1053035
197	0xbf0c0f5e	-0.5471095
198	0xbe216aa0	-0.1576333
199	0xbe3a01ba	-0.18164721
200	0xbe80ed1e	-0.25180906
201	0x3faf336c	1.3687568
202	0x3d181d00	0.03713703
203	0xbe6b19f3	-0.22959118
204	0x3f5b17fd	0.8558348
205	0x3e945415	0.289704
206	0x3d83e12c	0.064394325
207	0x3f1ee3f9	0.6206661
208	0x3f5df335	0.8669923
209	0xbf19ce5a	-0.6008049
210	0xbe80b1f5	-0.2513577
211	0x3ec76bb9	0.38949373
212	0xbf77bda7	-0.9677376
213	0xbd76cb8c	-0.06025271
214	0x3f472b71	0.7780066
215	0xbfcba09a	-1.5908387
216	0xbdb25a52	-0.087086335
217	0x4034b1ce	2.8233523
218	0x3f8e0b2e	1.1097162
219	0xbe87cab9	-0.26521853
220	0xbed82bcd	-0.42220917
221	0xbebb7dd8	-0.3661945
222	0x3de27622	0.11057688
223	0xbe7a20e9	-0.24426617
224	0x3f5a51d2	0.852811
225	0xbedce44d	-0.4314293
226	0x3f1efc7b	0.62104005
227	0x3fb2ff42	1.3984149
228	0xbef9d110	-0.48792315
229	0xbe0e6cfc	-0.13908762
230	0xbe0b8f15	-0.136288
231	0x3f2019b4	0.6253922
232	0xbef66d6a	-0.4813035
233	0xbfa31857	-1.2741803
234	0x4030fae3	2.765313
235	0xbf536c20	-0.8258686
236	0x3da0db25	0.078542985
237	0xbf3c9b71	-0.73674685
238	0x3f06a20d	0.5259102
239	0xbf674836	-0.9034456
240	0xbf090041	-0.5351601
241	0x3f8b82f8	1.0899343
242	0x3ec86163	0.391368
243	0x3f2b5e76	0.6694101
244	0xbd457263	-0.04820479
245	0x3fa281f0	1.2695904
246	0x3e1c8d27	0.1528822
247	0x3ea486a9	0.32133988
248	0x3db2f891	0.087388165
249	0x3e886682	0.26640707
250	0xbdfdd6b9	-0.12394471
251	0x3fa1d689	1.2643596
252	0xbfa603e1	-1.2969934
253	0x3ffd6b97	1.9798459
254	0xbb9eeec1	-0.004850239
255	0xbeefe024	-0.46850693

patch_embed.projection.weight f4 [64, 1, 4, 4]
0	0xbd11e402	-0.035617836
1	0x3c749835	0.014928867
2	0x3e1da584	0.1539517
3	0x3e0e5ace	0.13901827
4	0xbe5ab868	-0.21359408
5	0xbd88818a	-0.066653326
6	0x3b80cc3c	0.0039305966
7	0x3d36e20a	0.04464916
8	0xbe84c8b1	-0.25934365
9	0xbe0ab380	-0.13545036
10	0x3e52e47b	0.20594971
11	0x3ea85c7e	0.32883066
12	0xbdd1dc92	-0.102471486
13	0xbd83ef36	-0.0644211
14	0x3e281650	0.16414762
15	0x3ebf7b31	0.37398675
16	0xbcbb569c	-0.022868447
17	0xbe662c92	-0.2247794
18	0x3e2f5b89	0.17124762
19	0xbe1fe5e7	-0.15615045
20	0xbe13da80	-0.1443882
21	0xbe74962e	-0.23885414
22	0xbdff7df1	-0.12475193
23	0xbdc78c22	-0.09743525
24	0x3d555bce	0.052089505
25	0x3d33076c	0.04370825
26	0x3e1e091c	0.15433162
27	0x3d083754	0.03325589
28	0x3d93b734	0.072126776
29	0x3e87879a	0.26470643
30	0x3e9e9233	0.30970916
31	0x3d316ac4	0.04331471
32	0xbe536b86	-0.20646486
33	0xbe5a3797	-0.21310268
34	0xbe9b19cc	-0.3029312
35	0xbeab1ae2	-0.33418947
36	0xbe4e0b79	-0.20121564
37	0xbde17409	-0.1100846
38	0xbe936107	-0.28784963
39	0x3daf56bf	0.085614674
40	0x3e013d35	0.12621005
41	0xbcd3250f	-0.025774507
42	0xbe582243	-0.2110682
43	0x3d77b321	0.060473565
44	0xbdd7ea90	-0.10542786
45	0xbe0274fc	-0.12739938
46	0x3d6b7a12	0.057489462
47	0x3e68020f	0.22657035
48	0xbdf738cb	-0.12071379
49	0xbe13d104	-0.14435202
50	0xbe38d139	-0.18048562
51	0xbe4cb4bc	-0.1999082
52	0xbe21aeb8	-0.15789306
53	0xbcc6a414	-0.02424816
54	0x3dd75cc0	0.105157375
55	0x3e0f94d2	0.14021614
56	0x3e634170	0.22192931
57	0x3e050e2d	0.12993689
58	0x3e9131c6	0.28358287
59	0x3cba18d0	0.02271691
60	0x3e893aaf	0.26802585
61	0x3e87af2c	0.26500833
62	0x3e59a5e8	0.21254694
63	0xbd7eb0b1	-0.062180225
64	0x3e6a191c	0.22861141
65	0x3de781a1	0.113040216
66	0x3e281557	0.1641439
67	0x3d0222ed	0.03177159
68	0x3c5edcb5	0.013602425
69	0xbd7a43c1	-0.06109977
70	0xbe582091	-0.21106173
71	0xbe8157bd	-0.25262251
72	0x3e115c65	0.14195402
73	0x3db60f55	0.08889643
74	0xbd818941	-0.06325007
75	0xbe19d555	-0.15022786
76	0x3e82c2b2	0.25539166
77	0x3e1c4f64	0.1526466
78	0x3c4aa79d	0.012369064
79	0x3d8a8c93	0.06765094
80	0xbca0d4be	-0.019632693
81	0x3e33f1ff	0.17572783
82	0x3e7c7b7c	0.2465648
83	0x3d12df8d	0.035857726
84	0x3e0a4a11	0.13504817
85	0x3df9e2b0	0.1220144
86	0xbbed85a2	-0.0072485963
87	0xbdd75879	-0.10514922
88	0xbdaa73e3	-0.08322885
89	0x3e696215	0.22791322
90	0x3e526afa	0.20548621
91	0xbe414e46	-0.18877515
92	0x3de4906d	0.111603595
93	0xb9951c2b	-0.0002844048
94	0xbdbf1637	-0.09330409
95	0xbd1545fd	-0.0364437
96	0x3e2f46cb	0.17116849
97	0xbd6464e6	-0.055760287
98	0x3e299460	0.16560507
99	0x3e1d2950	0.1534779
100	0x3dca9577	0.098917894
101	0xbcadcd8f	-0.021216182
102	0xbe5b9650	-0.21444058
103	0x3e40fb00	0.18845749
104	0xbc55cc8b	-0.013049255
105	0x3ccfca6f	0.025365083
106	0x3dabceed	0.08389077
107	0xbdd17dc7	-0.10229068
108	0xbd1fe412	-0.039035864
109	0x3c6a2aa7	0.014292396
110	0xbc682e2e	-0.014171166
111	0xbe81d41b	-0.25357136
112	0x3e181562	0.14851907
113	0x3dcf571a	0.10124035
114	0xbc2f0911	-0.010683314
115	0x3df3815a	0.11889906
116	0xbe4b3f73	-0.19848423
117	0xbe9696b4	-0.29411852
118	0x3d96adac	0.07357344
119	0xbdcfa8be	-0.10139607
120	0xbe54513e	-0.20734116
121	0xbe87d193	-0.2652708
122	0x3ddbacc7	0.10726314
123	0xbe2b320c	-0.1671831
124	0x3de654bd	0.11246631
125	0xbe5ce224	-0.21570641
126	0xbe01e399	-0.12684478
127	0x3e3b47c7	0.182891
128	0xbdffd887	-0.12492471
129	0x3d178369	0.036990557
130	0x3e8603d6	0.26174802
131	0x3da5fbc3	0.0810466
132	0xbd92884b	-0.07154902
133	0x3d83099b	0.063983165
134	0x3e0b6773	0.13613681
135	0xbde876d2	-0.11350788
136	0xbd78dfeb	-0.06076042
137	0xbe0dcb3b	-0.13847058
138	0x3c44f06e	0.0120202135
139	0x3dd992fc	0.10623738
140	0xbd9a83f2	-0.07544698
141	0xbe5e827c	-0.21729463
142	0x3e90db70	0.28292418
143	0x3e27246d	0.16322489
144	0x3e7693f4	0.24079877
145	0x3966c1ba	0.00022006678
146	0x3d7a27ca	0.061073102
147	0xbdd94eb5	-0.10610715
148	0xbd1395f3	-0.036031675
149	0xbe9119c7	-0.2833998
150	0x3e06a95e	0.13150546
151	0xbe9d241c	-0.30691612
152	0x3e0cd110	0.13751626
153	0xbc186d93	-0.009303468
154	0x3e093fc7	0.13403235
155	0x3e1d2555	0.15346272
156	0xbe92fea9	-0.28709915
157	0xbe7b987a	-0.24569884
158	0xbe8c7ca3	-0.2743884
159	0xbe22b19f	-0.1588807
160	0x3db1162a	0.086468056
161	0xbd23f227	-0.040025856
162	0x3dd94a18	0.106098354
163	0x3d95dab7	0.07317107
164	0x3e4dc3d9	0.20094241
165	0xbe46e2a1	-0.1942239
166	0xbce7d3cc	-0.028299235
167	0x3eac287d	0.3362464
168	0xbe114173	-0.14185123
169	0xbe295b31	-0.16538693
170	0xbd851f42	-0.065001026
171	0x3e82c24c	0.25538862
172	0xbd25c998	-0.040475458
173	0xbccfef2b	-0.025382599
174	0xbcc5f096	-0.024162572
175	0xbcf42a81	-0.029805424
176	0x3e72fb0b	0.23728578
177	0x3e35a689	0.1773931
178	0xbdb687f2	-0.08912648
179	0x3e743419	0.23847999
180	0x3e6cebed	0.23136874
181	0xbe213974	-0.15744573
182	0x3e49eae7	0.19718514
183	0xbe416d31	-0.1888931
184	0x3de61f17	0.11236399
185	0x3e3214db	0.17390768
186	0x3e257eee	0.16161701
187	0x3e104d0c	0.14091891
188	0x3d771135	0.060319144
189	0xbd4311e9	-0.047624502
190	0xbe4ce41a	-0.20008889
191	0xbe6ec326	-0.2331663
192	0x3dae2f38	0.085051
193	0x3d610594	0.05493696
194	0x3e3ade5d	0.18248887
195	0x3e742a4a	0.23844257
196	0x3da15c17	0.07878893
197	0x3e009cbd	0.12559791
198	0xbc262316	-0.010140201
199	0x3c2a17c0	0.010381639
200	0xbdd1cd14	-0.10244194
201	0xbd510720	-0.051032186
202	0x3e5fb919	0.21847953
203	0xbe4a7696	-0.197718
204	0x3d328fcf	0.043594178
205	0x3d4a0004	0.04931642
206	0xbc8adf4c	-0.01695218
207	0xbda9ab36	-0.08284609
208	0xbdc7f53b	-0.09763571
209	0x3e3c43c8	0.18385231
210	0x3c28790f	0.010282769
211	0x3e6139ce	0.21994707
212	0x3daf268b	0.08552273
213	0x3e2f9166	0.17145309
214	0xbdd9fe62	-0.10644223
215	0xbd363c5a	-0.04449115
216	0x3b0c8f2e	0.0021447646
217	0xbdf7579c	-0.12077257
218	0x3e72b16c	0.23700494
219	0x3e34d9d3	0.17661218
220	0x3e3cfda3	0.1845613
221	0xbcbf15db	-0.023325851
222	0x3dc9e813	0.09858718
223	0x3e3a2cef	0.18181203
224	0xbd53fb19	-0.051753137
225	0xbcdd07fc	-0.026981346
226	0x3afc18cd	0.0019233465
227	0x3e66b70f	0.22530769
228	0xbdedc750	-0.116102815
229	0x3d938c26	0.072044656
230	0xbddd2b56	-0.10799281
231	0x3d970dd8	0.07375687
232	0xbdd05f99	-0.10174484
233	0xbe633bcf	-0.22190784
234	0x3e66bac2	0.2253218
235	0xbe056b23	-0.1302915
236	0x3dd81192	0.10550226
237	0x3b4777db	0.003043643
238	0xbe339818	-0.17538488
239	0x3dd85e7f	0.10564899
240	0x3e8b4499	0.27200773
241	0xbe503980	-0.20334435
242	0xbde370fd	-0.11105535
243	0xbd81e7b3	-0.06343021
244	0x3e7b68ad	0.2455165
245	0xbdc20f6c	-0.09475598
246	0x3d8adb5a	0.06780119
247	0x3de09a79	0.10966963
248	0x3e78f1ea	0.24311033
249	0x3d69317f	0.05693197
250	0xbe80d626	-0.25163382
251	0x3e415492	0.18879917
252	0xbd89fbb3	-0.06737461
253	0xbd76b36f	-0.060229715
254	0xbea4f6c1	-0.32219508
255	0x3d73f4e6	0.059559725

patch_embed.projection.bias f4 [64]
0	0xbe7378a1	-0.23776485
1	0xbc0f5336	-0.008747866
2	0xbd892efd	-0.066984154
3	0xbcd4d246	-0.025979172
4	0xbe1ae6a9	-0.15127052
5	0x3e022c83	0.12712292
6	0xbd527c89	-0.051388297
7	0x3c98555f	0.018595396
8	0x3e25c399	0.16187896
9	0xbe69c5a8	-0.22829306
10	0xbdac4bf3	-0.08412924
11	0xbe0ffb33	-0.14060669
12	0x3e33555e	0.17513034
13	0x3e2b493e	0.16727158
14	0x3e152c41	0.14567663
15	0x3e827792	0.2548185
16	0xbaad1de6	-0.0013207763
17	0x3c7f9eae	0.015601797
18	0x3e5b35ba	0.21407214
19	0xbe26171e	-0.16219756
20	0xbe27efcc	-0.16400069
21	0x3c10917d	0.00882375
22	0x3de0c96c	0.10975918
23	0xbe0b2936	-0.1358994
24	0xbb34c9cc	-0.00275861
25	0xbdca4da1	-0.09878088
26	0x3d8aae04	0.06771472
27	0xbdc4e8da	-0.096147254
28	0xbe253a94	-0.16135627
29	0x3e0c079b	0.13674776
30	0x3e0ff70c	0.14059085
31	0x3e5a05f9	0.21291341
32	0xbe6edd53	-0.23326616
33	0xbe0bc431	-0.1364906
34	0xbe309147	-0.17242919
35	0xbca931e7	-0.020653678
36	0xbcd3c20d	-0.025849367
37	0xbe2cc041	-0.16870214
38	0xbdeb8820	-0.11500573
39	0x3e00168e	0.12508604
40	0x3cdff278	0.027337298
41	0x3df7514b	0.12076052
42	0x3d861c5a	0.065483764
43	0xbe212fe3	-0.15740924
44	0xbd4e4282	-0.050356396
45	0xbc9a98b6	-0.018871646
46	0xbe06905b	-0.13141005
47	0x3e1540c4	0.14575487
48	0xbe578ce6	-0.21049842
49	0xbdba017c	-0.09082314
50	0x3e59fb19	0.21287192
51	0x3e55548b	0.20833032
52	0xbdb525d0	-0.08845103
53	0xbdcb6ed6	-0.0993325
54	0x3e530cc9	0.20610346
55	0xbc961335	-0.018319706
56	0x3da6d0a4	0.08145264
57	0xbe902770	-0.28155088
58	0xbd8e85f3	-0.069591425
59	0x3d0635a1	0.03276599
60	0xbe2d4021	-0.16918994
61	0x3dd5c3f4	0.10437766
62	0x3dca4e35	0.09878198
63	0xbe52d216	-0.20587954

blocks.0.norm1.weight f4 [64]
0	0x3f871aff	1.0555114
1	0x3f892542	1.0714495
2	0x3f869d47	1.0516747
3	0x3f865d77	1.0497273
4	0x3f841337	1.0318364
5	0x3f888ff2	1.0668929
6	0x3f820ff5	1.016112
7	0x3f879a78	1.0594015
8	0x3f86af22	1.0522196
9	0x3f83af63	1.0287899
10	0x3f83f56b	1.0309271
11	0x3f85bb46	1.0447776
12	0x3f899fd9	1.0751907
13	0x3f6e9e57	0.9321036
14	0x3f834276	1.0254657
15	0x3f805709	1.0026561
16	0x3f82eb67	1.0228089
17	0x3f7b757a	0.9822613
18	0x3f84eceb	1.0384802
19	0x3f83e933	1.0305542
20	0x3f8261c6	1.0186088
21	0x3f893871	1.072035
22	0x3f83c3ee	1.0294168
23	0x3f7c862d	0.98642236
24	0x3f868529	1.0509387
25	0x3f8e6a55	1.11262
26	0x3f8cd77e	1.1003263
27	0x3f7f7a89	0.9979635
28	0x3f850ab3	1.039389
29	0x3f8ad77b	1.084701
30	0x3f882179	1.0635215
31	0x3f7f4266	0.9971069
32	0x3f885729	1.0651599
33	0x3f87a46e	1.0597055
34	0x3f8a9dad	1.0829369
35	0x3f880ec1	1.0629503
36	0x3f85aba1	1.0443002
37	0x3f8289f4	1.019835
38	0x3f8bebe4	1.0931363
39	0x3f865976	1.0496051
40	0x3f886983	1.06572
41	0x3f816d29	1.0111438
42	0x3f82d7db	1.0222124
43	0x3f88af4b	1.0678495
44	0x3f866ec8	1.0502558
45	0x3f82c6b0	1.0216885
46	0x3f8533c7	1.0406426
47	0x3f816985	1.0110327
48	0x3f8a7fc0	1.0820236
49	0x3f8762e9	1.057706
50	0x3f86e200	1.053772
51	0x3f8275a4	1.0192151
52	0x3f8e1310	1.1099567
53	0x3f8a00de	1.0781515
54	0x3f843903	1.0329899
55	0x3f893bf6	1.0721424
56	0x3f8a1f81	1.0790864
57	0x3f86a7f7	1.0520009
58	0x3f84ae3a	1.036567
59	0x3f7fb49a	0.9988495
60	0x3f8da34e	1.1065462
61	0x3f826e2d	1.0189873
62	0x3f879e0f	1.0595111
63	0x3f81a839	1.0129462

blocks.0.norm1.bias f4 [64]
0	0xbd6dbb1e	-0.058039777
1	0xbd5ad116	-0.053422056
2	0xbcaa2aed	-0.020772422
3	0x3d04e349	0.03244332
4	0x3c923a3a	0.01785003
5	0x3c617d78	0.013762824
6	0xbd74a592	-0.059728213
7	0xbcb42ddd	-0.021994526
8	0x3d1bfb9c	0.03808175
9	0xbc92c8f6	-0.017918091
10	0xbc98eaad	-0.01866659
11	0x3d33f2fb	0.043932896
12	0x3d1ae71c	0.03781806
13	0x3c186952	0.009302454
14	0xbc02ba57	-0.007978997
15	0xbbadf9cd	-0.0053093196
16	0x3c1f6e8d	0.009730947
17	0x3c8eb14c	0.017418526
18	0xbc27cb6f	-0.010241373
19	0x3ca8f4a0	0.020624459
20	0x3c99438e	0.01870897
21	0x3b694518	0.0035594162
22	0xbd395a3f	-0.04525208
23	0xbd0592ad	-0.032610584
24	0xbd0731a5	-0.03300633
25	0x3cc2ce00	0.02377987
26	0x3cedcf79	0.029029595
27	0xbd3648a8	-0.044502884
28	0xbcef2a2b	-0.029194912
29	0xbd41e159	-0.04733405
30	0x3cc061dc	0.023484163
31	0xbd01a2d6	-0.031649433
32	0xbc8ccedb	-0.01718848
33	0x3d2a4418	0.041568846
34	0xbca0c240	-0.019623876
35	0xbdd2c9de	-0.10292409
36	0x3bc99b26	0.0061525283
37	0xba864ae2	-0.0010245705
38	0x3dcca6a3	0.09992721
39	0xbda1f337	-0.07907718
40	0x3c7a9ac6	0.01529569
41	0xbce6431a	-0.028108168
42	0xbdb18a33	-0.086689375
43	0x3d75d7ce	0.06002026
44	0x3cc7e9b7	0.024403436
45	0x3b57e80e	0.0032944712
46	0x3ab840c0	0.0014057383
47	0x3cb5979b	0.022167018
48	0xbd5aab3c	-0.053385958
49	0x3c656659	0.014001452
50	0x3d2359ba	0.03988049
51	0x3c83e93e	0.01610243
52	0xbc18110b	-0.009281407
53	0x3b1bf43f	0.0023796705
54	0xbb1640f1	-0.0022926892
55	0xbcc8dbaf	-0.024518816
56	0x3d37e9ed	0.044900823
57	0x39b26666	0.00034027098
58	0x3c200b5c	0.009768333
59	0x3c4df31d	0.01257017
60	0x3d0bb8bd	0.034111727
61	0x3c9fb26c	0.019494258
62	0x3c9339e6	0.017971944
63	0xbc063637	-0.008191637

blocks.0.attn.qkv.weight f4 [192, 64]
0	0xbd4b1438	-0.04957983
1	0x3d770387	0.0603061
2	0x3aaccffa	0.001318454
3	0xbc4f3b4e	-0.012648417
4	0xbd0fc73e	-0.03510212
5	0x3d8fd239	0.07022519
6	0x3e06ddde	0.13170573
7	0x3ccec9c3	0.025242692
8	0xbe1c4983	-0.15262417
9	0xbde9d891	-0.1141826
10	0x3bf3e17e	0.0074426522
11	0xbe168704	-0.14699942
12	0x3d4ab4cc	0.049488828
13	0xbdb10c75	-0.08644954
14	0x3e10c1a3	0.14136367
15	0xbe1090be	-0.14117715
16	0x3e2f241f	0.17103623
17	0xbe00eda9	-0.1259066
18	0x3da41d5c	0.08013412
19	0xbe17c7c3	-0.14822297
20	0xbd5a5b8a	-0.053309955
21	0x3c5b33ed	0.013379079
22	0x3caa182c	0.02076348
23	0x3d7e6ad4	0.062113598
24	0xbd38081a	-0.0449296
25	0x3df62770	0.12019241
26	0xbe07102b	-0.13189761
27	0x3c436876	0.011926761
28	0xbca669ba	-0.020314086
29	0x3e1147db	0.14187567
30	0xbdab53b0	-0.083655715
31	0x3ddf7129	0.109102555
32	0x3dd8628b	0.105656706
33	0x3d8de653	0.069286965
34	0xbc982eaa	-0.018576939
35	0x3de4a534	0.111643225
36	0xbd6f1a30	-0.058374584
37	0xbe036b33	-0.12833862
38	0xbc9b7a7a	-0.0189793
39	0x3a15c9ed	0.0005713988
40	0x3cc6876f	0.024234502
41	0xbdbcfbff	-0.09227752
42	0x3d053461	0.032520656
43	0x3d4ac54d	0.049504567
44	0xbdeae4ba	-0.114694074
45	0x3d9ef94b	0.077623926
46	0xbc51e475	-0.012810816
47	0xbca3f2e6	-0.020013284
48	0xbdbf7b09	-0.09349639
49	0xbd36ac64	-0.044598
50	0xbc396aad	-0.011316937
51	0xbd9512c7	-0.07278972
52	0x3dcc92e1	0.099889524
53	0xbdd79bb5	-0.10527746
54	0xbdc3d426	-0.095619485
55	0x3dfaeef8	0.12252611
56	0xbcbfeca1	-0.023428263
57	0x3d9b62e3	0.075872205
58	0xbd311556	-0.04323324
59	0xbe167cb5	-0.1469601
60	0xbd4c56b8	-0.04988739
61	0xbd353ebe	-0.04424929
62	0xbd6cf0f1	-0.057846967
63	0xbd771a1d	-0.060327638
64	0x3dfe51c3	0.124179386
65	0x3db13c45	0.086540736
66	0x3e13c07e	0.14428899
67	0xbc190ffc	-0.00934219
68	0x3db7f919	0.089830585
69	0x3d07822a	0.03308312
70	0x3c053df2	0.008132445
71	0x3de7a53e	0.11310814
72	0xbe727545	-0.23677547
73	0xbcfa0939	-0.030521976
74	0x3b41bea4	0.0029563094
75	0x3d12a35e	0.03580033
76	0xbe98a641	-0.29814342
77	0x3dcfe662	0.10151364
78	0x3e484d12	0.1956065
79	0xbd94bf73	-0.072630785
80	0x3d65b7e0	0.05608356
81	0xbe06e2a3	-0.13172393
82	0xbcd44354	-0.02591101
83	0xbd19bbe2	-0.037532695
84	0xbcbb0f0f	-0.022834329
85	0x3dd9e454	0.10639253
86	0x3d93df22	0.072202936
87	0x3e56ca5c	0.20975631
88	0xbd929ea6	-0.07159166
89	0x3d24818a	0.0401626
90	0x3c4aba89	0.012373575
91	0xbdb49dd8	-0.08819169
92	0x3e174586	0.14772615
93	0x3e7683b7	0.24073683
94	0xbe151155	-0.14557393
95	0xbd384d01	-0.04499531
96	0x3e86f578	0.26359153
97	0x3e13d618	0.14437139
98	0xbd0ff8cb	-0.035149377
99	0xbdbf93e1	-0.093543775
100	0xbe34a817	-0.17642246
101	0xbdef3874	-0.116806895
102	0xbc6f443f	-0.0146036735
103	0x3de7fef9	0.11327929
104	0xbbe0c526	-0.0068594394
105	0x3c7c6ba3	0.015406522
106	0x3e3efc35	0.18650897
107	0x3d26f4c4	0.04076077
108	0xbde3b9bf	-0.11119413
109	0x3e3bdc01	0.18345644
110	0x3e372c7f	0.17888068
111	0xbe119568	-0.1421715
112	0x3d91b6e6	0.07114963
113	0xbd943d52	-0.072382584
114	0xbdac5d5c	-0.084162444
115	0xbdc37b09	-0.095449515
116	0x3e2d3a0e	0.16916677
117	0xbe075070	-0.13214278
118	0xbd475f46	-0.048674844
119	0xbd25aa3b	-0.040445548
120	0xbe6ce6c8	-0.23134911
121	0xbc84e809	-0.016223924
122	0x3db4f570	0.08835876
123	0xbe3dbd8e	-0.1852934
124	0xbdbecf6f	-0.093169086
125	0x3e09308e	0.13397428
126	0xbe1899d5	-0.14902432
127	0x3dc77e19	0.09740848
128	0xbcd8bb4d	-0.0264565
129	0xbdc4727c	-0.09592149
130	0xbdb5ad04	-0.08870891
131	0x3e0cc1c3	0.13745789
132	0xbd417de3	-0.047239196
133	0x3d814c30	0.0631336
134	0xbdb6579c	-0.08903429
135	0xbdfa3129	-0.12216408
136	0x3e155534	0.14583284
137	0x3c22d0b8	0.009937458
138	0x3dd2d161	0.10293842
139	0xbbe35ff3	-0.0069389283
140	0x3d919f09	0.07110412
141	0xbce62db5	-0.028097967
142	0xbddabee5	-0.106809415
143	0xbc462cde	-0.012095658
144	0xbb4608b2	-0.0030217585
145	0x3dbb2d5c	0.09139511
146	0xbe061996	-0.13095698
147	0x3d113b6e	0.035457067
148	0x3daaa45d	0.08332131
149	0xbe67875f	-0.22610234
150	0x3c36e14b	0.0111621125
151	0x3da2026b	0.079106174
152	0x3dbfc948	0.09364563
153	0xbde7505f	-0.112946264
154	0x3cdced60	0.026968658
155	0x3d80d0dc	0.06289837
156	0xbe14f97b	-0.14548294
157	0x3d3f1142	0.046647318
158	0x3df55927	0.11979895
159	0xbbcd7cb2	-0.0062709684
160	0xbe7292ed	-0.2368886
161	0x3d57cfd4	0.052688435
162	0xbcf9a346	-0.030473363
163	0xbde88303	-0.113531135
164	0xbdbd35cc	-0.092387766
165	0x3da471a4	0.08029488
166	0xbddf3d5d	-0.10900376
167	0xbdbcea70	-0.09224403
168	0xbbbe2720	-0.005803004
169	0xbdfd2335	-0.12360231
170	0xbd6d4259	-0.057924602
171	0xbd27703b	-0.040878516
172	0xbe16e2aa	-0.14734903
173	0xbcceddbe	-0.02525222
174	0x3e088d4d	0.13335152
175	0xbcae1fb9	-0.02125536
176	0xbd591a11	-0.053003374
177	0x3dbf8ce3	0.09353044
178	0xbda599b7	-0.080859594
179	0xbde11d76	-0.10991947
180	0xbdb7b31a	-0.08969708
181	0x3d982edf	0.07430815
182	0xbdcd3a7e	-0.10020922
183	0xbe122bda	-0.1427454
184	0xbda51ffe	-0.08062743
185	0x3e25c93d	0.16190048
186	0xbde4896c	-0.11159024
187	0x3dccabad	0.09993682
188	0x3e451624	0.19246727
189	0xbd14a492	-0.03628976
190	0x3c244626	0.01002649
191	0xbdacaf7f	-0.08431911
192	0x3d57541e	0.052570455
193	0x3d23f077	0.040024247
194	0x3c5feae5	0.013666843
195	0x3d7b2a45	0.06131961
196	0xbc6aa40e	-0.01432134
197	0xbd59fdde	-0.053220622
198	0xbde0d716	-0.109785244
199	0xbdc9e962	-0.09858967
200	0x3dca143d	0.098671414
201	0x3dc28f55	0.09499995
202	0xbd3c8a41	-0.046030287
203	0xbca9e54d	-0.020739222
204	0xbdee0985	-0.116229095
205	0xbdd470b0	-0.10373056
206	0xbccafdc0	-0.0247792
207	0x3c2e3a3a	0.0106339995
208	0x3d728f3a	0.059218623
209	0xbe093e1b	-0.13402598
210	0x3dec52dd	0.115392424
211	0x3d02e83b	0.031959753
212	0x3d019d16	0.03164395
213	0x3d2c6825	0.042091507
214	0xbd6ace31	-0.057325546
215	0x3ce57a2d	0.02801236
216	0xbc352dca	-0.01105828
217	0xbd9617e9	-0.07328779
218	0xbdcf1c00	-0.101127625
219	0x3e1e5a22	0.1546407
220	0x3d6f5293	0.05842836
221	0x3dc2898f	0.094988935
222	0xbe26c925	-0.16287668
223	0xbccb2344	-0.02479709
224	0x3e0f2a34	0.13980943
225	0x3d0be1e5	0.034150977
226	0x3da5a292	0.080876485
227	0xbc7e0d98	-0.015506171
228	0x3dc767b3	0.09736576
229	0xbdf5ad6f	-0.119959705
230	0x3d4c7b55	0.049922306
231	0xbd80a1a0	-0.062808275
232	0x3d872a3b	0.06599852
233	0x3c877515	0.016535321
234	0x3bc42034	0.005985284
235	0xbd14d885	-0.0363393
236	0x3dd202e4	0.102544576
237	0xbd88d956	-0.066820785
238	0xbdaf292c	-0.08552775
239	0xbe254e76	-0.16143212
240	0x3dd3bcb2	0.10338725
241	0xbd72c055	-0.059265453
242	0x3b4a55fa	0.0030874
243	0x3e00bb8d	0.12571545
244	0x3c974850	0.018467098
245	0xbdaff433	-0.08591499
246	0xbd820504	-0.06348613
247	0xbdbec4f0	-0.093149066
248	0xbd018e7e	-0.03163003
249	0x3d9be773	0.07612505
250	0x3c7200e8	0.014770724
251	0xbd19bf73	-0.037536096
252	0xbe23a4c4	-0.15980822
253	0x3c6ad536	0.01433306
254	0x3722a558	9.69445e-06
255	0xbd9a9b1b	-0.07549115

blocks.0.attn.qkv.bias f4 [192]
0	0xbddc8b6c	-0.1076878
1	0xbe83660f	-0.25663802
2	0xbdc958e6	-0.09831409
3	0x3dfae0ce	0.12249909
4	0xbadb0148	-0.0016708756
5	0xbdb52c84	-0.08846381
6	0x3de83d5a	0.11339827
7	0x3d8317f9	0.06401057
8	0xbd35d946	-0.04439666
9	0xbdc8bb17	-0.098013096
10	0x3dd23a75	0.10265056
11	0xbd57e815	-0.052711565
12	0x3d759626	0.059957646
13	0xbe1a83a0	-0.15089273
14	0x3e25d11a	0.16193047
15	0xbda26542	-0.0792947
16	0xbcb4a5b5	-0.022051672
17	0xbdc57b5a	-0.09642668
18	0xbd55d41d	-0.05220424
19	0x3ce36a3d	0.02776062
20	0x3da37cf1	0.07982815
21	0xbb689c16	-0.0035493425
22	0xbd5dea00	-0.054178238
23	0x3e26992c	0.16269368
24	0x3a86b5b4	0.001027754
25	0xbd3c2636	-0.04593488
26	0x3c3c22ce	0.011482907
27	0x3b3d525a	0.0028888197
28	0x3da30bdb	0.079612456
29	0x3e258242	0.1616297
30	0x3dbe033d	0.092779614
31	0xbe0e8e2d	-0.13921423
32	0xbd222b87	-0.039592292
33	0x3dfb987a	0.12284942
34	0x3da52f70	0.080656886
35	0xbd16cd71	-0.036817018
36	0xbd26d3cd	-0.040729333
37	0x3d0a1f33	0.03372116
38	0xbb489841	-0.0030608329
39	0xbd0dafbe	-0.03459143
40	0x3d02ec8b	0.031963866
41	0xbd42c7f0	-0.047553957
42	0x3db9b951	0.090685494
43	0xbdb19bdc	-0.08672306
44	0xbd7f6b0f	-0.06235796
45	0xbe07596c	-0.13217705
46	0x3d1b3677	0.03789374
47	0x3d0e665b	0.034765583
48	0x3d9a574d	0.075361826
49	0x3beac5a9	0.007164676
50	0x3cd0e79a	0.025501061
51	0x3c7edb37	0.015555195
52	0x3d7d5f66	0.061858557
53	0xbe6f5b07	-0.23374568
54	0xbd16643e	-0.036716692
55	0xbcc13281	-0.023583652
56	0xbac43033	-0.0014967978
57	0xbced22be	-0.02894723
58	0x3dac9be9	0.08428175
59	0x3d4ad37a	0.049518086
60	0xbe1f15f9	-0.15535726
61	0x3e0a5317	0.13508259
62	0xbd9d445f	-0.076790564
63	0xbd2d6297	-0.04233035
64	0x3dbe67f1	0.09297169
65	0x3da28c1f	0.07936882
66	0x3d2ab17a	0.04167316
67	0x3da213ac	0.07913908
68	0x3d3617e5	0.04445638
69	0xbdcc4ad2	-0.09975208
70	0xbd3a278a	-0.045447864
71	0xbab08612	-0.001346769
72	0x3db8df48	0.090269625
73	0xbdc1e6b6	-0.09467833
74	0x3bda1f47	0.0066565606
75	0xbcb7e1a9	-0.02244647
76	0xbdb993d6	-0.090614006
77	0xbb661685	-0.0035108638
78	0xbdca4d78	-0.09878057
79	0x3d56ddee	0.052457742
80	0xbc8cc4db	-0.017183712
81	0x3bce726d	0.0063002617
82	0xbe06f708	-0.13180172
83	0xbd154972	-0.036446996
84	0xbd025c76	-0.03182646
85	0x3cc20793	0.023685252
86	0xbd328894	-0.043587282
87	0x3da00b56	0.07814662
88	0xbc8782ee	-0.016541924
89	0xbb68b71c	-0.0035509532
90	0x3d580842	0.05274225
91	0xbda5eeea	-0.0810221
92	0x3ddbcd48	0.10732514
93	0xbd5a454c	-0.053288743
94	0x3df16fed	0.11788926
95	0x3ddc0e45	0.10744909
96	0x3c558979	0.013033264
97	0x3d8ac4b5	0.067758
98	0xbce27ed6	-0.02764837
99	0xbd8b5c8b	-0.068047605
100	0xbdc66650	-0.09687483
101	0x3decdb2e	0.11565243
102	0xbcc59ebb	-0.02412354
103	0x3dbf49b6	0.09340231
104	0x3d15c276	0.036562406
105	0xbd9422d2	-0.07233204
106	0x3d075717	0.03304204
107	0xbdea01dc	-0.11426136
108	0xbdc74a4c	-0.09730968
109	0x3c11c5bf	0.008897244
110	0x3dafe99e	0.08589481
111	0x3dc89adb	0.09795161
112	0xbc450866	-0.012025928
113	0x3cea7ff8	0.028625473
114	0xbc569017	-0.013095877
115	0x3dc92f5e	0.09823488
116	0xbd227b7b	-0.03966854
117	0xbce80eb6	-0.028327327
118	0xbda1c247	-0.078983836
119	0xbd6b3241	-0.057420973
120	0x3dc4881a	0.09596272
121	0x3ca976d1	0.020686539
122	0xbde53f43	-0.11193707
123	0xbd937fee	-0.07202135
124	0x3b8f979b	0.0043820865
125	0x3d848e63	0.064724706
126	0x3dc7004f	0.09716856
127	0x3d92b227	0.07162886
128	0x3cc1c064	0.02365131
129	0xbbc78cb7	-0.0060897726
130	0x3d9b6ded	0.07589326
131	0xbdaceb96	-0.08443372
132	0xbd16aa00	-0.03678322
133	0xbd1493a2	-0.036273606
134	0xbd4c5e72	-0.049894758
135	0x3daccc88	0.08437449
136	0xb9b28ffa	-0.00034058077
137	0xbda35846	-0.07975821
138	0x3ddb5d1b	0.10711118
139	0xbd00b5af	-0.031423267
140	0x3c9c5b41	0.019086482
141	0xbd222478	-0.03958556
142	0x3d3c8e3d	0.046034086
143	0x3ca57c62	0.020200912
144	0xbcffe922	-0.031239096
145	0x3d424894	0.047432497
146	0xbd8d643d	-0.069038846
147	0xbdc14e3d	-0.09438751
148	0xbbc4ef46	-0.006009969
149	0x3d113b46	0.03545692
150	0x3d7d70b1	0.06187505
151	0xbdba9d16	-0.09111993
152	0x3b6a7e7d	0.003578096
153	0x3d3ef87a	0.046623684
154	0xbda3ab91	-0.07991708
155	0xbd4d13af	-0.0500676
156	0xbca9ebba	-0.020742286
157	0x3e10aec7	0.14129172
158	0x3cce9c93	0.025221145
159	0xbda15658	-0.07877797
160	0xbd8042cb	-0.0626274
161	0x3caaddce	0.020857718
162	0x3db2047b	0.08692261
163	0xbdcbd728	-0.09953147
164	0x3ce9ed97	0.028555674
165	0x3d7196c9	0.05898169
166	0x3d415535	0.0472004
167	0x3da3f44e	0.08005582
168	0x3c479dc5	0.012183611
169	0x3d98603b	0.074402295
170	0xbcc1d4b5	-0.023660997
171	0x3d9fcfac	0.07803282
172	0xbcc78e9f	-0.02436
173	0xbdb6ca4d	-0.089253046
174	0xbdaef542	-0.08542873
175	0xbd37274c	-0.04471521
176	0x3c766b99	0.015040302
177	0x3d7cd142	0.061723
178	0x3dd56fd9	0.10421724
179	0x3dd2291f	0.102617495
180	0x3d13a6f3	0.036047887
181	0x3c159df3	0.009131896
182	0xbdff0058	-0.124512374
183	0x3d430287	0.047609832
184	0x3d7fbefa	0.06243799
185	0x3dde88a4	0.10865906
186	0x3c504dde	0.0127138775
187	0x3d218ab1	0.039438907
188	0xbddd997c	-0.108202904
189	0xbcfc8c35	-0.030828575
190	0x3dcad3f3	0.09903707
191	0xbd954777	-0.072890215

blocks.0.attn.proj.weight f4 [64, 64]
0	0xbdd30a89	-0.10304744
1	0xbdf36636	-0.118847296
2	0x3dea002f	0.11425816
3	0x3e04b3ef	0.12959264
4	0x3d5c09e0	0.053720355
5	0x3d842e25	0.06454114
6	0xbdb3c5bd	-0.0877795
7	0xbe04b632	-0.12960127
8	0x3d51d6ad	0.05123012
9	0x3de84ae0	0.11342406
10	0x3d8f3088	0.069916785
11	0x3dea565a	0.114422515
12	0x3d9fe00a	0.07806404
13	0x3c6c741d	0.01443198
14	0x3ddb6dda	0.10714312
15	0x3dd81ead	0.10552726
16	0xbe52f43d	-0.20600982
17	0xbdc90c08	-0.09816748
18	0xbd9abf58	-0.07556027
19	0xbd1ccec3	-0.03828312
20	0x3cab4c30	0.020910352
21	0xbd7a5dc7	-0.06112459
22	0x3c2489da	0.010042632
23	0xbe206df1	-0.1566694
24	0x3e169e6b	0.14708869
25	0x3b8477f7	0.0040426212
26	0xbddf230e	-0.10895358
27	0xbe1991d7	-0.1499704
28	0x3dc6d6bd	0.09708927
29	0xbdd16adc	-0.1022546
30	0xbd4209c7	-0.047372606
31	0xbe10ff68	-0.1415993
32	0x3d7d37f2	0.06182093
33	0xbe07d887	-0.13266192
34	0x3ddafb41	0.10692454
35	0xbdf82864	-0.12117079
36	0x3cfd1957	0.030895872
37	0xbe104595	-0.14089043
38	0xbd9c94ec	-0.07645592
39	0x3d3b5b3b	0.0457413
40	0x3dca4014	0.09875503
41	0xbd64f5ec	-0.055898592
42	0xbd3ef810	-0.04662329
43	0x3d69a9d2	0.05704672
44	0x3d319e71	0.043363992
45	0xbdd17f03	-0.10229304
46	0x3db1ce48	0.08681923
47	0x3ddb6bdf	0.10713934
48	0x3e3a35a7	0.18184529
49	0x3dc72185	0.0972319
50	0xbd7a4d68	-0.061108977
51	0x3dc4aa60	0.09602809
52	0x3d5267e0	0.051368594
53	0xbdcde9c7	-0.10054355
54	0x3dc58c85	0.096459426
55	0x3df9e00d	0.122009374
56	0x3be29476	0.0069146706
57	0xbde97e04	-0.11400989
58	0x3df9652c	0.121775
59	0xbdc2ca1b	-0.09511205
60	0x3e41b4bc	0.18916601
61	0x3d628865	0.055305857
62	0xbd0d54a3	-0.034504544
63	0xbddf401b	-0.10900899
64	0x3da8e04e	0.08245908
65	0xbd37b73e	-0.044852488
66	0x3b1b1b0a	0.002366724
67	0xbdd3e059	-0.10345525
68	0xbdaea290	-0.085271
69	0xbd0c7075	-0.034286935
70	0x3b4d9d00	0.0031374097
71	0x3d764ff8	0.060134858
72	0x3e1f49ea	0.1555554
73	0xbd18ff74	-0.037352994
74	0x3e017e2c	0.12645787
75	0x3c44f9d2	0.012022452
76	0x3df30eb0	0.11868036
77	0xbd56d9da	-0.052453853
78	0xbe1b8269	-0.15186466
79	0x3dff7224	0.124729425
80	0xbd403df0	-0.04693407
81	0xbca2d50e	-0.019876983
82	0x3d260d3e	0.040539972
83	0xbd9cf381	-0.07663632
84	0xbd015f43	-0.03158499
85	0x3da203f4	0.0791091
86	0xbd4d0e08	-0.05006221
87	0x3e1b4c82	0.15165904
88	0xbda47bb2	-0.080314055
89	0x3d78a935	0.060708243
90	0x3d655f0e	0.055998854
91	0x3d8a893d	0.067644574
92	0xbcb7d6b0	-0.022441238
93	0xbe1042c9	-0.14087977
94	0xbc480063	-0.012207123
95	0xbe25615b	-0.1615042
96	0xbdb362a5	-0.08759049
97	0x3d757390	0.059924662
98	0x3d9e10a5	0.077180184
99	0x3cd31c4d	0.02577033
100	0x3d993565	0.07480887
101	0x3e2574ed	0.16157885
102	0x3dc75abd	0.09734104
103	0xbcf24a7c	-0.029576533
104	0xbdf0e733	-0.11762848
105	0x3cd52f7a	0.026023615
106	0x3e05a2be	0.13050362
107	0x3d0f31eb	0.034959715
108	0xbd46e3be	-0.048557036
109	0xbc66e8e1	-0.014093609
110	0x3cc4787a	0.023983229
111	0x3def6d81	0.11690808
112	0xbe1ed36f	-0.15510343
113	0x3d1af256	0.037828766
114	0x3dfaefae	0.122527465
115	0x3dd57df4	0.10424414
116	0x3d77a7d6	0.060462795
117	0x3dd108ff	0.10206794
118	0xbdb12d2b	-0.08651193
119	0x3dc83a53	0.097767495
120	0x3d30fa55	0.043207485
121	0xbdce5d44	-0.10076383
122	0xbddf80c5	-0.10913233
123	0xbd4e06f0	-0.050299585
124	0x3d06799f	0.03283083
125	0x3ce0a490	0.02742222
126	0x3b16475f	0.0022930724
127	0x3d26d889	0.040733848
128	0x3c26e4a1	0.010186345
129	0x3e0da7d6	0.13833556
130	0xbc0fbe10	-0.008773342
131	0xbcab8486	-0.020937216
132	0x3d93391f	0.07188629
133	0x39526ad4	0.00020066957
134	0xbce56888	-0.028003946
135	0xbd4412e9	-0.047869597
136	0xbe082137	-0.1329392
137	0x3cd58613	0.026064908
138	0x3ddc542f	0.10758244
139	0xbe16516e	-0.146795
140	0xbc9f1926	-0.019421171
141	0x3daa6e70	0.083218455
142	0xbdf620d3	-0.120179795
143	0xbd3e887f	-0.04651689
144	0xbdfc784e	-0.12327634
145	0x3e0506ad	0.12990828
146	0x3dd585d0	0.10425913
147	0xbdfb833f	-0.122808926
148	0x3dd267f0	0.10273731
149	0xbdc27848	-0.09495598
150	0xbca75c72	-0.020429824
151	0x3d54308c	0.05180411
152	0x3e097716	0.13424334
153	0x3d530081	0.051514152
154	0xbd7a5076	-0.06111189
155	0xbcba4826	-0.022739481
156	0x3c175408	0.009236343
157	0xbd5b0110	-0.05346781
158	0x3bf8bd84	0.0075909514
159	0x3cae2dd4	0.021262087
160	0x3e6a843b	0.22902004
161	0xbdd8daad	-0.10588584
162	0x3ddd3575	0.10801212
163	0xbd1119ab	-0.03542487
164	0xbe099d53	-0.1343892
165	0x3d8bff94	0.06835857
166	0xbe23de8d	-0.16002865
167	0x3e2164cc	0.15761107
168	0x3ced86bf	0.028994916
169	0xbde75ecf	-0.1129738
170	0xbd305b09	-0.043055568
171	0xbd54111e	-0.051774137
172	0x3db3b70a	0.08775146
173	0xbdab648d	-0.08368788
174	0x3d5ff683	0.05467845
175	0xbe21a543	-0.15785699
176	0xbe1acb80	-0.15116692
177	0xbd6f8156	-0.058472954
178	0x3de95a17	0.113941364
179	0xbd872c72	-0.06600274
180	0x3ce8a53f	0.028399108
181	0xba597b9d	-0.0008296313
182	0xbcec0716	-0.028811973
183	0xbde92409	-0.11383826
184	0xbdb2c4c0	-0.08728933
185	0x3d551e89	0.052031074
186	0xbc2e1901	-0.010626079
187	0xbd5460a5	-0.05184998
188	0x3bd1be45	0.0064008557
189	0xbdea71bb	-0.114474736
190	0xbc3d677c	-0.011560317
191	0xbd334df5	-0.043775517
192	0xbdbc7a6d	-0.09203038
193	0x3e1d7614	0.15377074
194	0xbdd47745	-0.10374311
195	0x3d4d80ef	0.05017179
196	0xbd5f120f	-0.05446058
197	0x3d2010a7	0.03907838
198	0x3d8195b8	0.06327385
199	0x3dbdf959	0.09276075
200	0x3b307238	0.0026923548
201	0x3d1735e2	0.03691662
202	0x3dfa5f71	0.12225235
203	0xbdb5d6bc	-0.08878848
204	0x3d9b155d	0.07572434
205	0x3ccaf4a0	0.02477485
206	0xbc24ada4	-0.010051165
207	0x3d367d75	0.04455324
208	0xbdcdf5bf	-0.10056638
209	0x3c13d2a2	0.009022387
210	0x3ddb720d	0.10715113
211	0x3dcb92e5	0.09940127
212	0xbd0c8c3c	-0.034313425
213	0x3d538831	0.051643554
214	0x3b96d845	0.004603418
215	0x3b922941	0.0044604843
216	0x3cc9dc9b	0.024641326
217	0x3b197c04	0.0023419866
218	0x3c77b053	0.015117723
219	0x3e36f68d	0.17867489
220	0x3d146de0	0.036237597
221	0x3d604ae2	0.054758914
222	0x3da5c0af	0.08093392
223	0xbc333656	-0.010938248
224	0x3d803ae0	0.062612295
225	0xbd0a497b	-0.033761483
226	0x3cb9e563	0.022692388
227	0xbda8f408	-0.0824967
228	0x3d932c44	0.071861774
229	0x3d43bb71	0.04778618
230	0xbda9dfd0	-0.08294642
231	0xbdf80995	-0.121112026
232	0xbc800ed9	-0.01563208
233	0x3d2f5c7e	0.042812817
234	0x3e0ff1aa	0.14057031
235	0xbb5c9b50	-0.003366191
236	0xbdf955fb	-0.121746026
237	0x3ded2522	0.11579348
238	0x3b52c77f	0.0032162366
239	0x3d07471c	0.0330268
240	0x3d9af077	0.07565396
241	0x3da2290c	0.07917985
242	0xbc515ebf	-0.012778937
243	0x3c465fda	0.012107814
244	0xbdcdc6ec	-0.10047707
245	0x3d89ce9d	0.067288615
246	0xbdf4b71b	-0.11948987
247	0xbdf187de	-0.11793493
248	0xbdc14318	-0.09436625
249	0x3bca3058	0.006170314
250	0xbd286727	-0.041114
251	0x3df6bf3e	0.12048195
252	0x3dc656cc	0.09684524
253	0xbd986059	-0.07440252
254	0xbd030aeb	-0.031992834
255	0xbe02a80d	-0.12759419

blocks.0.attn.proj.bias f4 [64]
0	0xbe031d42	-0.1280413
1	0x3dd704dd	0.104989745
2	0xbd6d8bbc	-0.05799459
3	0x3c9133ba	0.01772486
4	0xbd333a6b	-0.043756884
5	0x3c9164f8	0.017748341
6	0x3daa5382	0.08316709
7	0xbe13d99c	-0.1443848
8	0x3c15b208	0.009136684
9	0x3dc32887	0.09529214
10	0x3c618246	0.01376397
11	0x3dd654ca	0.10465391
12	0x3d2c3c80	0.042049885
13	0x3d7a2aed	0.061076093
14	0xbdd327a5	-0.10310296
15	0xbd602b84	-0.054729
16	0xbd8e7597	-0.06956022
17	0xbdecbedd	-0.11559842
18	0x3c0489dd	0.00808951
19	0xbd2dc470	-0.042423666
20	0xbd8e9ab4	-0.06963101
21	0x3d9425ae	0.07233749
22	0xbba38e76	-0.004991348
23	0x3d9c3aa5	0.07628373
24	0x3df34d3f	0.11879968
25	0x3bf7174f	0.0075406204
26	0xbd360baf	-0.044444736
27	0xbdb01cab	-0.08599218
28	0x3ca1a41d	0.019731576
29	0x3da95837	0.08268779
30	0x3dd7de7f	0.10540485
31	0xbc540727	-0.012941158
32	0xbdede800	-0.11616516
33	0x3aea4140	0.0017872229
34	0xbd930265	-0.07178191
35	0xbe009543	-0.12556939
36	0xbdb90551	-0.09034217
37	0xbdb9fa69	-0.09080965
38	0x3d8265b1	0.06367052
39	0xbd9b6570	-0.07587707
40	0x3d53a089	0.05166677
41	0x3d9317e8	0.07182294
42	0x3dc6fb0d	0.09715853
43	0xbdde20df	-0.108461134
44	0x3d2a045a	0.041508056
45	0xbe235dbe	-0.15953729
46	0xbbfa7907	-0.007643822
47	0xbc15bb7d	-0.009138939
48	0x3b68fedd	0.00355523
49	0x3ce244cb	0.027620694
50	0x3dbc50ff	0.09195136
51	0xbd0a642b	-0.033786934
52	0x3cd80525	0.02636964
53	0xbdc4c8cc	-0.096086115
54	0x3ca50777	0.020145161
55	0x3df03a17	0.1172983
56	0x3c36e686	0.0111633595
57	0x3dcbb299	0.09946174
58	0xbde5174a	-0.11186083
59	0x3d07c2bb	0.033144694
60	0x3cc21628	0.023692206
61	0xbd8c219a	-0.068423465
62	0x3d7c56b8	0.06160614
63	0x3deae3b2	0.11469211

blocks.0.norm2.weight f4 [64]
0	0x3f89185c	1.0710559
1	0x3f82359c	1.017261
2	0x3f855974	1.0417924
3	0x3f710cfd	0.94160444
4	0x3f802066	1.0009887
5	0x3f727a37	0.94717735
6	0x3f7b5c52	0.98187745
7	0x3f7db39d	0.99102193
8	0x3f7f1035	0.99634105
9	0x3f77fe6a	0.9687258
10	0x3f84820b	1.0352186
11	0x3f787f62	0.9706937
12	0x3f880fbf	1.0629805
13	0x3f77c50a	0.9678503
14	0x3f749529	0.955401
15	0x3f7de45c	0.99176574
16	0x3f86b06c	1.052259
17	0x3f7c903f	0.986576
18	0x3f88a987	1.0676736
19	0x3f8a13d3	1.07873
20	0x3f7dc7cc	0.9913299
21	0x3f8b013a	1.0859749
22	0x3f89d2df	1.0767478
23	0x3f71f4be	0.9451407
24	0x3f84c4ea	1.0372593
25	0x3f807707	1.0036324
26	0x3f89ebff	1.0775145
27	0x3f6a9c51	0.9164477
28	0x3f77d68b	0.9681174
29	0x3f841d66	1.0321472
30	0x3f813d88	1.0096903
31	0x3f8301fd	1.0234982
32	0x3f73df9d	0.9526308
33	0x3f8384b6	1.0274875
34	0x3f80902e	1.0044
35	0x3f820cf7	1.0160207
36	0x3f7e9dc5	0.9945949
37	0x3f765275	0.9621957
38	0x3f84b769	1.0368472
39	0x3f812d26	1.0091903
40	0x3f7d876a	0.9903475
41	0x3f71cf5a	0.9445702
42	0x3f87df98	1.061511
43	0x3f81d6fb	1.0143732
44	0x3f863acb	1.0486692
45	0x3f7c8cae	0.9865216
46	0x3f82a2ea	1.0205967
47	0x3f773340	0.96562576
48	0x3f7b3175	0.9812234
49	0x3f7f0b6f	0.9962682
50	0x3f767da1	0.96285444
51	0x3f845fad	1.0341698
52	0x3f845653	1.0338844
53	0x3f889e65	1.0673338
54	0x3f83eec2	1.0307238
55	0x3f87dc49	1.0614101
56	0x3f84f13e	1.0386121
57	0x3f8219fb	1.0164179
58	0x3f86e861	1.0539666
59	0x3f6a8f1a	0.91624606
60	0x3f80dba4	1.0067029
61	0x3f7b22c7	0.9809994
62	0x3f7862ec	0.9702594
63	0x3f72bcab	0.94819134

blocks.0.norm2.bias f4 [64]
0	0x3d0cf8e3	0.034417044
1	0x3c2a7220	0.010403186
2	0xbc58afe6	-0.013225531
3	0x3bfc8043	0.0077057197
4	0x3a293558	0.0006454787
5	0x3d3f9230	0.046770275
6	0xbbe3e94a	-0.0069553005
7	0x3d1191d7	0.035539474
8	0xbd37db80	-0.044887066
9	0x3d3e36ef	0.046439108
10	0x3d027154	0.03184636
11	0x3c5447dd	0.012956587
12	0xbca81a67	-0.020520402
13	0xbd002ce5	-0.031292815
14	0x3cd3cd65	0.025854776
15	0xbcb10820	-0.02161032
16	0xbc537da3	-0.012908372
17	0xbcf60db0	-0.030035824
18	0xbb9ac5ef	-0.0047233026
19	0xbb063ee9	-0.0020484275
20	0x3d5bed09	0.05369285
21	0x3b322502	0.0027182703
22	0x3d15fe8d	0.03661971
23	0xbd2cada9	-0.042157803
24	0x3ccb66ff	0.024829386
25	0x3d35bdde	0.044370525
26	0xbc498392	-0.012299435
27	0xbcca2485	-0.024675617
28	0xbc4cade7	-0.012492633
29	0x3ce156e2	0.02750725
30	0x3cc124e3	0.02357716
31	0x3cfb0986	0.03064419
32	0xbd71126e	-0.058855467
33	0xbbc069a3	-0.005871968
34	0x3d36e1eb	0.044649046
35	0xbb15c318	-0.002285188
36	0xbc5e5d11	-0.013571993
37	0x3cb54955	0.022129694
38	0xbc28c17e	-0.010300038
39	0xbc76b156	-0.015056929
40	0xbcc41ba6	-0.023938965
41	0xbc4704d7	-0.01214715
42	0x3bea929a	0.0071585895
43	0x3ce02e8f	0.02736595
44	0xbd27ffcc	-0.04101543
45	0xbc28e77e	-0.010309098
46	0xbb0ea794	-0.0021767365
47	0x3d19bfc1	0.037536386
48	0xbc81939b	-0.015817454
49	0xbcead2cd	-0.02866497
50	0x3c7255f9	0.014791005
51	0xba556b1b	-0.0008141265
52	0xbc32cf18	-0.010913633
53	0x3c2c4ab9	0.010515862
54	0x3b9e0b7f	0.004823148
55	0x3c40e73d	0.0117738815
56	0xbc2b4a95	-0.010454793
57	0xbd08ce45	-0.03339984
58	0x3c0bcab8	0.008532219
59	0x3d140b86	0.036143802
60	0x3c773d8f	0.01509036
61	0xb9359ca4	-0.00017319858
62	0x3c91e120	0.017807543
63	0x3d497efb	0.049193364

blocks.0.ffn.net.0.weight f4 [128, 64]
0	0xbdffce50	-0.12490523
1	0xbd90ad4b	-0.07064303
2	0x3e0767cf	0.13223194
3	0xbc54d872	-0.012991058
4	0x3bdbfabf	0.006713241
5	0x3da04b48	0.07826859
6	0x3afb1a1c	0.0019157561
7	0xbcd41a3c	-0.025891416
8	0xbd812328	-0.06305534
9	0x3da03cfa	0.0782413
10	0x3dc2e92f	0.095171325
11	0x3b630f30	0.0034646504
12	0x3d8740ed	0.066041805
13	0x3d9adf37	0.07562106
14	0x3d47407b	0.048645478
15	0xbe02296a	-0.1271111
16	0xbde800de	-0.113282904
17	0xbde2b093	-0.11068835
18	0x3ce299cb	0.027661225
19	0x3d940f33	0.072294615
20	0x3d7bb921	0.06145585
21	0xbd8cd638	-0.068767965
22	0xbd7c11e2	-0.061540492
23	0xbda768a4	-0.081742555
24	0x3c205916	0.009786865
25	0xbdda69a2	-0.10664679
26	0xbc7dc12a	-0.015487948
27	0xbd65d919	-0.056115244
28	0x3d5b52e5	0.05354585
29	0x3ccdee38	0.025138006
30	0xbdd87213	-0.10568633
31	0xbd6f5548	-0.05843094
32	0x3e1830e2	0.14862397
33	0x3e142013	0.1446536
34	0x3d69d794	0.057090357
35	0xbe171173	-0.1475275
36	0x3d58aa24	0.052896634
37	0xbdb97307	-0.09055143
38	0x3d190209	0.037355457
39	0x3d8edd30	0.06975782
40	0x3cc29023	0.02375037
41	0xbd9a016e	-0.07519804
42	0x3e019a38	0.12656486
43	0x3bb59e06	0.0055425195
44	0x3c9768b7	0.01848255
45	0x3df89353	0.12137475
46	0x3a843054	0.0010085204
47	0x3b865cb3	0.004100406
48	0xbdcbf9bd	-0.09959743
49	0xbd363669	-0.044485483
50	0x3dcbf164	0.09958151
51	0x3d447ae8	0.047968775
52	0xbc860810	-0.016361266
53	0xbd8dfa09	-0.06932456
54	0x3e316c71	0.17326523
55	0xbe6f5b47	-0.23374663
56	0x3d06d6ee	0.032919817
57	0x3e1c2be2	0.15251115
58	0x3d1a5347	0.037677076
59	0x3deb9e2f	0.115047805
60	0xbd46b141	-0.048508886
61	0x3df0b0aa	0.11752446
62	0xbd9234e1	-0.07138992
63	0xbce08089	-0.02740504
64	0x3c87bf5e	0.016570743
65	0x3d660148	0.056153566
66	0x3da461e0	0.08026481
67	0xbd887264	-0.06662443
68	0x3cf64a5e	0.030064758
69	0xbda662b7	-0.08124297
70	0x3d515a76	0.05111166
71	0xbd15f7d8	-0.036613315
72	0xbdf80f2c	-0.12112269
73	0x3de194f4	0.11014739
74	0x3d4658f3	0.048424672
75	0xbd29f080	-0.041489124
76	0x3d435e54	0.04769738
77	0xbda83f73	-0.08215227
78	0xbc6791fd	-0.014133927
79	0xbc93c6bd	-0.018039102
80	0x3c8ab142	0.016930226
81	0xbdc776f9	-0.09739489
82	0x3d558fb0	0.052138984
83	0x3d8bdfb5	0.06829778
84	0x3d2ee57e	0.04269933
85	0x3d0a88a5	0.03382172
86	0x3c6a4966	0.014299726
87	0xbc83cf76	-0.016090136
88	0xbda4288d	-0.08015547
89	0xbceecf56	-0.0291516
90	0x3ca6e33a	0.020372022
91	0x3dc3ca9f	0.09560131
92	0x3da3d443	0.0799947
93	0xbc71b400	-0.014752388
94	0xbdbed0cf	-0.09317171
95	0xbc13c4cf	-0.009019091
96	0xbd329d80	-0.043607235
97	0xbd38ab8e	-0.045085482
98	0xbd0f5eb2	-0.035002418
99	0x3d85d1c8	0.06534153
100	0xbe00aab6	-0.12565121
101	0x3d80b885	0.06285194
102	0xbe1dbebc	-0.1540479
103	0x3d9efe1e	0.07763313
104	0xbdad716b	-0.084688984
105	0x3cd7d423	0.026346272
106	0x3df02c7a	0.11727233
107	0x3df232c8	0.11826092
108	0xbe25df07	-0.1619836
109	0x3d97c8ef	0.07411372
110	0x3df0e6f8	0.11762804
111	0x3c9be5fc	0.019030564
112	0x3dfd6560	0.12372851
113	0xbd91042e	-0.07080875
114	0x3e1a128c	0.15046138
115	0x3e03c45d	0.12867875
116	0xbc2a6687	-0.010400421
117	0x3e03e2b5	0.1287945
118	0xbd98d5fe	-0.07462691
119	0xbd9d34cc	-0.07676086
120	0x3dd9ddb9	0.10637993
121	0xbe0d13b7	-0.13777052
122	0xbcb50daa	-0.022101242
123	0x3d271d25	0.04079928
124	0xbdab2646	-0.083569095
125	0x3ddd88ac	0.10817084
126	0xbce55f54	-0.027999558
127	0x3dd1f7da	0.10252352
128	0xbd57406d	-0.052551676
129	0x3e36c1d9	0.17847385
130	0x3deeb8f4	0.11656371
131	0x3ce1e413	0.027574575
132	0xbdc24ab8	-0.09486908
133	0xbb827148	-0.0039807893
134	0x3d95d02f	0.073150985
135	0x3c2a1ef7	0.010383359
136	0x3c57ed3a	0.013179118
137	0x3d88d4ed	0.06681237
138	0xbdf5901c	-0.11990377
139	0x3e08189e	0.1329064
140	0xbd8327a3	-0.064040445
141	0xbd74f46e	-0.05980342
142	0xbdcda20d	-0.10040674
143	0xbd9cab81	-0.07649899
144	0xbdfdc1e2	-0.12390496
145	0x3c9b9755	0.01899306
146	0x3de01b5e	0.1094272
147	0x3d529d5f	0.051419612
148	0x3e0b705f	0.13617085
149	0x3dd6db82	0.104910865
150	0xbdb5ae0e	-0.08871089
151	0x3dfe8d7d	0.124293305
152	0x3d420ad7	0.04737362
153	0x3dd83b10	0.1055814
154	0xbda929ab	-0.08259901
155	0xbce20e2c	-0.027594648
156	0xbc6f5757	-0.014608226
157	0x3df27dab	0.118403755
158	0xbe11167f	-0.14168738
159	0x3d3a5b53	0.04549725
160	0xbd13d737	-0.036093917
161	0xbdc8b557	-0.09800213
162	0xba048ecb	-0.0005056678
163	0xbdc989de	-0.09840749
164	0xbdcd5db2	-0.100276366
165	0x3d1dfd56	0.038571678
166	0x3da30664	0.07960203
167	0xbb0512f5	-0.0020305489
168	0xbdde62e7	-0.10858708
169	0xbe004628	-0.12526762
170	0x3d704397	0.05865821
171	0x3d41f737	0.047354903
172	0xbdc94c28	-0.09828979
173	0x3e2dbccb	0.1696655
174	0x3dc76c19	0.09737415
175	0x3dc686b4	0.09693661
176	0xbe08ab8e	-0.13346693
177	0xbd7a06d6	-0.061041676
178	0x3bc7304a	0.0060787546
179	0x3da0ad99	0.07845611
180	0x3d8b216b	0.06793483
181	0x3d8cece9	0.068811245
182	0xbd43e37c	-0.047824368
183	0x3c0e47b2	0.008684086
184	0x3d19b2a4	0.03752388
185	0xbdc90664	-0.09815672
186	0x3e166cb2	0.14689901
187	0xbd4017ce	-0.046897702
188	0x3c57d1db	0.013172592
189	0xbd7ca5b6	-0.06168147
190	0xbd832a09	-0.06404502
191	0x3da94875	0.08265773
192	0x3daa6050	0.083191514
193	0x3df77842	0.12083484
194	0xbd3ecc93	-0.046581816
195	0x3e026d08	0.12736905
196	0x3e0a6b0b	0.13517396
197	0xbae9fc9c	-0.0017851773
198	0x3ba07910	0.0048972443
199	0x3db19e57	0.08672779
200	0x3e122280	0.14270973
201	0x3d90f83b	0.07078596
202	0x3d406bd1	0.04697782
203	0x3de8af16	0.1136152
204	0x3dd4d8f3	0.10392942
205	0x3d7d9cdc	0.06191717
206	0x3db8edf2	0.090297595
207	0xbdd6e6b7	-0.10493224
208	0x3d9e955a	0.0774333
209	0xbcdcaaf8	-0.026936993
210	0x3dfeefa1	0.12448049
211	0xbe78ab01	-0.24283983
212	0x3e09e48b	0.13466088
213	0x3ded321e	0.11581825
214	0xbdc3a872	-0.09553613
215	0xbdb28dc0	-0.08718443
216	0xbd6cf077	-0.057846513
217	0xbd4ea0d4	-0.050446346
218	0xbd535628	-0.051595837
219	0xbc96684e	-0.018360283
220	0x3d55d4f9	0.05220506
221	0x3be7cae1	0.0070737456
222	0x3cd3d007	0.025856031
223	0xbda70a57	-0.08156269
224	0xbca3ae16	-0.019980472
225	0xbe123b82	-0.14280513
226	0x3d89cce4	0.06728533
227	0x3df9fb55	0.12206141
228	0xbdbb6834	-0.091507345
229	0xbc5ff005	-0.013668065
230	0x3e123d2f	0.14281152
231	0x3c1892ac	0.009312313
232	0xbdee66d8	-0.1164071
233	0xbd62c11d	-0.05535995
234	0x3b7e5bd5	0.003881206
235	0x3d7ebf72	0.062194295
236	0xbe23cadf	-0.15995358
237	0x3dfd3006	0.12362675
238	0xbd33708d	-0.04380851
239	0x3bc04ec1	0.005868763
240	0xbd08b15c	-0.033372268
241	0xbdbaa198	-0.09112853
242	0xbcf19157	-0.029488249
243	0x3dffdae7	0.12492924
244	0x3dea2972	0.11433686
245	0x3d440685	0.04785778
246	0xbd61d5cc	-0.055135533
247	0x3da0c4d1	0.0785004
248	0x3dab9e32	0.08379783
249	0xbd826879	-0.06367583
250	0x3d8013d8	0.06253785
251	0xbd8c7bbd	-0.06859539
252	0x3d198371	0.037478868
253	0x3d477318	0.048693746
254	0xbde0a621	-0.109691866
255	0x3e234838	0.15945518
