new experiments/Transformer results on MNIST/checkpoints_mnist_transformer/transformer_mnist_epoch_4.pth (torch, 300463 bytes, 32 tensors)

cls_token f4 [1, 1, 64]
0.2714207 0.08199023 -0.57193226 -1.0790033 -0.9492948 -1.4313052 0.80422217 0.9024444
-0.40663907 -0.06720604 -0.61994123 0.052545555 0.8093704 0.8472514 -0.33205974 -0.040116396
0.11663164 -0.99644727 -0.8749033 0.12260917 -1.8669349 0.3655876 -0.7180366 -0.0753137
-0.3204496 0.10344555 -0.970909 1.6959808 0.7267787 -0.1275023 -0.3505181 0.56979835
-0.045139495 -0.90872574 -0.94486934 -0.02526477 -0.4274689 -2.0635512 0.5824276 -0.77504355
-0.41195866 0.7031098 1.3523595 0.41773885 -0.6269091 -0.075948134 -0.6351843 -0.55717635
0.6604217 -1.1607895 -0.25875378 0.49942064 -0.09479068 -0.38930494 0.16293547 0.27373224
-1.0126882 0.9325627 -0.52299005 -0.48503935 0.34186727 0.3086143 0.560745 -0.8396588
00000000: a7f7 8a3e 7eea a73d 276a 12bf c81c 8abf
00000010: fc04 73bf 0235 b7bf 81e1 4d3f 9906 673f
00000020: ff32 d0be 52a3 89bd 78b4 1ebf 023a 573d
00000030: e632 4f3f 78e5 583f bc03 aabe 1751 24bd
00000040: 92dc ee3d 2b17 7fbf aaf9 5fbf 841a fb3d
00000050: b9f7 eebf 4c2e bb3e 3fd1 37bf 123e 9abd
00000060: f811 a4be 43db d33d 7e8d 78bf e615 d93f
00000070: 2b0e 3a3f f78f 02be 1c77 b3be 4ede 113f
00000080: 31e4 38bd 40a2 68bf f5e2 71bf 10f8 cebc
00000090: 34dd dabe 3911 04c0 fa19 153f 4169 46bf
000000a0: 3fec d2be 01ff 333f 1e1a ad3f dee1 d53e
000000b0: 1d7d 20bf b28a 9bbd 709b 22bf 1ca3 0ebf
000000c0: 6611 293f c094 94bf 607b 84be 10b4 ff3e
000000d0: 9e21 c2bd fa52 c7be 8ed8 263e a226 8c3e
000000e0: c49f 81bf 6ebc 6e3f ade2 05bf 1457 f8be
000000f0: 3a09 af3e b202 9e3e fc8c 0f3f e1f3 56bf

pos_embed f4 [1, 50, 64]
-0.38859445 0.063718095 0.8403876 -0.46518967 -0.27465916 -1.4363209 2.0169754 0.14271103
-0.14901477 -1.6604626 0.066869214 -1.4087409 -0.8292789 0.7696083 1.4862474 0.8384484
-0.20193367 0.5809352 0.49243858 0.15126069 -0.16931884 -0.43244925 0.43919995 1.0933299
-0.24070933 -0.09065438 0.729273 0.019398166 0.0864056 -0.03165684 0.06639263 -1.8285848
0.3543062 1.727716 0.03511423 -0.38479394 -0.2761574 -0.8611033 -0.3196495 1.3120158
0.7679516 1.5186815 -1.3132684 0.24518897 0.7855349 1.341656 0.9334589 0.4500626
0.05341912 -0.2851804 -0.8101359 -1.0541755 -1.1379272 -1.2947515 -1.5654665 -0.5936753
0.8740238 -0.078975365 0.0056897127 -0.3304654 -0.9843812 1.1193042 -0.90753156 -1.0049107
0.9559793 0.9399026 0.9062136 1.204037 1.1170605 1.9728178 -0.3273934 -0.5770628
0.04133241 -0.5409879 -0.7128104 -0.31482184 0.024751693 -0.5478346 -0.78001887 0.5986133
-2.5899808 0.38125664 0.39443877 0.7201231 0.44332737 0.90390295 -1.5883667 0.43283767
-1.885667 -1.390825 -0.043384016 -0.62300074 0.38612592 -0.6273458 0.1693319 0.069793485
-1.4307845 1.4421357 -0.9376579 0.103033006 -1.4138529 1.7084138 -0.64539653 0.45280325
-0.641407 -0.7253863 0.40199214 2.183855 -0.97384757 -0.06638555 -0.38791043 0.5544849
0.32433864 1.8232929 0.4797185 -0.33382466 0.5603017 0.64212257 0.85419065 -0.3926814
-0.084992684 -1.7769226 -0.11425369 0.29289263 1.015701 0.33977842 -0.033220496 -1.5023496
0.6402208 -0.049113363 -0.52629554 0.69161654 -0.08225007 -2.4866145 -1.2309839 -0.4612807
0.38330153 0.40522942 -0.46172303 -0.5904948 0.61283666 -1.5626923 -0.7547276 1.1198916
1.067135 -0.4566481 0.95172906 -0.5008585 0.17128824 1.474089 0.48286346 1.599762
-0.7018546 -0.15191872 -0.045857925 1.727869 -0.27610916 0.8529817 1.4046942 -0.120647155
-0.08468128 1.603922 -2.5199065 -0.25491288 -2.5413108 -0.8428916 0.57659173 -1.4132537
0.58437866 1.1683387 1.6257826 -1.5638187 -2.0241883 -0.40453064 -0.73630065 -0.227883
-0.10790496 0.07659437 0.01855367 -0.40417382 0.17293774 -0.36748585 -0.7247608 -0.1206618
0.72954 -1.8851964 -1.0684428 0.20732297 2.269833 -0.3520002 -0.8858424 0.43353197
-0.9499607 -1.2190814 0.0006870236 0.42733505 -1.0061042 -0.49432182 -0.32218432 -0.03974942
0.044864498 1.1319352 -0.145625 -0.17581366 0.9797004 0.2450281 -0.043192122 0.7315302
0.7583009 -0.5083563 -0.3683868 0.3975502 -0.91112226 -0.055284757 0.5846576 -1.7684168
-0.038154464 2.6714294 1.3145311 -0.16301599 -0.53624845 -0.5519483 0.33535343 -0.2922375
0.77102923 -0.1908499 0.31859386 1.4108919 -0.5396037 -0.20683138 0.12588711 0.32279244
-0.30745888 -1.417115 2.55045 -0.6848345 0.1326678 -0.7237241 0.4749983 -0.6291821
-0.7181268 0.91184396 0.5967885 0.9510223 0.009533918 1.3117343 0.07300659 0.081943154
0.39420623 0.056109574 -0.26096943 1.4391518 -1.2398893 1.9634544 0.2606146 -0.5796948
00000000: daf5 c6be a27e 823d a423 573f 572d eebe
00000010: 20a0 8cbe 5dd9 b7bf 2016 0140 d722 123e
00000020: 5497 18be 0a8a d4bf baf2 883d 9f51 b4bf
00000030: 9f4b 54bf 0d05 453f 5b3d be3f 8ea4 563f
00000040: b3c7 4ebe 2bb8 143f e920 fc3e 15e4 1a3e
00000050: eb61 2dbe fd69 ddbe d1de e03e 3cf2 8b3f
00000060: 827c 76be 01a9 b9bd a3b1 3a3f e7e8 9e3c
00000070: 6bf5 b03d 9aaa 01bd dcf8 873d 110f eabf
00000080: 9f67 b53e cc25 dd3f f0d3 0f3d b603 c5be
00000090: 8164 8dbe 4471 5cbf 19a9 a3be 22f0 a73f
000000a0: 7a98 443f 2864 c23f 2e19 a8bf d112 7b3e
000000b0: d118 493f 62bb ab3f 2af7 6e3f 9b6e e63e
000000c0: 02ce 5a3d 2a03 92be 1165 4fbf 39ef 86bf
000000d0: 99a7 91bf 6bba a5bf 3561 c8bf 1bfb 17bf
000000e0: 06c0 5f3f d6bd a1bd c570 ba3b c332 a9be
000000f0: 6800 7cbf 5c45 8f3f fd53 68bf eaa0 80bf
00000100: 0fbb 743f 759d 703f 9dfd 673f e21d 9a3f
00000110: d7fb 8e3f 4b85 fc3f 1ca0 a7be 63ba 13bf
00000120: 2c4c 293d 2f7e 0abf be7a 36bf 5430 a1be
00000130: 10c4 ca3c e33e 0cbf 51af 47bf b93e 193f
00000140: 3fc2 25c0 1234 c33e e1f3 c93e fd59 383f
00000150: cefb e23e 2f66 673f 9a4f cbbf e69c dd3e
00000160: 895d f1bf 8e06 b2bf 70b3 31bd fa7c 1fbf
00000170: 4cb2 c53e bc99 20bf 5765 2d3e e3ef 8e3d
00000180: f223 b7bf e797 b83f 590a 70bf f802 d33d
00000190: 22f9 b4bf 4ead da3f b538 25bf d4d5 e73e
000001a0: 4033 24bf ebb2 39bf ead1 cd3e 48c4 0b40
000001b0: 134e 79bf 26f5 87bd 329c c6be b9f2 0d3f
000001c0: b70f a63e a961 e93f aa9d f53e 11eb aabe
000001d0: ef6f 0f3f 2562 243f 3dac 5a3f 890d c9be
000001e0: a510 aebd 3372 e3bf d7fd e9bd 06f6 953e
000001f0: 7e02 823f 70f7 ad3e 3712 08bd fe4c c0bf
00000200: 83e5 233f 182b 49bd 4ebb 06bf c80d 313f
00000210: ba72 a8bd b124 1fc0 e190 9dbf fc2c ecbe
00000220: 1940 c43e 3b7a cf3e f666 ecbe ab2a 17bf
00000230: dde2 1c3f 4d06 c8bf d435 41bf 9c58 8f3f
00000240: e197 883f c8cd e9be 84a4 733f 4338 00bf
00000250: 2f66 2f3e f3ae bc3f e139 f73e 00c5 cc3f
00000260: beac 33bf 9590 1bbe 85d5 3bbd d02a dd3f
00000270: 2e5e 8dbe 025d 5a3f 05cd b33f db15 f7bd
00000280: 616d adbd 514d cd3f 2646 21c0 f183 82be
00000290: d6a4 22c0 bec7 57bf 849b 133f 7fe5 b4bf
000002a0: d799 153f 1f8c 953f a519 d03f 362b c8bf
000002b0: 4d8c 01c0 a41e cfbe 337e 3cbf 295a 69be
000002c0: 47fd dcbd 82dd 9c3d defd 973c dfef cebe
000002d0: 9716 313e 1b27 bcbe ec89 39bf 891d f7bd
000002e0: 22c3 3a3f 1e4e f1bf bcc2 88bf 794c 543e
000002f0: f244 1140 5f39 b4be 91c6 62bf e7f7 dd3e
00000300: a030 73bf dc0a 9cbf 6019 343a a9cb da3e
00000310: 06c8 80bf c017 fdbe 58f5 a4be 4ad0 22bd
00000320: d6c3 373d 41e3 903f b81e 15be 7f08 34be
00000330: a5cd 7a3f a5e8 7a3e 39ea 30bd 9045 3b3f
00000340: 0220 423f a323 02bf 329d bcbe b38b cb3e
00000350: 4f3f 69bf 4572 62bd 1fac 153f 7b5b e2bf
00000360: db47 1cbd b3f8 2a40 8e42 a83f aaed 26be
00000370: 9447 09bf 7c4c 0dbf 72b3 ab3e 27a0 95be
00000380: 2c62 453f 286e 43be bc1e a33e 1b98 b43f
00000390: 7823 0abf 9bcb 53be 8de8 003e 0d45 a53e
000003a0: 406b 9dbe 0664 b5bf 933a 2340 5051 2fbf
000003b0: 11da 073e fc45 39bf fa32 f33e 1412 21bf
000003c0: 28d7 37bf 9b6e 693f 22c7 183f 3376 733f
000003d0: 2734 1c3c e9e6 a73f 7b84 953d d0d1 a73d
000003e0: 66d5 c93e 27d3 653d c99d 85be 2036 b83f
000003f0: b1b4 9ebf 7952 fb3f 476f 853e e166 14bf

patch_embed.projection.weight f4 [64, 1, 4, 4]
-0.15348977 -0.034905992 0.02883947 0.07896817 -0.26912197 -0.05779106 -0.02713872 0.1021046
-0.31786585 -0.0816691 0.19216023 0.27403468 -0.17931294 0.02693846 0.17655051 0.3558203
-0.057849202 -0.19958933 0.18136519 -0.06008524 -0.17727113 -0.27524218 -0.14414243 -0.12839915
-0.018126901 -0.05057854 0.11003159 -0.065079115 0.06525955 0.2919399 0.31030062 -0.01652924
-0.21756808 -0.20979142 -0.29691243 -0.24067067 -0.1087366 -0.05784848 -0.27324384 0.13528164
0.1060609 -0.021784225 -0.2181602 0.085753575 -0.10573452 -0.056849986 0.08796699 0.2526349
-0.1311163 -0.12558451 -0.17581598 -0.23803613 -0.11367555 0.031293016 0.07078253 0.047044452
0.21386869 0.09196353 0.22371791 -0.05626866 0.28616297 0.2891041 0.24311778 -0.088159434
0.23252454 0.16879341 0.2570405 0.0012403269 0.050193157 0.00086900906 -0.18492207 -0.27825588
0.17543739 0.08825989 -0.08029952 -0.22907205 0.24277993 0.09079642 -0.0056396476 -0.04632149
-0.090318576 0.15053841 0.2476422 -0.04380511 0.023401106 0.084075555 0.038275335 -0.14054699
-0.06407012 0.27364957 0.28295478 -0.1403026 0.10139429 -0.00208467 0.0077810674 -0.020164084
0.19536641 -0.057796307 0.17677537 0.15744075 0.033965763 -0.12805976 -0.23810394 0.16639885
-0.011088893 -0.022020452 0.08457346 -0.029481273 0.03233107 -0.043691065 -0.09261396 -0.3116108
0.14454909 0.07876891 -0.022305205 0.13697073 -0.19647896 -0.34580958 0.06237219 -0.1033066
-0.19121791 -0.2719324 0.06515127 -0.14659427 0.13556747 -0.12591761 -0.08349674 0.17933321
-0.16731592 0.013061124 0.22128728 0.0013414097 -0.059143823 0.081797875 0.17461672 -0.098516636
-0.049792547 -0.099669926 0.06509531 0.06346696 -0.14687209 -0.22147894 0.27841854 0.18292472
0.31632712 -0.008919339 0.07471451 -0.10811436 0.016455019 -0.2702229 0.16027443 -0.27197632
0.10934149 -0.014696257 0.15996176 0.14459912 -0.34338623 -0.29850033 -0.29197317 -0.13320337
0.08822827 -0.042227734 0.06781294 0.115426086 0.17522639 -0.20742239 -0.11605915 0.37578166
-0.18501957 -0.14107369 -0.12962598 0.25738472 -0.06506989 -0.011724451 -0.09224481 0.0032942898
0.2330071 0.14238648 -0.023129893 0.2034333 0.19644593 -0.19279695 0.19071113 -0.23957354
0.116333716 0.17362198 0.12176362 0.086271174 0.05722196 -0.14945374 -0.27363354 -0.30101946
0.09516145 0.11493454 0.20115337 0.17250864 0.018857518 0.13497585 -0.014155472 0.003480406
-0.09147582 -0.024581706 0.22914182 -0.18922246 0.030708766 0.00073582074 -0.034600127 -0.12159458
-0.09664724 0.26189238 0.07745946 0.24225351 0.07067321 0.18734439 -0.10034826 0.0014722288
0.011896299 -0.097812325 0.1938248 0.112455145 0.11850799 -0.05236207 0.02530256 0.05922605
-0.03577726 0.0024225335 0.022191245 0.28700635 -0.17501147 0.05178888 -0.07499554 0.071860805
-0.13478476 -0.17856975 0.22589263 -0.13820088 0.09307202 0.083377965 -0.07707992 0.054079834
0.33563498 -0.26657313 -0.178324 -0.07786785 0.27824873 -0.1617678 0.05282613 0.17592773
0.27844587 0.02115469 -0.21236776 0.2555598 -0.120991156 -0.11732007 -0.30476314 0.09029097
00000000: 6c2c 1dbe 96f9 0ebd c140 ec3c 10ba a13d
00000010: 5bca 89be 52b6 6cbd 0552 debc 371c d13d
00000020: 50bf a2be 2142 a7bd a7c5 443e 464e 8c3e
00000030: d09d 37be 0cae dc3c a8c9 343e 142e b63e
00000040: 49f3 6cbd 2561 4cbe ccb7 393e f11b 76bd
00000050: 9086 35be 8bec 8cbe 139a 13be 117b 03be
00000060: de7e 94bc 712b 4fbd 3e58 e13d 3348 85bd
00000070: cda6 853d 2679 953e b9df 9e3e 5468 87bc
00000080: 2bca 5ebe 90d3 56be e804 98be 5f72 76be
00000090: 4bb1 debd 87f2 6cbd 9ee6 8bbe 4587 0a3e
000000a0: 7536 d93d d574 b2bc 6365 5fbe 929f af3d
000000b0: 578b d8bd 88db 68bd 0a28 b43d 5d59 813e
000000c0: 5a43 06be 3a99 00be 1b09 34be bebf 73be
000000d0: bace e8bd 1b2d 003d 6ef6 903d afb1 403d
000000e0: 6500 5b3e 6057 bc3d 4f16 653e f779 66bd
000000f0: f483 923e 7405 943e def3 783e ef8c b4bd
00000100: ea1a 6e3e 2ed8 2c3e d09a 833e 7792 a23a
00000110: 5797 4d3d 36ce 633a 365c 3dbe 8e77 8ebe
00000120: dca5 333e 9ac1 b43d 1374 a4bd dd91 6abe
00000130: 4d9b 783e 79f3 b93d cbcc b8bb 9abb 3dbd
00000140: f2f8 b8bd be26 1a3e eb95 7d3e fd6c 33bd
00000150: adb3 bf3c ce2f ac3d 99c6 1c3d 8deb 0fbe
00000160: 3237 83bd cc1b 8c3e 73df 903e 7cab 0fbe
00000170: cfa7 cf3d f59e 08bb 53f8 fe3b 262f a5bc
00000180: 220e 483e d2bb 6cbd 9a04 353e 2638 213e
00000190: af1f 0b3d 1922 03be 85d1 73be 7664 2a3e
000001a0: 30ae 35bc 3c64 b4bc da34 ad3d b682 f1bc
000001b0: 966d 043d 67f5 32bd 63ac bdbd 738b 9fbe
000001c0: ad04 143e 9851 a13d 68b9 b6bc 0e42 0c3e
000001d0: c831 49be f40d b1be fb79 7f3d 6992 d3bd
000001e0: a1ce 43be b93a 8bbe 076e 853d cf1c 16be
000001f0: 33d2 0a3e 8cf0 00be 5700 abbd 20a3 373e
00000200: dd54 2bbe 53fe 553c 2299 623e 3ed2 af3a
00000210: cb40 72bd a585 a73d bace 323e 17c3 c9bd
00000220: 45f3 4bbd bf1f ccbd b150 853d f7fa 813d
00000230: a365 16be 60cb 62be e08c 8e3e 9e50 3b3e
00000240: a1f5 a13e 6b22 12bc ec03 993d 106b ddbd
00000250: adcc 863c a85a 8abe fb1e 243e 7b40 8bbe
00000260: 6eee df3d 92c8 70bc 04cd 233e cb11 143e
00000270: 52d0 afbe 09d5 98be 827d 95be 7766 08be
00000280: 06b1 b43d fdf6 2cbd 83e1 8a3d 8364 ec3d
00000290: 8c6e 333e 8966 54be 6bb0 edbd 7466 c03e
000002a0: c575 3dbe 9f75 10be acbc 04be eec7 833e
000002b0: 5d43 85bd e917 40bc d9ea bcbd 03e5 573b
000002c0: 6a99 6e3e c3cd 113e e77a bdbc d250 503e
000002d0: 1f29 493e 906c 45be c749 433e c452 75be
000002e0: 5f40 ee3d f6c9 313e 345f f93d f1ae b03d
000002f0: 9361 6a3d 670a 19be b219 8cbe 391f 9abe
00000300: 02e4 c23d cd62 eb3d 26fb 4d3e 1ba6 303e
00000310: 157b 9a3c 1c37 0a3e 5aec 67bc 8617 643b
00000320: ad57 bbbd 935f c9bc 27a4 6a3e 88c3 41be
00000330: f390 fb3c 18e4 403a ddb8 0dbd 9406 f9bd
00000340: fdee c5bd c216 863e 11a3 9e3d 4e11 783e
00000350: 1ebd 903d 35d7 3f3e 6383 cdbd cdf7 c03a
00000360: b2e8 423c d451 c8bd 027a 463e e24e e63d
00000370: 51b4 f23d 9c79 56bd 5047 cf3c 0497 723d
00000380: 2d8b 12bd 5ec3 1e3b 6aca b53c 7ff2 923e
00000390: 3536 33be 9420 543d 4397 99bd c22b 933d
000003a0: 0405 0abe fdda 36be 6650 673e 8884 0dbe
000003b0: 8b9c be3d 11c2 aa3d 14dc 9dbd d182 5d3d
000003c0: 59d8 ab3e 467c 88be 919a 36be 2e79 9fbd
000003d0: 9e76 8e3e 75a6 25be 3660 583d 6626 343e
000003e0: 7590 8e3e 9a4c ad3c ef76 59be bcd8 823e
000003f0: 36ca f7bd 8145 f0bd ea09 9cbe 79ea b83d

patch_embed.projection.bias f4 [64]
-0.23687373 -0.057202436 -0.11667169 0.05641744 -0.15835027 0.12553282 -0.0713777 0.011683581
0.099069275 -0.19054045 -0.1644863 -0.07942563 0.16848196 0.08952227 0.17830421 0.33071437
-0.0009613201 0.022321435 0.17562976 -0.082343325 -0.19826654 0.0072508105 0.09607818 -0.12007352
-0.027809499 -0.039475378 0.119137146 -0.09220935 -0.14584349 0.13073854 0.16094548 0.17699294
-0.24842829 -0.04711743 -0.21282107 -0.046685725 -0.048684712 -0.19708389 -0.028243616 0.023815725
0.073901504 0.10304294 0.09661239 -0.13847007 -0.010851742 -0.02728065 -0.11051443 0.14354971
-0.226365 -0.1203013 0.20771979 0.17066456 -0.061946012 -0.110865094 0.13999288 -0.029186336
0.08640124 -0.29525355 -0.0630696 0.044091843 -0.0944995 0.08964078 0.14281352 -0.23758765
00000000: 078f 72be 1a4d 6abd 91f1 eebd f915 673d
00000010: 9326 22be ad8b 003e 792e 92bd 7e6c 3f3c
00000020: d5e4 ca3d 091d 43be 196f 28be e8a9 a2bd
00000030: 8986 2c3e 7457 b73d 6195 363e 6553 a93e
00000040: 1a01 7cba 71db b63c 4ad8 333e 9ea3 a8bd
00000050: 6206 4bbe 3598 ed3b a3c4 c43d 1be9 f5bd
00000060: bfd0 e3bc efb0 21bd 2dfe f33d 41d8 bcbd
00000070: ff57 15be 53e0 053e e4ce 243e a33d 353e
00000080: fc63 7ebe 35fe 40bd c4ed 59be 8839 3fbd
00000090: 9f69 47bd 5cd0 49be 285f e7bc 3219 c33c
000000a0: ac59 973d 2d08 d33d b7dc c53d 19cb 0dbe
000000b0: 81cb 31bc ab7b dfbc 6455 e2bd b2fe 123e
000000c0: 3acc 67be 8760 f6bd 7fb4 543e b1c2 2e3e
000000d0: 1abb 7dbd 3d0d e3bd 4b5a 0f3e 2f18 efbc
000000e0: 22f3 b03d 792b 97be a22a 81bd a699 343d
000000f0: f488 c1bd 9695 b73d b53d 123e 2d4a 73be

blocks.0.norm1.weight f4 [64]
0.9378358 1.025294 0.9864248 0.94656605 0.94036883 0.99032867 0.94939643 1.0196011
1.104571 0.9260797 0.99192286 1.0010629 0.9835654 0.80301315 1.0141999 0.9672338
0.91466165 0.97671247 0.98910934 0.9734932 0.93826747 1.0447856 0.9884167 0.8745583
0.95652956 1.0367595 0.9907862 0.9543949 0.8998158 1.0064553 1.0491878 0.9200975
1.0229735 0.9949819 1.0592027 1.0140452 0.9785713 0.88885015 1.0980306 1.031962
1.0574539 1.0000113 0.9987655 1.0102205 0.9644435 0.94693786 0.97784853 0.9474723
1.0427352 1.0198457 1.0621891 0.9429541 1.0520132 1.0232646 0.9094868 1.1429782
1.0471563 1.0251702 1.0121696 0.8849674 1.0593117 0.9216672 1.0333513 1.0152936
00000000: 0216 703f d53c 833f 5686 7c3f 2752 723f
00000010: 03bc 703f 2e86 7d3f a50b 733f 4a82 823f
00000020: 9562 8d3f 8f13 6d3f a8ee 7d3f d422 803f
00000030: f1ca 7b3f 4592 4d3f 4dd1 813f a29c 773f
00000040: 4427 6a3f d409 7a3f 4536 7d3f da36 793f
00000050: 4c32 703f 89bb 853f e008 7d3f 0ee3 5f3f
00000060: 1fdf 743f 89b4 843f 2aa4 7d3f 3953 743f
00000070: 545a 663f 87d3 803f c94b 863f 828b 6b3f
00000080: ccf0 823f 22b7 7e3f f493 873f 3ccc 813f
00000090: a683 7a3f af8b 633f 448c 8c3f 5517 843f
000000a0: a65a 873f 5f00 803f 19af 7f3f e84e 813f
000000b0: c5e5 763f 856a 723f 4854 7a3f 8b8d 723f
000000c0: 5978 853f 4e8a 823f d0f5 873f 7165 713f
000000d0: 5ea8 863f 56fa 823f 20d4 683f 1c4d 923f
000000e0: 3809 863f c738 833f c68e 813f 398d 623f
000000f0: 8797 873f 62f2 6b3f db44 843f 24f5 813f

blocks.0.norm1.bias f4 [64]
-0.06806124 -0.093427114 -0.04340247 0.056590218 0.009656455 0.03408393 -0.08131932 -0.039300933
0.08159073 -0.0053791297 -0.053973943 0.05968004 0.05502321 -0.03789477 0.008566743 -0.004884501
0.014823159 0.030214537 -0.027763082 0.042134214 -0.0005912682 0.01612498 -0.0880904 -0.04655607
-0.028841242 0.062420875 0.05161515 -0.07392744 -0.039383493 -0.057079468 0.038186774 -0.02401528
-0.038765036 0.056613 -0.03281731 -0.116157435 0.011774953 0.012278401 0.16093874 -0.15815754
0.02323105 -0.04268879 -0.12210404 0.05744996 0.049314145 -0.0030127151 -0.027790517 0.038681686
-0.094511375 0.037314277 0.041779425 0.07296853 -0.014135363 0.02990578 0.0064834054 -0.037363477
0.08862377 -0.0010564033 0.05097542 0.08845928 0.059504095 0.018175364 0.034331664 -0.006629884
00000000: b163 8bbd b756 bfbd cac6 31bd 25cb 673d
00000010: 1c36 1e3c 979b 0b3d be8a a6bd 04fa 20bd
00000020: 0a19 a73d 6943 b0bb c813 5dbd 0f73 743d
00000030: 0460 613d 8c37 1bbd 865b 0c3c 2a0e a0bb
00000040: d6dc 723c 7a84 f73c 676f e3bc ed94 2c3d
00000050: 56ff 1aba 8918 843c bd68 b4bd 94b1 3ebd
00000060: 7844 ecbc 08ad 7f3d 686a 533d 4567 97bd
00000070: 9650 21bd 29cc 69bd bc69 1c3d b1bb c4bc
00000080: 16c8 1ebd 08e3 673d 726b 06bd f3e3 edbd
00000090: bceb 403c 592b 493c 20cd 243e 0df4 21be
000000a0: 0b4f be3c 71da 2ebd af11 fabd a650 6b3d
000000b0: a1fd 493d f970 45bb f0a8 e3bc b070 1e3d
000000c0: 2e8f c1bd dbd6 183d e720 2b3d 8670 953d
000000d0: 0298 67bc f7fc f43c bf72 d43b 720a 19bd
000000e0: 6180 b53d 0377 8aba 9acb 503d 242a b53d
000000f0: 91ba 733d 80e4 943c 5c9f 0c3d 7f3f d9bb

blocks.0.attn.qkv.weight f4 [192, 64]
-0.05810316 -0.022536922 -0.08110191 0.009559757 0.00089013175 0.019979956 0.19618176 0.06201991
-0.08874694 -0.08738944 0.071721435 -0.08955407 0.07797773 -0.09819469 0.109206945 -0.13743655
0.22015443 -0.15475753 0.10117954 -0.115549386 -0.03170076 -0.08827298 0.03248793 0.09444811
-0.058269333 0.096068114 -0.15136683 -0.025422597 -0.054924432 0.048394185 -0.10258841 0.15927039
0.00219209 0.03960783 0.0017348988 0.12079495 0.0020797446 -0.063864596 -0.024199495 -0.10062337
0.064139694 -0.06987468 -0.047676243 0.09267108 -0.11616051 0.05998491 0.029922117 -0.033531524
-0.06525919 -0.03821619 -0.0740448 -0.09397681 0.10770017 -0.15204981 -0.09264633 0.10141569
0.062299002 0.22543952 -0.06903646 -0.16470008 -0.014078095 -0.06845672 -0.06460861 -0.0872995
0.115304366 0.10761639 0.14494497 -0.07725155 0.06843106 -0.022597155 0.12942962 0.1277066
-0.1627432 -0.042234566 0.026720656 0.028823923 -0.24598698 0.0920783 0.28339675 -0.06727765
0.14627296 -0.22081803 -0.08474496 -0.12876008 -0.007132135 0.17808978 -0.02732036 0.3572964
-0.040221233 0.027011912 -0.029126253 -0.17181589 0.18542378 0.28036815 -0.09797712 0.013095345
0.15906684 0.068061665 0.002087547 -0.02893263 -0.2157618 0.006627298 0.028222425 0.21332331
0.059097663 0.06485961 0.21675953 -0.06440241 -0.08718661 0.19924192 0.12209206 -0.33265346
0.14261638 0.002945756 -0.13612339 -0.052793577 0.17683959 -0.18462902 -0.05878014 -0.19240353
-0.16882229 -0.05908821 0.1698467 -0.20595522 -0.1571793 0.10310474 -0.24713784 0.08320652
0.097734384 -0.054674663 -0.07308707 0.196088 -0.04059067 0.047400955 -0.093242615 -0.13182756
0.20047766 -0.052707467 0.041181635 -0.076044835 0.13120066 -0.029297926 -0.19999748 -0.107341826
-0.04463229 0.123972476 -0.045827284 0.062853 0.089876175 -0.35423177 0.06465927 0.06631629
0.13247839 -0.14491203 0.08591996 0.019870125 -0.21610056 -0.0075786035 0.10381591 -0.009822046
-0.3006418 0.08805004 -0.011401053 -0.24557444 -0.06833255 0.016891668 -0.15775926 -0.06739183
0.01038703 -0.117869735 -0.082721524 0.007286596 -0.12655629 -0.052891076 0.22861044 0.018247498
-0.041644987 0.06781857 -0.06253393 -0.13525312 -0.00682458 0.036853746 -0.10648642 -0.15388677
0.021720184 0.2541646 -0.22066961 0.073452376 0.2556543 -0.005913835 0.0063598994 0.026605345
0.014176108 0.1208704 0.046664517 0.07791323 -0.09160296 -0.06387432 -0.118985936 -0.18083858
0.13388057 0.16488865 0.028412169 -0.034530796 -0.11673993 -0.07035143 0.040535524 -0.060086098
0.1059767 -0.23903187 0.14291643 -0.042828847 0.032536138 0.066822544 -0.1184888 0.023599008
0.0124346595 -0.14641729 -0.14064454 0.062074844 0.09311089 0.21180177 -0.1488197 -0.070147865
0.07234443 0.040119644 0.13956608 0.030009666 0.08325345 -0.08366259 -0.06007969 -0.0009912394
0.04801615 0.043171223 0.11065913 -0.032783385 0.112496376 0.027795995 -0.082460225 -0.21381934
0.11061974 -0.075148866 -0.00909443 0.08313509 -0.067208305 -0.006287297 0.0025805628 -0.0070403256
-0.00014932011 0.14937642 0.06397072 -0.11475348 -0.16156806 0.017767798 -0.11140848 -0.058461126
00000000: 94fd 6dbd 5a9f b8bc c218 a6bd 87a0 1c3c
00000010: bb57 693a 01ad a33c dfe3 483e 9708 7e3d
00000020: f5c0 b5bd 3cf9 b2bd b0e2 923d 2068 b7bd
00000030: cab2 9f3d 4c1a c9bd e4a7 df3d 2bbc 0cbe
00000040: 2a70 613e c278 1ebe 3837 cf3d 28a5 ecbd
00000050: a8d8 01bd 77c8 b4bd 1012 053d 036e c13d
00000060: d3ab 6ebd 5cbf c43d e8ff 1abe 0d43 d0bc
00000070: 71f8 60bd fb38 463d df19 d2bd c717 233e
00000080: 2ba9 0f3b d23b 223d 8b65 e33a 5863 f73d
00000090: 534c 083b 71cb 82bd 053e c6bc a013 cebd
000000a0: ac5b 833d 751a 8fbd 2a48 43bd 56ca bd3d
000000b0: 90e5 edbd bdb2 753d 3a1f f53c 5a58 09bd
000000c0: 9ca6 85bd 9488 1cbd cda4 97bd ea76 c0bd
000000d0: e891 dc3d f2b2 1bbe 5cbd bdbd 07b3 cf3d
000000e0: 3d2d 7f3d 9ed9 663e fd62 8dbd 23a7 28be
000000f0: cfa7 66bc 0933 8cbd 8551 84bd 15ca b2bd
00000100: b224 ec3d fb65 dc3d 746c 143e 1036 9ebd
00000110: 9525 8c3d ab1d b9bc 3389 043e 85c5 023e
00000120: 27a6 26be 27fe 2cbd 47e5 da3c 2620 ec3c
00000130: 03e4 7bbe 8c93 bc3d 6119 913e ddc8 89bd
00000140: 94c8 153e 1f1e 62be c48e adbd afd9 03be
00000150: afb4 e9bb 2b5d 363e f3ce dfbc 8eef b63e
00000160: 05bf 24bd 1648 dd3c 2e9a eebc 81f0 2fbe
00000170: bbdf 3d3e 6a8c 8f3e 3aa8 c8bd dc8d 563c
00000180: 6be2 223e ea63 8b3d 3acf 083b 1f04 edbc
00000190: a9f0 5cbe ce29 d93b b732 e73c 6d71 5a3e
000001a0: 6410 723d 1dd5 843d 36f6 5d3e 69e5 83bd
000001b0: e58e b2bd 1306 4c3e 670b fa3d 8e51 aabe
000001c0: 070a 123e 960d 413b ee63 0bbe 143e 58bd
000001d0: 7015 353e 640f 3dbe 72c3 70bd 6e05 45be
000001e0: c0df 2cbe 7b06 72bd 4bec 2d3e ede5 52be
000001f0: 9cf3 20be 9428 d33d b411 7dbe 2e68 aa3d
00000200: f728 c83d 8af2 5fbd acae 95bd 4bcb 483e
00000210: 6742 26bd 8127 423d fcf5 bebd cefd 06be
00000220: 044a 4d3e c9e3 57bd 13ae 283d 65bd 9bbd
00000230: 7759 063e 3402 f0bc 24cc 4cbe 08d6 dbbd
00000240: 59d0 36bd 48e5 fd3d 64b5 3bbd 13b9 803d
00000250: 0011 b83d de5d b5be 146c 843d d6d0 873d
00000260: 6aa8 073e d263 14be cef6 af3d acc6 a23c
00000270: 7749 5dbe ef55 f8bb 709d d43d a6ec 20bc
00000280: b9ed 99be 9453 b43d 7bcb 3abc de77 7bbe
00000290: f0f1 8bbd 6560 8a3c a58b 21be ba04 8abd
000002a0: 5d2e 2a3c b065 f1bd e769 a9bd 66c4 ee3b
000002b0: f997 01be 50a4 58bd db18 6a3e c77b 953c
000002c0: ef93 2abd 76e4 8a3d ca11 80bd cb7f 0abe
000002d0: baa0 dfbb f4f3 163d 8d15 dabd 7e94 1dbe
000002e0: 87ee b13c dd21 823e 37f7 61be 336e 963d
000002f0: 1fe5 823e d8c8 c1bb b466 d03b 74f3 d93c
00000300: e842 683c e68a f73d 4b23 3f3d f990 9f3d
00000310: 559a bbbd 8ad0 82bd e6ae f3bd c02d 39be
00000320: fd17 093e 92d8 283e a3c0 e83c 2a70 0dbd
00000330: 5815 efbd 6914 90bd 9408 263d d71c 76bd
00000340: 500a d93d c5c4 74be af58 123e 4d6d 2fbd
00000350: 9d44 053d 42da 883d 42aa f2bd b552 c13c
00000360: beba 4b3c 6aee 15be 1f05 10be 3142 7e3d
00000370: ecb0 be3d 90e2 583e 3164 18be afa9 8fbd
00000380: 5129 943d 7f54 243d 69ea 0e3e d5d6 f53c
00000390: c980 aa3d 4b57 abbd 1f16 76bd 7aec 81ba
000003a0: 95ac 443d 4fd4 303d 41a1 e23d df47 06bd
000003b0: 8064 e63d 6db4 e33c e8e0 a8bd 75f3 5abe
000003c0: 9a8c e23d a6e7 99bd ce00 15bc bb42 aa3d
000003d0: 82a4 89bd ab05 cebb a91e 293b 88b2 e6bb
000003e0: d092 1cb9 22f6 183e 1503 833d df03 ebbd
000003f0: 1972 25be c68d 913c 212a e4bd ef74 6fbd

blocks.0.attn.qkv.bias f4 [192]
-0.13106029 -0.31627116 -0.080563486 0.10684355 0.05585918 -0.05146746 0.1275238 0.16078426
-0.03940457 -0.13031869 0.08989699 -0.082052164 0.0085592875 -0.14240375 0.20578068 -0.13531609
0.019827908 -0.06141181 0.013487512 0.036195472 0.08729779 0.050984994 -0.13726379 0.17991583
-0.0472584 -0.0938809 0.031553768 0.014303122 0.1096109 0.17536677 0.0913289 -0.18188472
-0.08036438 0.13527642 0.019329289 -0.020763883 -0.091756776 0.06141291 0.02551028 -0.14316277
0.11729705 -0.070888616 0.16305558 -0.14994848 -0.1341786 -0.1981569 0.07321475 0.090754345
0.09020917 0.039318524 0.012897906 0.12347107 0.042242795 -0.3139935 -0.06625704 0.017157193
-0.06340344 -0.026396912 0.12931639 0.0486265 -0.24249755 0.15636386 -0.110430144 0.007121065
0.087616526 0.082064606 0.051858414 0.08083968 0.046076637 -0.09092351 -0.051611144 0.007988674
0.09503097 -0.10582166 0.0068341726 -0.028360026 -0.09453284 -0.011907699 -0.08948633 0.05253885
-0.025691414 0.004586026 -0.13205762 -0.030756654 -0.031321287 0.034819983 -0.045371253 0.0990224
-0.0285378 -0.008711346 0.06396467 -0.0731013 0.10467521 -0.02704191 0.10092684 0.10916082
0.007722256 0.065746725 -0.026344338 -0.071915835 -0.09163412 0.10953265 -0.027760224 0.08315948
0.030738363 -0.068669975 0.03528009 -0.10412668 -0.0902907 0.009965488 0.08090995 0.10420714
-0.019509088 0.024697036 -0.009268755 0.09522614 -0.03605517 -0.024705227 -0.07521884 -0.05143217
0.09879509 0.019026596 -0.10941141 -0.06255866 0.002797493 0.07381534 0.090573736 0.070098706
0.004156157 -0.03530012 0.043033246 -0.04250376 -0.013981274 -0.035714597 -0.08864267 0.098722324
-0.016324898 -0.063472986 0.05134542 -0.0591848 -0.0013201699 -0.051120058 0.05148221 0.010069241
-0.034213446 -0.027197372 -0.10868922 -0.109901585 0.058039114 0.039087463 0.047314253 -0.08008894
0.04940053 0.036107816 -0.07190786 -0.08260624 -0.0061875717 0.21223316 0.0069770054 -0.06862188
-0.055754475 0.0104190875 0.07769967 -0.08380363 -0.013109575 0.060309645 0.04468633 0.057912946
-0.007109687 0.057265174 -0.06845447 0.07198575 -0.02504182 -0.0913514 -0.08188015 -0.09786731
0.0033021756 0.054442495 0.1209917 0.10011182 0.027507203 0.012649271 -0.12093043 0.049418602
0.076144606 0.11126573 0.01589922 0.03516364 -0.10910116 -0.02011592 0.12250372 -0.0628597
00000000: ab34 06be 4bee a1be 78fe a4bd cbd0 da3d
00000010: 98cc 643d 8bcf 52bd 9995 023e a1a4 243e
00000020: b066 21bd 4372 05be ea1b b83d f70a a8bd
00000030: 413c 0c3c 4ad2 11be 2cb8 523e 4d90 0abe
00000040: 236e a23c f38a 7bbd bafa 5c3c b441 143d
00000050: 2fc9 b23d a4d5 503d e18e 0cbe db3b 383e
00000060: 0692 41bd a144 c0bd 863e 013d a457 6a3c
00000070: ae7b e03d 5993 333e a50a bb3d fd3f 3abe
00000080: 1496 a4bd e785 0a3e 7558 9e3c 0519 aabc
00000090: faea bbbd 1b8c 7b3d effa d03c 4399 12be
000000a0: 7039 f03d 0d2e 91bd 0bf8 263e 188c 19be
000000b0: 1d66 09be a4e9 4abe 9df1 953d 6add b93d
000000c0: 96bf b83d 760c 213d bd51 533c 66de fc3d
000000d0: c806 2d3d c2c3 a0be c5b1 87bd 3e8d 8c3c
000000e0: aad9 81bd 563e d8bc 846b 043e 952c 473d
000000f0: 4751 78be d91d 203e 3329 e2bd d357 e93b
00000100: 4b70 b33d 7d11 a83d 7d69 543d 468f a53d
00000110: dbba 3c3d 1b36 babd 3566 53bd ede2 023c
00000120: 999f c23d 07b9 d8bd 32f1 df3b 4953 e8bc
00000130: 6f9a c1bd 8218 43bc 9c44 b7bd fa32 573d
00000140: cd76 d2bc 6046 963b 1d3a 07be 61f5 fbbc
00000150: c04a 00bd 669f 0e3d 35d7 39bd 42cc ca3d
00000160: 1bc8 e9bc 09ba 0ebc e9ff 823d 22b6 95bd
00000170: f55f d63d ff86 ddbc bbb2 ce3d b58f df3d
00000180: fa0a fd3b 38a6 863d 15d0 d7bc 9c48 93bd
00000190: abaa bbbd a752 e03d 6969 e3bc 844f aa3d
000001a0: 05cf fb3c d8a2 8cbd db81 103d 5e40 d5bd
000001b0: 55ea b8bd 4946 233c 1eb4 a53d 8e6a d53d
000001c0: 86d1 9fbc 7051 ca3c fadb 17bc ec05 c33d
000001d0: 96ae 13bd 9e62 cabc 560c 9abd 8aaa 52bd
000001e0: 1555 ca3d aadd 9b3c 1713 e0bd c11e 80bd
000001f0: 2556 373b 7f2c 973d b97e b93d e98f 8f3d
00000200: 5f30 883b dc96 10bd a143 303d 6c18 2ebd
00000210: b711 65bc 7849 12bd 4a8a b5bd ee2e ca3d
00000220: cbbb 85bc 20fe 81bd 934f 523d c36b 72bd
00000230: 8d09 adba 4463 51bd 03df 523d 75f9 243c
00000240: 6623 0cbd 06cd debc 7498 debd 1514 e1bd
00000250: 6cba 6d3d 2d1a 203d 97cc 413d ac05 a4bd
00000260: 3658 4a3d cae5 133d 6e44 93bd 762d a9bd
00000270: 1dc1 cabb a653 593e 5d9f e43b a189 8cbd
00000280: ce5e 64bd d2b4 2a3c 0121 9f3d 3da1 abbd
00000290: 8bc9 56bc 3f07 773d 0309 373d 2036 6d3d
000002a0: 61f8 e8bb e38e 6a3d db31 8cbd 446d 933d
000002b0: 8124 cdbc 7116 bbbd c8b0 a7bd a86e c8bd
000002c0: 5069 583b 18ff 5e3d 7fca f73d 6d07 cd3d
000002d0: c956 e13c e33e 4f3c 60aa f7bd 296b 4a3d
000002e0: b4f1 9b3d 49df e33d 153f 823c c007 103d
000002f0: 6e70 dfbd 24ca a4bc 3be3 fa3d 96bc 80bd

blocks.0.attn.proj.weight f4 [64, 64]
-0.06350727 -0.10343824 0.11136262 0.09870902 0.028425742 0.08372733 -0.046694867 -0.10338473
-0.028651655 0.12399349 0.021837607 0.0874833 0.11604845 -0.012683788 0.13072383 0.12271606
-0.09972614 -0.07350985 -0.044265185 -0.066321634 0.05534069 -0.0010306605 0.07318697 -0.13773295
0.13385594 -0.015569832 -0.14962345 -0.117207564 0.06280814 -0.14737013 -0.08485143 -0.118778326
0.02267742 -0.10707664 0.06106516 -0.14275984 -0.018394161 -0.12252789 -0.06567031 0.04901266
0.07484471 -0.0744574 -0.060671024 0.026959218 0.07290072 -0.10735114 0.057194635 0.09128365
0.20156056 0.109825246 -0.046940666 0.03874939 -0.008274549 -0.049982067 0.05810865 0.0986974
-0.00053917756 -0.119753666 0.09850887 -0.06993362 0.19118856 0.029993135 -0.09010868 -0.11515599
0.060328476 -0.107689396 -0.057626408 -0.05054112 -0.027283767 -0.045601293 -0.0172525 0.078264594
0.1897184 -0.083110236 0.115432255 0.06104211 0.09300389 -0.017348137 -0.19199516 0.10347565
-0.025643686 -0.04790473 0.0016544907 -0.115740694 0.027360233 0.11347174 -0.14395963 0.13756064
-0.070534095 0.054900683 0.08648875 0.0092739 -0.01829944 -0.0858431 0.006807881 -0.15880738
-0.10084215 0.08744977 0.14794894 0.09713977 0.019559396 0.3428646 0.06898695 -0.009195467
-0.12712115 0.046270695 0.19111075 -0.06581732 0.07187758 0.18657382 0.06036389 0.14329305
-0.19952291 0.027669804 0.12191796 0.10319764 0.110401526 0.06853238 -0.0385811 0.07173643
0.014501073 -0.043613903 -0.14763936 -0.073834874 0.0077062147 0.039632324 0.058163475 0.08464728
0.021583281 0.13201056 -0.026480382 -0.070619844 0.08022436 -0.04112579 -0.028230967 -0.018153643
-0.09363929 0.024105115 0.14927047 -0.1583438 -0.011025267 0.12057935 -0.15883084 0.0009828191
-0.14260331 0.13280569 0.096012205 -0.097651675 0.06759281 -0.11213769 -0.046120666 0.06010407
0.1435957 0.013703952 -0.05732173 0.036352243 0.010928106 -0.007093979 -0.0028900923 -0.041589376
0.22635807 -0.11260176 0.10899716 -0.06822162 -0.1988436 0.13514148 -0.19726759 0.19221646
0.0061162394 -0.08417028 -0.021449208 -0.109074324 0.13235329 0.045573242 0.025156498 -0.21274556
-0.17702347 -0.056019362 0.15633266 -0.0183388 0.05602563 -0.026697837 -0.038317844 -0.14664108
-0.093420774 -0.05410497 -0.007562793 -0.04380122 0.015102374 -0.18491067 -0.056000773 -0.05605936
-0.11733833 0.16690646 -0.119800165 0.07435095 -0.09882348 0.045193277 0.059945222 0.1164036
0.042329498 -0.004461829 0.113225535 -0.053989146 0.09168926 0.06273759 -0.014308989 0.09952141
-0.09603432 -0.042099822 0.13674091 0.10932736 -0.038076285 0.051552724 -0.109808445 0.07650416
-0.02356024 0.03223081 0.057544384 0.1841048 -0.005256631 0.057035334 0.08504451 0.052226607
0.0037606664 -0.035720233 -0.083344504 -0.070062615 0.13331307 0.05461416 0.04609315 -0.051765665
-0.036872618 -0.024191137 0.06501977 -0.002166918 -0.12706588 0.08829558 0.0027551618 0.052115995
0.10748469 0.08633871 -0.026766855 0.045285627 -0.19581664 0.13241978 -0.1385429 -0.19115911
-0.04100748 -0.092080005 -0.040530775 0.15611379 0.04304625 -0.0931791 -0.12233505 -0.14151904
00000000: 1910 82bd 6ed7 d3bd 1612 e43d f427 ca3d
00000010: 1add e83c 3c79 ab3d 1e43 3fbd 60bb d3bd
00000020: e0b6 eabc 4df0 fd3d c8e4 b23c 722a b33d
00000030: cfaa ed3d aacf 4fbc 78dc 053e 8f52 fb3d
00000040: 383d ccbd 558c 96bd 694f 35bd a3d3 87bd
00000050: ebac 623d 3a17 87ba 0de3 953d de09 0dbe
00000060: 8811 093e 9c18 7fbc e436 19be 850a f0bd
00000070: 8ea1 803d 32e8 16be 96c6 adbd 0d42 f3bd
00000080: ffc5 b93c ff4a dbbd 761f 7a3d a32f 12be
00000090: 5aaf 96bc e7ef fabd 287e 86bd 80c1 483d
000000a0: 2f48 993d 1f7d 98bd 2e82 78bd 94d9 dc3c
000000b0: f94c 953d eada dbbd ec44 6a3d ecf2 ba3d
000000c0: e465 4e3e 0fec e03d db44 40bd aeb7 1e3d
000000d0: f991 07bc ffb9 4cbd 5603 6e3d dd21 ca3d
000000e0: 9857 0dba 6941 f5bd 05bf c93d 5c39 8fbd
000000f0: efc6 433e 2ab4 f53c e68a b8bd e7d6 ebbd
00000100: fe1a 773d 428c dcbd ab09 6cbd 3504 4fbd
00000110: 3582 dfbc 6cc8 3abd 1d55 8dbc 3049 a03d
00000120: 8a45 423e b335 aabd bf67 ec3d 4b07 7a3d
00000130: d378 be3d ae1d 8ebc 619a 44be 0beb d33d
00000140: b512 d2bc c037 44bd 7fdb d83a 7509 edbd
00000150: 9122 e03c df63 e83d 276a 13be b2dc 0c3e
00000160: 2e74 90bd 8adf 603d 0421 b13d 8ef1 173c
00000170: b5e8 95bc 82ce afbd a514 df3b 679e 22be
00000180: 5486 cebd dd18 b33d ed7f 173e 37f1 c63d
00000190: 073b a03c f38b af3e 0849 8d3d 96a8 16bc
000001a0: 0c2c 02be 5786 3d3d 89b2 433e 3bcb 86bd
000001b0: 8d34 933d 350d 3f3e 2040 773d 6abb 123e
000001c0: bc4f 4cbe c9ab e23c 20b0 f93d 4959 d33d
000001d0: 321a e23d b45a 8c3d 3707 1ebd 8dea 923d
000001e0: e995 6d3c 7ea4 32bd c62e 17be bd36 97bd
000001f0: 6a84 fc3b 8155 223d d33c 6e3d 8e5b ad3d
00000200: 6ccf b03c c72d 073e 63ed d8bc 23a1 90bd
00000210: ab4c a43d 8473 28bd a144 e7bc f3b6 94bc
00000220: f5c5 bfbd 1778 c53c 5cda 183e e124 22be
00000230: 52a3 34bc 4ef2 f63d 8da4 22be f0d1 803a
00000240: 9a06 12be 37fe 073e 0ca2 c43d 9afd c7bd
00000250: 196e 8a3d 72a8 e5bd 06e9 3cbd af2f 763d
00000260: c00a 133e 8a86 603c 31ca 6abd 17e6 143d
00000270: cc0b 333c 9c74 e8bb b467 3dbb 9f59 2abd
00000280: 69ca 673e c09b e6bd e739 df3d c7b7 8bbd
00000290: a89d 4bbe 8762 0a3e 8400 4abe 64d4 443e
000002a0: bc6a c83b 7861 acbd 40b6 afbc 5c62 dfbd
000002b0: 9f87 073e 02ab 3a3d 0015 ce3c f9d9 59be
000002c0: a445 35be 8f74 65bd ab15 203e 403b 96bc
000002d0: 227b 653d 6cb5 dabc 2cf3 1cbd 1429 16be
000002e0: 6453 bfbd 2c9d 5dbd 4ed1 f7bb e868 33bd
000002f0: f36f 773c 3959 3dbe 1161 65bd 809e 65bd
00000300: 144f f0bd 87e9 2a3e ca59 f5bd 5045 983d
00000310: f763 cabd 961c 393d 1f89 753d 0365 ee3d
00000320: b261 2d3d 8934 92bb cae2 e73d b923 5dbd
00000330: 94c7 bb3d 917c 803d 4070 6abc e2d1 cb3d
00000340: a4ad c4bd dd70 2cbd cf05 0c3e 06e7 df3d
00000350: e1f5 1bbd f328 533d 40e3 e0bd 37ae 9c3d
00000360: 6801 c1bc 7404 043d a9b3 6b3d f885 3c3e
00000370: d13f acbb e29d 693d d12b ae3d 91eb 553d
00000380: 8375 763b 614f 12bd 86b0 aabd fd7c 8fbd
00000390: 3983 083e 19b3 5f3d 2ccc 3c3d 3c08 54bd
000003a0: be07 17bd 7e2c c6bc 1629 853d da02 0ebb
000003b0: 8f1d 02be 50d4 b43d f28f 343b 9577 553d
000003c0: ef20 dc3d 59d2 b03d 2a46 dbbc 6c7d 393d
000003d0: 2884 48be 0d99 073e 31de 0dbe 37bf 43be
000003e0: 76f7 27bd 7194 bcbd 9903 26bd 4bdc 1f3e
000003f0: 4451 303d afd4 bebd cc8a fabd 5eea 10be

blocks.0.attn.proj.bias f4 [64]
-0.17508715 0.085367635 -0.045814738 -0.009554686 -0.050085563 0.0028236813 0.103315555 -0.08090421
-0.0105371615 0.13316667 0.0113337 0.08284545 0.031704683 0.034037717 -0.0120697655 -0.045333844
-0.06212333 -0.16752936 0.0049047605 -0.0030901395 -0.07005236 0.10691989 -0.014353431 0.044670463
0.09028204 -0.021959025 -0.041835643 -0.038936783 0.027019057 0.12369549 0.08150379 0.0051451726
-0.15182582 0.037544705 -0.089401156 -0.14696869 -0.081821896 -0.11897783 0.09705479 -0.02312249
0.08790527 0.06819605 0.12510537 -0.09006336 0.038069587 -0.10342847 -0.0036673394 0.027106652
0.007823461 0.02050731 0.09538783 -0.08325565 -0.031132242 -0.06513603 -0.024749307 0.104305685
0.012164935 0.10172024 -0.114188336 0.067480005 0.024946008 -0.090038866 0.021273263 0.057516873
00000000: 0c4a 33be 3ad5 ae3d 3ca8 3bbd 428b 1cbc
00000010: 8526 4dbd 830d 393b 1b97 d33d 1bb1 a5bd
00000020: 0fa4 2cbc d85c 083e fcb0 393c e0aa a93d
00000030: c5dc 013d 226b 0b3d 44c0 45bc fbaf 39bd
00000040: 0875 7ebd d18c 2bbe 1db8 a03b f083 4abb
00000050: 9d77 8fbd d1f8 da3d a72a 6bbc 60f8 363d
00000060: cae5 b83d 6ae3 b3bc da5b 2bbd 2d7c 1fbd
00000070: 1257 dd3c 1054 fd3d 76eb a63d d698 a83b
00000080: 3a78 1bbe 7ac8 193d f417 b7bd f67e 16be
00000090: 3d92 a7bd a6aa f3bd a9c4 c63d 606b bdbc
000000a0: ae07 b43d 5faa 8b3d 9f1b 003e 2473 b8bd
000000b0: dbee 1b3d 4ed2 d3bd bf57 70bb c50e de3c
000000c0: f92d 003c f2fe a73c b25a c33d f081 aabd
000000d0: 0b09 ffbc 0a66 85bd 0fbf cabc 389e d53d
000000e0: 6f4f 473c b452 d03d 93db e9bd f532 8a3d
000000f0: 925b cc3c 4c66 b8bd 4445 ae3c d096 6b3d

blocks.0.norm2.weight f4 [64]
1.053604 1.145527 1.06889 0.8697564 1.0595785 0.8651736 0.9605225 0.96459746
1.0302893 1.0435073 1.0947063 0.8946829 1.1055814 1.0429951 0.9735704 1.0286076
1.0189741 0.9005912 1.036333 1.1337534 1.0468365 1.0924691 1.0824264 0.9368212
1.0419102 0.9664483 1.0465199 0.7882477 0.9167715 0.9953305 1.0643581 0.9778536
1.0541523 1.0133629 0.99057114 1.1386414 1.0392517 0.80551785 1.0758168 0.8898111
1.0588851 0.9122027 0.9822142 0.99370444 1.1559836 0.9983726 1.037406 1.0394561
0.97212726 1.0049239 0.9347517 1.0367206 1.1554241 1.0963625 1.0182413 1.0687193
1.1393789 1.0742776 1.0715606 0.95007956 1.0617043 0.92343396 0.9299826 0.89939916
00000000: 7fdc 863f a1a0 923f 63d1 883f 5ba8 5e3f
00000010: 45a0 873f 047c 5d3f cde4 753f dcef 763f
00000020: 85e0 833f a691 853f 561f 8c3f f009 653f
00000030: b183 8d3f dd80 853f e93b 793f 6aa9 833f
00000040: be6d 823f 258d 663f 8fa6 843f d51e 913f
00000050: bdfe 853f 07d6 8b3f f38c 8a3f 84d3 6f3f
00000060: 505d 853f 2869 773f 5df4 853f 9aca 493f
00000070: 89b1 6a3f fbcd 7e3f e33c 883f 9d54 7a3f
00000080: 76ee 863f e0b5 813f 1296 7d3f 00bf 913f
00000090: 3306 853f 6b36 4e3f 5db4 893f a9ca 633f
000000a0: 8c89 873f 1e86 693f 6472 7b3f 6a63 7e3f
000000b0: 45f7 933f 5995 7f3f b8c9 843f e60c 853f
000000c0: 55dd 783f 59a1 803f e34b 6f3f 43b3 843f
000000d0: f0e4 933f 9b55 8c3f bb55 823f cbcb 883f
000000e0: 2bd7 913f ee81 893f e628 893f 6a38 733f
000000f0: ede5 873f 2b66 6c3f 5713 6e3f 063f 663f

blocks.0.norm2.bias f4 [64]
0.050392617 -0.0571901 -0.064594015 0.0009573904 -0.03497174 0.026767075 0.08730438 0.15716062
-0.08383436 0.108566426 -0.0054120556 -0.03599977 0.057288606 0.025900718 0.12834315 -0.039884117
0.016138677 -0.032367196 -0.084757894 0.12160481 -0.043595236 -9.8631164e-05 0.04932737 -0.12618436
0.02397052 -0.007916829 0.01147221 -0.037468065 -0.12165632 -0.013536307 0.16423583 0.046180457
-0.17066659 0.060375184 0.009005334 0.02361507 0.004222061 -0.10327793 0.014572916 0.0047950237
0.009186597 0.018968139 0.048178036 0.17704716 -0.030658377 0.045292977 0.017423114 0.10467529
0.0563707 -0.028276684 -0.0015778042 0.025387604 -0.137943 -0.047399133 -0.113558486 0.08319981
0.04483085 0.00096035056 -0.10855429 0.030409276 0.0008163774 -0.015046547 0.096480474 0.008905574
00000000: 7d68 4e3d 2b40 6abd de49 84bd 62f9 7a3a
00000010: 873e 0fbd a046 db3c a4cc b23d b7ee 203e
00000020: 59b1 abbd 1358 de3d 9d57 b1bb 7f74 13bd
00000030: 75a7 6a3d be2d d43c 636c 033e 875d 23bd
00000040: 4235 843c 7793 04bd 8c95 adbd f10b f93d
00000050: eb90 32bd 34d8 ceb8 7f0b 4a3d 7936 01be
00000060: d35d c43c 96b5 01bc f0f5 3b3c 1d78 19bd
00000070: f326 f9bd 63c7 5dbc 702d 283e b827 3d3d
00000080: 39c3 2ebe f84b 773d 1c8b 133c 6474 c13c
00000090: 3759 8a3b 6183 d3bd 3dc3 6e3c 931f 9d3b
000000a0: 6183 163c 1263 9b3c 5556 453d da4b 353e
000000b0: 4727 fbbc 2185 393d ebba 8e3c 0060 d63d
000000c0: f7e4 663d 81a4 e7bc 53ce ceba aaf9 cf3c
000000d0: ee40 0dbe 9825 42bd 5a91 e8bd a964 aa3d
000000e0: 8ea0 373d 09c0 7b3a b651 debd e01c f93c
000000f0: 2902 563a cb85 76bc 8e97 c53d afe8 113c

blocks.0.ffn.net.0.weight f4 [128, 64]
-0.14297491 0.006933817 0.16448385 -0.04264641 0.039090358 0.0499348 -0.023128651 -0.053460836
-0.0076116505 0.12418075 0.13292742 0.009798178 -0.06395788 -0.011917649 0.09396207 -0.14944038
-0.09717538 -0.14555429 0.04722262 -0.045534946 0.15078472 -0.056902062 0.012070091 -0.0855112
0.06967873 -0.05221208 0.039592903 -0.1041139 0.09771361 0.11692381 -0.18527624 -0.1406732
0.112773485 0.14123829 0.15681422 -0.15705593 0.11065992 -0.044898354 0.015786184 0.122474775
0.030449692 -0.04772661 0.14094041 -0.11256029 -0.06652415 0.084395915 -0.023219353 -0.14688055
-0.10791403 -0.06781659 0.16019884 0.11921219 0.007893113 -0.04191061 0.27238047 -0.27976593
-0.022886904 0.15529265 0.05258169 0.09092065 0.008752786 0.06989862 -0.1321808 -0.04020016
0.027247889 0.027985634 0.15497896 -0.09698244 -0.022224456 -0.09597513 0.019612644 0.025329055
-0.1472813 0.16973741 0.14205855 -0.034244135 -0.008706626 -0.13351929 -0.021927673 0.09386591
-0.018296806 -0.07870727 0.04087183 0.062228855 0.17636815 0.13698801 0.08309789 -0.06653544
-0.15871018 -0.03915388 -0.044930868 0.14637575 0.08326674 -0.0003231532 -0.24406284 -0.08041054
0.020730298 -0.054448072 0.010283135 0.11026004 -0.08998855 0.029591963 -0.21784525 0.03487572
-0.119870216 0.012839444 0.08033965 0.06548289 -0.14777555 0.017388474 0.14037694 -0.038271945
0.057562515 -0.020172747 0.17834055 0.17953767 -0.09389101 0.28369915 -0.010665349 -0.022458095
0.12942769 -0.15132044 -0.06582614 -0.009524657 -0.15248254 0.08958252 -0.032918464 0.1995985
-0.039259005 0.26391205 0.16825145 0.17566979 -0.20821638 -0.059645116 0.017649004 0.018434234
-0.07296762 0.11796289 -0.18336235 0.15788847 -0.14807095 -0.17561431 -0.2317965 -0.05583744
-0.12603214 0.123683676 0.11537995 0.11417911 0.19805297 0.08592073 -0.119782366 0.1467788
0.077264674 0.1700873 -0.010625936 0.0048822775 0.09178334 0.16084039 -0.17064078 -0.012391578
-0.16613689 -0.17713585 -0.047700886 -0.13320051 -0.1057616 0.06338331 0.013457276 -0.1393898
-0.20523594 -0.12678958 0.12068909 0.1050066 0.07234609 0.14553571 0.12311327 0.0726192
-0.0044753957 -0.059833236 0.12805244 0.08629757 0.08639829 0.01574397 -0.09252091 0.09190214
0.07590132 -0.13810709 0.14210774 -0.1505092 -0.13720082 -0.101024665 -0.06024322 0.13013302
0.07750634 0.12613136 -0.069268204 0.03605605 0.21286778 -0.02487529 -0.037515085 0.15084282
0.20972355 0.09035917 0.048835218 0.05635347 0.12891474 0.04549931 0.11322898 -0.2173611
0.051678706 -0.06278688 0.09365147 -0.34314492 0.15964934 0.093842834 0.014098004 -0.110523805
-0.15028767 -0.064600416 -0.073171005 -0.08550798 0.011284959 0.062383134 0.028423756 -0.053119384
0.13113981 -0.21756104 0.088741474 0.27581325 0.03593122 0.04237725 0.15879004 -0.063038
-0.10964432 -0.1004783 0.0060095275 0.072160706 -0.29265088 0.17914736 -0.07052699 0.113688186
0.056880977 -0.09500825 0.04201214 0.099190176 0.23781864 0.048769504 -0.14277221 0.12190454
0.08541424 -0.09807155 0.06920395 -0.0391873 -0.039643593 0.013737306 -0.079363175 0.050430223
00000000: 0468 12be 1335 e33b 746e 283e 01ae 2ebd
00000010: 361d 203d 6f88 4c3d 4c78 bdbc c0f9 5abd
00000020: 276b f9bb 7a52 fe3d 201e 083e 8a88 203c
00000030: 59fc 82bd 3e42 43bc 306f c03d e606 19be
00000040: e303 c7bd 2f0c 15be 826c 413d da82 3abd
00000050: 4f67 1a3e 2312 69bd a2c1 453c 7f20 afbd
00000060: b9b3 8e3d 56dc 55bd 2b2c 223d ab39 d5bd
00000070: 131e c83d c075 ef3d 0eb9 3dbe a30c 10be
00000080: c9f5 e63d c5a0 103e e893 203e 45d3 20be
00000090: aba1 e23d 56e7 37bd 0752 813c 0ed4 fa3d
000000a0: a271 f93c fa7c 43bd af52 103e 0286 e6bd
000000b0: d03d 88bd c4d7 ac3d 8336 bebc db67 16be
000000c0: 0802 ddbd 6de3 8abd 2a0b 243e 8525 f43d
000000d0: 1e52 013c 76aa 2bbd 7475 8b3e 7b3d 8fbe
000000e0: 517d bbbc 0905 1f3e e65f 573d 9b34 ba3d
000000f0: d867 0f3c 0227 8f3d 675a 07be eca8 24bd
00000100: f736 df3c 2142 e53c ceb2 1e3e bb9e c6bd
00000110: 1010 b6bc 9c8e c4bd b2aa a03c e17e cf3c
00000120: e9d0 16be a5cf 2d3e cc77 113e 9443 0cbd
00000130: 3ca6 0ebc 48b9 08be aaa1 b3bc c53c c03d
00000140: 2fe3 95bc 4731 a1bd 3869 273d afe3 7e3d
00000150: da99 343e 9646 0c3e 3a2f aa3d bc43 88bd
00000160: ec84 22be d25f 20bd 6e09 38bd 86e3 153e
00000170: c187 aa3d e36c a9b9 9ceb 79be 48ae a4bd
00000180: 96d2 a93c f104 5fbd 987a 283c 04d0 e13d
00000190: eb4b b8bd d86a f23c d312 5fbe d8d9 0e3d
000001a0: 847e f5bd 885c 523c 1d89 a43d e51b 863d
000001b0: 7952 17be 4672 8e3c f9be 0f3e 0bc3 1cbd
000001c0: acc6 6b3d 5141 a5bc e89e 363e b9d8 373e
000001d0: ee49 c0bd 0441 913e b7bd 2ebc 0afa b7bc
000001e0: b188 043e bff3 1abe dbcf 86bd 4f0d 1cbc
000001f0: 6224 1cbe 0a77 b73d 83d5 06bd 8d63 4c3e
00000200: 0dce 20bd 7b1f 873e 1c4a 2c3e c8e2 333e
00000210: ad36 55be 704e 74bd a594 903c 6403 973c
00000220: 0c70 95bd 8796 f13d 57c3 3bbe 84ad 213e
00000230: e99f 17be 3dd4 33be 105c 6dbe cdb5 64bd
00000240: 920e 01be de4d fd3d 534c ec3d bdd6 e93d
00000250: 66ce 4a3e 35f7 af3d 7550 f5bd 2f4d 163e
00000260: f13c 9e3d 5d2b 2e3e 6818 2ebc 83fb 9f3b
00000270: e7f8 bb3d 58b3 243e 75bc 2ebe 0c06 4bbc
00000280: ca1f 2abe 1a63 35be 0162 43bd b765 08be
00000290: 8a99 d8bd 1ccf 813d e87b 5c3c 33bc 0ebe
000002a0: 5f29 52be 21d5 01be d72b f73d b30d d73d
000002b0: 302a 943d 5007 153e cf22 fc3d 60b9 943d
000002c0: 57a6 92bb b213 75bd 2e20 033e c8bc b03d
000002d0: 96f1 b03d 80f9 803c 9a7b bdbd 3037 bc3d
000002e0: 2772 9b3d f26b 0dbe b184 113e 151f 1abe
000002f0: 5f7e 0cbe 05e6 cebd 98c1 76bd 9741 053e
00000300: a5bb 9e3d 9428 013e 7ddc 8dbd 82af 133d
00000310: 03fa 593e 44c7 cbbc 6ba9 19bd 8a76 1a3e
00000320: c5c1 563e 3b0e b93d 7007 483d e5d2 663d
00000330: 3a02 043e 7c5d 3a3d 98e4 e73d e893 5ebe
00000340: 0dad 533d 6896 80bd 58cc bf3d b1b0 afbe
00000350: 1e7b 233e ac30 c03d 51fb 663c 4e5a e2bd
00000360: 03e5 19be 394d 84bd aeda 95bd cf1e afbd
00000370: 8ce4 383c 7585 7f3d f0d8 e83c b693 59bd
00000380: 8449 063e 52c8 5ebe 17be b53d 6537 8d3e
00000390: 9d2c 133d c493 2d3d db99 223e 111a 81bd
000003a0: 348d e0bd 91c7 cdbd 92eb c43b fec8 933d
000003b0: 56d6 95be 6872 373e 7470 90bd 5ad5 e83d
000003c0: 07fc 683d af93 c2bd ec14 2c3d 3824 cb3d
000003d0: bb86 733e 88c2 473d e132 12be 16a9 f93d
000003e0: a9ed ae3d bdd9 c8bd cdba 8d3d dd82 20bd
000003f0: 5261 22bd 7012 613c 2989 a2bd ec8f 4e3d

blocks.0.ffn.net.0.bias f4 [128]
-0.048336394 -0.053703606 -0.07694806 -0.151544 -0.1217666 -0.066815145 0.024579672 -0.1493029
-0.0743479 -0.05917439 0.012089622 -0.14557146 -0.038322795 -0.09112746 -0.0034136141 -0.008772722
-0.08612061 -0.10662405 -0.06490252 -0.14477924 1.6068792e-05 -0.20123817 -0.016720165 -0.0011084107
-0.08713246 -0.00850554 -0.0115829855 -0.18240859 -0.075828165 -0.028183853 -0.2130953 -0.10235219
-0.15173689 -0.1438613 -0.026612936 -0.085110724 -0.23772173 -0.016486961 0.0031606434 -0.19874835
0.03503251 -0.025315361 0.05071453 0.020850977 -0.0038895018 -0.14682476 0.02949771 -0.105150394
-0.04511966 -0.15407895 -0.070266455 -0.16942039 -0.12119925 -0.19639638 -0.021424383 0.060789872
-0.22981165 -0.18172644 -0.15484731 -0.13689362 -0.16660976 -0.1772243 -0.11966111 -0.12200298
-0.088216275 -0.07430301 0.007991454 -0.05691031 -0.19400449 -0.0918994 -0.13510278 -0.10787441
-0.0071516293 -0.060790513 -0.12210768 -0.15229212 -0.2012709 -0.14518464 -0.13134998 -0.13339563
-0.2273242 -0.17079782 0.096687414 -0.10154958 -0.11953292 -0.10409576 -0.027199384 -0.12624046
-0.026517576 -0.19726485 -0.17815952 -0.0821338 -0.16397123 -0.04280705 -0.17223455 -0.15797813
-0.13990445 -0.19196916 -0.10925872 -0.056051724 -0.12956513 -0.03297525 -0.085140266 0.015337473
-0.15440036 -0.12136054 -0.0763668 -0.17720082 -0.08115007 -0.03435369 -0.15532374 -0.209828
-0.2003473 -0.19233446 -0.15367445 -0.08445449 -0.105831616 -0.055414896 -0.04770804 -0.14529318
-0.00013712619 -0.0927058 -0.0648474 -0.107604496 -0.07279683 -0.13230793 -0.08299083 -0.13132119
00000000: 62fc 45bd 50f8 5bbd f296 9dbd 5a2e 1bbe
00000010: c460 f9bd 61d6 88bd 4f5b c93c dce2 18be
00000020: b643 98bd d860 72bd 8d13 463c af10 15be
00000030: 5df8 1cbd 09a1 babd f1b6 5fbb 77bb 0fbc
00000040: 0160 b0bd b65d dabd 9deb 84bd 0241 14be
00000050: 78cb 8637 6111 4ebe baf8 88bc 1748 91ba
00000060: 8172 b2bd d25a 0bbc 90c6 3dbc 51c9 3abe
00000070: cc4b 9bbd d3e1 e6bc a835 5abe 069e d1bd
00000080: ea60 1bbe 6050 13be 5f03 dabc 884e aebd
00000090: 536d 73be aa0f 87bc cc22 4f3b b084 4bbe
000000a0: 407e 0f3d 2962 cfbc 0aba 4f3d abcf aa3c
000000b0: 03e7 7ebb 3b59 16be 2ea5 f13c 1759 d7bd
000000c0: 65cf 38bd dfc6 1dbe dce7 8fbd 8a7c 2dbe
000000d0: 5037 f8bd 221c 49be 3082 afbc cdfe 783d
000000e0: bf53 6bbe 7f16 3abe 4b90 1ebe d72d 0cbe
000000f0: c09b 2abe 497a 35be e210 f5bd b3dc f9bd
00000100: bcaa b4bd 2d2c 98bd 96ee 023c c91a 69bd
00000110: 1da9 46be c135 bcbd 6258 0abe 42ed dcbd
00000120: 3758 eabb 79ff 78bd 9713 fabd 77f2 1bbe
00000130: f519 4ebe 48ab 14be 9c80 06be dd98 08be
00000140: adc7 68be a0e5 2ebe 0d04 c63d 3af9 cfbd
00000150: adcd f4bd 2830 d5bd 3ed1 debc 2e45 01be
00000160: 633b d9bc ccff 49be 736f 36be c435 a8bd
00000170: 13e8 27be 7256 2fbd 415e 30be 05c5 21be
00000180: 1d43 0fbe 9093 44be 09c3 dfbd 7e96 65bd
00000190: b9ac 04be 0e11 07bd 055e aebd 064a 7b3c
000001a0: 211b 1ebe e08b f8bd 3266 9cbd 2274 35be
000001b0: 0232 a6bd 74b6 0cbd 300d 1fbe 27dd 56be
000001c0: d827 4dbe 53f3 44be d65c 1dbe 7af6 acbd
000001d0: 3fbe d8bd bbfa 62bd 8169 43bd bcc7 14be
000001e0: 88c9 0fb9 8adc bdbd b7ce 84bd bf5f dcbd
000001f0: 8116 95bd bb7b 07be 19f7 a9bd 1079 06be
