new experiments/Transformer results on MNIST/checkpoints_mnist_transformer/transformer_mnist_epoch_3.pth (torch, 300463 bytes, 32 tensors)

cls_token f4 [1, 1, 64]
0.2612775 0.086694516 -0.5500284 -1.0910895 -0.98615855 -1.4530077 0.80569965 0.9225435
-0.44461712 -0.07959273 -0.6301939 0.0038439992 0.8078809 0.8830013 -0.30205426 -0.021754539
0.11360297 -1.0111357 -0.8940616 0.102331765 -1.9043027 0.38935354 -0.7397093 -0.06256661
-0.30599964 0.07787181 -0.9979953 1.7247337 0.7437357 -0.12859577 -0.35523808 0.54014033
-0.045116782 -0.8994411 -0.9570044 -0.035867095 -0.43312082 -2.0843356 0.5923259 -0.7732738
-0.4074952 0.7072642 1.3735106 0.4311946 -0.61600906 -0.06472663 -0.6450041 -0.5681878
0.6964688 -1.2050099 -0.26447633 0.4680862 -0.12712337 -0.4380722 0.13119379 0.25940877
-1.0199678 0.9582368 -0.5398495 -0.53945607 0.31209671 0.32545432 0.52269816 -0.84830123
00000000: 2ac6 853e e58c b13d a9ce 0cbf d2a8 8bbf
00000010: e374 7cbf 28fc b9bf 5542 4e3f d02b 6c3f
00000020: dba4 e3be 8301 a3bd 6354 21bf 9beb 7b3b
00000030: 48d1 4e3f 600c 623f dba6 9abe 9336 b2bc
00000040: ada8 e83d e56c 81bf 39e1 64bf 5193 d13d
00000050: 31c0 f3bf 5959 c73e 975d 3dbf ec22 80bd
00000060: fcab 9cbe 417b 9f3d 9f7c 7fbf 13c4 dc3f
00000070: 7665 3e3f 9cae 03be c4e1 b5be a346 0a3f
00000080: 60cc 38bd c641 66bf 3efe 74bf 60e9 12bd
00000090: 03c2 ddbe c165 05c0 aca2 173f 46f5 45bf
000000a0: 36a3 d0be 440f 353f 32cf af3f 8ac5 dc3e
000000b0: c5b2 1dbf 658f 84bd fd1e 25bf c174 11bf
000000c0: c74b 323f c43d 9abf 7169 87be ffa8 ef3e
000000d0: a12c 02be 004b e0be aa57 063e 3ad1 843e
000000e0: 4e8e 82bf 024f 753f 9433 0abf cb19 0abf
000000f0: 24cb 9f3e f3a1 a63e 8ccf 053f 452a 59bf

pos_embed f4 [1, 50, 64]
-0.40496713 0.06824992 0.8756205 -0.47148225 -0.30515847 -1.4580572 2.0299225 0.15564059
-0.18456034 -1.6878923 0.06309662 -1.4712296 -0.8462371 0.8046258 1.5334142 0.86510116
-0.2079685 0.58113563 0.48618054 0.13125382 -0.19066653 -0.41621488 0.42844892 1.1171001
-0.2255066 -0.11805975 0.7182319 0.032329857 0.097317114 -0.03184551 0.06560857 -1.8808677
0.35809857 1.7618848 0.032223668 -0.39878926 -0.28038076 -0.8704986 -0.31826538 1.3334787
0.78355056 1.5305368 -1.31727 0.25701573 0.80976886 1.3662527 0.9384429 0.44855723
0.083735615 -0.32114136 -0.82105875 -1.1001663 -1.1801027 -1.3520635 -1.6135136 -0.61618483
0.8845413 -0.062849045 -0.00618003 -0.38342348 -1.0266699 1.1437936 -0.9594362 -1.0151026
0.9915013 0.96959627 0.8974767 1.2094504 1.1468558 2.0090256 -0.33782798 -0.5900894
0.043230306 -0.52086806 -0.6840355 -0.33832708 0.051432867 -0.5203236 -0.7976723 0.5890497
-2.5890396 0.386282 0.4225347 0.72617185 0.39207393 0.91360503 -1.6195716 0.42008236
-1.9146738 -1.4247892 -0.038511347 -0.6052383 0.37444508 -0.62362313 0.19347273 0.05337703
-1.4394345 1.4423074 -0.9193645 0.12116045 -1.3899684 1.6919719 -0.6640526 0.4678161
-0.63186324 -0.7472174 0.33578554 2.200506 -0.9819506 -0.08403869 -0.37710485 0.5469798
0.35521123 1.8508054 0.47005332 -0.3264065 0.59561074 0.66818595 0.88860273 -0.40943933
-0.07686132 -1.7820755 -0.098295085 0.2857524 1.0343102 0.30974874 -0.04594699 -1.5108482
0.6184011 -0.12213694 -0.5595488 0.72704285 -0.0356409 -2.5250137 -1.2245246 -0.47500986
0.37884492 0.42092067 -0.3844609 -0.57995075 0.7135708 -1.5333592 -0.8025113 1.1330003
1.0667387 -0.47907808 0.9554559 -0.49286947 0.15232617 1.442519 0.44695538 1.6253803
-0.7115587 -0.15918459 -0.081015274 1.7787857 -0.34307486 0.8261978 1.4631411 -0.10790698
-0.043858584 1.5991983 -2.5957131 -0.2868636 -2.5546696 -0.87632406 0.5864723 -1.4518474
0.6066306 1.16457 1.6197157 -1.5463648 -2.0252268 -0.45684734 -0.7244477 -0.19241999
-0.18013269 0.083409585 0.033465885 -0.35374907 0.15639102 -0.38761213 -0.7060616 -0.14673048
0.7851046 -1.8248758 -1.0999987 0.22110176 2.343754 -0.36877263 -0.9076316 0.43307862
-0.91796273 -1.1980587 0.029596906 0.4020046 -1.0537026 -0.5065739 -0.2698779 -0.06997287
0.0063225157 1.1772301 -0.120016254 -0.17874776 0.98211217 0.2388172 -0.0136139225 0.71512115
0.7944886 -0.5691437 -0.34342793 0.3650352 -0.9474321 -0.08142401 0.6069184 -1.6988918
-0.0647907 2.6998441 1.262215 -0.20998377 -0.5202943 -0.4987036 0.2737869 -0.25883147
0.7709654 -0.27370992 0.392423 1.4009157 -0.55321187 -0.2056992 0.058950666 0.4006835
-0.3464214 -1.3616247 2.597403 -0.7621455 0.12210959 -0.70648646 0.50300425 -0.71882874
-0.6786201 0.9625197 0.54576045 0.9005556 0.0075229444 1.303621 0.09985804 0.093578
0.3088503 0.1109363 -0.21063891 1.4433678 -1.2506839 2.022521 0.19200587 -0.56112885
00000000: da57 cfbe 9dc6 8b3d aa28 603f 1f66 f1be
00000010: bb3d 9cbe 9ea1 babf 40ea 0140 3f60 1f3e
00000020: 63fd 3cbe db0c d8bf cd38 813d 4051 bcbf
00000030: ffa2 58bf f5fb 4d3f eb46 c43f 4577 5d3f
00000040: b2f5 54be 4ec5 143f a8ec f83e 6767 063e
00000050: 163e 43be 1e1a d5be a85d db3e 23fd 8e3f
00000060: 34eb 66be 4fc9 f1bd 0cde 373f 506c 043d
00000070: 324e c73d 7070 02bd c95d 863d 46c0 f0bf
00000080: b258 b73e 7185 e13f f7fc 033d 1b2e ccbe
00000090: 118e 8fbe ffd8 5ebf aef3 a2be 6eaf aa3f
000000a0: c596 483f a1e8 c33f 4e9c a8bf 9197 833e
000000b0: 034d 4f3f 5ee1 ae3f cb3d 703f 4ba9 e53e
000000c0: 947d ab3d a46c a4be e830 52bf 40d2 8cbf
000000d0: 9b0d 97bf 6b10 adbf 9d87 cebf 4abe 1dbf
000000e0: 4c71 623f 00b7 80bd d981 cabb 1550 c4be
000000f0: eb69 83bf d467 923f 9c9d 75bf e2ee 81bf
00000100: 07d3 7d3f 7637 783f 08c1 653f 45cf 9a3f
00000110: 2ccc 923f e093 0040 caf7 acbe 1910 17bf
00000120: 4312 313d 9c57 05bf f31c 2fbf 3539 adbe
00000130: 45ab 523d ed33 05bf 4034 4cbf f6cb 163f
00000140: d3b2 25c0 c1c6 c53e 7856 d83e 66e6 393f
00000150: eabd c83e 05e2 693f 1f4e cfbf 0915 d73e
00000160: 0814 f5bf 7e5f b6bf 13be 1dbd e6f0 1abf
00000170: 44b7 bf3e c4a5 1fbf b71d 463e dfa1 5a3d
00000180: 643f b8bf 879d b83f 795b 6bbf f822 f83d
00000190: 7cea b1bf 8992 d83f 5aff 29bf 9885 ef3e
000001a0: cac1 21bf a449 3fbf 15ec ab3e 17d5 0c40
000001b0: 1d61 7bbf 7a1c acbd e313 c1be de06 0c3f
000001c0: 3fde b53e 31e7 ec3f d4aa f03e c11e a7be
000001d0: f279 183f 3c0e 2b3f 787b 633f 08a2 d1be
000001e0: 7869 9dbd 0d1b e4bf ef4e c9bd 234e 923e
000001f0: 4764 843f 6397 9e3e e932 3cbd 7963 c1bf
00000200: 894f 1e3f ef22 fabd 973e 0fbf 7b1f 3a3f
00000210: 31fc 11bd d399 21c0 39bd 9cbf 7e34 f3be
00000220: f6f7 c13e ea82 d73e 0fd8 c4be a777 14bf
00000230: 93ac 363f 1d45 c4bf 6171 4dbf 2706 913f
00000240: e58a 883f b949 f5be c298 743f 6359 fcbe
00000250: 64fb 1b3e 76a4 b83f 56d7 e43e 760c d03f
00000260: b628 36bf 4901 23be 56eb a5bd 40af e33f
00000270: 82a7 afbe b381 533f 3548 bb3f 56fe dcbd
00000280: 0fa5 33bd 88b2 cc3f 2a20 26c0 c9df 92be
00000290: b57f 23c0 c656 60bf 0c23 163f 23d6 b9bf
000002a0: 254c 1b3f a110 953f d852 cf3f 48ef c5bf
000002b0: 519d 01c0 e5e7 e9be 6875 39bf bf09 45be
000002c0: b474 38be a5d2 aa3d 8613 093d 991e b5be
000002d0: f824 203e 1975 c6be 74c0 34bf 8440 16be
000002e0: 9dfc 483f 8895 e9bf c2cc 8cbf 8068 623e
000002f0: 1100 1640 c4cf bcbe 8b5a 68bf 7bbc dd3e
00000300: 9bff 6abf fd59 99bf 3675 f23c 8cd3 cd3e
00000310: badf 86bf d4ae 01bf 702d 8abe f04d 8fbd
00000320: 1b2d cf3b 7aaf 963f 15cb f5bd a709 37be
00000330: b46b 7b3f 7f8c 743e ee0c 5fbc 2e12 373f
00000340: 9b63 4b3f 67b3 11bf c9d5 afbe e5e5 ba3e
00000350: e98a 72bf a2c1 a6bd 015f 1b3f 4975 d9bf
00000360: fdb0 84bd 3fca 2c40 4390 a13f fc05 57be
00000370: 0232 05bf 1456 ffbe cc2d 8c3e 8f85 84be
00000380: fd5d 453f b523 8cbe abeb c83e 3551 b33f
00000390: 4b9f 0dbf d0a2 52be 4176 713d 6326 cd3e
000003a0: 255e b1be b849 aebf da3b 2640 f81b 43bf
000003b0: 9814 fa3d 4cdc 34bf e3c4 003f 2905 38bf
000003c0: 0cba 2dbf b167 763f f5b6 0b3f d08a 663f
000003d0: 0883 f63b 0edd a63f 5f82 cc3d d3a5 bf3d
000003e0: a021 9e3e 9232 e33d bab1 57be 47c0 b83f
000003f0: 6916 a0bf fc70 0140 309d 443e 24a6 0fbf

patch_embed.projection.weight f4 [64, 1, 4, 4]
-0.12264513 -0.01533481 0.07024791 0.102866314 -0.24685837 -0.05365692 -0.02937653 0.09717665
-0.29366627 -0.09676619 0.18365511 0.2897276 -0.16340768 -0.005487573 0.16982825 0.35286415
-0.07622097 -0.23850895 0.16538876 -0.08064462 -0.18610021 -0.28190613 -0.15601222 -0.14280689
-0.023546137 -0.040757723 0.10600002 -0.06240525 0.05436889 0.27987757 0.3086454 -0.001355356
-0.21805309 -0.20861228 -0.28925425 -0.26547924 -0.13581373 -0.06933431 -0.2706429 0.11496886
0.12120374 -0.013337388 -0.21344376 0.07559192 -0.09451684 -0.06943462 0.08488062 0.26666725
-0.14350224 -0.13344766 -0.18280353 -0.21889818 -0.1274312 0.017482143 0.064527415 0.062254284
0.22696383 0.100251615 0.22013445 -0.05350131 0.27909827 0.2905469 0.23390262 -0.08614974
0.2019124 0.13380712 0.22406135 0.003531321 0.018775104 -0.034335773 -0.19152053 -0.27255565
0.16456088 0.09600554 -0.05353302 -0.18967855 0.24716479 0.14166044 0.038070496 -0.002843881
-0.054770555 0.16773197 0.24437234 -0.020992346 0.07090688 0.1096423 0.01589073 -0.1293106
-0.07146309 0.25935537 0.25268015 -0.14944817 0.092852056 0.000110618144 -0.0065769814 -0.02272516
0.18123282 -0.06213519 0.16549964 0.1461162 0.046105944 -0.10665689 -0.23174146 0.17708445
-0.0066360603 0.0060108737 0.09222176 -0.052706175 0.025951585 -0.021645313 -0.08137707 -0.29947987
0.14221978 0.07457779 -0.04158466 0.101636976 -0.19792639 -0.33066905 0.068395704 -0.09802283
-0.17191218 -0.2572305 0.08850955 -0.1402889 0.13915662 -0.13731703 -0.08567419 0.18122885
-0.15812294 0.02209108 0.24527872 0.03410557 -0.055694032 0.075812906 0.16003394 -0.10297736
-0.055001613 -0.122241944 0.04130815 0.07039338 -0.13205498 -0.23371245 0.29328766 0.19380535
0.31720483 0.0029370796 0.08130035 -0.11780596 0.004469997 -0.29034 0.13215028 -0.3037889
0.12781711 -0.018789401 0.14148657 0.14091016 -0.32419074 -0.29430544 -0.29931182 -0.14700855
0.096617274 -0.028870368 0.076962724 0.100131616 0.17819004 -0.20232603 -0.093409345 0.3677856
-0.19263628 -0.15903613 -0.112961784 0.26599842 -0.06476931 -0.054437026 -0.09494154 -0.0030002778
0.24179235 0.16050306 -0.0566671 0.18229036 0.20545945 -0.18362366 0.19448592 -0.23826835
0.12459853 0.18384647 0.13386537 0.102260746 0.059394922 -0.11720995 -0.2519129 -0.28125557
0.1006792 0.09822018 0.20783485 0.18813024 0.039052192 0.13722041 -0.016725406 -0.0016724069
-0.09939367 -0.037153438 0.21392836 -0.20323308 0.03402978 0.015976055 -0.020744355 -0.11330576
-0.09937074 0.23883316 0.07323788 0.26437512 0.081609726 0.2093835 -0.066882454 0.015158613
0.004717115 -0.099174656 0.21634464 0.1426729 0.133583 -0.044533826 0.04896843 0.094436616
-0.053623833 -0.018993795 0.006728273 0.27021727 -0.1664568 0.057992384 -0.06831134 0.0847182
-0.14075981 -0.18971035 0.23812443 -0.12920438 0.09860558 0.04820502 -0.110621996 0.080288075
0.32964182 -0.24965194 -0.16919729 -0.07979175 0.2772432 -0.1414716 0.044706844 0.14815688
0.28049988 0.039444394 -0.22518812 0.2388789 -0.09323837 -0.09948568 -0.3074225 0.07785577
00000000: 5f2d fbbd db3e 7bbc 23de 8f3d 93ab d23d
00000010: 71c8 7cbe 5cc7 5bbd 0ca7 f0bc 8d04 c73d
00000020: 6d5b 96be 5a2d c6bd 1610 3c3e 2d57 943e
00000030: 5854 27be 19d1 b3bb 75e7 2d3e 9caa b43e
00000040: bd19 9cbd b13b 74be ac5b 293e 0229 a5bd
00000050: 0e91 3ebe 0056 90be abc1 1fbe f83b 12be
00000060: d4e3 c0bc 92f1 26bd 8a16 d93d a69c 7fbd
00000070: eab1 5e3d 1d4c 8f3e c506 9e3e 33a6 b1ba
00000080: 4f49 5fbe 759e 55be 2219 94be e5ec 87be
00000090: c112 0bbe 26ff 8dbd b591 8abe cb74 eb3d
000000a0: ab39 f83d 0f85 5abc 0091 5abe f0cf 9a3d
000000b0: 0c92 c1bd bd33 8ebd e4d5 ad3d 9c88 883e
000000c0: 40f2 12be 81a6 08be d930 3bbe d826 60be
000000d0: 537d 02be b636 8f3c f326 843d 59fe 7e3d
000000e0: 3569 683e b850 cd3d ed6a 613e 3124 5bbd
000000f0: f8e5 8e3e 90c2 943e 2b84 6f3e 466f b0bd
00000100: 20c2 4e3e bc04 093e 5770 653e bc6d 673b
00000110: 3fce 993c aba3 0cbd f51d 44be 6a8c 8bbe
00000120: a682 283e 8d9e c43d 7145 5bbd 183b 42be
00000130: c418 7d3e 6f0f 113e cfef 1b3d 6860 3abb
00000140: 1757 60bd eec1 2b3e be3c 7a3e 24f8 abbc
00000150: a037 913d 248c e03d 472d 823c ff69 04be
00000160: 3e5b 92bd 3aca 843e 4b5f 813e f108 19be
00000170: 3829 be3d aafb e738 b883 d7bb 1d2a babc
00000180: 1995 393e 7881 7ebd bd78 293e 7c9f 153e
00000190: 96d9 3c3d ed6e dabd a24d 6dbe a055 353e
000001a0: 4f73 d9bb ddf6 c43b c3de bc3d 6ee2 57bd
000001b0: 6b98 d43c 8351 b1bc 05a9 a6bd 6d55 99be
000001c0: 10a2 113e 3ebc 983d ad54 2abd 0c27 d03d
000001d0: 37ad 4abe 744d a9be 0c13 8c3d 32c0 c8bd
000001e0: bf09 30be b7b3 83be 7f44 b53d e5a7 0fbe
000001f0: 137f 0e3e d69c 0cbe f375 afbd 0e94 393e
00000200: fbea 21be 5af8 b43c 582a 7b3e 48b2 0b3d
00000210: 6d1f 64bd cc43 9b3d f0df 233e cbe5 d2bd
00000220: 5f49 61bd fc59 fabd bc32 293d 682a 903d
00000230: 6c39 07be 5152 6fbe cd29 963e e974 463e
00000240: ac68 a23e 057c 403b cc80 a63d 4044 f1bd
00000250: 0d79 923b 72a7 94be 6752 073e 388a 9bbe
00000260: 7de2 023e 3bec 99bc dbe1 103e c14a 103e
00000270: 54fc a5be 34af 96be 663f 99be 6989 16be
00000280: 47df c53d 8d81 ecbc a29e 9d3d ce11 cd3d
00000290: 7377 363e 8e2e 4fbe 664d bfbd 654e bc3e
000002a0: 7242 45be 5eda 22be 8258 e7bd f230 883e
000002b0: c6a5 84bd 5cf9 5ebd b670 c2bd 4fa0 44bb
000002c0: 6a98 773e ea5a 243e c31b 68bd 53aa 3a3e
000002d0: f663 523e d707 3cbe 5127 473e 9efc 73be
000002e0: 842d ff3d 4042 3c3e 0114 093e 156e d13d
000002f0: 1748 733d c50b f0bd bafa 80be bb00 90be
00000300: e530 ce3d a927 c93d a9d2 543e 37a5 403e
00000310: 31f5 1f3d 8283 0c3e b803 89bc aa34 dbba
00000320: e98e cbbd 342e 18bd 0910 5b3e 551c 50be
00000330: d062 0b3d 37e0 823c 11f0 a9bc da0c e8bd
00000340: e382 cbbd ae90 743e befd 953d 2d5c 873e
00000350: 0023 a73d a168 563e abf9 88bd d55b 783c
00000360: 0792 9a3b 151c cbbd 7389 5d3e d818 123e
00000370: fbc9 083e 1a69 36bd 1f93 483d fc67 c13d
00000380: aaa4 5bbd e098 9bbc d878 dc3b eb59 8a3e
00000390: a773 2abe 6c89 6d3d d1e6 8bbd bc80 ad3d
000003a0: 5723 10be 6e43 42be e4d6 733e 274e 04be
000003b0: b9f1 c93d a172 453d c98d e2bd 136e a43d
000003c0: d0c6 a83e c2a4 7fbe 0e42 2dbe db69 a3bd
000003d0: d2f2 8d3e eedd 10be 861e 373d 70b6 173e
000003e0: ae9d 8f3e 7290 213d b797 66be ac9c 743e
000003f0: c2f3 bebd 26bf cbbd 7b66 9dbe d972 9f3d

patch_embed.projection.bias f4 [64]
-0.23093921 -0.041580625 -0.103360154 0.027203051 -0.15740097 0.14809525 -0.066963024 0.014275384
0.11785999 -0.19760884 -0.14138319 -0.10388952 0.17835511 0.113126725 0.16564278 0.31840232
0.0065185786 0.021313965 0.1903645 -0.104570106 -0.1927526 0.016449934 0.09124996 -0.12956573
-0.0010236754 -0.06009696 0.10563419 -0.08364152 -0.15941028 0.13398705 0.16057071 0.18346691
-0.23206794 -0.06650996 -0.18927589 -0.04462879 -0.04967676 -0.20214553 -0.059097283 0.043667942
0.075870074 0.09916586 0.10151674 -0.13959293 -0.0262752 -0.03357295 -0.116159685 0.15334089
-0.22968185 -0.104481906 0.21285006 0.18036693 -0.061605223 -0.099415116 0.16211279 -0.022911767
0.078462586 -0.3025835 -0.05542147 0.04780608 -0.098515175 0.08747169 0.1237386 -0.2279512
00000000: 547b 6cbe 7250 2abd 7dae d3bd efd8 de3c
00000010: b82d 21be 48a6 173e e923 89bd 4de3 693c
00000020: 9460 f13d f959 4abe c1c6 10be 07c4 d4bd
00000030: b9a2 363e fcae e73d 439e 293e a105 a33e
00000040: cd99 d53b a09a ae3c e9ee 423e da28 d6bd
00000050: f060 45be 03c2 863c 42e1 ba3d e1ac 04be
00000060: d92c 86ba 3b28 76bd bd56 d83d 3f4c abbd
00000070: 733c 23be e733 093e a66c 243e c0de 3b3e
00000080: 38a3 6dbe 6036 88bd 8ad1 41be aecc 36bd
00000090: dc79 4bbd 3dff 4ebe fe0f 72bd 28dd 323d
000000a0: c561 9b3d 7817 cb3d 02e8 cf3d 73f1 0ebe
000000b0: 173f d7bc ca83 09bd 21e5 edbd 6505 1d3e
000000c0: b831 6bbe 9cfa d5bd 5ef5 593e 1cb2 383e
000000d0: c255 7cbd 279a cbbd e500 263e 75b1 bbbc
000000e0: feb0 a03d 39ec 9abe a001 63bd 4fd0 433d
000000f0: 53c2 c9bd 5b24 b33d aa6a fd3d 0a6c 69be

blocks.0.norm1.weight f4 [64]
0.9636841 1.0477186 1.0117655 0.97639894 0.96973974 1.0248121 0.963051 1.0356774
1.1040761 0.95321196 1.004601 1.0125315 1.0299778 0.85336816 1.0198326 0.9889493
0.956109 0.97942984 1.0114931 1.0019827 0.96343386 1.0729556 1.0009116 0.91912824
0.9860425 1.0714935 1.0225765 0.970889 0.9449909 1.0373152 1.0574734 0.94095236
1.0390844 1.0168116 1.0635562 1.0209544 0.9944603 0.92940086 1.1005453 1.045497
1.0759333 0.9964456 1.0076721 1.0269362 1.0146413 0.97646594 0.98368996 0.9820025
1.0637186 1.0358667 1.0484389 0.9756021 1.074556 1.0409863 0.94302624 1.1610112
1.0646163 1.047939 1.0397081 0.8940467 1.0703522 0.94919235 1.0321679 1.0140913
00000000: 00b4 763f a51b 863f 8881 813f 48f5 793f
00000010: dd40 783f 0b2d 833f 838a 763f 1491 843f
00000020: 5e52 8d3f b305 743f c496 803f a29a 813f
00000030: 50d6 833f 5676 5a3f e089 823f c82b 7d3f
00000040: 8fc3 743f eabb 7a3f 9b78 813f f840 803f
00000050: 9aa3 763f 9c56 893f df1d 803f fd4b 6b3f
00000060: 486d 7c3f b326 893f c9e3 823f 2e8c 783f
00000070: ecea 713f bfc6 843f 4a5b 873f 41e2 703f
00000080: b800 853f e226 823f 9c22 883f a2ae 823f
00000090: f394 7e3f 37ed 6d3f abde 8c3f d8d2 853f
000000a0: 2fb8 893f 0f17 7f3f 66fb 803f a572 833f
000000b0: c4df 813f acf9 793f 1bd3 7b3f 8464 7b3f
000000c0: ee27 883f 4897 843f 3f33 863f 0fc1 793f
000000d0: 0d8b 893f 0a3f 853f 2b6a 713f 049c 943f
000000e0: 5945 883f dd22 863f 2815 853f 3fe0 643f
000000f0: 4d01 893f 45fe 723f 141e 843f becd 813f

blocks.0.norm1.bias f4 [64]
-0.07254508 -0.08907033 -0.03502861 0.049865723 0.0047168606 0.033046454 -0.07138147 -0.03922427
0.07568503 -0.0057628155 -0.047379106 0.054637324 0.053993825 -0.025621103 0.0058160936 0.0026955903
0.021244379 0.026187262 -0.020542445 0.038482975 0.01507973 0.020360744 -0.09542408 -0.046757914
-0.025764441 0.053837497 0.0457853 -0.07116214 -0.04102025 -0.05200219 0.039887898 -0.032109268
-0.035828475 0.049645506 -0.02878711 -0.118287 0.010248903 0.008949837 0.154674 -0.14438227
0.02109503 -0.033514556 -0.109507166 0.064069346 0.0397491 -0.0035585212 -0.017626902 0.03966224
-0.094295524 0.020262633 0.05470734 0.07588317 -0.019348945 0.019297527 0.0055278204 -0.037619516
0.08579181 -0.00018660608 0.046265494 0.07517025 0.059097916 0.008400412 0.020412719 -0.0033815587
00000000: 8492 94bd 816a b6bd 297a 0fbd 0040 4c3d
00000010: e58f 9a3b b85b 073d 7330 92bd a1a9 20bd
00000020: c100 9b3d 00d6 bcbb 9810 42bd 63cb 5f3d
00000030: a128 5d3d 59e3 d1bc ee94 be3b 80a8 303b
00000040: b108 ae3c ab86 d63c a148 a8bc 53a0 1d3d
00000050: f910 773c 93cb a63c b36d c3bd 3a85 3fbd
00000060: f30f d3bc b584 5c3d 5e89 3b3d 75bd 91bd
00000070: da04 28bd 4000 55bd 7e61 233d 0285 03bd
00000080: e1c0 12bd 1659 4b3d f2d2 ebbc 7440 f2bd
00000090: 04eb 273c 56a2 123c dc62 1e3e f2d8 13be
000000a0: 7ccf ac3c 8f46 09bd 4b45 e0bd ca36 833d
000000b0: f4cf 223d 1436 69bb 4b66 90bc df74 223d
000000c0: 031e c1bd d2fd a53c ce14 603d a368 9b3d
000000d0: ae81 9ebc d915 9e3c b822 b53b ec16 1abd
000000e0: 9eb3 af3d b0ab 43b9 e380 3d3d dcf2 993d
000000f0: a810 723d e2a1 093c 9338 a73c 249d 5dbb

blocks.0.attn.qkv.weight f4 [192, 64]
-0.06225637 0.0007870296 -0.07052779 0.006471236 0.009276076 0.011080204 0.19023919 0.06854628
-0.09214363 -0.0678765 0.05363227 -0.102808796 0.08230857 -0.111251906 0.122589216 -0.117610075
0.19860326 -0.11623441 0.09781695 -0.107318334 -0.07193714 -0.06860603 0.013717182 0.11217869
-0.036090463 0.08855495 -0.115603134 -0.025800494 -0.053226057 0.05127728 -0.09172592 0.12672882
0.025996368 0.05235768 -0.0009445643 0.093894795 0.00274473 -0.08099366 -0.006094233 -0.074100025
0.048070125 -0.08966155 -0.033450726 0.07401122 -0.11133187 0.03798976 -0.00554194 -0.02930261
-0.0636802 -0.02265183 -0.05893418 -0.079807155 0.11927263 -0.15725312 -0.108446114 0.085082084
0.07465757 0.17554188 -0.047671653 -0.14157568 -0.029294612 -0.062252935 -0.07552806 -0.080603786
0.13876957 0.107542165 0.14144848 -0.07978215 0.051306415 -0.02038601 0.12218002 0.15486057
-0.16433069 -0.0405159 0.017553736 -0.0020085024 -0.23335843 0.118646264 0.2778213 -0.06624567
0.106234826 -0.19461973 -0.06266688 -0.12916173 -0.027701586 0.14965822 -0.03279626 0.34568077
-0.03777232 0.011798034 -0.016731154 -0.12756522 0.16778211 0.2796775 -0.09393348 -0.03166595
0.17448592 0.10161159 0.0161282 -0.05123985 -0.17366442 -0.051412422 0.016597865 0.22542128
0.058818072 0.020075882 0.20573232 -0.03618375 -0.08708309 0.19344646 0.12286485 -0.31796852
0.12224391 0.017434679 -0.10132146 -0.058718786 0.17848149 -0.16516776 -0.059088927 -0.17937714
-0.17740138 -0.08083503 0.14436613 -0.17738445 -0.15703158 0.11918763 -0.23485795 0.09506404
0.039433986 -0.08705143 -0.10480261 0.19163242 -0.026721139 0.024633955 -0.055909593 -0.11463153
0.19148493 -0.0261843 0.05781019 -0.052859746 0.14315778 -0.03808048 -0.20005289 -0.04868944
0.00888602 0.104726665 -0.06642707 0.06482832 0.07751217 -0.2936756 0.030596396 0.05647889
0.10923191 -0.14874738 0.07208562 0.022713935 -0.22139293 -0.025375396 0.105922036 0.008359473
-0.29509333 0.06401569 -0.034843817 -0.21001317 -0.057180095 0.033115774 -0.094120026 -0.07573287
-0.0058343397 -0.11207577 -0.057987023 0.009510598 -0.118514016 -0.05233399 0.1802994 0.0021178913
-0.039385717 0.083739676 -0.052064575 -0.09581725 -0.02677441 0.0045149475 -0.10498213 -0.18819797
0.03717952 0.2577473 -0.20072053 0.10655081 0.24766046 -0.008198454 -0.01037228 -0.04058051
0.06479558 0.11453261 0.03839809 0.028125789 -0.10157784 -0.03697294 -0.12786809 -0.16179764
0.15450065 0.11752681 -0.0073413253 -0.058307923 -0.09131718 -0.057268605 0.04138115 -0.08551412
0.103322946 -0.2195398 0.13248554 -0.053363558 0.014788386 0.080992155 -0.10299469 0.03493387
0.010670526 -0.1522244 -0.14361824 0.0822473 0.06734614 0.22465427 -0.13176794 -0.043957386
0.113612704 0.031397533 0.14576401 0.016753945 0.07033268 -0.09807927 -0.050539274 0.045321185
0.09741008 0.02513925 0.09532595 -0.046978626 0.10020418 0.0266104 -0.068740234 -0.22368714
0.08437191 -0.04424916 -0.03663872 0.08259403 -0.0495729 0.014175436 -0.01256122 -0.03208134
-0.048173755 0.11092809 0.030032204 -0.07158403 -0.13966514 -0.0012790685 -0.09001818 -0.018190848
00000000: 8900 7fbd aa50 4e3a e070 90bd a90c d43b
00000010: affa 173c be89 353c 10ce 423e fe61 8c3d
00000020: cdb5 bcbd d602 8bbd 83ad 5b3d 6b8d d2bd
00000030: 6591 a83d 0ad8 e3bd 0e10 fb3d 8ddd f0bd
00000040: a75e 4b3e 4e0c eebd 4154 c83d b7c9 dbbd
00000050: c753 93bd 5181 8cbd 08be 603c f1bd e53d
00000060: 98d3 13bd 4c5c b53d 56c1 ecbd 8f5b d3bc
00000070: 9103 5abd 2008 523d cdda bbbd 33c5 013e
00000080: 56f6 d43c 0275 563d a39c 77ba ea4b c03d
00000090: eee0 333b 01e0 a5bd 22b2 c7bb c1c1 97bd
000000a0: 2ee5 443d 7aa0 b7bd a103 09bd 3293 973d
000000b0: f701 e4bd 279b 1b3d 2a99 b5bb 070c f0bc
000000c0: c46a 82bd 5590 b9bc f764 71bd ef71 a3bd
000000d0: 3545 f43d f606 21be ff18 debd 843f ae3d
000000e0: 11e6 983d 40c1 333e 5a43 43bd 37f9 10be
000000f0: 41fb efbc effc 7ebd 75ae 9abd 9913 a5bd
00000100: 9c19 0e3e 113f dc3d dfd7 103e d364 a3bd
00000110: ad26 523d 9000 a7bc 8539 fa3d c593 1e3e
00000120: 4e46 28be 00f4 25bd dacc 8f3c 14a1 03bb
00000130: 83f5 6ebe d0fc f23d 983e 8e3e cfab 87bd
00000140: a591 d93d 654a 47be 7e57 80bd f942 04be
00000150: 70ee e2bc 0140 193e 5f55 06bd 12fd b03e
00000160: 26b7 1abd 8b4c 413c c60f 89bc 75a0 02be
00000170: 13cf 2b3e e431 8f3e 3260 c0bd 28b4 01bd
00000180: 70ac 323e bd19 d03d 491f 843c e1e0 51bd
00000190: 16d5 31be d595 52bd 3ff8 873c d6d4 663e
000001a0: 38eb 703d 2d76 a43c 7eab 523e 6935 14bd
000001b0: 9e58 b2bd d416 463e 91a0 fb3d c5cc a2be
000001c0: 045b fa3d 2cd3 8e3c a081 cfbd 1c83 70bd
000001d0: dac3 363e bd21 29be 3b07 72bd a4ae 37be
000001e0: b5a8 35be d68c a5bd b7d4 133e 45a4 35be
000001f0: e3cc 20be a518 f43d 9a7e 70be efb0 c23d
00000200: 8885 213d 0548 b2bd c0a2 d6bd 4a3b 443e
00000210: 4ae6 dabc 26cd c93c 7501 65bd f0c3 eabd
00000220: a014 443e 7580 d6bc 61ca 6c3d 7683 58bd
00000230: f497 123e 47fa 1bbd aada 4cbe 946e 47bd
00000240: ab96 113c ef7a d63d ea0a 88bd b6c4 843d
00000250: b3be 9e3d a65c 96be 4ba5 fa3c 6956 673d
00000260: fbb4 df3d 3c51 18be a0a1 933d 9312 ba3c
00000270: d4b4 62be 10e0 cfbc a7ed d83d 2cf6 083c
00000280: 7916 97be a81a 833d 64b8 0ebd b10d 57be
00000290: ad35 6abd 68a4 073d 00c2 c0bd d619 9bbd
000002a0: fd2d bfbb fb87 e5bd cd83 6dbd 57d2 1b3c
000002b0: 7ab7 f2bd 2a5c 56bd 68a0 383e 52cc 0a3b
000002c0: eb52 21bd b57f ab3d aa41 55bd d63b c4bd
000002d0: 0256 dbbc 20f2 933b df00 d7bd f8b6 40be
000002e0: 8d49 183d 74f7 833e af89 4dbe 5037 da3d
000002f0: b49a 7d3e cf52 06bc 7ff0 29bc c037 26bd
00000300: 8cb3 843d 1390 ea3d 5147 1d3d 0e68 e63c
00000310: 0b08 d0bd f070 17bd daef 02be 48ae 25be
00000320: 6b35 1e3e e5b1 f03d 808f f0bb 4ad4 6ebd
00000330: 8004 bbbd 7c92 6abd 487f 293d 0722 afbd
00000340: fb9a d33d 0bcf 60be 4aaa 073e bf93 5abd
00000350: fd4a 723c 37df a53d e1ee d2bd d116 0f3d
00000360: 6ed3 2e3c b7e0 1bbe a910 13be 4671 a83d
00000370: c6ec 893d c50b 663e 2dee 06be a90c 34bd
00000380: c7ad e83d b39a 003d 2943 153e 923f 893c
00000390: 950a 903d c9dd c8bd 4502 4fbd b5a2 393d
000003a0: f07e c73d d4f0 cd3c 403a c33d a96c 40bd
000003b0: d937 cd3d 0efe d93c aec7 8cbd 3e0e 65be
000003c0: 2ecb ac3d 9b3e 35bd 7c12 16bd 0f27 a93d
000003d0: f40c 4bbd 1740 683c 93cd 4dbc b967 03bd
000003e0: d851 45bd 442e e33d 1906 f63c a69a 92bd
000003f0: 6104 0fbe 6ba6 a7ba 745b b8bd f904 95bc

blocks.0.attn.qkv.bias f4 [192]
-0.12321667 -0.29848987 -0.06372171 0.09699367 0.047747258 -0.03852291 0.12522721 0.15214446
-0.03235351 -0.14924943 0.105555736 -0.06719463 0.012692856 -0.15660252 0.21143505 -0.12600711
-0.0006413034 -0.085361116 -0.0100689735 0.035934396 0.09964388 0.03927456 -0.11269359 0.18305114
-0.027195541 -0.093097866 0.03270915 0.026021674 0.09864636 0.17603561 0.07542373 -0.1497678
-0.06705361 0.1357368 0.042202327 -0.0103672575 -0.06877942 0.045042627 0.021083301 -0.11474101
0.0792912 -0.054036416 0.15254278 -0.115143076 -0.10408645 -0.17317502 0.064787485 0.06218505
0.0904444 0.043066926 0.031388797 0.10278192 0.053276703 -0.30119768 -0.049650032 0.0106652975
-0.045114383 -0.021317966 0.121864386 0.049870405 -0.23423207 0.16098507 -0.10000442 -0.012103802
0.085476235 0.078026906 0.048290394 0.07851587 0.044188663 -0.09102808 -0.051302597 -0.002810441
0.0949945 -0.10938943 0.0036540197 -0.021217845 -0.09406396 -0.0030159215 -0.092376605 0.049238075
-0.016384466 0.005864551 -0.12853256 -0.035131626 -0.02883194 0.029975984 -0.0475834 0.09467111
-0.024385758 -0.0059964824 0.063778274 -0.073244125 0.10741113 -0.037310775 0.10990201 0.10690923
0.014707011 0.068549745 -0.02122596 -0.07154389 -0.09297102 0.110538006 -0.027306093 0.08819152
0.030538356 -0.06863526 0.03537216 -0.104312405 -0.09434348 0.013313746 0.08329493 0.10235336
-0.017737826 0.027931506 -0.010793167 0.09350279 -0.036483187 -0.024432566 -0.08148636 -0.05409121
0.09063179 0.020441303 -0.110346176 -0.06711788 0.004229751 0.063746914 0.09478064 0.0722049
0.015768623 -0.031232852 0.057893008 -0.049832426 -0.034934133 -0.044715505 -0.076107785 0.10023632
-0.016914066 -0.06504342 0.05059937 -0.050580736 0.007143585 -0.050595753 0.0576652 0.008061367
-0.040164348 -0.0038583775 -0.10481146 -0.09950764 0.03410912 0.0297157 0.05331219 -0.09958077
0.037433673 0.039374974 -0.07015534 -0.07681437 -0.014609039 0.19367993 0.0073143956 -0.070128925
-0.061451107 0.016960569 0.081559606 -0.086055614 -0.0023326236 0.063582435 0.032494936 0.054391704
0.0030967367 0.06514961 -0.045500178 0.07525276 -0.0187245 -0.08078338 -0.08299476 -0.084030844
0.005508592 0.05908637 0.12403632 0.097582266 0.026889028 0.0140025085 -0.12159616 0.058669526
0.08836439 0.103514634 0.014765749 0.04461756 -0.12093195 -0.024277542 0.107259035 -0.057054542
00000000: 0559 fcbd aad3 98be 8780 82bd 9ea4 c63d
00000010: a192 433d 33ca 1dbd 903b 003e c2cb 1b3e
00000020: 1d85 04bd d8d4 18be 9b2d d83d 579d 89bd
00000030: b2f5 4f3c 695c 20be 6e82 583e 0208 01be
00000040: 251d 28ba cfd1 aebd 56f8 24bc f22f 133d
00000050: 1712 cc3d 5cde 203d e6cb e6bd c271 3b3e
00000060: 2fc9 debc 18aa bebd 08fa 053d 682b d53c
00000070: 1a07 ca3d ae42 343e c277 9a3d bb5c 19be
00000080: 6753 89bd 96fe 0a3e 59dc 2c3d 6edb 29bc
00000090: 39dc 8cbd 9e7e 383d e3b6 ac3c 56fd eabd
000000a0: 6d63 a23d 4a55 5dbd 2d34 1c3e 22d0 ebbd
000000b0: 472b d5bd cb54 31be 4daf 843d c0b5 7e3d
000000c0: ea3a b93d f266 303d 8a91 003d 547f d23d
000000d0: ac38 5a3d 9536 9abe d55d 4bbd 80bd 2e3c
000000e0: dcc9 38bd 04a3 aebc 0994 f93d e944 4c3d
000000f0: 88da 6fbe 45d9 243e 1ecf ccbd 064f 46bc
00000100: 2a0e af3d 92cc 9f3d 26cc 453d eecc a03d
00000110: 2cff 343d ee6c babd ac22 52bd 602f 38bb
00000120: 7a8c c23d 9107 e0bd 4778 6f3b 0cd1 adbc
00000130: 9ba4 c0bd c4a6 45bb f22f bdbd ddad 493d
00000140: b738 86bc 6b2b c03b 0a9e 03be 2ee6 0fbd
00000150: f630 ecbc 3290 f53c d0e6 42bd ede2 c13d
00000160: a4c4 c7bc 247e c4bb 2f9e 823d 0401 96bd
00000170: 5efa db3d 2fd3 18bd 4e14 e13d 3af3 da3d
00000180: adf5 703c cf63 8c3d 11e2 adbc 9a85 92bd
00000190: 9767 bebd c061 e23d 07b1 dfbc c19d b43d
000001a0: 932b fa3c a590 8cbd 66e2 103d bea1 d5bd
000001b0: 2837 c1bd e621 5a3c 8896 aa3d a39e d13d
000001c0: eb4e 91bc 9dd0 e43c d3d5 30bc 647e bf3d
000001d0: 656f 15bd ce26 c8bc 52e2 a6bd bf8e 5dbd
000001e0: 299d b93d 8574 a73c 2dfd e1bd 1975 89bd
000001f0: b999 8a3b be8d 823d 5a1c c23d 2ae0 933d
00000200: 332d 813c 0adc ffbc 3821 6d3d 161d 4cbd
00000210: 1817 0fbd 9b27 37bd 66de 9bbd b348 cd3d
00000220: 5e8f 8abc 7c35 85bd 4941 4f3d bf2d 4fbd
00000230: bc14 ea3b 7e3d 4fbd 5832 6c3d d313 043c
00000240: 5f83 24bd d5dc 7cbb 64a7 d6bd a9ca cbbd
00000250: 01b6 0b3d 576e f33c e25d 5a3d 01f1 cbbd
00000260: 0d54 193d a747 213d 9aad 8fbd da50 9dbd
00000270: c05a 6fbc 0854 463e 99ad ef3b c19f 8fbd
00000280: 28b4 7bbd e4f0 8a3c b908 a73d ed3d b0bd
00000290: eede 18bb 8237 823d 6919 053d d6c9 5e3d
000002a0: 9ff2 4a3b 296d 853d 655e 3abd 1e1e 9a3d
000002b0: 1f64 99bc c271 a5bd 28f9 a9bd 5d18 acbd
000002c0: 6b81 b43b 8d04 723d c106 fe3d 36d9 c73d
000002d0: 6146 dc3c c76a 653c 6807 f9bd 754f 703d
000002e0: 64f8 b43d 7bff d33d 0aec 713c e7c0 363d
000002f0: 2cab f7bd b2e1 c6bc a0aa db3d 06b2 69bd

blocks.0.attn.proj.weight f4 [64, 64]
-0.10214808 -0.10192402 0.1002678 0.12737437 0.060161505 0.103904754 -0.055849735 -0.11860895
-0.019000068 0.12289545 0.0223682 0.0946437 0.09824002 -0.015881108 0.14033668 0.089658275
-0.117726035 -0.08782773 -0.07269122 -0.061853882 0.063216865 0.0005448547 0.07832064 -0.17568178
0.13563599 -0.022716733 -0.14746377 -0.13829999 0.073349245 -0.12862499 -0.07486539 -0.09212278
0.032530427 -0.1211391 0.06332433 -0.13976176 0.004918045 -0.13762571 -0.054987658 0.046737656
0.08844745 -0.061581712 -0.049748987 0.026152782 0.05911038 -0.09715172 0.05836226 0.0968303
0.18080623 0.109727204 -0.042215344 0.04944523 0.017522912 -0.060958844 0.054188628 0.07955085
-0.022723215 -0.100942045 0.08195575 -0.07981295 0.19776794 0.03478601 -0.050506346 -0.09729065
0.060648654 -0.084912136 -0.04432123 -0.052408706 -0.01440055 -0.048574433 -0.006443313 0.0655821
0.18093769 -0.06364981 0.123416826 0.045139052 0.10374996 -0.028589379 -0.1786881 0.10182537
-0.027210105 -0.04881508 0.017330851 -0.09670716 -0.0010186237 0.07316031 -0.13420291 0.15755154
-0.07333697 0.073641196 0.076714024 0.030266795 -0.028167121 -0.09371678 -0.009762684 -0.1540419
-0.10487665 0.0556565 0.12723482 0.043965664 0.05032319 0.30155268 0.06088181 -0.0022588987
-0.12008724 0.029214168 0.147005 -0.02332475 0.029096458 0.11884634 0.077913105 0.16403563
-0.18711834 0.048492458 0.10997601 0.117891714 0.07409589 0.10127643 -0.052717686 0.07716308
0.03529315 -0.08347268 -0.130923 -0.06936336 0.0047570737 0.04456367 0.01717943 0.08965271
0.026206043 0.15286763 -0.005890042 -0.06937925 0.07317436 -0.042972777 -0.024701657 -0.026281694
-0.099270746 0.04073205 0.15198994 -0.15749481 0.00085879874 0.105656125 -0.15240784 0.01147148
-0.13157563 0.13916016 0.084269546 -0.1254327 0.08341018 -0.12735733 -0.01835256 0.047213823
0.15628864 0.03451209 -0.08447154 0.0077253683 0.005099759 -0.011137135 -0.008988099 -0.0205081
0.24360693 -0.13036618 0.098041326 -0.06643653 -0.16220757 0.120590284 -0.18656427 0.17955326
0.017854344 -0.06410083 -0.016293855 -0.08840571 0.12087164 0.03250082 0.041619044 -0.17647853
-0.18073279 -0.07258429 0.1447428 -0.023037972 0.073803335 -0.02927548 -0.03695026 -0.16658142
-0.11324718 -0.04114281 -0.0028802478 -0.053130303 0.031430464 -0.17899726 -0.040882908 -0.06592483
-0.14463015 0.16279909 -0.12873617 0.09568906 -0.09027992 0.047762718 0.042310793 0.107991196
0.042670418 -0.004299173 0.1277599 -0.06290106 0.0924582 0.064858854 -0.0148129575 0.101252794
-0.07974227 -0.014983679 0.12983727 0.10138081 -0.04732601 0.06544477 -0.07923032 0.055677474
-0.028269151 0.0012195839 0.051712666 0.19336258 0.0063248775 0.051448226 0.1043658 0.05009823
-0.0030179431 -0.03170671 -0.055779487 -0.061700795 0.105674535 0.072278686 0.018397184 -0.07857822
-0.042349074 -0.035371933 0.069898345 -0.0017443888 -0.13191774 0.08842898 0.011017711 0.03630458
0.08444435 0.09142785 -0.024435196 0.021323567 -0.16966027 0.12184334 -0.13132325 -0.16060618
-0.07869876 -0.07627334 -0.058674958 0.14124295 0.0469986 -0.07861392 -0.082831524 -0.120944135
00000000: 0333 d1bd 8abd d0bd 3459 cd3d 6d6e 023e
00000010: e96b 763d 04cc d43d b1c2 64bd 40e9 f2bd
00000020: 08a6 9bbc 9cb0 fb3d 843d b73c 8ed4 c13d
00000030: 1032 c93d 1919 82bc 6bb4 0f3e c29e b73d
00000040: 591a f1bd 06df b3bd 22df 94bd 7f5a 7dbd
00000050: d877 813d 94d4 0e3a 9266 a03d ede5 33be
00000060: 29e4 0a3e 7118 babc be00 17be 839e 0dbe
00000070: 2138 963d 45b6 03be 0753 99bd deaa bcbd
00000080: a03e 053d c717 f8bd 30b0 813d b51d 0fbe
00000090: 8d27 a13b c1ed 0cbe bd3a 61bd fc6f 3f3d
000000a0: f023 b53d 1b3d 7cbd 98c5 4bbd 5c3e d63c
000000b0: ba1d 723d 7bf7 c6bd 440d 6f3d f74e c63d
000000c0: 4525 393e a8b8 e03d ffe9 2cbd 1587 4a3d
000000d0: 368c 8f3c fbaf 79bd e5f4 5d3d 8eeb a23d
000000e0: 0926 babc b4ba cebd 6bd8 a73d f974 a3bd
000000f0: ae83 4a3e c67b 0e3d bedf 4ebd 5240 c7bd
00000100: b96a 783d 6ae6 adbd 2e8a 35bd 83aa 56bd
00000110: 49f0 6bbc fcf5 46bd 6d22 d3bb e84f 863d
00000120: bb47 393e d55a 82bd f6c1 fc3d bae3 383d
00000130: dc7a d43d 4634 eabc 03fa 36be d289 d03d
00000140: bae7 debc 52f2 47bd 6ef9 8d3c 670e c6bd
00000150: 5783 85ba 13d5 953d 7d6c 09be 3155 213e
00000160: b131 96bd 32d1 963d 3e1c 9d3d 12f2 f73c
00000170: bcbe e6bc 95ee bfbd aaf3 1fbc 29bd 1dbe
00000180: 92c9 d6bd 12f8 633d d849 023e 5715 343d
00000190: b01f 4e3d 1d65 9a3e 345f 793d 080a 14bb
000001a0: 4df0 f5bd 8d52 ef3c 7b88 163e 8c13 bfbc
000001b0: b25b ee3c b665 f33d e890 9f3d f5f8 273e
000001c0: f39b 3fbe 07a0 463d 1a3b e13d 3671 f13d
000001d0: 96bf 973d 046a cf3d 80ee 57bd ad07 9e3d
000001e0: 8d8f 103d b9f3 aabd ae10 06be 610e 8ebd
000001f0: 3ae1 9b3b 6588 363d e0bb 8c3c d79b b73d
00000200: 0eae d63c 5589 1c3e 4101 c1bb b516 8ebd
00000210: 70dc 953d 3904 30bd 215b cabc b54c d7bc
00000220: 764e cbbd a6d6 263d 40a3 1b3e 5246 21be
00000230: 0221 613a 3d62 d83d cd10 1cbe e0f2 3b3c
00000240: c3bb 06be 0080 0e3e 8395 ac3d 6e71 00be
00000250: f5d2 aa3d f669 02be 1c58 96bc 4863 413d
00000260: 210a 203e 8d5c 0d3d 6aff acbd 1625 fd3b
00000270: e11b a73b 8878 36bc d242 13bc 9a00 a8bc
00000280: 1874 793e b67e 05be e4c9 c83d e00f 88bd
00000290: be19 26be 0af8 f63d b40a 3fbe cfdc 373e
000002a0: 4643 923c 4c47 83bd b17a 85bc 0e0e b5bd
000002b0: 8d8b f73d 941f 053d bb78 2a3d cab6 34be
000002c0: 0412 39be 12a7 94bd 7537 143e 21ba bcbc
000002d0: 3426 973d 22d3 efbc 2859 17bd 5294 2abe
000002e0: 23ee e7bd 5d85 28bd 8ac2 3cbb 299f 59bd
000002f0: 3bbd 003d 0f4b 37be d674 27bd 9903 87bd
00000300: ed19 14be ceb4 263e 6ad3 03be a0f8 c33d
00000310: aee4 b8bd d7a2 433d 154e 2d3d 7d2a dd3d
00000320: 2dc7 2e3d 14e0 8cbb 7ed3 023e 45d2 80bd
00000330: ba5a bd3d b8d4 843d 0cb2 72bc a05d cf3d
00000340: ea4f a3bd 1b7e 75bc 10f4 043e bea0 cf3d
00000350: ebd8 41bd e807 863d 8243 a2bd 100e 643d
00000360: b594 e7bc 72da 9f3a a9d0 533d d700 463e
00000370: eb40 cf3b 60bb 523d bdbd d53d cd33 4d3d
00000380: afc8 45bb e5de 01bd 0879 64bd f9b9 7cbd
00000390: e46b d83d d906 943d b1b5 963c 9eed a0bd
000003a0: 3976 2dbd 29e2 10bd dd26 8f3d faa3 e4ba
000003b0: 7215 07be 411a b53d a183 343c 1cb4 143d
000003c0: 29f1 ac3d 863e bb3d 522c c8bc c3ae ae3c
000003d0: 6cbb 2dbe 0089 f93d 9a79 06be f275 24be
000003e0: d12c a1bd 3235 9cbd 2755 70bd fea1 103e
000003f0: 9b81 403d 5600 a1bd 93a3 a9bd 8fb1 f7bd

blocks.0.attn.proj.bias f4 [64]
-0.1685721 0.09199654 -0.056971546 -0.006633049 -0.04775524 0.01916378 0.08850279 -0.09041848
0.0051338295 0.117292546 0.024678197 0.081783935 0.03517326 0.020721775 -0.04472186 -0.048411995
-0.07252858 -0.16153368 0.01122261 -0.010196428 -0.05798208 0.10007568 -0.00567122 0.04680998
0.10986171 -0.018312411 -0.03866277 -0.042236764 0.01763197 0.11766839 0.08591465 0.003717055
-0.14626877 0.023392683 -0.091365024 -0.13915208 -0.047273125 -0.124426164 0.0709194 -0.034386825
0.07316896 0.049139787 0.1132892 -0.080148086 0.043322407 -0.11631889 -0.025917737 0.0131199295
0.009195697 0.030509217 0.091850504 -0.06656668 -0.012925639 -0.06481664 -0.015896995 0.096750155
0.026599076 0.10176677 -0.11453883 0.06774551 0.033804815 -0.0773909 0.030511905 0.06368624
00000000: 2a9e 2cbe af68 bc3d ff5a 69bd 0c5a d9bb
00000010: 009b 43bd 5cfd 9c3c f340 b53d 532d b9bd
00000020: af39 a83b 1337 f03d ee29 ca3c 567e a73d
00000030: d611 103d b6c0 a93c 452e 37bd a84b 46bd
00000040: dd89 94bd 1669 25be 0adf 373c eb0e 27bc
00000050: 9e7e 6dbd 7af4 cc3d a4d5 b9bb d2bb 3f3d
00000060: 2dff e03d e903 96bc da5c 1ebd 7500 2dbd
00000070: ec70 903c 20fc f03d 05f4 af3d d699 733b
00000080: 7bc7 15be 03a2 bf3c 961d bbbd e27d 0ebe
00000090: 77a1 41bd 25d3 febd 313e 913d 33d9 0cbd
000000a0: 9cd9 953d cd46 493d 2b04 e83d ae24 a4bd
000000b0: d672 313d 9938 eebd 6f51 d4bc f9f4 563c
000000c0: 8ca9 163c 77ee f93c 1e1c bc3d 1d54 88bd
000000d0: 0fc6 53bc 96be 84bd 6a3a 82bc f224 c63d
000000e0: 4ee6 d93c 196b d03d 5693 eabd 28be 8a3d
000000f0: eb76 0a3d 1f7f 9ebd 1af4 f93c ee6d 823d

blocks.0.norm2.weight f4 [64]
1.0646102 1.1249188 1.05698 0.88356453 1.0463258 0.9162402 0.97411335 0.96235716
1.0226086 1.008076 1.0562208 0.9495883 1.1157813 1.0363834 0.9470532 1.014273
1.043922 0.9034605 1.0769236 1.1132565 1.0278245 1.1050322 1.0598507 0.8921412
1.0412375 0.9803264 1.0698091 0.82422596 0.95163274 1.037856 1.0805461 1.0033706
1.0510483 1.0313629 1.005659 1.0849844 1.0325363 0.868288 1.0671586 0.92039984
1.0334762 0.90903866 1.016346 1.0278255 1.1301194 0.9840486 1.0194311 0.999785
0.969806 1.0103421 0.9224625 1.0349175 1.1300954 1.07747 1.0223701 1.0715375
1.1053452 1.0615538 1.0714183 0.950459 1.0449138 0.94347894 0.9589006 0.9031267
00000000: 2645 883f 57fd 8f3f 1f4b 873f 4931 623f
00000010: 01ee 853f b88e 6a3f 7e5f 793f 0a5d 763f
00000020: d7e4 823f a208 813f 3e32 873f 3818 733f
00000030: ecd1 8e3f 36a8 843f 1472 723f b3d3 813f
00000040: 3c9f 853f 3049 673f a2d8 893f 307f 8e3f
00000050: c18f 833f b271 8d3f 30a9 873f 5e63 643f
00000060: 4547 853f acf6 7a3f 81ef 883f 7900 533f
00000070: 349e 733f 77d8 843f 564f 8a3f 736e 803f
00000080: c088 863f b303 843f 6fb9 803f c5e0 8a3f
00000090: 262a 843f 1f48 5e3f a798 883f 539f 6b3f
000000a0: f348 843f c2b6 683f a017 823f c98f 833f
000000b0: c1a7 903f 9cea 7b3f b87c 823f e9f1 7f3f
000000c0: 3545 783f e452 813f 8126 6c3f 2d78 843f
000000d0: f7a6 903f 89ea 893f 06dd 823f 2428 893f
000000e0: f47b 8d3f ffe0 873f 3c24 893f 4851 733f
000000f0: bcbf 853f d687 713f 827a 753f 5033 673f

blocks.0.norm2.bias f4 [64]
0.042765453 -0.030248225 -0.039563295 0.0056723724 -0.01295681 0.032547444 0.053130575 0.11862407
-0.10059931 0.10499148 0.0063880607 -0.038198005 0.018048054 0.011556135 0.105083086 -0.027333375
-0.0007891618 -0.044222567 -0.05756325 0.08855145 -0.004121471 -0.012749558 0.045451585 -0.09788976
0.041787352 -0.0005885798 0.0133335395 -0.03193116 -0.08929793 0.012905615 0.12667926 0.042208385
-0.15215182 0.04613159 0.016239928 0.016521748 -0.002709912 -0.06632388 0.0010930402 -0.009168063
-0.00043737364 0.008697324 0.045603264 0.13079296 -0.036862638 0.040106244 0.016465241 0.08985171
0.046366658 -0.039229438 0.0134525895 0.002991955 -0.11192138 -0.028271873 -0.081852354 0.0650303
0.024401573 -0.0049814037 -0.07056468 0.031458363 0.004652868 -0.005757925 0.08870814 0.021502804
00000000: d42a 2f3d 20cb f7bc 1f0d 22bd 4fdf b93b
00000010: cd48 54bc 7850 053d 729f 593d 2df1 f23d
00000020: 0307 cebd c605 d73d f052 d13b 8375 1cbd
00000030: 83d9 933c f155 3d3c cd35 d73d 3eea dfbc
00000040: c0df 4eba b922 35bd 71c7 6bbd 765a b53d
00000050: 680d 87bb 86e3 50bc 712b 3a3d 6d7a c8bd
00000060: 3729 2b3d ec4a 1aba eb74 5a3c 3fca 02bd
00000070: d5e1 b6bd 1372 533c 35b8 013e b3e2 2c3d
00000080: b0cd 1bbe 7af4 3c3d 9909 853c 9e58 873c
00000090: c798 31bb d0d4 87bd 5844 8f3a a535 16bc
000000a0: 4c4f e5b9 397f 0e3c 7dca 3a3d 97ee 053e
000000b0: 47fd 16bd 7246 243d 1de2 863c 2c04 b83d
000000c0: f7ea 3d3d 0caf 20bd 4068 5c3c ad14 443b
000000d0: 0937 e5bd 6a9a e7bc 35a2 a7bd 9b2e 853d
000000e0: cfe5 c73c 0b3b a3bb 3784 90bd 7cda 003d
000000f0: 1677 983b faac bcbb 9dac b53d a626 b03c

blocks.0.ffn.net.0.weight f4 [128, 64]
-0.13527282 -0.026909377 0.15964998 -0.05018718 0.038218886 0.08044529 -0.00924381 -0.028564192
-0.04675362 0.096927844 0.107843325 0.0375693 -0.03477923 -0.009315484 0.066115305 -0.14585094
-0.12362497 -0.13687363 0.045971535 -0.0052377735 0.09048351 -0.0385284 0.0040949327 -0.03785412
0.04294214 -0.038478803 0.012224153 -0.066743284 0.10191987 0.12721291 -0.20538995 -0.120412715
0.14095747 0.15180108 0.098326534 -0.15887466 0.06490268 -0.04438405 0.031784546 0.12966347
0.04522118 -0.04426746 0.16632766 -0.101147994 -0.009884912 0.096222624 -0.01227459 -0.11744452
-0.12353173 -0.062924124 0.13270932 0.024825502 -0.005342486 -0.047822464 0.21974991 -0.28267384
-0.037745517 0.14686425 0.06917983 0.10438656 0.0021203698 0.07610897 -0.107231736 -0.06712198
0.018049361 0.054664977 0.126834 -0.074551955 -0.009410469 -0.10204424 0.023272414 0.012643421
-0.13795036 0.16017462 0.103507236 -0.03896424 -0.00924838 -0.13901074 -0.007305501 0.06562223
0.0006655878 -0.070429124 0.035451017 0.0670978 0.15596797 0.13244289 0.04280419 -0.051297944
-0.14933674 -0.008061882 0.0074805575 0.13751107 0.08178193 -0.0065129055 -0.21125343 -0.06983314
0.00024314971 -0.0409161 -0.0030490784 0.087312676 -0.10391456 0.037506793 -0.2009399 0.04597983
-0.11095373 0.019494427 0.08688262 0.082214735 -0.1333029 0.011163009 0.12885389 -0.030762892
0.05494244 -0.042681437 0.18220177 0.18004574 -0.06786802 0.24385968 -0.05127888 -0.020538814
0.11762574 -0.15294182 -0.071540065 -0.0032118163 -0.14611518 0.113153815 -0.042478442 0.15781385
-0.0477834 0.27967444 0.19761081 0.14895804 -0.18118858 -0.04165029 0.0413089 0.018603286
-0.09279021 0.108693644 -0.15965253 0.15594809 -0.109071106 -0.15042388 -0.1525036 -0.094822586
-0.14906482 0.08084546 0.14123091 0.10289613 0.19358975 0.07075852 -0.114210196 0.15260433
0.07592186 0.13107671 -0.037671126 0.007559873 0.095216095 0.14609149 -0.15497354 -0.020546794
-0.13284871 -0.1762995 -0.010970186 -0.12748243 -0.08694342 0.055576768 0.058882073 -0.08424454
-0.19561951 -0.17101279 0.09986152 0.10533774 0.019163042 0.16766559 0.119032525 0.06633308
-0.016145498 -0.08743516 0.09990015 0.08321252 0.059839416 0.004891902 -0.095237486 0.08453739
0.05643982 -0.15604049 0.147669 -0.13980408 -0.11170267 -0.105151944 -0.05000684 0.12796995
0.10487322 0.13836403 -0.05167288 0.06802397 0.22186518 -0.007024999 -0.015106081 0.10559627
0.19732912 0.06391243 0.024564547 0.09367152 0.12723942 0.06816809 0.120873705 -0.2160918
0.080276154 -0.0512732 0.11890313 -0.28651232 0.12858196 0.061971813 -0.023313345 -0.09937511
-0.12909788 -0.08316739 -0.078510396 -0.06427522 0.026170257 0.040858995 0.033271834 -0.05521091
0.09067776 -0.19672844 0.09909636 0.2047852 -0.02798084 -0.010138089 0.17123286 -0.02627157
-0.14530091 -0.085423455 -0.0027698525 0.09422646 -0.25007758 0.14577718 -0.04660356 0.07284979
0.03663163 -0.090230145 0.010574511 0.10578745 0.22715323 0.024862485 -0.12342836 0.12580137
0.062238343 -0.09080046 0.06858884 -0.040225595 0.016954495 0.029706141 -0.090251766 0.11640193
00000000: f584 0abe 0e71 dcbc 497b 233e 1391 4dbd
00000010: 688b 1c3d 80c0 a43d 5973 17bc 74ff e9bc
00000020: b980 3fbd 1b82 c63d f6dc dc3d 44e2 193d
00000030: aa74 0ebd f99f 18bc 7667 873d f359 15be
00000040: 172f fdbd 9a28 0cbe a64c 3c3d a1a1 abbb
00000050: 6b4f b93d f5cf 1dbd c92e 863b ec0c 1bbd
00000060: 19e4 2f3d f39b 1dbd d047 483c b4b0 88bd
00000070: 5dbb d03d 1a44 023e be51 52be f19a f6bd
00000080: 2857 103e be71 1b3e 6c5f c93d 0ab0 22be
00000090: b2eb 843d 0dcc 35bd 8330 023d 80c6 043e
000000a0: d839 393d cc51 35bd cc51 2a3e ae26 cfbd
000000b0: 53f4 21bc 5e10 c53d 5d1b 49bc c186 f0bd
000000c0: 34fe fcbd 5dde 80bd f4e4 073e da5e cb3c
000000d0: 0510 afbb 7de1 43bd 1f06 613e a0ba 90be
000000e0: 0b9b 1abd 9563 163e 28ae 8d3d 9fc8 d53d
000000f0: e7f5 0a3b 05df 9b3d 509c dbbd 4077 89bd
00000100: 41dc 933c 62e8 5f3d c6e0 013e b2ae 98bd
00000110: 5e2e 1abc 92fc d0bd caa5 be3c 5a26 4f3c
00000120: dc42 0dbe d104 243e 9afb d33d f898 1fbd
00000130: 8486 17bc d558 0ebe fc62 efbb f364 863d
00000140: d77a 2e3a 253d 90bd 1635 113d 926a 893d
00000150: 11b6 1f3e 1c9f 073e 7253 2f3d cb1d 52bd
00000160: bbeb 18be fc15 04bc 771f f53b b4cf 0c3e
00000170: 497d a73d 366a d5bb d252 58be ad04 8fbd
00000180: 01f6 7e39 a497 27bd 0cd3 47bb fdd0 b23d
00000190: 28d1 d4bd b9a0 193d 30c3 4dbe 5955 3c3d
000001a0: b63b e3bd c7b2 9f3c 84ef b13d 3360 a83d
000001b0: 8e80 08be 0ee5 363c 46f2 033e 7602 fcbc
000001c0: 530b 613d bbd2 2ebd 1a93 3a3e e95d 383e
000001d0: 63fe 8abd 5ab6 793e ce09 52bd 0441 a8bc
000001e0: c4e5 f03d c89c 1cbe 9983 92bd 567d 52bb
000001f0: 389f 15be 30bd e73d e0fd 2dbd f499 213e
00000200: 87b8 43bd 7d31 8f3e 7d5a 4a3e 7588 183e
00000210: 8089 39be 7f99 2abd 8533 293d eb65 983c
00000220: cb08 bebd c69a de3d f47b 23be dbb0 1f3e
00000230: ac60 dfbd b808 1abe e729 1cbe 5832 c2bd
00000240: 73a4 18be 4e92 a53d d69e 103e 35bb d23d
00000250: 643c 463e d8e9 903d 09e7 e9bd 4f44 1c3e
00000260: ec7c 9b3d f938 063e 0a4d 1abd d0b8 f73b
00000270: a800 c33d 0299 153e 62b1 1ebe c051 a8bc
00000280: 7e09 08be db87 34be 4cbc 33bc c18a 02be
00000290: 640f b2bd 77a4 633d 542e 713d 6788 acbd
000002a0: 7b50 48be fa1d 2fbe 3284 cc3d 50bb d73d
000002b0: d0fb 9c3c 87b0 2b3e 53c7 f33d a3d9 873d
000002c0: 9043 84bc 3511 b3bd 7398 cc3d 536b aa3d
000002d0: 2d1a 753d 404c a03b df0b c3bd f021 ad3d
000002e0: 712d 673d 14c9 1fbe 8b36 173e cd28 0fbe
000002f0: 5fc4 e4bd e759 d7bd f9d3 4cbd 8e0a 033e
00000300: c5c7 d63d 4daf 0d3e f1a6 53bd 2750 8b3d
00000310: a030 633e f631 e6bb 7f7f 77bc db42 d83d
00000320: a510 4a3e 85e4 823d 973b c93c dbd6 bf3d
00000330: 0d4b 023e b69b 8b3d a28c f73d 2b47 5dbe
00000340: d367 a43d d903 52bd 7c83 f33d beb1 92be
00000350: fdaa 033e 28d6 7d3d a1fb bebc 2d85 cbbd
00000360: 3c32 04be aa53 aabd 0fca a0bd baa2 83bd
00000370: 0263 d63c c35b 273d 0c48 083d d624 62bd
00000380: 43b5 b93d 2e73 49be 08f3 ca3d 36b3 513e
00000390: 1338 e5bc 3a1a 26bc ab57 2f3e 7a37 d7bc
000003a0: c3c9 14be 7ef2 aebd 6a86 35bb cdf9 c03d
000003b0: 2b0a 80be 9d46 153e 60e3 3ebd 4532 953d
000003c0: 0c0b 163d 95ca b8bd b740 2d3c 17a7 d83d
000003d0: db9a 683e 69ac cb3c 02c8 fcbd 13d2 003e
000003e0: a2ed 7e3d 97f5 b9bd 4e78 8c3d 98c3 24bd
000003f0: 27e4 8a3c 4b5a f33c ebd5 b8bd 2364 ee3d

blocks.0.ffn.net.0.bias f4 [128]
-0.04232841 -0.045267757 -0.06389952 -0.15297025 -0.11398483 -0.043630682 0.04072464 -0.121839024
-0.08302415 -0.026821796 0.043773647 -0.14780182 -0.019435622 -0.09732337 -0.0045865006 -0.002684033
-0.06795176 -0.07275416 -0.066315964 -0.10568492 -0.0037283874 -0.18667307 -0.00391705 -0.009771141
-0.08197366 -0.0011652706 -0.00031114288 -0.15565586 -0.09741634 -0.01228901 -0.18368773 -0.08528181
-0.12926841 -0.12562503 -0.0025164508 -0.07949276 -0.22176553 0.020826649 -0.0007628941 -0.18212447
0.025636053 -0.01604703 0.070244074 0.010437617 0.0115271695 -0.12741867 0.025775852 -0.072454534
-0.02771735 -0.14124732 -0.057719596 -0.15785229 -0.1016985 -0.17589651 -0.018831162 0.066728905
-0.20187324 -0.17153001 -0.14951809 -0.1353234 -0.12677443 -0.14805412 -0.102112435 -0.09600541
-0.062089488 -0.046822928 0.00037690383 -0.03739017 -0.17049183 -0.078066334 -0.116588995 -0.07949543
0.0065731783 -0.030278014 -0.10635931 -0.12558585 -0.15774101 -0.14785378 -0.13308612 -0.104179345
-0.20460348 -0.1416789 0.09511519 -0.08937429 -0.11671611 -0.086754136 -0.03464227 -0.12504159
-0.012825045 -0.18796338 -0.14997865 -0.03974276 -0.1519944 -0.037046924 -0.16494752 -0.1462683
-0.103611015 -0.17225194 -0.1028788 -0.02469339 -0.12201832 -0.030334525 -0.06170164 0.027854659
-0.14896683 -0.10692445 -0.046717055 -0.17709526 -0.044315126 -0.0026006033 -0.14792405 -0.18784201
-0.17819409 -0.17689753 -0.13314582 -0.07938348 -0.08526027 -0.044289503 -0.018554306 -0.15082319
0.02247742 -0.08428058 -0.021975478 -0.07523936 -0.048915487 -0.10740965 -0.06872711 -0.13542104
00000000: 8e60 2dbd af6a 39bd c0dd 82bd 3ca4 1cbe
00000010: e170 e9bd 16b6 32bd e1ce 263d bd86 f9bd
00000020: 9108 aabd 62b9 dbbc ff4b 333d 5c59 17be
00000030: 7437 9fbc 7a51 c7bd 5b4a 96bb 9ae6 2fbb
00000040: 4b2a 8bbd 2200 95bd aad0 87bd 5671 d8bd
00000050: f657 74bb 3a27 3fbe 995a 80bb 2317 20bc
00000060: cee1 a7bd febb 98ba e420 a3b9 4064 1fbe
00000070: 3882 c7bd d857 49bc a318 3cbe 3ba8 aebd
00000080: f05e 04be d9a3 00be 0aeb 24bb 1acd a2bd
00000090: 8116 63be a69c aa3c f5fc 47ba d67e 3abe
000000a0: b302 d23c 1075 83bc 20dc 8f3d 8a02 2b3c
000000b0: 74dc 3c3c 0a7a 02be e127 d33c 0b63 94bd
000000c0: 7f0f e3bc 23a3 10be 626b 6cbd 08a4 21be
000000d0: 4e47 d0bd 371e 34be cf43 9abc 2aa9 883d
000000e0: dcb7 4ebe 90a5 2fbe 451b 19be 3892 0abe
000000f0: 28d1 01be 809b 17be 5320 d1bd 7c9e c4bd
00000100: 8c51 7ebd 66c9 3fbd 2d9b c539 6f26 19bd
00000110: 6995 2ebe 3ee1 9fbd 36c6 eebd 80ce a2bd
00000120: d163 d73b 9909 f8bc e9d2 d9bd 9499 00be
00000130: dc86 21be fb66 17be ba47 08be fb5b d5bd
00000140: 9383 51be 4614 11be c1cb c23d de09 b7bd
00000150: db08 efbd 27ac b1bd 0ee5 0dbd e70a 00be
00000160: 2320 52bc 7979 40be 0194 19be 4ec9 22bd
00000170: 6ca4 1bbe 84be 17bd 01e8 28be 5bc7 15be
00000180: 0332 d4bd d062 30be 1fb2 d2bd cb49 cabc
00000190: bee4 f9bd 1c80 f8bc dcba 7cbd 742f e43c
000001a0: c38a 18be 35fb dabd 625a 3fbd 7658 35be
000001b0: c783 35bd e26e 2abb 6779 17be a859 40be
000001c0: 8378 36be a024 35be 6157 08be ce93 a2bd
000001d0: f09c aebd e968 35bd 33ff 97bc 6571 1abe
000001e0: 9122 b83c 4c9b acbd eb05 b4bc 1817 9abd
000001f0: 9b5b 48bd 97f9 dbbd cdc0 8cbd d0ab 0abe
