new experiments/Transformer results on MNIST/checkpoints_mnist_transformer/transformer_mnist_epoch_2.pth (torch, 300463 bytes, 32 tensors)

cls_token f4 [1, 1, 64]
0.25883088 0.08208077 -0.5330951 -1.1384538 -1.0318099 -1.4893363 0.8257771 0.95438814
-0.45492533 -0.09634663 -0.66306996 -0.030720768 0.795915 0.91613954 -0.281352 -0.004872514
0.10483622 -1.0341896 -0.91420513 0.10581677 -1.9450203 0.39376247 -0.7746774 -0.02322441
-0.31684065 0.077491984 -1.0364503 1.7613097 0.78000736 -0.14852488 -0.37743476 0.5124165
-0.038405024 -0.89661866 -0.97328055 -0.040106267 -0.45833093 -2.1049476 0.6242848 -0.7478289
-0.42349815 0.72402567 1.3743676 0.45974872 -0.61231583 -0.044775613 -0.6429215 -0.5835426
0.7269385 -1.2786273 -0.2891729 0.46859208 -0.15368336 -0.47179714 0.09608171 0.25355276
-1.0239807 0.99214846 -0.54261595 -0.57093966 0.2984732 0.33677042 0.5104321 -0.86570907
00000000: 7b85 843e f619 a83d ec78 08bf dbb8 91bf
00000010: 5912 84bf 92a2 bebf 2166 533f c852 743f
00000020: f9eb e8be 6251 c5bd f4be 29bf 1faa fbbc
00000030: 16c1 4b3f 1f88 6a3f 5f0d 90be 9ca9 9fbb
00000040: 5fb4 d63d 5360 84bf 5909 6abf 76b6 d83d
00000050: 6df6 f8bf 3c9b c93e 4251 46bf 1e41 bebc
00000060: f038 a2be 1eb4 9e3d 67aa 84bf 9972 e13f
00000070: 90ae 473f e816 18be 213f c1be ba2d 033f
00000080: 964e 1dbd cd88 65bf ea28 79bf 7846 24bd
00000090: 5aaa eabe 76b7 06c0 21d1 1f3f b771 3fbf
000000a0: c0d4 d8be bf59 393f 47eb af3f 2f64 eb3e
000000b0: bbc0 1cbf a266 37bd 8196 24bf 0c63 15bf
000000c0: a418 3a3f 0faa a3bf 780e 94be 4deb ef3e
000000d0: 2c5f 1dbe 658f f1be 7dc6 c43d abd1 813e
000000e0: cd11 83bf 71fd 7d3f e1e8 0abf 1a29 12bf
000000f0: 7bd1 983e 2c6d ac3e aeab 023f 1c9f 5dbf

pos_embed f4 [1, 50, 64]
-0.41370234 0.063462086 0.9060095 -0.51300275 -0.3443781 -1.4944285 2.0615282 0.18024683
-0.19241469 -1.7198209 0.03676165 -1.5197244 -0.8738153 0.83702564 1.5714455 0.8903517
-0.21976985 0.5731123 0.47906062 0.1350117 -0.21522 -0.4194077 0.40450716 1.1675732
-0.2355882 -0.12028868 0.69596684 0.052928787 0.1274918 -0.050861653 0.04738331 -1.9314387
0.36861646 1.7898228 0.025283981 -0.40645334 -0.30414897 -0.8796696 -0.29490247 1.3788027
0.7787904 1.5550624 -1.3418081 0.28392613 0.8269181 1.3997134 0.95546216 0.4427975
0.10842337 -0.3864129 -0.8510076 -1.1144611 -1.2165971 -1.3944128 -1.6650934 -0.63030255
0.89849144 -0.03857647 -0.0039122044 -0.4134364 -1.0529319 1.1628346 -0.98568976 -1.0340734
0.9792887 1.0275711 0.9221701 1.1963952 1.1374123 2.0324106 -0.3432886 -0.6306597
-0.03511936 -0.5265619 -0.667528 -0.33063567 0.0807586 -0.57905513 -0.8140741 0.5480384
-2.5866861 0.41042522 0.41820163 0.6723243 0.39465964 0.91920745 -1.5561376 0.4519984
-1.9343221 -1.4074041 -0.055240054 -0.6351954 0.4010331 -0.59129363 0.1887544 0.13406451
-1.5138189 1.3700758 -0.85689 0.11559765 -1.4580666 1.7723358 -0.69874805 0.4913112
-0.6547869 -0.70573217 0.37993294 2.139386 -0.97294855 -0.09754062 -0.40929386 0.49962753
0.35992298 1.8769573 0.47499293 -0.34084883 0.58925843 0.6367485 0.93201244 -0.35682702
-0.13382027 -1.8174601 -0.05639855 0.22014841 1.0663788 0.29491177 -0.12875015 -1.4935979
0.6185591 -0.15260532 -0.5990537 0.73327106 -0.009798392 -2.541989 -1.2235658 -0.5015107
0.39210352 0.43101427 -0.374509 -0.5349168 0.75162965 -1.5047657 -0.8400447 1.1522089
1.0406793 -0.47963566 0.96840227 -0.5095052 0.12809528 1.4339919 0.4551165 1.6507918
-0.7487548 -0.14818287 -0.08262213 1.8115884 -0.36494735 0.8376411 1.5077045 -0.10865955
-0.043667223 1.5846916 -2.6931717 -0.27992895 -2.585931 -0.88612187 0.579653 -1.5110227
0.6109482 1.1924407 1.6304299 -1.5341864 -2.04181 -0.46180147 -0.7313948 -0.1811585
-0.20502572 0.07669642 0.043402895 -0.3402776 0.14822753 -0.40533867 -0.67911863 -0.15649265
0.7959504 -1.7382772 -1.1171252 0.2118585 2.382403 -0.35233343 -0.88990587 0.40216035
-0.89266616 -1.0850614 0.08204831 0.34350985 -1.1324421 -0.51198393 -0.22149652 -0.13676687
-0.12749645 1.2810717 -0.07487042 -0.1967392 0.9358324 0.20660377 0.05887811 0.64146304
0.87827855 -0.58934903 -0.25513315 0.37220544 -0.9562312 -0.036767513 0.7004198 -1.6654971
-0.096473254 2.811306 1.1569012 -0.24602593 -0.47731212 -0.4209784 0.19232844 -0.26211283
0.81911254 -0.3457512 0.52914476 1.3981249 -0.5070815 -0.21589966 -0.027886692 0.5102425
-0.43497023 -1.3319923 2.7102313 -0.7903832 0.08882116 -0.7447343 0.53067994 -0.8456891
-0.6239375 0.99538654 0.48456767 0.77751297 0.0028433427 1.29107 0.1152557 0.19979912
0.19197148 0.17295371 -0.20455246 1.3777603 -1.2491933 2.0156052 0.09795817 -0.4788424
00000000: cbd0 d3be 69f8 813d 3df0 673f 2654 03bf
00000010: 5452 b0be 6f49 bfbf 14f0 0340 a092 383e
00000020: 5b08 45be 1723 dcbf 6293 163d 5486 c2bf
00000030: 5cb2 5fbf 5047 563f 2025 c93f 17ee 633f
00000040: 590b 61be 7db7 123f 6f47 f53e 8240 0a3e
00000050: a262 5cbe 9bbc d6be 901b cf3e 0a73 953f
00000060: 083e 71be e959 f6bd e22a 323f dbcb 583d
00000070: 368d 023e 4f54 50bd 0015 423d 6239 f7bf
00000080: 4cbb bc3e ea18 e53f 5a20 cf3c a71a d0be
00000090: 6ab9 9bbe 0732 61bf 75fd 96be 9b7c b03f
000000a0: cf5e 473f 490c c73f 5ec0 abbf c45e 913e
000000b0: e8b0 533f cf29 b33f 2b99 743f 5bb6 e23e
000000c0: 120d de3d e9d7 c5be a2db 59bf a9a6 8ebf
000000d0: 74b9 9bbf 1e7c b2bf c821 d5bf 825b 21bf
000000e0: 8903 663f 5c02 1ebd f331 80bb f0ad d3be
000000f0: 79c6 86bf c4d7 943f 2a56 7cbf 845c 84bf
00000100: aab2 7a3f 7387 833f 5713 6c3f 7a23 993f
00000110: ba96 913f 0413 0240 86c3 afbe ea72 21bf
00000120: 51d9 0fbd c3cc 06bf 1de3 2abf 1449 a9be
00000130: c464 a53d f53c 14bf 2967 50bf 3f4c 0c3f
00000140: 448c 25c0 4123 d23e 861e d63e 721d 2c3f
00000150: d410 ca3e 2e51 6b3f 842f c7bf 566c e73e
00000160: de97 f7bf d125 b4bf 6543 62bd 2a9c 22bf
00000170: 3654 cd3e 055f 17bf d548 413e 3548 093e
00000180: d1c4 c1bf a55e af3f 255d 5bbf 76be ec3d
00000190: eda1 babf e6db e23f 27e1 32bf 248d fb3e
000001a0: 1da0 27bf ddaa 34bf 9286 c23e b3eb 0840
000001b0: 2813 79bf 60c3 c7bd f78e d1be 2ecf ff3e
000001c0: d347 b83e 2340 f03f 4632 f33e bd83 aebe
000001d0: a4d9 163f f301 233f 5e98 6e3f 08b2 b6be
000001e0: 2e08 09be 88a2 e8bf 2a02 67bd 966e 613e
000001f0: 1a7f 883f adfe 963e 14d7 03be 372e bfbf
00000200: e459 1e3f 9244 1cbe 955b 19bf a7b7 3b3f
00000210: 6f89 20bc f3af 22c0 ce9d 9cbf 0163 00bf
00000220: cbc1 c83e e7ad dc3e a5bf bfbe 4ff0 08bf
00000230: cd6a 403f 2a9c c0bf 2b0d 57bf 957b 933f
00000240: fb34 853f ce92 f5be 36e9 773f ef6e 02bf
00000250: 692b 033e 0c8d b73f 0805 e93e 254d d33f
00000260: 65ae 3fbf 40bd 17be cb35 a9bd 21e2 e73f
00000270: 61da babe a66f 563f 76fc c03f e688 debd
00000280: 67dc 32bd 2dd7 ca3f ed5c 2cc0 d952 8fbe
00000290: e57f 25c0 e2d8 62bf 2464 143f 3169 c1bf
000002a0: 1a67 1c3f e6a1 983f edb1 d03f 3860 c4bf
000002b0: 04ad 02c0 3e71 ecbe b13c 3bbf 9d81 39be
000002c0: 43f2 51be 0313 9d3d 3cc7 313d de38 aebe
000002d0: f5c8 173e 8d88 cfbe b8da 2dbf 9c3f 20be
000002e0: 68c3 4b3f de7f debf f5fd 8ebf 6ff1 583e
000002f0: 4a79 1840 0c65 b4be dfd0 63bf f6e7 cd3e
00000300: c585 64bf 4be3 8abf f208 a83d 86e0 af3e
00000310: ddf3 90bf 6111 03bf fccf 62be 9d0c 0cbe
00000320: 6e8e 02be 28fa a33f aa55 99bd 0076 49be
00000330: b692 6f3f f08f 533e 2c2a 713d ec36 243f
00000340: ddd6 603f 94df 16bf d0a0 82be b691 be3e
00000350: 91cb 74bf 8899 16bd b64e 333f 022f d5bf
00000360: c593 c5bd 70ec 3340 5715 943f 39ee 7bbe
00000370: 4162 f4be 7b8a d7be bff1 443e a733 86be
00000380: 5cb1 513f 4d06 b1be 0876 073f c2f5 b23f
00000390: 18d0 01bf cd14 5dbe a272 e4bc 419f 023f
000003a0: 6bb4 debe b97e aabf 6e74 2d40 8e56 4abf
000003b0: dee7 b53d e8a6 3ebf a4da 073f 157f 58bf
000003c0: 5eba 1fbf a7d1 7e3f 4119 f83e 170b 473f
000003d0: 6057 3a3b c841 a53f 2e0b ec3d 2498 4c3e
000003e0: 2c94 443e c71a 313e 3376 51be 735a b03f
000003f0: 91e5 9fbf adff 0040 4b9e c83d d52a f5be

patch_embed.projection.weight f4 [64, 1, 4, 4]
-0.1140128 -0.0020601188 0.114326105 0.120651275 -0.2387029 -0.048998725 -0.013248057 0.07959244
-0.27274746 -0.121568285 0.18663879 0.31059134 -0.15003525 -0.05205999 0.1645136 0.37040627
-0.056553353 -0.23838109 0.15653455 -0.12350292 -0.1748365 -0.2672357 -0.14685026 -0.14187455
-0.0051969807 0.0008523547 0.14051315 -0.019084672 0.04695152 0.26628554 0.30262744 0.022467082
-0.21630856 -0.21226802 -0.29397506 -0.29783374 -0.16793388 -0.09225997 -0.29163963 0.09126138
0.12274489 -0.021551466 -0.21623872 0.060423523 -0.1017827 -0.09850198 0.06476715 0.24818729
-0.12292235 -0.12665232 -0.17725828 -0.21374924 -0.13798457 0.007594713 0.08786812 0.08940501
0.22897547 0.11576599 0.25141343 -0.03100808 0.2872689 0.29593515 0.24656934 -0.05702637
0.21052608 0.11769877 0.18224801 -0.0018154435 0.008483092 -0.06174662 -0.2245254 -0.27887863
0.139209 0.06956635 -0.08961468 -0.18946408 0.2523983 0.14547186 0.018682264 0.02060939
-0.042502448 0.16776101 0.25527814 0.020405766 0.08720355 0.11308834 0.010395921 -0.11664076
-0.07460192 0.2425433 0.2362778 -0.16522849 0.12600124 0.002647834 -0.050064083 -0.026693135
0.1696369 -0.055876788 0.17432594 0.15445015 0.06684844 -0.06748279 -0.20999154 0.20177175
-0.00485494 0.02074062 0.09229272 -0.071205065 -0.0025557552 -0.008587688 -0.06730343 -0.2981506
0.13841568 0.07754586 -0.030924255 0.10114422 -0.1936714 -0.317662 0.069604434 -0.09784709
-0.18761125 -0.26179832 0.09853523 -0.1370504 0.124313906 -0.18072689 -0.09790538 0.19849266
-0.13076074 0.041022833 0.2546266 0.057259426 -0.05440393 0.0717566 0.14128962 -0.10642121
-0.05427941 -0.12867169 0.02053442 0.09308446 -0.09955154 -0.21863116 0.295773 0.18592837
0.28227982 -0.0021613934 0.072806045 -0.11325209 -0.0015935173 -0.27697322 0.14157104 -0.29402393
0.15293461 0.0056251925 0.15404287 0.15777665 -0.30345392 -0.2813646 -0.29977998 -0.15775056
0.08281598 -0.038893245 0.07968181 0.07305919 0.1956616 -0.19490929 -0.06821577 0.35973743
-0.15587658 -0.15838893 -0.08803078 0.2770758 -0.064647526 -0.05238967 -0.0655003 0.012371422
0.25894615 0.17773987 -0.056981158 0.20167412 0.21009594 -0.17046745 0.19984841 -0.22299317
0.12415924 0.18324523 0.15426385 0.1031115 0.081312455 -0.060613945 -0.2153985 -0.26114812
0.09349965 0.07221532 0.1971626 0.20220168 0.058850203 0.13920248 0.0006580467 0.0013797355
-0.0973167 -0.037227985 0.22388779 -0.20280714 0.032405037 0.03162928 -0.015669413 -0.0983664
-0.103153534 0.20361164 0.035747062 0.23785803 0.09116302 0.1957703 -0.06785776 0.0063960636
0.028683634 -0.0829596 0.24398029 0.16491644 0.17992316 -0.025865631 0.075905986 0.13138266
-0.061091408 -0.03433671 -0.0054020523 0.2634134 -0.14597283 0.056120414 -0.078463696 0.09857561
-0.11325404 -0.20426169 0.24475193 -0.11559363 0.09773366 0.014689099 -0.14609236 0.087420546
0.30004814 -0.23010859 -0.15692244 -0.09469835 0.24827807 -0.13535313 0.04274276 0.11819809
0.26653254 0.049495623 -0.24836193 0.20844361 -0.061113797 -0.080133736 -0.33090013 0.048007786
00000000: 8b7f e9bd 0f03 07bb ce23 ea3d 0418 f73d
00000010: 886e 74be e3b2 48bd 610e 59bc 5c01 a33d
00000020: 8ea5 8bbe cbf8 f8bd 3d1e 3f3e d405 9f3e
00000030: d7a2 19be db3c 55bd 4176 283e e4a5 bd3e
00000040: 7da4 67bd 2c1a 74be 984a 203e 19ef fcbd
00000050: 5708 33be 1ed3 88be ea5f 16be 9047 11be
00000060: 6f4b aabb 8e70 5f3a aee2 0f3e 7557 9cbc
00000070: 3d50 403d 9456 883e fcf1 9a3e e30c b83c
00000080: fe7f 5dbe ca5c 59be e683 96be aa7d 98be
00000090: dcf6 2bbe ccf2 bcbd ca51 95be 3fe7 ba3d
000000a0: ac61 fb3d b38c b0bc af6d 5dbe a87e 773d
000000b0: 7373 d0bd 68bb c9bd a4a4 843d cf24 7e3e
000000c0: b7be fbbd 25b1 01be 3283 35be 15e1 5abe
000000d0: d44b 0dbe 12dd f83b 33f4 b33d f919 b73d
000000e0: 8c78 6a3e b816 ed3d 43b9 803e a804 febc
000000f0: e914 933e d084 973e ac7c 7c3e 7c94 69bd
00000100: 2694 573e 0d0c f13d 399f 3a3e 2df4 edba
00000110: abfc 0a3c 06ea 7cbd fde9 65be 2ec9 8ebe
00000120: ce8c 0e3e cd78 8e3d e787 b7bd df02 42be
00000130: 5a3a 813e 93f6 143e 8c0b 993c 06d5 a83c
00000140: 0c17 2ebd 8bc9 2b3e d1b3 823e fe29 a73c
00000150: c697 b23d dc9a e73d a753 2a3c 5ae1 eebd
00000160: e4c8 98bd 455d 783e cff2 713e a831 29be
00000170: 7806 013e 4887 2d3b ff0f 4dbd 90ab dabc
00000180: 4cb5 2d3e 0fdf 64bd 8082 323e 2e28 1e3e
00000190: d6e7 883d 6b34 8abd 0608 57be 419d 4e3e
000001a0: 3016 9fbb 3ce8 a93c f703 bd3d f6d3 91bd
000001b0: 757e 27bb 60b3 0cbc 61d6 89bd 32a7 98be
000001c0: d7bc 0d3e 5dd0 9e3d dd54 fdbc b324 cf3d
000001d0: cc51 46be 98a4 a2be c58c 8e3d 0e64 c8bd
000001e0: 2a1d 40be 6e0a 86be d7cc c93d f156 0cbe
000001f0: 4a98 fe3d 7810 39be 9e82 c8bd a941 4b3e
00000200: 25e6 05be 8f07 283d 6b5e 823e dc88 6a3d
00000210: a8d6 5ebd 20f5 923d 3aae 103e 5df3 d9bd
00000220: 1654 5ebd 83c2 03be cd37 a83c 11a3 be3d
00000230: aee1 cbbd d9e0 5fbe 8f6f 973e 0264 3e3e
00000240: fb86 903e 2aa6 0dbb 561b 953d b6f0 e7bd
00000250: 91dd d0ba 6fcf 8dbe 00f8 103e 4e8a 96be
00000260: e49a 1c3e 8953 b83b 6abd 1d3e 3490 213e
00000270: 505e 9bbe 050f 90be c37c 99be 5d89 21be
00000280: 6d9b a93d 864e 1fbd 3830 a33d 0ea0 953d
00000290: 845b 483e 4d96 47be b6b4 8bbd 812f b83e
000002a0: 1c9e 1fbe b530 22be 7b49 b4bd e1dc 8d3e
000002b0: ec65 84bd 8d96 56bd 0525 86bd 81b1 4a3c
000002c0: 9794 843e 7101 363e 1365 69bd a983 4e3e
000002d0: 6423 573e 058f 2ebe 10a5 4c3e 5258 64be
000002e0: 3347 fe3d a3a4 3b3e 58f7 1d3e 1f2c d33d
000002f0: 2587 a63d 5446 78bd 6d91 5cbe 35b5 85be
00000300: bf7c bf3d a0e5 933d fee4 493e f50d 4f3e
00000310: e90c 713d 188b 0e3e c480 2c3a 3ed8 b43a
00000320: fa4d c7bd 5f7c 18bd d742 653e adac 4fbe
00000330: 25bb 043d b48d 013d 245d 80bc 5374 c9bd
00000340: 2942 d3bd 927f 503e 836b 123d 0e91 733e
00000350: adb3 ba3d 0278 483e 02f9 8abd 1296 d13b
00000360: f1f9 ea3c b9e6 a9bd f8d5 793e dbdf 283e
00000370: c73d 383e 29e4 d3bc 9974 9b3d 2d89 063e
00000380: fc3a 7abd a6a4 0cbd b303 b1bb 1fde 863e
00000390: e779 15be 85de 653d 93b1 a0bd 02e2 c93d
000003a0: bcf1 e7bd fa29 51be 40a0 7a3e 5abc ecbd
000003b0: 9628 c83d 8caa 703c 3c99 15be 8b09 b33d
000003c0: e99f 993e 96a1 6bbe 47b0 20be 35f1 c1bd
000003d0: 9b3c 7e3e 039a 0abe 0813 2f3d d711 f23d
000003e0: f476 883e ecbb 4a3d 9752 7ebe 3e72 553e
000003f0: 7652 7abd 281d a4bd be6b a9be d0a3 443d

patch_embed.projection.bias f4 [64]
-0.25706267 -0.03981711 -0.0865603 0.013997531 -0.158843 0.15633123 -0.053723663 0.005395765
0.13166533 -0.21931143 -0.13088 -0.089633465 0.1872835 0.13329779 0.15411441 0.27702177
0.030533617 0.030921152 0.18651763 -0.13299325 -0.18420298 0.014000374 0.0941844 -0.12667961
-0.012977531 -0.05982611 0.09461735 -0.08034828 -0.1651208 0.13701946 0.15654916 0.2154916
-0.24756561 -0.10705546 -0.19154406 -0.048793625 -0.05406873 -0.18966585 -0.079057604 0.07033922
0.06510076 0.096584365 0.08762476 -0.14685811 -0.028160518 -0.027094308 -0.10982607 0.13203715
-0.23016766 -0.1029069 0.21503578 0.19699019 -0.072878726 -0.107209235 0.1870033 -0.01010833
0.07767148 -0.29555842 -0.06855915 0.036111638 -0.110057905 0.095705025 0.10758571 -0.23089829
00000000: b89d 83be 4417 23bd 8746 b1bd e655 653c
00000010: bda7 22be 4b15 203e 580d 5cbd f5ce b03b
00000020: 47d3 063e 2d93 60be 6805 06be c091 b7bd
00000030: 3fc7 3f3e 377f 083e 2bd0 1d3e ccd5 8d3e
00000040: a321 fa3c 5b4e fd3c 7afe 3e3e 622f 08be
00000050: b59f 3cbe d361 653c c0e3 c03d 4db8 01be
00000060: b69f 54bc 390c 75bd bec6 c13d a48d a4bd
00000070: 6d15 29be d44e 0c3e 6c4e 203e d4a9 5c3e
00000080: d781 7dbe e53f dbbd 2024 44be d3db 47bd
00000090: 2c77 5dbd c437 42be f4e8 a1bd 020e 903d
000000a0: 8c53 853d 06ce c53d 9c74 b33d f961 16be
000000b0: e3b0 e6bc e2f4 ddbc 7eec e0bd bf34 073e
000000c0: 12b1 6bbe dac0 d2bd 5732 5c3e ccb7 493e
000000d0: 7141 95bd 8490 dbbd cb7d 3f3e 699d 25bc
000000e0: 3a12 9f3d 6f53 97be bd68 8cbd cce9 133d
000000f0: 0a66 e1bd ff00 c43d e655 dc3d 9a70 6cbe

blocks.0.norm1.weight f4 [64]
1.0267856 1.0509437 1.0427119 1.0056471 1.0040637 1.0413933 0.9944892 1.0497489
1.0827252 0.9833232 1.0212536 1.0276347 1.0454527 0.895076 1.0286564 0.98886555
0.99758434 0.966647 1.0310299 1.0061373 1.0018388 1.097664 1.0143414 0.94403976
1.0063956 1.0958455 1.0625594 0.99163675 0.98902893 1.0701306 1.0699639 0.98464376
1.0526412 1.0385126 1.0849214 1.0346979 1.0347629 0.98048145 1.1044327 1.0649319
1.0636072 0.9909081 1.0067524 1.0677193 1.037067 1.0024459 1.0157156 1.0023335
1.0709091 1.0319904 1.0439289 0.992634 1.0850066 1.0691849 0.9980196 1.131829
1.0643873 1.0491111 1.041714 0.9474368 1.0835232 0.9916173 1.0516644 1.0103581
00000000: b66d 833f 5385 863f 9577 853f 0bb9 803f
00000010: 2985 803f 604c 853f d896 7e3f 2c5e 863f
00000020: bd96 8a3f 12bb 7b3f 70b8 823f 8989 833f
00000030: 65d1 853f b323 653f 03ab 833f 4b26 7d3f
00000040: b061 7f3f 2e76 773f caf8 833f 1bc9 803f
00000050: 413c 803f 4180 8c3f f0d5 813f 97ac 713f
00000060: 92d1 803f aa44 8c3f f201 883f e8db 7d3f
00000070: 0031 7d3f 0afa 883f 94f4 883f 9d11 7c3f
00000080: f2bc 863f fbed 843f b4de 8a3f fb70 843f
00000090: 1c73 843f d500 7b3f 0d5e 8d3f b04f 883f
000000a0: 4824 883f 27ac 7d3f 43dd 803f 07ab 883f
000000b0: 9dbe 843f 2650 803f f802 823f 774c 803f
000000c0: 8d13 893f 4318 843f 769f 853f 431d 7e3f
000000d0: 7fe1 8a3f 0ddb 883f 367e 7f3f c6df 903f
000000e0: d83d 883f 4649 863f e256 853f 388b 723f
000000f0: e3b0 8a3f a2da 7d3f f09c 863f 6a53 813f

blocks.0.norm1.bias f4 [64]
-0.082865134 -0.09218459 -0.038922906 0.04440934 0.0076509505 0.038934514 -0.05343578 -0.039125726
0.0697713 -0.020223306 -0.04106297 0.06605909 0.06618281 -0.00020172415 -0.0018809575 0.0064385566
0.024876356 0.03902298 -0.025509976 0.048558578 0.013216384 0.0068263416 -0.07297131 -0.047205504
-0.048019037 0.054068897 0.038541686 -0.053947657 -0.043118596 -0.050745446 0.04098665 -0.02079711
-0.044052813 0.05293637 -0.031359833 -0.11893462 -0.00015089601 0.0031785185 0.13877009 -0.12537462
0.023111332 -0.036690433 -0.110513754 0.06620815 0.038191486 -0.0049550505 -0.0077499487 0.03323447
-0.088644035 0.015510105 0.05714982 0.063867465 -0.028737765 0.009906126 0.0013407368 -0.031427734
0.058636528 0.010162878 0.029324561 0.05731579 0.06161996 0.015044006 0.025487289 -0.002106532
00000000: 32b5 a9bd 46cb bcbd a06d 1fbd 91e6 353d
00000010: d3b4 fa3b cc79 1f3d 7adf 5abd 4c42 20bd
00000020: 41e4 8e3d 59ab a5bc a531 28bd fd49 873d
00000030: da8a 873d ea85 53b9 768a f6ba 87fa d23b
00000040: 80c9 cb3c 8fd6 1f3d 4cfa d0bc 5ce5 463d
00000050: 8889 583c 81af df3b fb71 95bd 8f5a 41bd
00000060: 9caf 44bd 5977 5d3d e3dd 1d3d 38f8 5cbd
00000070: 209d 30bd 75da 4fbd 9ee1 273d b35e aabc
00000080: b970 34bd cfd3 583d 2b73 00bd fe93 f3bd
00000090: d739 1eb9 b14e 503b bf19 0e3e 3462 00be
000000a0: fa53 bd3c b548 16bd 0955 e2bd 2398 873d
000000b0: ad6e 1c3d fa5d a2bb 48f3 fdbb de20 083d
000000c0: 018b b5bd 181e 7e3c ee15 6a3d f2cc 823d
000000d0: 766b ebbc 4e4d 223c a9bb af3a 5eba 00bd
000000e0: db2c 703d 3382 263c 103a f03c f6c3 6a3d
000000f0: 3665 7c3d 227b 763c b8ca d03c be0d 0abb

blocks.0.attn.qkv.weight f4 [192, 64]
-0.06492672 0.04890706 -0.03475166 -0.00020069304 0.015769059 0.039828245 0.15631053 0.03331827
-0.115677185 -0.10371686 0.031131197 -0.12844723 0.053848486 -0.0882627 0.11822713 -0.13295914
0.18875039 -0.14462052 0.09649342 -0.15556084 -0.07190839 -0.01809976 0.046026018 0.068811774
-0.050365344 0.106111065 -0.09946691 -0.026852934 -0.06693819 0.07443165 -0.05212838 0.11469571
0.08557535 0.06589563 -0.010675732 0.11392634 -0.037788477 -0.11091915 -0.00068928127 -0.015762657
0.031343054 -0.07926526 0.022429902 0.07799016 -0.13854375 0.052304924 -0.020820068 -0.00091647985
-0.09225927 -0.050064087 -0.051181577 -0.056333076 0.10920376 -0.11618773 -0.1014453 0.11881342
0.036807846 0.097574584 -0.032998458 -0.15725784 -0.029283935 -0.046251465 -0.07805559 -0.061377477
0.12699223 0.084234804 0.13198455 -0.092438675 0.056055233 0.017502798 0.09736494 0.16328116
-0.16920602 -0.021835452 0.0028552113 0.04465352 -0.21674374 0.119117044 0.24860162 -0.078608684
0.11159489 -0.1871507 -0.059252847 -0.1354036 -0.038146183 0.1560719 -0.002863736 0.31049174
-0.07247563 0.008500205 -0.012302743 -0.15857872 0.17530808 0.3123612 -0.11537406 -0.021770742
0.20522061 0.08892971 0.006566221 -0.034660295 -0.17356497 -0.046333205 0.0006431176 0.22401643
0.0489482 0.008725912 0.21133538 -0.03751673 -0.14489837 0.18148342 0.13205047 -0.28424665
0.0997246 0.020760478 -0.09495023 -0.08917565 0.17145078 -0.13724115 -0.031847946 -0.13123272
-0.22397144 -0.09263962 0.12340854 -0.15213662 -0.120060824 0.08258088 -0.21493119 0.13965154
0.054749686 -0.06148399 -0.077109195 0.19788174 -0.030039312 0.07527872 -0.103129774 -0.17226195
0.15180226 -0.0054998873 0.10700593 -0.044492226 0.12800875 -0.016960008 -0.1652362 -0.06407703
-0.0331409 0.09669478 -0.10112808 0.050972655 0.08713654 -0.32957003 0.059708446 0.032267425
0.107807435 -0.13934906 0.065340996 0.048368413 -0.20443709 0.00015360936 0.110052526 0.025242867
-0.2781664 0.056501027 -0.0109210545 -0.19108997 -0.09782086 0.044003755 -0.10971816 -0.082522444
-0.019327104 -0.111637026 -0.057288624 -0.015610166 -0.14530052 -0.020405803 0.1954679 0.013536692
-0.07052938 0.07861243 -0.080736764 -0.10639503 -0.035297908 0.018153852 -0.08828217 -0.17594597
-0.019360343 0.23603854 -0.18641977 0.08882687 0.26528862 -0.006358754 -0.016427971 -0.052486736
0.05820851 0.08740924 -0.00543879 0.00396298 -0.070205815 -0.0411544 -0.10161536 -0.118146
0.14539035 0.08918207 -0.021755988 -0.040396165 -0.07319687 -0.064928755 0.0016306919 -0.05927771
0.09796535 -0.18409158 0.13844533 -0.05411297 0.025806723 0.079092555 -0.102923974 0.06215533
-0.020221706 -0.12962396 -0.11711648 0.11025254 0.07180009 0.19666357 -0.13432425 -0.05408589
0.1233657 0.02753561 0.11059441 0.02990905 0.10373532 -0.09845432 -0.038467117 0.018868966
0.07767902 0.020367257 0.06508458 -0.05676276 0.08679577 -0.0006235972 -0.09009379 -0.2352072
0.120248154 -0.037915323 -0.008733262 0.09030297 -0.007969678 -0.022412572 -0.009502666 -0.0801814
-0.049836658 0.10999082 0.009144445 -0.062537886 -0.13226153 -0.012341832 -0.061123304 -0.036842357
00000000: 4df8 84bd c552 483d c257 0ebd 2171 52b9
00000010: 1d2e 813c f122 233d de0f 203e bd78 083d
00000020: 29e8 ecbd 8169 d4bd da06 ff3c ac87 03be
00000030: 3b90 5c3d 13c3 b4bd 1121 f23d 7126 08be
00000040: c847 413e 6717 14be 589e c53d 574b 1fbe
00000050: b544 93bd f345 94bc c785 3c3d 30ed 8c3d
00000060: e44b 4ebd c250 d93d 4fb5 cbbd affa dbbc
00000070: e416 89bd 9f6f 983d 9184 55bd 96e5 ea3d
00000080: 2142 af3d 4af4 863d 44e9 2ebc 3752 e93d
00000090: 17c8 1abd 9429 e3bd e2b0 34ba b020 81bc
000000a0: 9361 003d d355 a2bd eabe b73c 4eb9 9f3d
000000b0: 6ade 0dbe b03d 563d d98e aabc ec3f 70ba
000000c0: 6ef2 bcbd 0010 4dbd c6a3 51bd 83bd 66bd
000000d0: 39a6 df3d d5f3 edbd 8ec2 cfbd 7354 f33d
000000e0: d3c3 163d 2fd5 c73d 6429 07bd 3308 21be
000000f0: dde4 efbc 2d72 3dbd 9cdb 9fbd f366 7bbd
00000100: 400a 023e 4c83 ac3d f526 073e 7d50 bdbd
00000110: 2c9a 653d 0762 8f3c 4567 c73d 2d33 273e
00000120: 5844 2dbe 43e0 b2bc 7f1e 3b3b 9ce6 363d
00000130: 12f2 5dbe a3f3 f33d 6c91 7e3e 97fd a0bd
00000140: dd8b e43d 6fa4 3fbe 1db3 72bd 3ea7 0abe
00000150: 2c3f 1cbd 50d1 1f3e 84ad 3bbb c6f8 9e3e
00000160: 1a6e 94bd 7244 0b3c 7291 49bc 7662 22be
00000170: f683 333e cfed 9f3e 3c49 ecbd 8e58 b2bc
00000180: 5a25 523e c820 b63d 7429 d73b f4f7 0dbd
00000190: 04bb 31be e3c7 3dbd e496 283a 9064 653e
000001a0: e87d 483d 21f7 0e3c 4d68 583e 25ab 19bd
000001b0: 3d60 14be cad6 393e 3d38 073e c788 91be
000001c0: 693c cc3d e111 aa3c 4475 c2bd b9a1 b6bd
000001d0: cb90 2f3e f288 0cbe fe72 02bd df61 06be
000001e0: c558 65be d7b9 bdbd 9ebd fc3d b4c9 1bbe
000001f0: 73e2 f5bd 2a20 a93d ec16 5cbe d000 0f3e
00000200: 3541 603d a3d6 7bbd 6deb 9dbd 83a1 4a3e
00000210: 0115 f6bc bb2b 9a3d b435 d3bd 7065 30be
00000220: 0d72 1b3e 6638 b4bb ed25 db3d 7b3d 36bd
00000230: ba14 033e b7ef 8abc ae33 29be d13a 83bd
00000240: c1be 07bd ea07 c63d 3d1c cfbd b4c8 503d
00000250: a474 b23d 67bd a8be d890 743d d92a 043d
00000260: 25ca dc3d 85b1 0ebe 80d1 853d f51d 463d
00000270: f557 51be 3312 2139 3863 e13d 21ca ce3c
00000280: d46b 8ebe 9f6d 673d 39ee 32bc 17ad 43be
00000290: 4e56 c8bd 483d 343d eab3 e0bd 8701 a9bd
000002a0: e053 9ebc f4a1 e4bd 7aa7 6abd c8c1 7fbc
000002b0: a9c9 14be 122a a7bc bd28 483e 00c9 5d3c
000002c0: b571 90bd 8eff a03d 5159 a5bd a3e5 d9bd
000002d0: 8a94 10bd 63b7 943c 48cd b4bd 2e2b 34be
000002e0: 9599 9ebc 16b4 713e d3e4 3ebe ddea b53d
000002f0: e9d3 873e 185d d0bb f493 86bc 55fc 56bd
00000300: 0c6c 6e3d 9e03 b33d e137 b2bb e3db 813b
00000310: 11c8 8fbd 8491 28bd b71b d0bd 88f6 f1bd
00000320: 35e1 143e 17a5 b63d 9d39 b2bc 7376 25bd
00000330: 3ee8 95bd 5ef9 84bd f1bc d53a 2fcd 72bd
00000340: 0fa2 c83d 8182 3cbe 9dc4 0d3e 90a5 5dbd
00000350: 9f68 d33c 47fb a13d cec9 d2bd 9696 7e3d
00000360: fea7 a5bc 25bc 04be c4da efbd 15cc e13d
00000370: ed0b 933d 2d62 493e 4c8c 09be 2b89 5dbd
00000380: 28a7 fc3d 5c92 e13c 527f e23d d303 f53c
00000390: 2f73 d43d 6ba2 c9bd b28f 1dbd 1793 9a3c
000003a0: 2e16 9f3d 3cd9 a63c 104b 853d 1180 68bd
000003b0: fbc1 b13d e678 23ba 1883 b8bd 28da 70be
000003c0: aa44 f63d 194d 1bbd f515 0fbc c3f0 b83d
000003d0: 4193 02bc 929a b7bc 12b1 1bbc 2536 a4bd
000003e0: 8621 4cbd de42 e13d 95d2 153c dd13 80bd
000003f0: 916f 07be 6535 4abc 6e5c 7abd 03e8 16bd

blocks.0.attn.qkv.bias f4 [192]
-0.11071491 -0.3024363 -0.07733279 0.096872345 0.03507808 -0.048127383 0.12797421 0.11672297
-0.050231043 -0.13114202 0.094754115 -0.07347784 0.036215033 -0.15981553 0.19678079 -0.12028203
-0.007754963 -0.10012564 -0.039627697 0.024932196 0.07168625 0.018678203 -0.065853804 0.15561211
-0.015439523 -0.062648855 0.030210683 0.008958989 0.09746875 0.16050056 0.08879816 -0.1424428
-0.062088177 0.11656214 0.05073381 -0.031133715 -0.07253242 0.045892056 0.014956881 -0.0721544
0.056067303 -0.054721944 0.13131854 -0.12816285 -0.07250415 -0.17371248 0.064065486 0.03654963
0.08743574 0.01953937 0.015581722 0.07438541 0.051906217 -0.27887726 -0.05835237 -0.008468762
-0.028384361 -0.047064412 0.12254101 0.03873325 -0.17889793 0.15186854 -0.0837682 -0.0121742245
0.090369985 0.07836522 0.04450098 0.07936167 0.043892138 -0.09771616 -0.04832484 -0.00025296814
0.091474384 -0.10040108 0.006602275 -0.021435814 -0.0897813 -0.0037380757 -0.09780673 0.054171793
-0.020004408 0.006024481 -0.12759541 -0.03639054 -0.029272461 0.027193218 -0.04678822 0.088477686
-0.020537244 -0.0040460615 0.058787014 -0.07550951 0.1055924 -0.043523923 0.11293576 0.10609403
0.019348962 0.06933189 -0.022961283 -0.06873678 -0.09517286 0.11290671 -0.025244147 0.093237706
0.03164868 -0.070875846 0.035000518 -0.107185006 -0.09788718 0.012437271 0.081750214 0.1013396
-0.020058157 0.028090948 -0.012047812 0.10035862 -0.038781766 -0.029754689 -0.07969532 -0.054536123
0.09291246 0.019851197 -0.111408 -0.066986084 0.0036299468 0.06424506 0.09360803 0.070279785
0.021906551 -0.019585954 0.060162686 -0.05700551 -0.02334695 -0.032238316 -0.069154434 0.086147994
-0.018719172 -0.07308107 0.06385786 -0.046681155 0.0067243995 -0.05041779 0.05627879 0.008625648
-0.03686309 0.017457772 -0.091236025 -0.102424316 0.02263841 0.038379762 0.054293245 -0.106466584
0.025608517 0.046129216 -0.071444854 -0.07298871 -0.016453283 0.18096074 0.01963484 -0.0692844
-0.06268665 0.014161116 0.07659343 -0.09898274 -0.003089404 0.06267014 0.04147169 0.06086811
0.01089351 0.076705255 -0.030975739 0.07855897 -0.02129618 -0.09016066 -0.08369784 -0.077182
0.011341033 0.0653171 0.1024049 0.11098558 0.0370635 0.0012032179 -0.123481095 0.045540072
0.09081691 0.09298692 -0.0010100573 0.03472097 -0.113801174 -0.018090522 0.1072521 -0.06317433
00000000: 80be e2bd eed8 9abe a760 9ebd 0265 c63d
00000010: 08ae 0f3d 3821 45bd ac0b 033e 740c ef3d
00000020: 11bf 4dbd 184a 06be 720e c23d 8d7b 96bd
00000030: 3756 143d afa6 23be e780 493e 6d56 f6bd
00000040: 581d febb ac0e cdbd a750 22bd 9b3e cc3c
00000050: 3ed0 923d 0803 993c 5cde 86bd c858 1f3e
00000060: 0ef6 7cbc 0b4e 80bd 657c f73c b9c8 123c
00000070: b29d c73d 425a 243e cfdb b53d 86dc 11be
00000080: 2c50 7ebd 22b8 ee3d 41ce 4f3d 220c ffbc
00000090: e18b 94bd 4ff9 3b3d b50d 753c b0c5 93bd
000000a0: d4a6 653d 1e24 60bd 5e78 063e 1f3d 03be
000000b0: 0e7d 94bd afe1 31be c434 833d 11b5 153d
000000c0: 8211 b33d 0711 a03c 7b4a 7f3c 6157 983d
000000d0: 9d9b 543d 00c9 8ebe e502 6fbd 90c0 0abc
000000e0: 5286 e8bc 9dc6 40bd c8f6 fa3d c2a6 1e3d
000000f0: 0531 37be 6d83 1b3e a98e abbd 6676 47bc
00000100: e613 b93d f27d a03d a946 363d 5f88 a23d
00000110: 3ec8 333d 691f c8bd 44f0 45bd cfa0 84b9
00000120: ec56 bb3d 159f cdbd e657 d83b 299a afbc
00000130: 42df b7bd 81fa 74bb e54e c8bd 3ee3 5d3d
00000140: 49e0 a3bc 0269 c53b 5fa8 02be 3f0e 15bd
00000150: cdcc efbc 50c4 de3c 01a5 3fbd ca33 b53d
00000160: b93d a8bc d394 84bb a7ca 703d bba4 9abd
00000170: d440 d83d 2446 32bd dd4a e73d d447 d93d
00000180: b781 9e3c e1fd 8d3d 4d19 bcbc dec5 8cbd
00000190: fde9 c2bd a23b e73d d0cc cebc 69f3 be3d
000001a0: 0ca2 013d 5b27 91bd b45c 0f3d d083 dbbd
000001b0: 1379 c8bd b2c5 4b3c a86c a73d 238b cf3d
000001c0: 0151 a4bc fd1e e63c 3064 45bc d288 cd3d
000001d0: a1d9 1ebd 1bc0 f3bc 4d37 a3bd 4561 5fbd
000001e0: e348 be3d fa9e a23c e129 e4bd 0030 89bd
000001f0: 67e4 6d3b ea92 833d 91b5 bf3d d9ee 8f3d
00000200: 5e75 b33c b972 a0bc 266d 763d 9c7e 69bd
00000210: 1a42 bfbc 530c 04bd d7a0 8dbd 5c6e b03d
00000220: f358 99bc 87ab 95bd e9c7 823d bd34 3fbd
00000230: 5a58 dc3b e282 4ebd 9784 663d 9752 0d3c
00000240: c0fd 16bd 9a03 8f3c f4d9 babd d7c3 d1bd
00000250: 3074 b93c 1934 1d3d 9862 5e3d 270b dabd
00000260: f4c8 d13c fdf1 3c3d ae51 92bd 1b7b 95bd
00000270: 09c9 86bc c64d 393e 3ed9 a03c fbe4 8dbd
00000280: dc61 80bd 0704 683c 04dd 9c3d 76b7 cabd
00000290: 9977 4abb 3459 803d 38de 293d d750 793d
000002a0: b17a 323c a517 9d3d d5c0 fdbc 86e3 a03d
000002b0: 5475 aebc 27a6 b8bd c669 abbd 9911 9ebd
000002c0: bdcf 393c f9c4 853d a9b9 d13d 684c e33d
000002d0: e6cf 173d 4bb5 9d3a a8e3 fcbd 3a88 3a3d
000002e0: 37fe b93d ed6f be3d e663 84ba 9337 0e3d
000002f0: 9710 e9bd 9332 94bc fda6 db3d 8b61 81bd

blocks.0.attn.proj.weight f4 [64, 64]
-0.09517017 -0.09754029 0.11130953 0.12910584 0.057685386 0.07977035 -0.090875216 -0.119730964
0.01001897 0.13408062 0.047218062 0.09715707 0.10397886 -0.0019192066 0.11742449 0.10192788
-0.16958821 -0.084200844 -0.06440478 -0.043327857 0.021092601 -0.033874128 0.023828287 -0.16162418
0.13002227 -0.014096067 -0.1270771 -0.1407534 0.09209401 -0.13344973 -0.046970606 -0.11955496
0.05585133 -0.13237405 0.10262844 -0.14141302 0.023866726 -0.14243779 -0.06753572 0.040900096
0.097340606 -0.06797346 -0.04591771 0.048246086 0.047618188 -0.09658527 0.08486401 0.11808705
0.18940459 0.11912625 -0.048328675 0.047712997 0.019142171 -0.07346562 0.06689969 0.08070155
-0.026103113 -0.08911763 0.06495596 -0.08691363 0.20692205 0.04680375 -0.04255188 -0.08678837
0.05630953 -0.057078123 -0.028496824 -0.062185466 -0.05183544 -0.025240904 -0.008669436 0.063898824
0.16534549 -0.0690529 0.12642337 0.027533913 0.09306761 -0.033204075 -0.15482521 0.09739831
-0.07425725 -0.034711923 -0.0041779396 -0.08970035 0.004625625 0.048058823 -0.070583224 0.1640127
-0.04603042 0.06276354 0.05772606 0.028058873 0.0031554878 -0.102771826 -0.014202491 -0.15231596
-0.09105956 0.052578744 0.10235315 0.03629202 0.059048958 0.23957644 0.0633892 -0.003299464
-0.11278187 0.027278818 0.14913143 -0.0044491882 0.0012895511 0.06729406 0.060482733 0.14084297
-0.16908331 0.033529006 0.12395558 0.12089563 0.06609546 0.08381712 -0.07577609 0.107202716
0.055978328 -0.11181962 -0.1054653 -0.066359244 0.029872745 0.03472985 0.015792212 0.04857413
0.004300728 0.14346984 0.0091412375 -0.03505837 0.07620853 -0.016864682 -0.03743296 -0.047652896
-0.09008967 0.049368434 0.13576761 -0.1334143 -0.011485824 0.087418355 -0.14800462 -0.02165741
-0.122271374 0.12661956 0.08929325 -0.11375607 0.09605168 -0.101354234 -0.005842047 0.05216679
0.14590424 0.030498901 -0.05991375 -0.0116657475 0.0032007017 -0.023896256 -0.011433656 0.009798436
0.25978822 -0.115107074 0.10948005 -0.034912545 -0.16008914 0.12619357 -0.20333773 0.18108828
0.03204357 -0.06726895 -0.004820308 -0.092726104 0.12169875 0.021221848 0.04218533 -0.1731878
-0.16791488 -0.075392045 0.15120746 -0.04726181 0.021303039 -0.01192252 -0.048734378 -0.15675081
-0.09903672 -0.008108625 -0.00815252 -0.034057874 0.013456459 -0.17817359 -0.053722944 -0.06364566
-0.10701285 0.14540164 -0.113964476 0.06712082 -0.084592625 0.03356901 0.046962038 0.09304706
0.009700365 0.0138372695 0.122075364 -0.085665345 0.0856421 0.032592922 -0.011077211 0.06957411
-0.09784538 0.0070879273 0.10702038 0.07435858 -0.033428386 0.054900426 -0.027629668 0.016452013
0.017259734 0.00061807927 0.025741821 0.17526083 0.01942598 0.060106896 0.09472441 0.03785976
0.036397673 -0.027488438 -0.017949967 -0.06522553 0.08668628 0.07547778 -0.029387502 -0.06960481
-0.025147526 -0.0005636903 0.08948335 -0.019331891 -0.1127013 0.11421271 -0.00033991763 0.026612712
0.09977533 0.115845025 -0.034245066 0.025808977 -0.12020238 0.08432172 -0.12739229 -0.12237657
-0.07029187 -0.06091953 -0.02885661 0.13594688 0.07761403 -0.07584132 -0.07263697 -0.13980821
00000000: 94e8 c2bd 34c3 c7bd 40f6 e33d 5234 043e
00000010: 8347 6c3d a35e a33d c91c babd 8235 f5bd
00000020: 9b26 243c 6e4c 093e ba67 413d 49fa c63d
00000030: def2 d43d e38d fbba 407c f03d 90bf d03d
00000040: 88a8 2dbe 7e71 acbd a7e6 83bd 8d78 31bd
00000050: 64ca ac3c 99bf 0abd 8a33 c33c cf80 25be
00000060: 8f24 053e 31f3 66bc 8020 02be a921 10be
00000070: c99b bc3d 0ca7 08be 4064 40bd 3bd9 f4bd
00000080: 5dc4 643d 108d 07be dc2e d23d 93ce 10be
00000090: 2784 c33c 36db 11be 2b50 8abd dc86 273d
000000a0: 835a c73d ab35 8bbd 3514 3cbd b09d 453d
000000b0: 4a0b 433d 7fce c5bd 2fcd ad3d a0d7 f13d
000000c0: 47f3 413e 77f8 f33d 4af4 45bd b46e 433d
000000d0: 0bd0 9c3c 2575 96bd b402 893d db46 a53d
000000e0: 32d6 d5bc 4e83 b6bd a107 853d c6ff b1bd
000000f0: 60e3 533e 4ab5 3f3d e14a 2ebd 1abe b1bd
00000100: d2a4 663d c0ca 69bd 2c72 e9bc 30b6 7ebd
00000110: 6651 54bd 03c6 cebc 400a 0ebc 63dd 823d
00000120: 5450 293e 9b6b 8dbd 2175 013e cd8e e13c
00000130: 3b9a be3d ff00 08bd 808a 1ebe c478 c73d
00000140: 2f14 98bd 172e 0ebd 19e7 88bb d1b4 b7bd
00000150: 8e92 973b 54d9 443d f08d 90bd f2f2 273e
00000160: 658a 3cbd 2c8a 803d 2972 6c3d b9db e53c
00000170: 4dcc 4e3b 097a d2bd 91b1 68bc b7f8 1bbe
00000180: 6f7d babd cf5c 573d 879e d13d f1a6 143d
00000190: 52dd 713d 8753 753e 32d2 813d d23b 58bb
000001a0: 2efa e6bd d477 df3c e9b5 183e 7fca 91bb
000001b0: 2806 a93a 78d1 893d bebc 773d 2439 103e
000001c0: 2d24 2dbe b655 093d 6cdc fd3d 2198 f73d
000001d0: 0e5d 873d 4fa8 ab3d 7f30 9bbd 198d db3d
000001e0: 8849 653d af01 e5bd 31fe d7bd 5be7 87bd
000001f0: b0b7 f43c e340 0e3d ab5e 813c abf5 463d
00000200: 1fed 8c3b c2e9 123e 21c5 153c 5e99 0fbd
00000210: 3813 9c3d cd27 8abc 4e53 19bd af2f 43bd
00000220: ef80 b8bd 8e36 4a3d aa06 0b3e c29d 08be
00000230: 0a2f 3cbc 6508 b33d 868e 17be e16a b1bc
00000240: 6a69 fabd 8fa8 013e 61df b63d f1f8 e8bd
00000250: beb6 c43d cf92 cfbd a46e bfbb d8ac 553d
00000260: ec67 153e d5d8 f93c 1f68 75bd b121 3fbc
00000270: ddc2 513b 15c2 c3bc 3b54 3bbc 9f89 203c
00000280: f602 853e 42bd ebbd 1437 e03d 7500 0fbd
00000290: 68ee 23be e338 013e c437 50be 356f 393e
000002a0: 1e40 033d 4ec4 89bd adf3 9dbb 2fe7 bdbd
000002b0: 323d f93d 71d9 ad3c 86ca 2c3d 2558 31be
000002c0: e1f1 2bbe 2567 9abd 21d6 1a3e 9a95 41bd
000002d0: b683 ae3c ac56 43bc b39d 47bd 4983 20be
000002e0: c4d3 cabd 0ada 04bc 2692 05bc 4580 0bbd
000002f0: 7b78 5c3c 2373 36be 970c 5cbd a858 82bd
00000300: 8e29 dbbd 2be4 143e 3566 e9bd a476 893d
00000310: e63e adbd a97f 093d 445b 403d 758f be3d
00000320: 48ee 1e3c b7b5 623c a602 fa3d 5071 afbd
00000330: 2065 af3d 2880 053d 317d 35bc df7c 8e3d
00000340: 2963 c8bd d841 e83b 802d db3d 5049 983d
00000350: 34ec 08bd 45df 603d 9d57 e2bc 5fc6 863c
00000360: 4964 8d3c 9906 223a 83e0 d23c 9377 333e
00000370: 3c23 9f3c a632 763d dffe c13d d612 1b3d
00000380: ba15 153d 6f2f e1bc cf0b 93bc f694 85bd
00000390: 9488 b13d 1894 9a3d 0fbe f0bc f78c 8ebd
000003a0: 2f02 cebc 9ec4 13ba 0c43 b73d ea5d 9ebc
000003b0: f0cf e6bd 5ae8 e93d f936 b2b9 e702 da3c
000003c0: 0257 cc3d 2840 ed3d 8e44 0cbd 596d d33c
000003d0: aa2c f6bd deb0 ac3d 2073 02be 91a0 fabd
000003e0: 2ff5 8fbd c286 79bd b364 ecbc a935 0b3e
000003f0: 1bf4 9e3d b252 9bbd b1c2 94bd e229 0fbe

blocks.0.attn.proj.bias f4 [64]
-0.1596394 0.110551395 -0.048485443 0.01529881 -0.039764725 0.024188768 0.07587146 -0.117042355
0.0045878203 0.11008399 0.016161628 0.09687451 0.0290668 0.024557892 -0.07999986 -0.05366371
-0.05305523 -0.13177522 0.016110875 -0.024450352 -0.05654951 0.08971963 -0.019451085 0.06700323
0.10319141 0.014583355 -0.04197629 -0.059952818 0.018559868 0.10484886 0.09770117 0.0025758194
-0.12296362 0.013117371 -0.07747229 -0.14003637 -0.08648029 -0.115314245 0.08022228 -0.06056317
0.061220612 0.05730301 0.11515511 -0.07398207 0.048778586 -0.12715408 -0.019781373 -0.009135698
0.015435398 0.028607143 0.0946425 -0.05412658 0.017700916 -0.0787528 -0.005593223 0.10273564
0.025218818 0.09740646 -0.1107346 0.059170093 0.034452762 -0.07790552 0.032440737 0.0864057
00000000: 8378 23be c568 e23d ac98 46bd dca7 7a3c
00000010: 56e0 22bd 8627 c63c 7f62 9b3d e7b3 efbd
00000020: 6d55 963b b773 e13d 6465 843c 2566 c63d
00000030: 7f1d ee3c a22d c93c f7d6 a3bd 7ace 5bbd
00000040: 7150 59bd 15f0 06be f4fa 833c 1b4c c8bc
00000050: 76a0 67bd edbe b73d e257 9fbc fd38 893d
00000060: 0556 d33d 06ef 6e3c 55ef 2bbd 1691 75bd
00000070: dd0a 983c 00bb d63d 8d17 c83d 14cf 283b
00000080: 5ad4 fbbd 3eea 563c cba9 9ebd b265 0fbe
00000090: 941c b1bd e029 ecbd 944b a43d 1611 78bd
000000a0: 77c2 7a3d 90b6 6a3d 71d6 eb3d e983 97bd
000000b0: 0ecc 473d ae34 02be 8c0c a2bc e5ad 15bc
000000c0: c0e4 7c3c 8759 ea3c edd3 c13d d5b3 5dbd
000000d0: 8301 913c 2649 a1bd 5b47 b7bb 1067 d23d
000000e0: b297 ce3c 0a7d c73d d2c8 e2bd 575c 723d
000000f0: 571e 0d3d ee8c 9fbd 94e0 043d 79f5 b03d

blocks.0.norm2.weight f4 [64]
1.0805787 1.1106819 1.0684253 0.9041878 1.0307906 0.9331003 0.9788659 0.9790895
1.0367471 0.97716355 1.0567207 0.9548794 1.0737932 1.0132363 0.959273 0.99038106
1.0427637 0.9284057 1.0808979 1.0975744 1.0426301 1.0909021 1.0699985 0.8954966
1.041908 0.98170793 1.0626262 0.8360334 0.9468944 1.0403706 1.0582075 1.0004411
1.0245252 1.0459217 0.9946397 1.0581754 1.023303 0.9156112 1.0519404 0.967558
1.0019218 0.91955054 1.0465882 1.031926 1.0858374 0.9989989 1.0571293 0.9790923
0.9393937 0.99241036 0.9368477 1.0348688 1.0961709 1.0622433 1.0536696 1.0760164
1.092206 1.0616692 1.0727478 0.95222783 1.0500355 0.9421961 0.98956615 0.9364112
00000000: 6750 8a3f d32a 8e3f 29c2 883f da78 673f
00000010: f2f0 833f a9df 6e3f f596 7a3f 9ca5 7a3f
00000020: 21b4 843f 6427 7a3f a042 873f fa72 743f
00000030: 0e72 893f bab1 813f ea92 753f 9d89 7d3f
00000040: 4879 853f ffab 6d3f dd5a 8a3f 517d 8c3f
00000050: e774 853f aea2 8b3f b6f5 883f 443f 653f
00000060: 3e5d 853f 3651 7b3f 2304 883f 4906 563f
00000070: ac67 723f dd2a 853f 5873 873f 740e 803f
00000080: a423 833f c3e0 853f b5a0 7e3f 4b72 873f
00000090: 98fb 823f 7f65 6a3f fca5 863f e2b1 773f
000000a0: f93e 803f aa67 6b3f 9af6 853f 2716 843f
000000b0: b8fc 8a3f 64be 7f3f 0350 873f cba5 7a3f
000000c0: 1b7c 703f 9b0e 7e3f 40d5 6f3f 9576 843f
000000d0: 544f 8c3f 97f7 873f a5de 863f e8ba 893f
000000e0: 68cd 8b3f c7e4 873f cd4f 893f 34c5 733f
000000f0: 9067 863f c333 713f 3554 7d3f a5b8 6f3f

blocks.0.norm2.bias f4 [64]
0.035416443 -0.0029943837 -0.022455905 0.0076932204 0.0067499387 0.041948307 0.013503801 0.090225115
-0.08806962 0.100292236 0.000100317644 -0.021841768 -0.014219089 -0.027056495 0.07886485 -0.03494828
0.0060677407 -0.04333132 -0.023378802 0.030266853 0.027120018 0.0048507703 0.03570421 -0.048421238
0.03869827 0.03697235 -0.00543042 -0.03221633 -0.03789073 0.033028938 0.06540326 0.04864284
-0.10039188 0.028063709 0.032791574 -0.006498513 -0.0034633013 -0.024156613 -0.0014661343 -0.0018486202
-0.022343514 0.011134142 0.04652508 0.072002344 -0.04512349 0.027091118 0.007273063 0.04430918
0.018888751 -0.033858523 0.013859629 0.0024000404 -0.05103096 -0.011980883 -0.05292742 0.048011974
0.009113063 -0.028008882 -0.03627342 0.02561284 -0.00210893 -0.008152212 0.046902657 0.047954574
00000000: d510 113d 6c3d 44bb 72f5 b7bc 6917 fc3b
00000010: 972e dd3b fdd1 2b3d 0c3f 5d3c f2c7 b83d
00000020: d85d b4bd 0466 cd3d a061 d238 82ed b2bc
00000030: 2ff7 68bc 95a5 ddbc e583 a13d ed25 0fbd
00000040: e6d3 c63b 2f7c 31bd e784 bfbc 31f2 f73c
00000050: cd2a de3c 36f3 9e3b 943e 123d 5955 46bd
00000060: 1482 1e3d 5270 173d aaf1 b1bb 45f5 03bd
00000070: 4f33 1bbd 5a49 073d 25f2 853d b73d 473d
00000080: 429a cdbd dde5 e53c 7550 063d 7af1 d4bb
00000090: 8ef8 62bb 17e4 c5bc 4e2b c0ba 674d f2ba
000000a0: bf09 b7bc fa6b 363c 1591 3e3d f775 933d
000000b0: 69d3 38bd 31ee dd3c e052 ee3b 8b7d 353d
000000c0: 95bc 9a3c 3caf 0abd 7f13 633c ff49 1d3b
000000d0: d705 51bd 774b 44bc 6cca 58bd 34a8 443d
000000e0: f54e 153c e272 e5bc 7093 14bd 05d2 d13c
000000f0: f935 0abb db90 05bc 001d 403d 046c 443d

blocks.0.ffn.net.0.weight f4 [128, 64]
-0.14428997 -0.053533383 0.15186243 -0.04024577 0.034159087 0.10337146 -0.018673029 -0.024650948
-0.073583946 0.08071895 0.08437562 0.020007579 0.013945838 0.031603057 0.045552954 -0.14291956
-0.10768693 -0.13063756 0.028473742 0.019080177 0.09229259 -0.07175867 -0.025415028 -0.071175724
0.021886028 -0.065349236 0.00019391568 -0.076799534 0.082344145 0.08591222 -0.15178637 -0.06494906
0.15313497 0.14532603 0.07419361 -0.17030534 0.06157995 -0.06381061 0.05021609 0.106468305
0.022578374 -0.06405111 0.15233639 -0.059644464 0.0165667 0.10597013 -0.027995158 -0.0352016
-0.14453003 -0.047650702 0.11439548 0.052562434 0.011486162 -0.05239495 0.2148482 -0.2679757
0.005133204 0.13198075 0.06260048 0.12949695 -0.020405293 0.07947668 -0.096024 -0.028462809
-0.0007578739 0.013681019 0.12052828 -0.045974843 0.004911917 -0.09563664 0.04044302 0.01849604
-0.15229745 0.12761705 0.06391834 -0.031355575 0.022153305 -0.12634425 -0.006563557 0.030028263
0.030486448 -0.050401676 0.038187772 0.07309157 0.08302212 0.07643589 0.031168839 -0.024355492
-0.11725231 -0.028134838 0.019768592 0.12819776 0.086515084 -0.027144218 -0.20837635 -0.027083794
-0.019377064 -0.038081862 -0.008061549 0.06297029 -0.081505135 0.031851985 -0.16615294 0.036045052
-0.11125239 0.018025864 0.10021624 0.10871782 -0.15538548 0.027638443 0.10455497 -0.0013288312
0.10076346 -0.06587186 0.17413312 0.17033273 -0.04612509 0.17058665 -0.076437876 -0.023165395
0.1168459 -0.15811202 -0.051822823 0.052606083 -0.13099279 0.106252745 -0.04532508 0.14350528
-0.054911304 0.24049681 0.15978938 0.12913214 -0.17896645 -0.06259895 0.049752843 0.052969437
-0.03459842 0.090040706 -0.17407504 0.10403679 -0.08406397 -0.14583918 -0.14206292 -0.118576266
-0.14316992 0.101828575 0.15774149 0.14830825 0.17196625 0.08132128 -0.09501994 0.14105166
0.06496407 0.13712156 -0.031015247 -0.012094082 0.020863721 0.13112836 -0.14283068 -0.010872154
-0.13937688 -0.14991051 -0.015774714 -0.11244264 -0.060389873 0.01689285 0.04802901 -0.08224718
-0.16575676 -0.15322612 0.046119343 0.17568558 0.022645794 0.16954723 0.13902661 0.10483437
-0.040648956 -0.065808676 0.08174757 0.098824136 0.08195491 0.039580613 -0.117359124 0.07903827
0.0732711 -0.13028426 0.12340897 -0.14222242 -0.07068609 -0.10313146 -0.067260064 0.101046406
0.119810365 0.14766341 -0.03996269 0.11830702 0.16874531 2.3846602e-05 -0.0014406203 0.08612793
0.19538513 0.04133255 0.032422565 0.09814661 0.07378408 0.041877594 0.085523635 -0.1450569
0.08625023 -0.011842989 0.110076554 -0.2528533 0.14777333 0.07935463 -0.023720682 -0.1117892
-0.0836879 -0.049777266 -0.043817665 -0.034903813 0.052096944 0.0074622245 0.02538772 -0.080209315
0.0010447595 -0.19888613 0.11087373 0.19051977 -0.0975703 0.0020732093 0.13426754 -0.03718198
-0.15423246 -0.080979116 -0.014838838 0.08623623 -0.1850197 0.12623957 -0.013227661 0.06274254
-0.009439373 -0.094686605 -0.004008888 0.11825879 0.20495486 0.021702683 -0.091374665 0.11334027
0.0531577 -0.09149258 0.07488563 -0.08890721 0.03741974 0.042968117 -0.096980564 0.140654
00000000: c0c0 13be d245 5bbd d381 1b3e c0d8 24bd
00000010: 66ea 0b3d 6bb4 d33d 2ef8 98bc c9f0 c9bc
00000020: 2eb3 96bd fa4f a53d 20cd ac3d efe6 a33c
00000030: 167d 643c 3572 013d bc95 3a3d 8159 12be
00000040: f78a dcbd dac5 05be c441 e93c 084e 9c3c
00000050: e603 bd3d 36f6 92bd 2d33 d0bc 94c4 91bd
00000060: 544a b33c d2d5 85bd d855 4b39 1349 9dbd
00000070: 0ca4 a83d bff2 af3d e36d 1bbe 0304 85bd
00000080: 6acf 1c3e 59d0 143e d2f2 973d 8664 2ebe
00000090: 423b 7c3d 23af 82bd 63af 4d3d 0e0c da3d
000000a0: 48f6 b83c 3a2d 83bd 12fe 1b3e c14d 74bd
000000b0: e3b6 873c de06 d93d 1a56 e5bc 8e2f 10bd
000000c0: aeff 13be 622d 43bd 2d48 ea3d b54b 573d
000000d0: 7530 3c3c 169c 56bd 2b01 5c3e 1c34 89be
000000e0: 7034 a83b f625 073e ae34 803d d99a 043e
000000f0: 0029 a7bc abc4 a23d 3ba8 c4bd d62a e9bc
00000100: 0eac 46ba 5a26 603c 88d7 f63d 1e50 3cbd
00000110: 25f4 a03b 25dd c3bd 95a7 253d 0285 973c
00000120: ddf3 1bbe 0bae 023e 9ee7 823d b46e 00bd
00000130: d97a b53c 6360 01be 1b13 d7bb d5fd f53c
00000140: b7be f93c fd71 4ebd c86a 1c3d 08b1 953d
00000150: 8007 aa3d 6b8a 9c3d cb55 ff3c 2b85 c7bc
00000160: fb21 f0bd 087b e6bc bef1 a13c 4646 033e
00000170: d22e b13d 8d5d debc 9c60 55be d5de ddbc
00000180: a6bc 9ebc bafb 1bbd 9614 04bc 91f6 803d
00000190: 2aec a6bd 3a77 023d ff23 2abe faa3 133d
000001a0: 4bd8 e3bd faaa 933c 2c3e cd3d 73a7 de3d
000001b0: 5f1d 1fbe 046a e23c eb20 d63d 2d2c aeba
000001c0: 135d ce3d d3e7 86bd f44f 323e b46b 2e3e
000001d0: aaed 3cbd 44ae 2e3e 768b 9cbd 5bc5 bdbc
000001e0: e74c ef3d 1ee8 21be 2b44 54bd 7a79 573d
000001f0: f922 06be 0a9b d93d cba6 39bd 0cf3 123e
00000200: adea 60bd cc44 763e d49f 233e 373b 043e
00000210: fb42 37be e133 80bd a3c9 4b3d 7bf6 583d
00000220: 13b7 0dbd 4367 b83d ba40 32be 3e11 d53d
00000230: bb29 acbd de56 15be f178 11be 1dd8 f2bd
00000240: 239b 12be 808b d03d fc86 213e 1ede 173e
00000250: ec17 303e c58b a63d d099 c2bd d96f 103e
00000260: e20b 853d 9869 0c3e b013 febc 4226 46bc
00000270: 65ea aa3c 8346 063e 3542 12be 1e21 32bc
00000280: d0b8 0ebe 2482 19be f939 81bc 5448 e6bd
00000290: 5f5b 77bd e062 8a3c 11ba 443d 3671 a8bd
000002a0: 24bc 29be 4fe7 1cbe a3e7 3c3d ece6 333e
000002b0: ac83 b93c ca9d 2d3e fe5c 0e3e 67b3 d63d
000002c0: 857f 26bd b3c6 86bd 456b a73d 4f64 ca3d
000002d0: fad7 a73d 481f 223d fb59 f0bd d1de a13d
000002e0: 290f 963d 3d69 05be d8bd fc3d c1a2 11be
000002f0: dec3 90bd 9636 d3bd a5bf 89bd 6bf1 ce3d
00000300: 235f f53d 1435 173e ebaf 23bd f34a f23d
00000310: 92cb 2c3e 300a c837 32d3 bcba d763 b03d
00000320: 0a13 483e 524c 293d 86cd 043d 1701 c93d
00000330: 1c1c 973d d787 2b3d 0427 af3d cc89 14be
00000340: f6a3 b03d 1909 42bc d16f e13d fd75 81be
00000350: e451 173e ae84 a23d e051 c2bc bcf1 e4bd
00000360: 9064 abbd 3fe3 4bbd 277a 33bd 4df7 0ebd
00000370: 9b63 553d ad85 f43b e8f9 cf3c c844 a4bd
00000380: 50f0 883a cea8 4bbe c411 e33d 9d17 433e
00000390: f0d2 c7bd aede 073b 6e7d 093e 224c 18bd
000003a0: 1def 1dbe 61d8 a5bd 991e 73bc 9f9c b03d
000003b0: ce75 3dbe f244 013e d5b8 58bc 297f 803d
000003c0: 9aa7 1abc 0deb c1bd fd5c 83bb aa31 f23d
000003d0: b0df 513e d3c9 b13c a422 bbbd f21e e83d
000003e0: e3bb 593d 7660 bbbd a35d 993d fc14 b6bd
000003f0: 7145 193d 56ff 2f3d bf9d c6bd 9a07 103e

blocks.0.ffn.net.0.bias f4 [128]
-0.00025376293 -0.028869726 -0.028697416 -0.15596895 -0.10097369 -0.03430652 0.05907392 -0.100079045
-0.051202152 -0.01591399 0.07712997 -0.13858499 -0.014409506 -0.0893017 -0.00908092 0.026735086
-0.056604713 -0.043911297 -0.034621872 -0.07228969 0.01916781 -0.14752664 0.018005302 0.00895748
-0.061998878 0.03408941 0.016640838 -0.13475034 -0.064132355 -0.010906113 -0.16464804 -0.06787552
-0.093565874 -0.093127884 0.007493258 -0.053117786 -0.20843124 0.051842134 0.0408322 -0.12946923
0.05056667 -0.010451436 0.08191578 0.027470723 0.024200985 -0.08078729 0.04909335 -0.05095505
-0.0016601739 -0.11223702 -0.04424945 -0.10716486 -0.081535086 -0.16684318 0.0063336766 0.07257288
-0.18743472 -0.14577074 -0.1324834 -0.11366642 -0.08166543 -0.1297325 -0.048783563 -0.08226537
-0.04198026 -0.017533818 0.044417907 -0.013372691 -0.14240399 -0.059901685 -0.10105333 -0.026717754
0.036047433 -0.026694827 -0.0807182 -0.09394841 -0.11450851 -0.14026573 -0.106625356 -0.038698584
-0.17628777 -0.12682445 0.089770705 -0.060246885 -0.09000967 -0.056641307 -0.030320205 -0.11944154
0.027167592 -0.17003135 -0.13852647 -0.015511391 -0.110326745 -0.004683827 -0.13800302 -0.13440414
-0.07264714 -0.15270996 -0.07351648 0.0012600266 -0.08936466 0.003081161 -0.052944116 0.026141115
-0.13852198 -0.08697273 -0.018685013 -0.16591446 -0.0142075 0.026129793 -0.120003216 -0.1386193
-0.17243813 -0.1685046 -0.093762316 -0.056089494 -0.08215234 -0.04174729 0.010792962 -0.12546107
0.040384673 -0.051796295 -0.0087245265 -0.056997176 -0.034289148 -0.09467958 -0.024643257 -0.12700303
00000000: 7c0b 85b9 3480 ecbc d816 ebbc 53b6 1fbe
00000010: 4bcb cebd fe84 0cbd 7ff7 713d 3ef6 ccbd
00000020: 59b9 51bd 0e5e 82bc 51f6 9d3d 39e9 0dbe
00000030: d915 6cbc cfe3 b6bd 24c8 14bc 8a03 db3c
00000040: 58da 67bd 55dc 33bd aacf 0dbd 9e0c 94bd
00000050: d005 9d3c 3911 17be db7f 933c 65c2 123c
00000060: 89f2 7dbd 56a1 0b3d 5e52 883c fefb 09be
00000070: d357 83bd 8eaf 32bc 7f99 28be 5202 8bbd
00000080: 779f bfbd d5b9 bebd 018a f53b 0992 59bd
00000090: 006f 55be 6b58 543d aa3f 273d 9593 04be
000000a0: ff1e 4f3d 803c 2bbc 76c3 a73d 480a e13c
000000b0: 2541 c63c cf73 a5bd 1c16 493d 3eb6 50bd
000000c0: 319a d9ba 86dc e5bd e93e 35bd 4079 dbbd
000000d0: defb a6bd f0d8 2abe bb8a cf3b 17a1 943d
000000e0: e3ee 3fbe ed44 15be baa9 07be f1c9 e8bd
000000f0: 3440 a7bd 99d8 04be 46d1 47bd bf7a a8bd
00000100: 7ef3 2bbd 15a3 8fbc 8def 353d 2219 5bbc
00000110: 5ad2 11be 785b 75bd 0cf5 cebd 31df dabc
00000120: 79a6 133d 1caf dabc 954f a5bd 0668 c0bd
00000130: 7083 eabd d2a1 0fbe 655e dabd 6882 1ebd
00000140: c884 34be 45de 01be b4d9 b73d 70c5 76bd
00000150: fd56 b8bd b700 68bd 1462 f8bc c49d f4bd
00000160: 928e de3c b31c 2ebe e2d9 0dbe 7d23 7ebc
00000170: fdf2 e1bd ca7a 99bb aa50 0dbe 3da1 09be
00000180: 06c8 94bd 0060 1cbe cf8f 96bd 7a27 a53a
00000190: d204 b7bd 4eed 493b eedb 58bd e425 d63c
000001a0: b5d8 0dbe c21e b2bd 5011 99bc 7be5 29be
000001b0: 93c6 68bc 260e d63c 3fc4 f5bd 38f2 0dbe
000001c0: 9f93 30be 788c 2cbe 7506 c0bd 19be 65bd
000001d0: 7c3f a8bd 35ff 2abd f7d4 303c de78 00be
000001e0: 666a 253d 5a28 54bd 51f1 0ebc df75 69bd
000001f0: c772 0cbd 5ee7 c1bd a8e0 c9bc 150d 02be
