checkpoints_mnist/vision_mamba_mnist_epoch_2.pth (torch, 339570 bytes, 33 tensors)

patch_embed.weight f4 [64, 1, 4, 4]
0.069222204 0.16952725 -0.16611724 0.20818143 0.09538922 0.018170534 0.18808626 0.2793597
0.22317566 0.010142111 0.10277917 -0.17166172 -0.061896116 -0.20698372 0.09696927 -0.104777634
0.14511068 -0.09559658 -0.23777962 -0.044251837 0.11525756 -0.0075072492 -0.038023654 0.019859696
0.22618741 0.12275094 0.16675356 -0.18925652 -0.12512182 -0.14002572 -0.12296756 0.06760624
0.02457936 -0.17002636 -0.14191587 0.11156264 0.18027706 -0.1916894 -0.1426351 0.12889715
0.015190925 0.14248762 0.18779711 -0.055450145 -0.16710134 0.2120558 -0.09125644 -0.24322432
-0.19409187 0.06253632 0.26362255 0.07334898 -0.24797326 -0.22973178 0.07697937 0.1347587
0.015307537 -0.106929556 0.007820746 0.15175128 0.015408319 0.16465376 -0.06342356 0.06845616
0.30487937 0.096639775 0.22629951 -0.28765208 -0.11447635 0.12014496 -0.17992896 0.069944315
-0.19529954 0.18167873 0.21536687 0.13868296 -0.10944909 0.0026692594 -0.20187403 -0.02589767
0.06487958 -0.017312601 -0.13141972 -0.042499915 -0.16574262 -0.058435284 -0.17204499 -0.03659912
0.08222399 -0.12935275 -0.008006388 0.058218796 -0.23388216 -0.096111864 -0.29835927 0.18700457
0.06996111 0.21416743 0.17262208 0.12352995 0.038847294 -0.072255634 0.07435098 0.09418104
-0.011835437 -0.1678722 0.104759276 0.026512984 -0.2741893 -0.13310872 -0.18320812 0.008043669
0.123160824 -0.07743576 -0.23077324 -0.07577286 -0.19357316 -0.1707225 0.15965453 0.07438822
-0.045269553 0.08567405 -0.09177777 -0.16982171 0.22072151 -0.2584005 -0.10363172 -0.27274674
-0.000529952 0.01589023 -0.11425628 -0.07610318 0.00019096673 -0.24398275 -0.22569327 -0.17731611
-0.11096651 -0.25299853 -0.11577724 -0.19151635 -0.1574298 0.2071071 -0.18356507 0.26751122
-0.18127199 -0.09702658 -0.11059374 0.05657777 -0.09684795 -0.017295534 -0.086713016 -0.13039336
0.15815651 0.1992208 0.09564281 0.08234268 0.2271104 0.26160192 -0.005829633 0.1635377
-0.08076821 0.20800936 -0.11519191 0.09888725 0.17305607 0.051482424 -0.11784446 -0.12210811
-0.05760884 0.06800573 -0.20084389 0.0908145 0.18346627 -0.2043329 -0.20143414 -0.09021337
-0.22957127 0.1586493 -0.24543136 -0.082090005 0.08382568 -0.14781696 0.20776102 0.1115053
-0.04704125 -0.0010153665 0.15244438 0.050262757 0.1814569 0.2046302 0.14830138 -0.14474137
-0.03241322 0.05244509 0.10037561 0.006951981 0.09232706 0.19716935 0.17047429 -0.019522132
-0.2651257 0.05186972 0.009280328 0.05862288 0.029902935 0.20522493 -0.11920656 -0.06263537
0.22336479 0.15845688 -0.09885642 -0.15511872 0.069734626 -0.23450728 0.14356521 -0.08684264
-0.28704885 -0.18232262 0.09186186 0.30120373 -0.23904997 0.16545518 0.012009779 0.27492273
-0.16802663 0.04961629 0.18711606 0.14710316 0.14659593 0.048891313 -0.07707684 0.12814486
-0.04937877 0.047312655 0.08850628 0.21557695 0.032231778 -0.0722387 0.0331557 0.05195239
-0.18140759 0.0806123 -0.032812603 -0.053971212 0.15666926 -0.0959618 -0.11390732 -0.234528
0.2532028 0.18212216 0.07854415 0.2358863 -0.069806576 0.08854651 0.09625105 0.07461193
00000000: 5fc4 8d3d 8d98 2d3e a31a 2abe 832d 553e
00000010: 6c5b c33d 5fda 943c af99 403e 3c08 8f3e
00000020: 2988 643e 192b 263c e37d d23d 17c8 2fbe
00000030: c886 7dbd 8af3 53be d397 c63d a895 d6bd
00000040: e597 143e 24c8 c3bd 807c 73be 6a41 35bd
00000050: 280c ec3d 5fff f5bb b1be 1bbd cdb0 a23c
00000060: ac9d 673e d864 fb3d 72c1 2a3e 76cc 41be
00000070: ef1f 00be e762 0fbe 6bd6 fbbd 2475 8a3d
00000080: a75a c93c 641b 2ebe 6552 11be f47a e43d
00000090: 8d9a 383e 3a4a 44be f00e 12be 9dfd 033e
000000a0: 5ce3 783c 46e8 113e e34d 403e b11f 63bd
000000b0: 9d1c 2bbe 2825 593e a8e4 babd cc0f 79be
000000c0: 05c0 46be 0b13 803d 89f9 863e fd37 963d
000000d0: b4ec 7dbe cf3e 6bbe 5ca7 9d3d 2ffe 093e
000000e0: 77cc 7a3c e2fd dabd 9622 003c b064 1b3e
000000f0: 2d73 7c3c ff9a 283e 36e4 81bd be32 8c3d
00000100: 2619 9c3e 13eb c53d 0fbb 673e 2247 93be
00000110: 9472 eabd 900e f63d 4c3f 38be f73e 8f3d
00000120: 9afc 47be fd09 3a3e 2289 5c3e e802 0e3e
00000130: d826 e0bd beee 2e3b 11b8 4ebe 5a27 d4bc
00000140: 96df 843d 28d3 8dbc e492 06be 6414 2ebd
00000150: 6fb8 29be d659 6fbd 902c 30be f5e8 15bd
00000160: 0d65 a83d 0c75 04be 3a2d 03bc d576 6e3d
00000170: ce7e 6fbe 4cd6 c4bd 8cc2 98be 207e 3f3e
00000180: c547 8f3d b54e 5b3e d8c3 303e 45fd fc3d
00000190: 571e 1f3d c3fa 93bd 5445 983d fde1 c03d
000001a0: 6ce9 41bc b1e6 2bbe 088c d63d c231 d93c
000001b0: 8a62 8cbe a74d 08be e99a 3bbe 98c9 033c
000001c0: be3b fc3d a496 9ebd d24f 6cbe cd2e 9bbd
000001d0: 0b38 46be e1d1 2ebe 7a7c 233e da58 983d
000001e0: 916c 39bd e075 af3d fcf5 bbbd bee5 2dbe
000001f0: d204 623e 124d 84be de3c d4bd 76a5 8bbe
00000200: 7aec 0aba 3a2c 823c 32ff e9bd fcdb 9bbd
00000210: 3e3e 4839 9dd6 79be 231c 67be 5b92 35be
00000220: 6942 e3bd 0689 81be 9e1c edbd dd1c 44be
00000230: 4735 21be e213 543e 7bf8 3bbe 3bf7 883e
00000240: 5d9f 39be dfb5 c6bd f97e e2bd 17be 673d
00000250: 3858 c6bd 5daf 8dbc 9896 b1bd d685 05be
00000260: c8f3 213e 8a00 4c3e 61e0 c33d 47a3 a83d
00000270: a18f 683e b0f0 853e 8206 bfbb 6d76 273e
00000280: ce69 a5bd 6800 553e bce9 ebbd 6685 ca3d
00000290: 9c35 313e 3cdf 523d 7058 f1bd d113 fabd
000002a0: 3ff7 6bbd 9746 8b3d 05aa 4dbe f4fc b93d
000002b0: 95de 3b3e a53c 51be c044 4ebe cac1 b8bd
000002c0: bb14 6bbe f674 223e 5c52 7bbe ce1e a8bd
000002d0: ccac ab3d 545d 17be 4ebf 543e e45c e43d
000002e0: 53ae 40bd 0c16 85ba 611a 1c3e 52e0 4d3d
000002f0: d6cf 393e 948a 513e 51dc 173e 1537 14be
00000300: b9c3 04bd aad0 563d ba91 cd3d 72cd e33b
00000310: f815 bd3d c3e6 493e d090 2e3e e1ec 9fbc
00000320: 8ebe 87be 5875 543d 840c 183c 8c1e 703d
00000330: 00f7 f43c 7c26 523e 9222 f4bd f946 80bd
00000340: bdb9 643e 8542 223e 3c75 cabd 71d7 1ebe
00000350: 07d1 8e3d ad22 70be c202 133e 8eda b1bd
00000360: 11f8 92be c8b2 3abe 1222 bc3d 6037 9a3e
00000370: 84c9 74be 156d 293e aac4 443c acc2 8c3e
00000380: 2c0f 2cbe 733a 4b3d 5a9b 3f3e 36a2 163e
00000390: 3e1d 163e 4242 483d 76da 9dbd 6838 033e
000003a0: 6541 4abd eaca 413d c842 b53d 34c0 5c3e
000003b0: 7805 043d e2f1 93bd 45ce 073d 07cc 543d
000003c0: e9c2 39be 1018 a53d 8266 06bd eb10 5dbd
000003d0: e86d 203e 9f87 c4bd 3e48 e9bd 1c28 70be
000003e0: cca3 813e 3b7e 3a3e c1db a03d 2e8c 713e
000003f0: c0f6 8ebd df57 b53d 451f c53d 24ce 983d

patch_embed.bias f4 [64]
0.19878209 0.16462079 -0.2309248 -0.13436668 0.23389064 -0.19018336 -0.12266671 0.08009737
0.1119858 -0.04155169 0.19765925 0.10112269 0.2186578 -0.043617748 0.21319555 -0.21243627
-0.052923746 0.3000383 0.22382869 -0.055287953 -0.24656895 -0.08230337 -0.26167324 0.06196583
-0.0019074474 -0.054941148 0.12296553 0.0368509 -0.022201203 0.053603265 0.10393784 -0.12603793
-0.20652486 0.009815599 0.22071104 0.030537337 -0.17386943 -0.2713432 -0.15684205 0.23034562
0.11630857 0.101834044 0.13355954 -0.07879173 0.12577859 -0.25791347 0.13434918 0.23960444
-0.16619359 -0.28942612 0.16670224 -0.06514438 -0.13810417 -0.030075891 0.15667842 0.16692944
-0.08836381 -0.18573989 -0.13057296 -0.2693591 -0.090859555 -0.10936979 -0.02998232 0.21126775
00000000: 888d 4b3e 5a92 283e 8d77 6cbe 6b97 09be
00000010: 0781 6f3e 6dbf 42be af38 fbbd 170a a43d
00000020: d058 e53d 1b32 2abd 3067 4a3e 6a19 cf3d
00000030: d5e7 5f3e 86a8 32bd ef4f 5a3e e588 59be
00000040: 92c6 58bd 9f9e 993e 5933 653e 9f75 62bd
00000050: 927c 7cbe ab8e a8bd 09fa 85be e2cf 7d3d
00000060: 5003 faba f809 61bd 5ad5 fb3d f8f0 163d
00000070: 4cdf b5bc 198f 5b3d 5ddd d43d 1610 01be
00000080: 417b 53be 9bd1 203c 1302 623e 7029 fa3c
00000090: d40a 32be 7fed 8abe 349b 20be b9df 6b3e
000000a0: 3033 ee3d 5e8e d03d d5c3 083e 8f5d a1bd
000000b0: 1acc 003e 3c0d 84be d592 093e de5a 753e
000000c0: a72e 2abe a92f 94be feb3 2a3e 6b6a 85bd
000000d0: 2e6b 0dbe b761 f6bc 4f70 203e 8def 2a3e
000000e0: 16f8 b4bd 9932 3ebe ebb4 05be 70e9 89be
000000f0: 9314 babd 45fd dfbd 7b9d f5bc 9356 583e

layers.0.in_proj.weight f4 [256, 64]
0.0829554 0.19369237 0.086406685 -0.035707 -0.036846954 0.07078238 -0.0659618 0.11855989
-0.13726686 -0.01604863 -0.017665867 0.0070947325 0.02367406 -0.16726577 -0.0071341028 -0.13752654
0.02989126 0.029185435 0.1078681 0.00604995 0.14924042 -0.07692537 0.057933815 0.016493741
0.09274147 -0.002134323 -0.011015692 -0.017125325 0.06782855 -0.041940603 0.03777158 -0.19327125
0.028784342 0.005414685 0.10594216 -0.074879415 -0.09593513 -0.08907639 -0.12638935 -0.10796136
-0.0077954335 -0.025813688 -0.09669689 0.08841877 -0.11980075 -0.10609383 0.18592371 -0.15289785
0.12356402 -0.009360773 0.02927939 0.049150907 -0.2094769 0.01178708 -0.11913953 0.003982182
0.057419173 -0.08355006 -0.07679484 0.007984225 -0.101249754 -0.026723962 -0.040898133 -0.05714336
0.0992596 0.2014339 -0.041869413 -0.015640521 0.22154588 -0.11644534 0.06248513 -0.14188619
0.01932636 0.048450343 -0.07411111 -0.08471623 0.115418196 -0.040828675 -0.004995323 0.022880055
-0.12482195 -0.04310426 -0.06396656 -0.12246244 -0.06514978 0.0040747444 0.05781054 0.24057654
-0.026628204 0.05008332 -0.12173495 0.0004877302 0.07218174 -0.11043369 0.011895435 -0.00010647312
-0.21584654 0.09447175 0.011805667 0.102065586 0.0018387474 -0.08542286 -0.11673843 0.07210536
-0.1411662 -0.064804435 -0.07839998 0.058268234 -0.101513796 0.029840767 0.044017237 0.07853239
-0.004590374 -0.09428696 0.061684642 0.089567125 0.07423621 0.10431102 0.05436835 0.13849242
0.14134687 -0.083323635 -0.13058674 -0.12325427 0.053350918 0.13015082 -0.079941936 -0.051965784
0.03344431 -0.10245679 -0.11425438 0.0989066 -0.086577795 -0.13264705 0.18102427 -0.09334954
0.009730436 0.0316114 0.06415876 -0.020798333 0.16689296 -0.12720254 0.10456537 0.04671275
-0.0022812756 0.05740823 -0.1085217 0.06099399 -0.062384494 0.062951274 -0.0008186527 0.029082961
-0.0488424 -0.015097324 0.08116322 -0.0995626 0.08743604 -0.20094231 -0.15301584 0.03940701
-0.07356675 0.055636477 -0.11219521 -0.18133195 -0.058134954 -0.055515353 -0.16516824 -0.037465952
-0.007158141 -0.15712556 0.047832564 -0.2332529 -0.1286421 -0.15594272 0.19839892 -0.0019269018
0.0644314 0.11958997 0.04566503 0.08268237 0.03887353 0.10858386 0.057519957 0.11908399
0.14013277 -0.06412938 -0.0014583367 0.20076494 0.0884056 -0.037337553 0.010433663 0.12540446
-0.053062893 -0.20684282 0.021782268 0.046366736 -0.027381435 0.0003046971 0.0400874 0.16202441
-0.05355591 -0.03882466 0.072575934 -0.18576197 -0.12855263 0.009981534 -0.043904174 -0.15340987
0.13375917 -0.03640206 -0.13278581 -0.0055422788 -0.04574243 0.07831805 0.049073655 -0.097606905
0.13693196 -0.1390975 0.17332761 0.108682804 0.019085405 -0.12736492 0.10567488 -0.13360023
0.16054022 -0.09150975 -0.05854751 0.10236494 0.054616634 0.1466359 0.089094214 -0.115692906
0.07694113 -0.07093181 0.049660705 -0.15285946 0.088962786 0.010547509 -0.01913893 -0.053748567
0.04899304 -0.09198312 -0.08248984 -0.04811767 -0.09870369 -0.0035907351 0.14672533 -0.14487246
0.02380125 -0.008789685 0.08097532 0.17112778 0.17718989 -0.10303865 0.108805716 -0.111664176
00000000: 85e4 a93d 4b57 463e fdf5 b03d 8141 12bd
00000010: d5ec 16bd 5af6 903d fb16 87bd 87cf f23d
00000020: af8f 0cbe 6b78 83bc 02b8 90bc ee7a e83b
00000030: 1af0 c13c b847 2bbe 31c5 e9bb c2d3 0cbe
00000040: 84de f43c 4b16 ef3c f3e9 dc3d a93e c63b
00000050: 7bd2 183e 0c8b 9dbd 024c 6d3d e21d 873c
00000060: 3def bd3d ffdf 0bbb 297b 34bc 694a 8cbc
00000070: b2e9 8a3d e9c9 2bbd 5fb6 1a3d e6e8 45be
00000080: 24cd eb3c ab6d b13b 34f8 d83d 615a 99bd
00000090: a379 c4bd af6d b6bd 366c 01be d81a ddbd
000000a0: d670 ffbb 3a77 d3bc 0509 c6bd e614 b53d
000000b0: 185a f5bd b947 d9bd c962 3e3e 4191 1cbe
000000c0: 220f fd3d ed5d 19bc 55db ef3c 7652 493d
000000d0: 1d81 56be 991e 413c 6dff f3bd f77c 823b
000000e0: 5e30 6b3d 4b1c abbd 9d46 9dbd 44d0 023c
000000f0: 085c cfbd 36ec dabc cd84 27bd 280f 6abd
00000100: 9e48 cb3d b044 4e3e 437f 2bbd 8d20 80bc
00000110: ecdc 623e e57a eebd 68f0 7f3d 9d4a 11be
00000120: 5152 9e3c de73 463d 91c7 97bd b47f adbd
00000130: 6060 ec3d f83b 27bd ceaf a3bb f46e bb3c
00000140: a7a2 ffbd 188e 30bd e600 83bd 96cd fabd
00000150: 3f6d 85bd 6f85 853b bfca 6c3d b259 763e
00000160: 6423 dabc 2b24 4d3d 2c50 f9bd 0ab6 ff39
00000170: 05d4 933d 0f2b e2bd 12e5 423c 524a dfb8
00000180: e006 5dbe 687a c13d 8e6c 413c c307 d13d
00000190: 2002 f13a 2ef2 aebd 8f14 efbd faab 933d
000001a0: df8d 10be 30b8 84bd 2b90 a0bd acaa 6e3d
000001b0: 77e6 cfbd a074 f43c 6b4b 343d 97d5 a03d
000001c0: d96a 96bb 8619 c1bd 09a9 7c3d f86e b73d
000001d0: 2709 983d 04a1 d53d 59b1 5e3d f5d0 0d3e
000001e0: 3cbd 103e 95a5 aabd 88b8 05be bc6c fcbd
000001f0: 7e86 5a3d 4246 053e 99b8 a3bd 13da 54bd
00000200: e7fc 083d ded4 d1bd 33fe e9bd 8b8f ca3d
00000210: b34f b1bd a1d4 07be 6d5e 393e 0b2e bfbd
00000220: 686c 1f3c f57a 013d ab65 833d 4461 aabc
00000230: fde5 2a3e 6241 02be 5e26 d63d de55 3f3d
00000240: 7481 15bb e424 6b3d a040 debd d6d4 793d
00000250: e286 7fbd 99ec 803d da9a 56ba 643f ee3c
00000260: f80e 48bd c45a 77bc e738 a63d 7ae7 cbbd
00000270: ab11 b33d d2c3 4dbe 2fb0 1cbe 3f69 213d
00000280: 2aaa 96bd 13e3 633d 9ac6 e5bd 15af 39be
00000290: eb1e 6ebd 1164 63bd dd21 29be e675 19bd
000002a0: d78e eabb 86e5 20be 14ec 433d d9d9 6ebe
000002b0: c1ba 03be 73af 1fbe 1629 4b3e 1890 fcba
000002c0: 9cf4 833d 96eb f43d 410b 3b3d 6055 a93d
000002d0: da39 1f3d 3761 de3d 0c9a 6b3d 4fe2 f33d
000002e0: f77e 0f3e 4456 83bd a925 bfba 5395 4d3e
000002f0: ff0d b53d 43ef 18bd f4f1 2a3c 076a 003e
00000300: 7a58 59bd 9bce 53be ba70 b23c 0ceb 3d3d
00000310: 084f e0bc c1bf 9f39 af32 243d bae9 253e
00000320: 715d 5bbd 9b06 1fbd b1a2 943d 6338 3ebe
00000330: 4da3 03be 9789 233c ddd4 33bd 7a17 1dbe
00000340: 2af8 083e 541a 15bd 01f9 07be 019c b5bb
00000350: 6a5c 3bbd 3765 a03d 7501 493d 21e6 c7bd
00000360: e437 0c3e 936f 0ebe cb7c 313e 1795 de3d
00000370: ff58 9c3c f36b 02be 126c d83d 80ce 08be
00000380: a864 243e 7769 bbbd 84cf 6fbd b6a4 d13d
00000390: b1b5 5f3d b927 163e 0777 b63d 67f0 ecbd
000003a0: 5093 9d3d b244 91bd 0669 4b3d 3187 1cbe
000003b0: 1f32 b63d 76cf 2c3c 3fc9 9cbc 7527 5cbd
000003c0: edac 483d a561 bcbd 6ff0 a8bd 0917 45bd
000003d0: 2925 cabd 8a52 6bbb 2a3f 163e 7259 14be
000003e0: d7fa c23c 9c02 10bc 63d6 a53d 1f3c 2f3e
000003f0: 4471 353e ed05 d3bd 88d5 de3d 30b0 e4bd

layers.0.conv1d.weight f4 [128, 1, 4]
0.10585894 -0.1310917 -0.5515219 0.5091135 -0.44069284 0.16551866 0.17865855 0.44475132
-0.08479436 0.1501033 -0.52900624 0.08179964 -0.2945016 -0.008435085 0.30247366 0.28981605
0.59407574 -0.16522284 -0.42195106 -0.35484108 0.16700268 -0.22249778 0.13106301 -0.37912545
0.20197073 0.29646444 0.41202658 0.33287284 -0.18607025 0.12931855 -0.3719407 -0.586546
0.11520211 -0.37901452 -0.50827914 -0.6814711 0.2840044 -0.2550727 -0.24791104 -0.29396465
-0.0451922 0.15668231 -0.5845908 -0.47888348 -0.47270486 -0.03757285 0.31545955 -0.35266915
0.53006744 0.5630174 -0.07301981 -0.010614547 0.0137167135 -0.09303636 0.3325169 -0.32316473
0.41458365 -0.24068685 0.44744667 -0.41635042 0.4255014 0.4173166 -0.40719178 0.18813047
0.70524603 0.6404826 0.50566506 0.23008832 -0.018889885 0.019244041 -0.15443704 0.115114525
-0.3346321 -0.20505406 0.2485314 -0.20539309 -0.37923226 -0.34276167 -0.30522898 -0.5495788
-0.5602594 -0.52405435 0.004364351 0.471046 0.28164345 0.22099186 0.26819545 -0.27509695
0.47997946 0.13222691 -0.44147682 0.1916322 -0.60333884 -0.06498066 0.3936758 0.3683083
0.285051 0.29101115 -0.5139994 0.0061008977 0.49317095 -0.5083519 -0.22479413 -0.20499906
0.07758093 0.1021274 0.02597162 0.39987016 0.17320406 0.373604 -0.57580346 -0.38653755
0.2180145 0.5689878 0.48195866 0.51742774 0.14306228 -0.430395 -0.174577 -0.4521641
0.36544448 0.14072318 -0.16586478 -0.044504207 0.40223786 0.10447788 -0.51798886 0.31088433
-0.12350074 0.18050334 -0.34457907 -0.5731638 0.24805321 0.3495675 -0.324278 -0.2355361
-0.31987068 0.37109116 0.36444503 -0.5310072 0.4607885 0.23489402 -0.4127096 0.41066194
-0.3062303 -0.033911336 0.24453035 -0.6686365 0.5128232 -0.33937708 0.44042814 -0.31716293
0.28932798 -0.43965912 -0.5627693 0.046585333 -0.21010718 0.2196056 0.075892136 -0.25527927
-0.04923937 0.11419698 -0.47442144 -0.3841193 0.24125324 -0.21967585 -0.47296792 -0.12143386
-0.018502971 -0.30448472 -0.29378155 -0.55287147 -0.1992927 0.15821783 0.09867738 -0.55807155
0.38407356 -0.6063811 -0.5537169 -0.14775409 -0.16881141 -0.40583235 -0.07300235 -0.22727314
0.39184287 0.22123751 -0.4375654 -0.0037281462 -0.5820745 0.39852306 0.37349463 0.16544844
0.0756726 0.567558 -0.5119228 -0.16276538 0.33614364 -0.02081575 0.4759116 0.37316918
-0.22322737 -0.4625841 -0.33840144 -0.5710005 -0.14664584 -0.4852227 0.5388399 0.445582
0.50928557 -0.36396405 -0.0723732 -0.23502134 0.40580982 -0.43861616 0.5113797 -0.4034848
-0.1165042 -0.06740071 0.20940317 0.59615606 -0.41908872 -0.38455722 -0.3271529 -0.5184588
-0.32574984 0.40639699 -0.34074 -0.44475496 0.4760985 0.16502833 0.45094043 0.32039362
0.28470355 0.10472859 0.3087838 0.41739142 0.020277832 0.41364098 -0.44136187 0.12097844
0.1916738 -0.20939688 0.23137139 -0.23804781 -0.42997232 -0.12396218 0.17874467 -0.3856768
0.26158533 0.27411747 0.41531307 0.3927923 -0.41792065 -0.44466817 -0.2085365 -0.12717469
00000000: 92cc d83d e73c 06be 8a30 0dbf 4355 023f
00000010: 7ea2 e1be b97d 293e 44f2 363e 72b6 e33e
00000020: aaa8 adbd aeb4 193e f46c 07bf 9286 a73d
00000030: eac8 96be 5033 0abc d4dd 9a3e c562 943e
00000040: 5915 183f 2d30 29be f809 d8be bbad b5be
00000050: c002 2b3e 75d6 63be 6235 063e bb1c c2be
00000060: 6ad1 4e3e 30ca 973e 26f5 d23e 4f6e aa3e
00000070: 3389 3ebe 156c 043e 036f bebe e127 16bf
00000080: 15ef eb3d 310e c2be 951e 02bf e474 2ebf
00000090: 0669 913e e498 82be 64dc 7dbe 8982 96be
000000a0: 751b 39bd 5471 203e bea7 15bf 3730 f5be
000000b0: 5f06 f2be fde5 19bd ea83 a13e 0d91 b4be
000000c0: 80b2 073f e921 103f 698b 95bd a3e8 2dbc
000000d0: 11bc 603c d989 bebd a83f aa3e d975 a5be
000000e0: 4f44 d43e 9d76 76be bb17 e53e e22b d5be
000000f0: 52db d93e 85aa d53e 717b d0be 46a5 403e
00000100: 018b 343f abf6 233f 4473 013f 469c 6b3e
00000110: f6be 9abc aea5 9d3c be24 1ebe 2ac1 eb3d
00000120: e654 abbe b1f9 51be 047f 7e3e 9152 52be
00000130: bb2a c2be 757e afbe f946 9cbe 32b1 0cbf
00000140: 296d 0fbf 6d28 06bf d402 8f3b f12c f13e
00000150: 9233 903e b14b 623e ea50 893e 82d9 8cbe
00000160: debf f53e 7e66 073e 4009 e2be 3b3b 443e
00000170: 6a74 1abf 9514 85bd e08f c93e e892 bc3e
00000180: 34f2 913e 6aff 943e 7795 03bf 0aea c73b
00000190: e780 fc3e 5a23 02bf 6f30 66be 46eb 51be
000001a0: c0e2 9e3d 2c28 d13d 6fc2 d43c c8bb cc3e
000001b0: 685c 313e 0649 bf3e db67 13bf 40e8 c5be
000001c0: 313f 5f3e 2fa9 113f 49c3 f63e 2576 043f
000001d0: eb7e 123e bc5c dcbe 50c4 32be 0e82 e7be
000001e0: 8a1b bb3e bd19 103e 75d8 29be 0b4a 36bd
000001f0: 1ff2 cd3e 80f8 d53d eb9a 04bf 3b2c 9f3e
00000200: f5ed fcbd ded5 383e ab6c b0be ddba 12bf
00000210: a901 7e3e 83fa b23e c407 a6be 6030 71be
00000220: 17c6 a3be a9ff bd3e 8a98 ba3e 16f0 07bf
00000230: 78ec eb3e 0f88 703e ac4e d3be 4842 d23e
00000240: 38ca 9cbe 9de6 0abd 2a66 7a3e c32b 2bbf
00000250: 6248 033f d5c2 adbe cc7f e13e 2e63 a2be
00000260: cc22 943e 001b e1be a611 10bf 43d0 3e3d
00000270: 5626 57be 4ae0 603e 566d 9b3d f7b3 82be
00000280: 39af 49bd 1be0 e93d 5ee7 f2be 49ab c4be
00000290: 170b 773e b5f2 60be da28 f2be 51b2 f8bd
000002a0: 8b93 97bc 6ce5 9bbe 896a 96be fc88 0dbf
000002b0: 6313 4cbe db03 223e 5e17 ca3d c7dd 0ebf
000002c0: 4aa5 c43e cb3b 1bbf 64c0 0dbf d94c 17be
000002d0: e6dc 2cbe 42c9 cfbe 4282 95bd 4aba 68be
000002e0: a19f c83e 168c 623e 9208 e0be ea53 74bb
000002f0: d602 15bf 370b cc3e b03a bf3e 516b 293e
00000300: 3cfa 9a3d 7b4b 113f 5f0d 03bf f8ab 26be
00000310: 051b ac3e cb85 aabc afaa f33e 0810 bf3e
00000320: b795 64be d3d7 ecbe f442 adbe 172d 12bf
00000330: 542a 16be 1c6f f8be 69f1 093f 5323 e43e
00000340: 8a60 023f 7f59 babe 6638 94bd 6fa9 70be
00000350: 4ec6 cf3e 4c92 e0be c8e9 023f 8f95 cebe
00000360: c199 eebd 6209 8abd c96d 563e af9d 183f
00000370: cc92 d6be afe4 c4be 9680 a7be b7b9 04bf
00000380: afc8 a6be 4413 d03e 7975 aebe ecb6 e3be
00000390: 2fc3 f33e 30fd 283e aae1 e63e a20a a43e
000003a0: aac4 913e f17b d63d e918 9e3e 54b4 d53e
000003b0: b21d a63c c0c8 d33e 2ffa e1be 8bc3 f73d
000003c0: 2346 443e 236c 56be 9fec 6c3e cec2 73be
000003d0: 5525 dcbe e2df fdbd d808 373e 6e77 c5be
000003e0: 83ee 853e 2059 8c3e eaa3 d43e 131c c93e
000003f0: b2f9 d5be 8cab e3be 988a 55be 153a 02be

layers.0.conv1d.bias f4 [128]
-0.27805713 -0.07474747 0.41951227 -0.22325833 0.10699867 0.18573102 0.28003842 -0.16918354
0.10060545 -0.10120164 0.2091161 -0.15324254 -0.037773367 -0.33008727 0.12982371 0.21239796
-0.4750224 0.1366838 -0.026969481 -0.29282168 -0.018226786 0.5014081 0.4042264 0.114050545
0.41707376 0.5371577 0.29078218 -0.09236454 -0.2414268 0.35390183 -0.28264073 -0.10339885
-0.27823603 0.19683053 -0.6003272 0.4223213 -0.4332851 0.003784813 0.051146444 0.35237995
0.15148814 -0.27016965 0.43467227 -0.25673226 -0.5050621 0.18472983 0.12069473 0.5591399
0.43314 0.45273653 0.027630132 0.40949947 0.22034362 0.5658459 -0.3279316 -0.47452164
-0.14731833 0.53442883 0.11364806 0.40010273 0.49147886 0.5252206 0.16075811 -0.051323436
0.4302876 0.37784687 0.32213998 0.16655955 0.28551364 -0.49305922 0.23505326 -0.49783048
0.01840062 0.2403023 -0.09913566 0.037242282 0.49366522 -0.1324175 0.36040938 0.2535522
0.28043145 -0.012471432 0.09079007 -0.40468842 0.058234755 -0.021883838 0.25939572 0.1914646
-0.107951954 -0.34260306 0.10543399 -0.23811658 0.23977277 0.5161213 0.3400741 -0.34107193
-0.3135296 0.372767 0.079047315 -0.23520692 0.2937926 0.24315448 0.056157257 0.40262067
-0.12957217 -0.49250984 0.33666584 -0.43629408 0.35774964 0.066658825 -0.14256288 -0.43517146
0.04828861 0.06667617 0.38469744 0.46170348 -0.25582945 -0.0155937765 0.3840499 -0.22210626
0.28294775 0.5692113 -0.44923943 -0.48734093 0.069970906 0.047785047 -0.15968765 -0.534044
00000000: 815d 8ebe 3415 99bd 50ca d63e d59d 64be
00000010: 1e22 db3d 4630 3e3e 3261 8f3e 733e 2dbe
00000020: 3b0a ce3d ce42 cfbd 8822 563e 9deb 1cbe
00000030: 3fb8 1abd 3301 a9be 82f0 043e da7e 593e
00000040: 2336 f3be d7f6 0b3e 1aef dcbc b9ec 95be
00000050: 5750 95bc 485c 003f c3f6 ce3e 5593 e93d
00000060: b18a d53e 2b83 093f 67e1 943e 9f29 bdbd
00000070: 9638 77be 9f32 b53e 49b6 90be c7c2 d3bd
00000080: f474 8ebe f18d 493e 0baf 19bf 7f3a d83e
00000090: 8bd7 ddbe a00a 783b ef7e 513d 256b b43e
000000a0: b51f 1b3e ad53 8abe 5d8d de3e 6972 83be
000000b0: c04b 01bf d129 3d3e cc2e f73d cb23 0f3f
000000c0: 87c4 dd3e 15cd e73e 9658 e23c eaa9 d13e
000000d0: c2a1 613e 47db 103f a7e6 a7be 80f4 f2be
000000e0: 9eda 16be 54d0 083f 50c0 e83d 44da cc3e
000000f0: 1ea3 fb3e db74 063f c69d 243e 8638 52bd
00000100: a84e dc3e 2575 c13e 88ef a43e 968e 2a3e
00000110: d82e 923e 4272 fcbe cdb1 703e a3e3 febe
00000120: e6bc 963c ce11 763e a307 cbbd 5d8b 183d
00000130: b0c1 fc3e 7498 07be 9487 b83e 98d1 813e
00000140: b694 8f3e fa54 4cbc 25f0 b93d 5233 cfbe
00000150: 9187 6e3d bc45 b3bc 84cf 843e 4c0f 443e
00000160: ea15 ddbd ab69 afbe c7ed d73d d5d4 73be
00000170: fe86 753e 8720 043f 311e ae3e fba0 aebe
00000180: f486 a0be 51db be3e 8fe3 a13d 15da 70be
00000190: fc6b 963e 7dfd 783e 2705 663d 4c24 ce3e
000001a0: 91ae 04be 402a fcbe 775f ac3e f061 dfbe
000001b0: f62a b73e 6c84 883d 01fc 11be cbce debe
000001c0: 47ca 453d 848d 883d 10f7 c43e 6664 ec3e
000001d0: 14fc 82be 0a7d 7fbc 30a2 c43e d36f 63be
000001e0: 87de 903e d5b7 113f b602 e6be c084 f9be
000001f0: e84c 8f3d 41ba 433d 2985 23be 1cb7 08bf

layers.0.out_proj.weight f4 [64, 128]
-0.077283084 -0.19046791 -0.0018998147 -0.011644956 -0.05894408 -0.07523599 -0.029874157 0.03397042
-0.18086392 -0.05998333 0.051542573 -0.037553333 -0.00033653728 0.099915974 0.10336921 0.08450875
0.32796013 -0.014119887 -0.085908175 0.052548017 -0.24263182 0.08348235 -0.04510809 0.024766956
-0.0629738 -0.07405517 0.07343888 -0.0017831954 0.109814346 -0.056483913 0.01500561 0.06308354
-0.04606785 -0.02065515 0.047285605 0.0025492425 0.03125014 -0.04151614 -0.05278017 0.06361392
-0.014201275 -0.12120585 0.024510078 -0.0045419633 0.026268633 -0.012875432 0.102113515 -0.017282182
-0.038394455 -0.016963948 0.013987186 -0.14365995 0.08131026 -0.065791816 -0.07355494 0.12649776
0.18904242 -0.09491728 0.07850493 -0.10278431 -0.12630802 0.120525114 -0.02905824 -0.00040367333
-0.020784277 0.03182966 0.066857815 0.0110655725 -0.08763559 0.08987294 -0.11698069 -0.08567697
0.10479201 -0.1964027 0.107399896 0.043250464 0.061176486 0.08482188 -0.0713849 -0.058867667
0.035443272 0.027139567 -0.0044064806 0.07903691 0.09861773 0.13841143 -0.053553157 0.05617819
0.13276951 -0.069501124 -0.04174654 0.13464999 -0.12082939 -0.045352623 -0.0068353 0.014721277
0.0632182 -0.13099612 -0.09628037 -0.0874453 -0.16056292 -0.01696065 -0.0047559943 0.051608216
0.13346839 -0.08453488 0.04284985 0.057938613 -0.038769566 0.13743843 -0.11223342 0.03337228
0.012509227 0.100855626 -0.1261304 -0.04790843 -0.19863473 -0.077219576 -0.18886133 -0.095036924
-0.047578312 0.013227338 0.03691108 0.2977914 -0.15956022 0.079187274 0.017619034 0.025995107
0.157877 0.01116385 0.08213274 0.010282871 -0.047051944 -0.12845816 0.06007335 -0.04642011
0.02803304 -0.076346464 -0.046571687 0.051792946 -0.009265207 -0.07344857 0.1257502 0.0052626226
0.023852706 0.119670175 0.12934695 0.0075466 -0.17788635 0.012546794 -0.12902403 -0.02323718
-0.014396253 -0.10317838 0.06516019 0.05348023 -0.0875657 0.0008261207 -0.030929908 -0.10752251
0.11077483 -0.028926061 0.05630488 0.03411292 -0.043587532 -0.100718215 0.056006707 -0.040065
-0.05723527 -0.10643632 0.04620556 -0.036140583 -0.08876464 0.041680202 -0.18051337 -0.27514797
-0.11782181 -0.0542398 -0.05019332 -0.14347158 -0.06337676 -0.053142637 0.025925457 -0.02684626
-0.0562731 0.12392381 -0.05300285 0.0042780326 -0.08622933 -0.02354313 -0.052799806 -0.12291565
0.06775172 0.05916523 0.08821624 0.07789248 -0.035283886 0.091294035 0.07452495 -0.0793451
0.050547622 -0.07443332 0.045361824 -0.08480216 0.014031373 0.08393835 -0.019138541 0.018516997
-0.030519763 -0.057793282 -0.093662076 0.11565462 0.05485969 -0.053084698 0.0631733 0.038570344
-0.12420335 0.050689176 0.16991523 -0.046490658 -0.09371594 0.014713654 -0.107098274 -0.029431706
-0.055099 0.123124644 0.027770577 -0.035826664 0.037092976 -0.049955297 0.11386538 0.029054997
-0.04521748 0.09101402 -0.030057587 -0.09462115 0.055682715 0.020800253 0.021225233 0.023883246
-0.031069195 -0.1515802 0.04574789 0.18842143 -0.039388698 -0.070691735 0.11336773 0.019129733
0.040455896 -0.014694127 -0.015310933 0.17267163 -0.004921483 0.06617391 0.2069681 -0.045244467
00000000: 9846 9ebd 050a 43be 3403 f9ba 7cca 3ebc
00000010: 596f 71bd 5415 9abd a6ba f4bc 9124 0b3d
00000020: 6434 39be 15b1 75bd 4e1e 533d 86d1 19bd
00000030: 4571 b0b9 bfa0 cc3d 3db3 d33d ec12 ad3d
00000040: 64ea a73e 1957 67bc a0f0 afbd 973c 573d
00000050: 7a74 78be cbf8 aa3d 43c3 38bd 12e4 ca3c
00000060: 68f8 80bd 3daa 97bd 2067 963d 1cba e9ba
00000070: 58e6 e03d ad5b 67bd 17da 753c f131 813d
00000080: a4b1 3cbd fd34 a9bc 8dae 413d 3111 273b
00000090: 2600 003d d40c 2abd 0530 58bd 0448 823d
000000a0: 77ac 68bc c63a f8bd 5cc9 c83c c0d4 94bb
000000b0: 5131 d73c 7af3 52bc e420 d13d 5d93 8dbc
000000c0: 8143 1dbd faf7 8abc 832a 653c 981b 13be
000000d0: fe85 a63d dcbd 86bd f9a3 96bd a188 013e
000000e0: 5694 413e fe63 c2bd 31c7 a03d 9580 d2bd
000000f0: e456 01be dfd5 f63d 8c0b eebc 1ea4 d3b9
00000100: ca43 aabc d15f 023d c0ec 883d 604c 353c
00000110: 4a7a b3bd 4e0f b83d 9293 efbd 6877 afbd
00000120: 319d d63d ca1d 49be 7af4 db3d 6627 313d
00000130: 3294 7a3d 18b7 ad3d 3f32 92bd 391f 71bd
00000140: f72c 113d cc53 de3c 3d64 90bb 1ade a13d
00000150: 18f8 c93d babb 0d3e 8e5a 5bbd 1a1b 663d
00000160: bbf4 073e 9b56 8ebd 6cfe 2abd b0e1 093e
00000170: 6675 f7bd acc3 39bd a7fa dfbb 8331 713c
00000180: 8b78 813d d923 06be a52e c5bd 8516 b3bd
00000190: 9b6a 24be 10f1 8abc 2cd8 9bbb 2363 533d
000001a0: f0ab 083e a020 adbd 5383 2f3d 0a51 6d3d
000001b0: d6cc 1ebd a9bc 0c3e a3da e5bd 5fb1 083d
000001c0: 80f3 4c3c 658d ce3d 5428 01be a13b 44bd
000001d0: e766 4bbe 4c25 9ebd dd64 41be b8a2 c2bd
000001e0: 7ae1 42bd 7ab7 583c 1330 173d 1d78 983e
000001f0: c163 23be f02c a23d cb55 903c b1f3 d43c
00000200: 82aa 213e 95e8 363c 3635 a83d 7d79 283c
00000210: 8ab9 40bd 898a 03be 790f 763d 0323 3ebd
00000220: 8ca5 e53c 895b 9cbd f4c1 3ebd d724 543d
00000230: 18cd 17bc 346c 96bd a9c4 003e 1472 ac3b
00000240: c066 c33c a315 f53d 8773 043e 7849 f73b
00000250: d727 36be 1191 4d3c e01e 04be e65b bebc
00000260: 43de 6bbc 304f d3bd b572 853d 160e 5b3d
00000270: a555 b3bd 0690 583a b860 fdbc c334 dcbd
00000280: eadd e23d 59f6 ecbc f29f 663d fdb9 0b3d
00000290: d788 32bd 5a45 cebd 4a67 653d 331b 24bd
000002a0: 886f 6abd 49fb d9bd 0b42 3d3d 2608 14bd
000002b0: 3cca b5bd dcb8 2a3d 7fd8 38be 32e0 8cbe
000002c0: 904c f1bd 8d2a 5ebd 8397 4dbd 37ea 12be
000002d0: adcb 81bd 18ac 59bd a061 d43c b0ec dbbc
000002e0: 9f7e 66bd c4cb fd3d 8419 59bd bd2e 8c3b
000002f0: 0199 b0bd 86dd c0bc 9c44 58bd 33bb fbbd
00000300: 6ac1 8a3d 3d57 723d b7aa b43d 1886 9f3d
00000310: d685 10bd 5ef8 ba3d 89a0 983d af7f a2bd
00000320: 060b 4f3d 7f70 98bd 52cd 393d c1ac adbd
00000330: d8e3 653c dfe7 ab3d 6ec8 9cbc f5b0 973c
00000340: 9504 fabc a6b8 6cbd e7d1 bfbd 54dc ec3d
00000350: 8eb4 603d 576f 59bd 0161 813d f0fb 1d3d
00000360: 535e febd 749f 4f3d 42fe 2d3e fd6c 3ebd
00000370: 25ee bfbd 8a11 713c 5756 dbbd c31a f1bc
00000380: 7daf 61bd c628 fc3d 1f7f e33c fbbe 12bd
00000390: ceee 173d ed9d 4cbd 4132 e93d bf04 ee3c
000003a0: f735 39bd 8f65 ba3d 543b f6bc bcc8 c1bd
000003b0: 8f13 643d 4b65 aa3c 8ae0 ad3c cca6 c33c
000003c0: d384 febc d737 1bbe 2462 3b3d 8cf1 403e
000003d0: 0b56 21bd d4c6 90bd 572d e83d f5b5 9c3c
000003e0: 15b5 253d a3bf 70bc b5da 7abc d5d0 303e
000003f0: 6444 a1bb 3086 873d 72ef 533e 4352 39bd

layers.0.forward_s6.A_log f4 [128, 16]
-0.20324263 0.53524935 1.0596613 1.2367792 1.3463959 1.5983515 1.8427148 1.9946785
2.0606322 2.2068226 2.17769 2.446526 2.3939817 2.4739585 2.761677 2.7708926
-0.23818406 0.45076248 0.8740553 1.1258097 1.3047208 1.545215 1.654584 1.7956047
1.9046369 2.049908 1.9978632 2.1949902 2.2462828 2.2952292 2.5375135 2.5094032
0.18756767 0.7495428 1.0787711 1.2880524 1.4519153 1.5918533 1.7798824 1.9449682
2.0140126 2.1264136 2.1275585 2.3516681 2.4060433 2.4110649 2.4855475 2.5976517
-0.07579245 0.58729684 1.0941384 1.3540504 1.5435793 1.6648107 1.9075282 1.9602828
2.0287433 2.1543996 2.237614 2.3554087 2.4238522 2.5043283 2.6252108 2.7240543
-0.3292012 0.4894671 0.9795235 1.1330863 1.3618535 1.5390903 1.7153379 1.8840245
2.0290868 2.100224 2.2260895 2.2981257 2.3722255 2.5174224 2.6478496 2.6951258
0.124160044 0.7991818 1.2063425 1.461463 1.7150748 1.9192187 2.006036 2.1595194
2.2483478 2.321573 2.5086586 2.504016 2.5845919 2.6494877 2.7017734 2.7652614
0.04870478 0.7641384 1.1152065 1.4338434 1.6644169 1.8735869 1.980112 2.0984535
2.2346327 2.3265467 2.3890238 2.5128298 2.5859823 2.628565 2.702077 2.752126
-0.25700203 0.5652193 0.8191937 1.2459748 1.3742261 1.8184642 1.9793162 2.0104008
1.9387138 2.250604 2.238832 2.298844 2.3964353 2.5458863 2.522301 2.617649
0.16408665 0.90118635 1.2797456 1.6059442 1.7513924 1.8991275 2.0709994 2.2499022
2.3006847 2.4317124 2.4422936 2.6148462 2.6713536 2.7671204 2.8674276 2.907294
0.03960158 0.6409687 1.0220205 1.2789848 1.5073968 1.7067788 1.8933303 1.9741229
2.0844915 2.2306063 2.3125277 2.4833548 2.520998 2.5803473 2.6974082 2.7418206
-0.06416802 0.53462595 1.0039945 1.2708066 1.5387374 1.6441721 1.8599972 1.98489
2.065837 2.139433 2.402733 2.3701506 2.455164 2.5435653 2.6212676 2.7082512
-0.2479059 0.50440645 0.9316234 1.310346 1.615717 1.6348866 1.8677164 2.113541
2.1767528 2.2262845 2.4234343 2.4395647 2.4677668 2.570088 2.6223009 2.657305
-0.12377196 0.5728705 1.051656 1.2929755 1.4872645 1.6953181 1.8560605 2.0379002
2.098031 2.2300267 2.2943025 2.4218032 2.467464 2.5543084 2.7212539 2.7306697
-0.2240139 0.44628158 0.87382984 1.1244693 1.3723036 1.5960555 1.6943512 1.8026222
1.9580694 2.0472493 2.2235835 2.2672164 2.3723726 2.4328866 2.4727535 2.5665755
0.08954075 0.78057706 1.2261927 1.4701327 1.6431861 1.8188044 2.0092545 2.081886
2.2259595 2.352788 2.3803315 2.5039415 2.5794744 2.670159 2.7372532 2.8150015
0.13619626 0.6808878 1.0461817 1.301063 1.5297272 1.7042526 1.9480699 2.0179124
2.1464074 2.3053088 2.3604841 2.62113 2.674616 2.7316015 2.7563767 2.8917356
00000000: d61e 50be 1a06 093f fba2 873f c84e 9e3f
00000010: b356 ac3f c896 cc3f 14de eb3f a051 ff3f
00000020: 66e1 0340 953c 0d40 465f 0b40 e293 1c40
00000030: ff36 1940 5655 1e40 51bf 3040 4e56 3140
00000040: 86e6 73be 57ca e63e 17c2 5f3f 881a 903f
00000050: 1701 a73f 9bc9 c53f 69c9 d33f 60d6 e53f
00000060: 24cb f33f b131 0340 fbb9 ff3f b87a 0c40
00000070: 19c3 0f40 09e5 1240 9f66 2240 109a 2040
00000080: bd11 403e 09e2 3f3f 2c15 8a3f e7de a43f
00000090: 5cd8 b93f d9c1 cb3f 30d3 e33f b8f4 f83f
000000a0: 95e5 0040 2917 0840 eb29 0840 bb81 1640
000000b0: 9dfc 1940 e34e 1a40 3613 1f40 ed3f 2640
000000c0: 1239 9bbd 1659 163f ba0c 8c3f 8651 ad3f
000000d0: 0294 c53f 8418 d53f e229 f43f 8cea fa3f
000000e0: eed6 0140 afe1 0940 1135 0f40 04bf 1640
000000f0: 6520 1b40 ea46 2040 7403 2840 e856 2e40
00000100: 0f8d a8be 6f9b fa3e 0dc2 7a3f f908 913f
00000110: 3751 ae3f e900 c53f 3190 db3f b727 f13f
00000120: 8fdc 0140 126a 0640 4078 0e40 7e14 1340
00000130: 8bd2 1740 731d 2140 5e76 2940 f17c 2c40
00000140: 9f47 fe3d 2e97 4c3f 6e69 9a3f 3811 bb3f
00000150: 9287 db3f f5a8 f53f e562 0040 9135 0a40
00000160: eee4 0f40 a794 1440 dd8d 2040 cc41 2040
00000170: f469 2540 3591 2940 dbe9 2c40 0bfa 3040
00000180: aa7e 473d 939e 433f 16bf 8e3f 2e88 b73f
00000190: 9d0b d53f b2d1 ef3f 4f74 fd3f 104d 0640
000001a0: 3904 0f40 24e6 1440 c4e5 1840 34d2 2040
000001b0: bc80 2540 693a 2840 d4ee 2c40 d522 3040
000001c0: c595 83be 36b2 103f aeb6 513f 1a7c 9f3f
000001d0: a4e6 af3f 6fc3 e83f 3c5a fd3f 68aa 0040
000001e0: c627 f83f e509 1040 0649 0f40 4320 1340
000001f0: 325f 1940 cdef 2240 616d 2140 9087 2740
00000200: 5506 283e 26b4 663f b4ce a33f 948f cd3f
00000210: a02d e03f 9c16 f33f 418b 0440 66fe 0f40
00000220: 6b3e 1340 2da1 1b40 8a4e 1c40 a459 2740
00000230: 75f7 2a40 8018 3140 ef83 3740 1b11 3a40
00000240: 4435 223d 8616 243f 91d1 823f c6b5 a33f
00000250: 61f2 c03f ba77 da3f a658 f23f 0fb0 fc3f
00000260: 4f68 0540 41c2 0e40 7400 1440 49ef 1e40
00000270: 0858 2140 6924 2540 56a2 2c40 fd79 2f40
00000280: 866a 83bd 3fdd 083f e482 803f caa9 a23f
00000290: 59f5 c43f 3b74 d23f 6314 ee3f e010 fe3f
000002a0: ac36 0440 78ec 0840 61c6 1940 8cb0 1740
000002b0: 6821 1d40 c6c9 2240 d9c2 2740 fd53 2d40
000002c0: 0bdb 7dbe c820 013f df7e 6e3f 6bb9 a73f
000002d0: d1cf ce3f f743 d13f 5511 ef3f 4144 0740
000002e0: eb4f 0b40 727b 0e40 8c19 1b40 d421 1c40
000002f0: e4ef 1d40 527c 2440 c7d3 2740 4911 2a40
00000300: 277c fdbd a4a7 123f aa9c 863f 3980 a53f
00000310: af5e be3f 2f00 d93f 6493 ed3f f56c 0240
00000320: 2446 0640 c2b8 0e40 dad5 1240 d3fe 1a40
00000330: eeea 1d40 ca79 2340 0629 2e40 4bc3 2e40
00000340: e663 65be 057f e43e 50b3 5f3f 9cee 8f3f
00000350: a5a7 af3f 8c4b cc3f 80e0 d83f 53bc e63f
00000360: 05a2 fa3f 2206 0340 314f 0e40 131a 1140
00000370: f4d4 1740 6ab4 1b40 9841 1e40 c642 2440
00000380: 2461 b73d e6d3 473f e2f3 9c3f 4f2d bc3f
00000390: ec53 d23f 95ce e83f a097 0040 9f3d 0540
000003a0: 1f76 0e40 1494 1640 5a57 1840 9440 2040
000003b0: 1c16 2540 e3e3 2a40 282f 2f40 fc28 3440
000003c0: 0877 0b3e aa4e 2e3f 48e9 853f 3b89 a63f
000003d0: 1ace c33f f324 da3f 5b5a f93f 7a25 0140
000003e0: bd5e 0940 2e8a 1340 2c12 1740 98c0 2740
000003f0: e92c 2b40 8fd2 2e40 7a68 3040 3212 3940

layers.0.forward_s6.D f4 [128]
1.1835213 0.9486444 0.94371784 0.94019675 1.006886 1.0652852 0.9329305 0.990978
1.0017254 1.0226905 1.1006985 1.1331635 1.0229632 1.0809759 1.0438973 1.0602834
1.0769873 1.0568627 1.0807109 0.90993434 1.1033533 1.0546055 1.0437548 1.1221874
0.9961682 1.0520762 0.94964933 1.1146939 1.0898798 1.0142148 0.9815042 1.0308654
1.069887 1.1927406 0.987113 0.9759535 1.0573163 1.0277897 1.1353439 1.0366445
1.0413721 1.0420338 0.9761248 1.1117342 0.9824486 0.97264487 1.1386893 1.1776237
1.0355595 0.91126686 1.0885152 1.1131132 1.0168209 0.9709506 1.0944467 1.046685
0.970793 0.9578626 1.1414677 1.0710317 1.0791208 0.92648387 1.1451142 0.97814226
1.1012137 1.1075546 1.029994 0.99515563 1.0082166 1.011811 1.0081061 0.81562024
1.0181458 1.2664099 1.0333782 0.9546037 1.03957 1.0518111 0.97963405 1.0195341
0.98068714 1.0650403 1.036352 1.0427861 1.0297415 1.0053384 0.9128027 1.0486072
0.9037898 1.3140428 1.0906446 0.9412525 1.0191491 0.9833633 1.134698 1.086034
0.9157972 0.94307935 0.7626724 0.94798875 1.0689609 1.0179456 0.93382007 1.0726485
1.0202401 1.0569862 1.0057925 1.0516251 1.0973529 0.9692365 1.0506395 1.2808363
1.0519376 1.0172529 1.220862 1.0780772 1.0428562 0.99307495 0.8951091 1.087977
0.9187796 1.00738 0.92065245 1.0129994 1.0483688 1.039432 1.1624758 1.0297796
00000000: a07d 973f 5cda 723f 7e97 713f bcb0 703f
00000010: a4e1 803f 445b 883f 89d4 6e3f bcb0 7d3f
00000020: 8a38 803f 86e7 823f b0e3 8c3f 800b 913f
00000030: 75f0 823f 6b5d 8a3f 6d9e 853f 5eb7 873f
00000040: b8da 893f 4747 873f bc54 8a3f 75f1 683f
00000050: ae3a 8d3f 50fd 863f c299 853f d6a3 8f3f
00000060: e104 7f3f 6faa 863f 381c 733f 4aae 8e3f
00000070: 2e81 8b3f cad1 813f dc43 7b3f 66f3 833f
00000080: 0ff2 883f b9ab 983f 70b3 7c3f 17d8 793f
00000090: 2456 873f 9d8e 833f f352 913f c4b0 843f
000000a0: ae4b 853f 5d61 853f 51e3 793f 4e4d 8e3f
000000b0: c081 7b3f 41ff 783f 92c0 913f 60bc 963f
000000c0: 378d 843f c948 693f 7754 8b3f 7e7a 8e3f
000000d0: 3027 823f 3890 783f d416 8c3f c6f9 853f
000000e0: e485 783f 7c36 753f 9d1b 923f 9117 893f
000000f0: a120 8a3f 0c2e 6d3f 1a93 923f 8867 7a3f
00000100: 92f4 8c3f 59c4 8d3f d8d6 833f 85c2 7e3f
00000110: 3e0d 813f 0683 813f 9f09 813f 7dcc 503f
00000120: 9a52 823f b819 a23f bd45 843f e860 743f
00000130: a110 853f bfa1 863f 4cc9 7a3f 1880 823f
00000140: 500e 7b3f 3e53 883f 2fa7 843f 047a 853f
00000150: 92ce 833f eeae 803f 70ad 693f c338 863f
00000160: c55e 673f 8e32 a83f 3e9a 8b3f edf5 703f
00000170: 7a73 823f b2bd 7b3f c93d 913f 2a03 8b3f
00000180: af71 6a3f a66d 713f 803e 433f 64af 723f
00000190: b6d3 883f 0b4c 823f d50e 6f3f 8c4c 893f
000001a0: 3a97 823f 534b 873f cfbd 803f a79b 863f
000001b0: 0f76 8c3f e21f 783f 5b7b 863f 72f2 a33f
000001c0: e4a5 863f 5835 823f 3545 9c3f 6ffe 893f
000001d0: 507c 853f 293a 7e3f df25 653f d542 8b3f
000001e0: 2435 6b3f d4f1 803f e1af 6b3f f7a9 813f
000001f0: f330 863f 1c0c 853f 02cc 943f d1cf 833f

layers.0.forward_s6.x_proj.weight f4 [36, 128]
0.10693168 -0.016897459 -0.17159386 -0.008673778 0.05694446 0.05202033 0.052799985 0.06459555
-0.10849521 0.03274226 -0.19153304 0.008482812 0.14568287 -0.048122343 0.12514254 -0.16790344
-0.1393557 -0.017192824 0.013064485 0.09158949 0.059448935 -0.13034746 -0.15241444 -0.07227343
-0.091262616 0.024799194 -0.03697065 0.12772767 0.1767093 -0.07133081 -0.09739706 -0.086811095
-0.016540961 0.073979825 -0.058089335 0.022151655 -0.06792412 0.012086337 0.10095827 0.05671237
-0.0037957008 -0.027529202 -0.22163154 0.0011037864 0.0058000367 -0.04075463 -0.099413924 0.089146204
-0.16387239 -0.12708302 0.0910757 0.035944827 0.0036038181 0.0518046 -0.054857973 0.15164858
0.014643196 -0.08630978 -0.007995827 -0.05805646 0.017740438 -0.16879477 0.05766842 -0.0146273915
-0.19667721 0.049997337 -0.05540171 0.12258011 0.052715883 0.13048244 -0.06564305 -0.0018473006
0.08190855 -0.0710273 0.0123572275 0.07565357 -0.03583818 0.08775168 -0.04056454 -0.1986776
-0.073867284 -0.031166516 -0.12274614 0.063112356 0.06387021 -0.09668634 -0.045785274 -0.14463228
-0.10780483 -0.05360856 -0.11200755 -0.16333728 0.042365097 -0.0036871743 0.0803068 -0.09518823
-0.10863772 -0.26261538 0.06333875 0.037684932 0.03643968 0.05579243 0.023120044 0.14150263
-0.078646824 -0.06400355 0.09105612 -0.07931342 -0.051148217 -0.044385333 0.18537912 0.0030778318
0.013398939 0.07364714 -0.025982594 -0.06579185 0.0089151645 0.037821844 -0.21433051 -0.09058684
-0.17021391 0.02199642 -0.010491922 -0.1601905 -0.041464984 0.057308856 0.0761391 0.031687975
-0.057937134 0.039048094 -0.031943582 -0.11437951 0.08236913 -0.043720867 0.16783132 -0.16035144
-0.35898048 0.058810122 0.064339 -0.050687056 0.22143418 0.05443511 0.075918496 -0.02783355
-0.28293946 0.091141224 -0.071000814 -0.16250297 0.04375449 0.028061956 -0.078462034 -0.005672962
-0.17875469 -0.054030523 0.07192654 0.06059652 -0.11862529 -0.06153079 -0.16867374 -0.030600745
-0.23899439 0.055574816 -0.0035625 0.017162582 -0.08720404 0.03417979 -0.21328619 0.03845166
0.010086995 -0.08735227 -0.14593013 -0.014337046 -0.04880023 0.12535648 -0.19089986 0.08043911
-0.020594181 -0.106788434 -0.13751727 0.0010623394 0.075115174 0.023457984 -0.2099157 -0.10807649
-0.0009023838 -0.032091044 0.029651975 0.062611215 -0.0220652 0.08958186 -0.041226536 -0.12963003
0.09582637 0.028252082 -0.114793785 -0.043744374 0.07753167 0.03681376 -0.12012994 -0.22320786
0.09129494 0.03160178 -0.30566347 0.07181067 0.053046793 -0.12044525 0.14365898 -0.013887524
-0.08324935 -0.19599216 -0.09094967 -0.06255136 0.039687544 0.080444746 0.17088246 -0.01763883
0.034050085 -0.28764552 -0.09130814 -0.07462835 0.10659748 0.026671818 -0.06285164 -0.23517095
-0.13161105 0.061476465 0.020747801 -0.026045198 0.07023359 0.074893564 0.0018435925 -0.032188464
-0.15716937 -0.046474054 -0.05010545 -0.020274702 -0.03358129 -0.18792996 -0.026058681 -0.18349469
0.013571795 -0.010009347 0.07121246 0.105178304 -0.033218626 -0.027617514 -0.062681876 -0.10042783
-0.007188297 -0.037579633 -0.13918965 -0.12538655 0.120801695 0.055123117 0.054082576 -0.088377215
00000000: fffe da3d 8a6c 8abc 4db6 2fbe 761c 0ebc
00000010: 983e 693d 4513 553d cc44 583d ac4a 843d
00000020: bd32 debd bf1c 063d 3d21 44be 7efb 0a3c
00000030: e42d 153e ef1b 45bd 5e25 003e e1ee 2bbe
00000040: 43b3 0ebe f7d7 8cbc 6c0c 563c 4593 bb3d
00000050: ba80 733d ce79 05be 8812 1cbe 1804 94bd
00000060: e5e7 babd ae27 cb3c 896e 17bd 0bcb 023e
00000070: 48f3 343e e315 92bd 1c78 c7bd 04ca b1bd
00000080: e980 87bc bc82 973d 15ef 6dbd 6377 b53c
00000090: cd1b 8bbd c605 463c 36c3 ce3d 3b4b 683d
000000a0: 4bc1 78bb ec84 e1bc 61f3 62be edac 903a
000000b0: 3c0e be3b 54ee 26bd 8799 cbbd 4992 b63d
000000c0: 2ace 27be 0d22 02be e685 ba3d e23a 133d
000000d0: 092e 6c3b 0f31 543d c1b2 60bd c449 1b3e
000000e0: 04ea 6f3c 2fc3 b0bd ee00 03bc 9ccc 6dbd
000000f0: 6554 913c 89d8 2cbe b935 6c3d baa7 6fbc
00000100: c065 49be 02ca 4c3d e7ec 62bd 480b fb3d
00000110: 9cec 573d 309d 053e dd6f 86bd 1f21 f2ba
00000120: abbf a73d c376 91bd f875 4a3c 42f0 9a3d
00000130: 0ecb 12bd 27b7 b33d 0127 26bd 2472 4bbe
00000140: bb47 97bd ec50 ffbc 5462 fbbd 0d41 813d
00000150: 62ce 823d 7d03 c6bd 5789 3bbd 7c1a 14be
00000160: c7c8 dcbd a694 5bbd 3764 e5bd e341 27be
00000170: 0687 2d3d 85a4 71bb e477 a43d 0cf2 c2bd
00000180: 747d debd 8675 86be bfb7 813d 845b 1a3d
00000190: c641 153d 9a86 643d 3f66 bd3c 11e6 103e
000001a0: 9611 a1bd 4b14 83bd a27b ba3d 136f a2bd
000001b0: cb80 51bd 65cd 35bd 06d4 3d3e 73b5 493b
000001c0: 3987 5b3c 50d4 963d 73d9 d4bc e1bd 86bd
000001d0: e910 123c 14eb 1a3d 7579 5bbe 9885 b9bd
000001e0: 8e4c 2ebe d631 b43c 4fe6 2bbc fa08 24be
000001f0: 30d7 29bd b1bc 6a3d d1ee 9b3d 40cb 013d
00000200: 7d4f 6dbd e5f0 1f3d 46d7 02bd ce3f eabd
00000210: 25b1 a83d a714 33bd f9db 2b3e 2b33 24be
00000220: 4acc b7be e2e2 703d 2ac4 833d 3b9d 4fbd
00000230: a4bf 623e 5af7 5e3d 287b 9b3d 2f03 e4bc
00000240: 71dd 90be 40a8 ba3d e068 91bd 2e67 26be
00000250: e837 333d 30e2 e53c b4b0 a0bd 41e4 b9bb
00000260: 780b 37be 1c4f 5dbd 394e 933d 0e34 783d
00000270: d1f1 f2bd b607 7cbd cfb8 2cbe 6aae fabc
00000280: f2ba 74be 6ba2 633d d578 69bb 8b98 8c3c
00000290: 0898 b2bd 1c00 0c3d b267 5abe 7d7f 1d3d
000002a0: ec43 253c bfe5 b2bd b56e 15be eee5 6abc
000002b0: c0e2 47bd 735d 003e 417b 43be 43bd a43d
000002c0: 21b5 a8bc e5b3 dabd 54d1 0cbe 323e 8b3a
000002d0: fcd5 993d f52a c03c 24f4 56be 3557 ddbd
000002e0: f48d 6cba e671 03bd b3e8 f23c 4f3a 803d
000002f0: 14c2 b4bc b276 b73d 28dd 28bd bcbd 04be
00000300: 9e40 c43d e970 e73c 0119 ebbd 4d2d 33bd
00000310: edc8 9e3d 06ca 163d b006 f6bd 9a90 64be
00000320: d7f8 ba3d de70 013d ec7f 9cbe 7911 933d
00000330: 9847 593d 00ac f6bd 571b 133e 7f88 63bc
00000340: a37e aabd 2bb2 48be d243 babd ed1a 80bd
00000350: 688f 223d 37c0 a43d d0fb 2e3e 4f7f 90bc
00000360: 1a78 0b3d 4646 93be c3ff babd c0d6 98bd
00000370: c84f da3d db7e da3c 5cb8 80bd a7d0 70be
00000380: 0cc5 06be bfce 7b3d 4bf7 a93c bd5c d5bc
00000390: a1d6 8f3d cc61 993d b3a4 f13a 0dd8 03bd
000003a0: 02f1 20be 945b 3ebd 5f3b 4dbd 2217 a6bc
000003b0: 898c 09bd b670 40be 0479 d5bc 08e6 3bbe
000003c0: 3c5c 5e3c 3ffe 23bc d7d7 913d b967 d73d
000003d0: 4110 08bd 203e e2bc 5b5f 80bd 1bad cdbd
000003e0: ce8b ebbb 1aed 19bd bb87 0ebe 5565 00be
000003f0: e166 f73d c7c8 613d b185 5d3d 1dff b4bd
