checkpoints_mnist/vision_mamba_mnist_epoch_1.pth (torch, 339570 bytes, 33 tensors)

patch_embed.weight f4 [64, 1, 4, 4]
000000 fa 28 9f 3d 8c f6 35 3e 2e 07 29 be a3 d0 52 3e
       0.077714875 0.17769831 -0.16506645 0.20587401
000010 27 c5 cd 3d 9d ab f8 3c 35 01 4b 3e fd e3 8b 3e
       0.100473695 0.03035527 0.19824679 0.2732238
000020 6c 09 58 3e 67 a3 f7 3b de d2 e0 3d 6f 9b 23 be
       0.21097344 0.007557321 0.1097772 -0.15977262
000030 38 98 5b bd 60 89 4b be 81 a7 ca 3d 56 60 ba bd
       -0.053611964 -0.19876623 0.0989523 -0.09100406
000040 24 a0 04 3e 67 8e bd bd be b3 6b be d4 2e 12 bd
       0.12951714 -0.09255677 -0.23017785 -0.03568919
000050 08 4b ee 3d 80 a3 09 bb 64 8f 4c bd 84 5c 91 3c
       0.11635405 -0.0021001995 -0.049941435 0.01774431
000060 32 db 57 3e b5 5b c7 3d f0 1f 20 3e 5b a3 4b be
       0.2107971 0.097342886 0.15637183 -0.19886534
000070 f6 dd c6 bd d1 20 06 be 12 98 ee bd ed 71 9b 3d
       -0.097103044 -0.13098456 -0.11650099 0.07590089
000080 2a 65 c5 3c b9 5d 2b be 7d 85 26 be fd 0a af 3d
       0.02409609 -0.16734971 -0.16261859 0.08547018
000090 b5 14 46 3e 80 6e 47 be 4c fb 13 be 6d bd 13 3e
       0.19343837 -0.19475746 -0.14451331 0.14427729
0000a0 27 b2 b9 3b 0f d0 08 3e c3 82 47 3e ff ba 57 bd
       0.0056669894 0.13360618 0.19483475 -0.052668568
0000b0 42 ba 2c be ef 51 6b 3e 6c 92 69 bd 30 31 71 be
       -0.16867927 0.22980474 -0.057024404 -0.2355392
0000c0 ab 0d 4a be cf 9a 66 3d e0 20 8a 3e db 03 7f 3d
       -0.19731776 0.05629998 0.26978207 0.062259536
0000d0 cb dc 82 be de 03 66 be a2 c1 ea 3d e7 d3 16 3e
       -0.25559077 -0.22462413 0.11462714 0.14729272
0000e0 24 fb b3 3a 2d 83 c8 bd 80 5e ed 3c ec 73 2d 3e
       0.0013731462 -0.09790645 0.028975725 0.16938752
0000f0 48 ec 12 bc 60 08 33 3e bd df 74 bd 8a c6 a4 3d
       -0.008967467 0.17483664 -0.059783686 0.08045681
000100 a8 4d 9c 3e 0e 98 a1 3d f9 74 74 3e 8a ba 82 be
       0.30527997 0.0789033 0.23872747 -0.25532943
000110 52 48 dd bd 3e d8 01 3e 68 12 33 be e7 34 97 3d
       -0.1080481 0.12680146 -0.1748749 0.07383137
000120 07 40 54 be 2d 68 32 3e 29 54 5e 3e d6 08 09 3e
       -0.2072755 0.17422552 0.21711792 0.13382277
000130 d1 de ba bd c2 a7 3b 3c 6d 6c 51 be d8 bf bc bc
       -0.0912453 0.011453571 -0.20451517 -0.023040697
000140 24 b4 83 3d c8 c2 07 bc ea 4d f8 bd 6b 25 64 bd
       0.064308435 -0.008286186 -0.12124236 -0.055699747
000150 df 36 2c be 7f 93 60 bd 8d e7 30 be da 94 f6 bc
       -0.16817807 -0.054828163 -0.1727583 -0.030100275
000160 6f 4b a1 3d 78 29 0c be 13 82 66 bc 0d 20 3c 3d
       0.07875716 -0.13687694 -0.014069098 0.045929004
000170 1b 67 5f be 14 56 b2 bd af 7d 9a be e5 b5 28 3e
       -0.21816675 -0.08707824 -0.30174014 0.16475637
000180 e5 c3 98 3d 5c a6 5e 3e 3b e7 3e 3e a8 e9 e9 3d
       0.07459239 0.21743149 0.18642895 0.114215195
000190 a1 24 21 3d a4 2f 81 bd 30 7e ac 3d fa 9d b3 3d
       0.039341573 -0.06307915 0.08422506 0.08770366
0001a0 e0 6a 96 bc a0 f0 29 be 17 39 eb 3d 14 80 4f 3d
       -0.018361509 -0.16595697 0.114854984 0.050659254
0001b0 0e 64 85 be fd f2 0f be 40 29 47 be 25 ed 25 3c
       -0.26052898 -0.14057536 -0.1944933 0.01012734
0001c0 52 24 f4 3d 32 1c b7 bd b6 62 76 be a5 14 85 bd
       0.1192099 -0.08940925 -0.24061093 -0.06498078
0001d0 84 56 5d be fa 21 3a be b3 fc 10 3e 78 59 87 3d
       -0.21615034 -0.18177024 0.14158897 0.06608862
0001e0 0f 4b 30 bd 4e f2 bb 3d 91 f0 db bd 8c 2f 39 be
       -0.04304033 0.09177075 -0.10739244 -0.18084544
0001f0 8b 8d 6f 3e 3e 5d 82 be 96 31 bf bd 38 d9 91 be
       0.23393838 -0.25461763 -0.0933563 -0.28486037
000200 16 c6 1a bc 30 08 9d 3c f8 d0 ec bd f9 88 ad bd
       -0.009446641 0.019168943 -0.11563295 -0.08473391
000210 7f 28 c1 3a 9f b7 7a be 88 c6 64 be d1 92 26 be
       0.00147368 -0.24484108 -0.22341359 -0.16266944
000220 22 73 e7 bd 97 61 84 be a7 7e fc bd da a5 52 be
       -0.11301257 -0.25855705 -0.123288445 -0.2057108
000230 ed 71 37 be 5d 97 3d 3e 7e 1f 4f be 19 1b 74 3e
       -0.17914553 0.18514772 -0.20226857 0.23838462
000240 ef 16 31 be 56 2f a7 bd 8a e8 df bd cb 09 a4 3d
       -0.17293905 -0.081633255 -0.10933025 0.0800968
000250 50 51 e2 bd de 49 f5 bc 1d 2d bb bd 6d e6 e8 bd
       -0.110506654 -0.02994245 -0.09139464 -0.11372075
000260 de b6 15 3e 62 fe 49 3e ae 5a b6 3d 3f 70 ad 3d
       0.1462054 0.19725946 0.089040145 0.08468675
000270 08 62 4a 3e 04 35 87 3e 03 8d 0b 3c 34 be 31 3e
       0.19763958 0.26407635 0.0085175065 0.17357713
000280 f4 a2 96 bd 32 3c 51 3e 0e 5d 1f be 48 f9 9f 3d
       -0.073552996 0.20433119 -0.15562841 0.078112185
000290 9e dc 4a 3e 78 f0 84 3d 08 a0 19 be 60 9d 09 be
       0.19810721 0.06491178 -0.15002453 -0.1343894
0002a0 fb ec 27 bd 5f 74 ae 3d 41 a8 57 be e4 9c 8b 3d
       -0.040997487 0.0851829 -0.21060278 0.06817034
0002b0 09 2f 3d 3e 51 97 50 be 54 63 47 be b2 45 c9 bd
       0.18474974 -0.20370223 -0.19471484 -0.098277465
0002c0 d1 8c 5f be d0 7b 2a 3e 90 25 81 be 36 43 92 bd
       -0.21831061 0.16648793 -0.2522397 -0.07141726
0002d0 d0 e7 cd 3d cd a8 26 be 4d 3c 4a 3e 07 a5 f0 3d
       0.1005398 -0.1627533 0.19749565 0.117502265
0002e0 f5 0f 13 bd b3 02 be 3b 42 92 22 3e 05 58 66 3d
       -0.03590389 0.0057986616 0.15876105 0.056236286
0002f0 34 6e 36 3e 3f ee 64 3e bb 9d 29 3e b9 dd ec bd
       0.17815477 0.22356509 0.16564076 -0.11565728
000300 d3 df 14 bd 29 6b 1e 3d 53 8c dc 3d 92 f9 17 3d
       -0.036346268 0.038676415 0.10768952 0.037103243
000310 2e 39 b8 3d 87 8b 4b 3e 32 ee 2f 3e cd 34 a5 bc
       0.08995281 0.19877444 0.17180708 -0.020166779
000320 50 77 88 be d0 88 75 3d 17 1f 10 3c ab d6 84 3d
       -0.26653528 0.059944928 0.008796475 0.06486257
000330 aa 21 fc 3b 9b 1c 4b 3e 59 b8 07 be 8c 6c 66 bd
       0.0076944428 0.19835131 -0.13253917 -0.056255862
000340 0c 89 38 3e 48 a2 28 3e 65 da 9b bd b2 06 07 be
       0.18021029 0.16468155 -0.07610015 -0.13186148
000350 19 4e 95 3d 49 5c 6a be 97 98 2b 3e 0d 55 ab bd
       0.072902866 -0.22886766 0.16757427 -0.083658315
000360 29 79 8b be 60 9e 35 be ce 91 d0 3d 00 d1 94 3e
       -0.27240875 -0.17736197 0.1018406 0.29065704
000370 37 e6 71 be 6e c5 12 3e ee af ae bc 83 2f 7c 3e
       -0.23622976 0.14333126 -0.021324124 0.246275
000380 66 4a 2d be d7 66 63 3d f2 f3 45 3e 03 3b 0d 3e
       -0.16922912 0.055517998 0.19331339 0.13792042
000390 93 92 18 3e 8e c7 65 3d 44 66 77 bd d6 47 07 3e
       0.14899664 0.056098513 -0.060400262 0.13210997
0003a0 11 cb 8a bd 08 72 69 3d 55 b1 e5 3d 6d 84 72 3e
       -0.06777013 0.056993514 0.11215464 0.23683329
0003b0 8e f0 27 3d a6 89 5d bd e7 dd 11 3d 11 54 b4 3d
       0.041000895 -0.05408635 0.035612013 0.08805097
0003c0 5d 1d 37 be 73 e3 c3 3d 0c f8 9f bc 9c a2 7f bd
       -0.17882295 0.09564867 -0.019527458 -0.062410936
0003d0 2d 2b 26 3e 3d 76 c4 bd 07 d0 da bd b8 d3 74 be
       0.16227408 -0.09592865 -0.10684209 -0.2390889
0003e0 71 4d 7c 3e aa bd 30 3e 08 66 99 3d 9d 52 6b 3e
       0.24638917 0.17259851 0.07490164 0.22980733
0003f0 86 01 86 bd ab 6c de 3d d2 74 e5 3d e3 fe a3 3d
       -0.06543259 0.108605705 0.11203922 0.080076

patch_embed.bias f4 [64]
000000 ec 3e 3b 3e 26 d9 20 3e 14 a7 62 be 71 0f 0b be
       0.18285722 0.15707836 -0.22134048 -0.13580109
000010 d3 b7 6c 3e ca 47 31 be 9a 9f ed bd 7e 5b b9 3d
       0.23116998 -0.17312542 -0.11602707 0.09050654
000020 a4 c0 0e 3e 91 e4 30 bd cf 8c 5a 3e 12 58 b9 3d
       0.13940674 -0.043186728 0.21342777 0.09050001
000030 7b 1c 59 3e f7 06 43 bd aa 28 52 3e 45 3f 64 be
       0.2120227 -0.047614064 0.20523325 -0.2228976
000040 39 74 07 bd 7c 73 96 3e c5 40 58 3e 7d 8d fd bc
       -0.033069823 0.29384983 0.21118458 -0.030951256
000050 02 49 82 be c4 65 93 bd 3d 1a 85 be d5 20 4a 3d
       -0.25446326 -0.07197145 -0.2599658 0.049347717
000060 0a 81 ab 3c 1b 0d 9e bd c5 1c 0f 3e bf d9 53 3d
       0.020935554 -0.077173434 0.13975818 0.05172133
000070 60 b5 f1 bc fc 99 5a 3d b8 b9 c5 3d d2 11 fb bd
       -0.029505432 0.053369507 0.09654564 -0.12259258
000080 aa 50 49 be c7 ac e6 3b a1 70 56 3e 46 71 12 3d
       -0.19659677 0.0070396396 0.20941402 0.035752557
000090 36 c9 3c be 74 92 85 be 4a 77 11 be 37 93 62 3e
       -0.18436131 -0.26088297 -0.14205661 0.2212647
0000a0 f3 b8 f7 3d b3 61 ca 3d aa 02 1b 3e 2b 56 a5 bd
       0.12095823 0.09881916 0.15137735 -0.08073076
0000b0 68 b9 0f 3e 1a 06 83 be 64 33 04 3e 2e 5e 68 3e
       0.1403557 -0.25590593 0.12910229 0.22692177
0000c0 f8 7c 3b be 8b a6 8d be 43 69 1b 3e 5d ca 81 bd
       -0.1830939 -0.27666125 0.15176873 -0.06337426
0000d0 6c 07 13 be fd c7 dc bc 8c 57 30 3e f7 48 1c 3e
       -0.143583 -0.02695083 0.17220896 0.15262209
0000e0 ef a6 ac bd 37 62 3b be 89 dc eb bd d6 3c 88 be
       -0.084302776 -0.18299185 -0.11516673 -0.26608914
0000f0 7c cd 9a bd 39 e7 f2 bd 56 b2 3c bc fd 28 68 3e
       -0.07558724 -0.118605085 -0.011517128 0.22671886

layers.0.in_proj.weight f4 [256, 64]
000000 e1 3e 87 3d f5 bd 5f 3e 4e e3 0d 3d 55 8b 87 bd
       0.0660379 0.21849807 0.034640603 -0.06618372
000010 e8 be 3e bd a4 71 a7 3d 5e 58 e6 bd 04 9f 06 3e
       -0.04656878 0.08175972 -0.112473235 0.13146597
000020 f6 ce 02 be 3b 75 05 bc 3a b8 ad 3b 2b 6d c5 ba
       -0.12774262 -0.008145626 0.0053015025 -0.0015062442
000030 09 43 97 bb b8 68 2a be e2 ae b6 bc 39 f8 f7 bd
       -0.0046161455 -0.1664151 -0.022300187 -0.121078916
000040 1d 49 35 3d 8c b6 ac 3b b4 7e d6 3d d5 88 7c 3b
       0.04425918 0.0052707847 0.104733855 0.0038533707
000050 92 e5 0f 3e a2 3c 9b bd 10 08 96 3d 0c bf 38 3b
       0.14052418 -0.07579924 0.073257565 0.0028190045
000060 16 8f c2 3d 61 cc c7 bc 46 41 3b 3c b0 8d d0 bb
       0.09499948 -0.024389448 0.011429137 -0.0063645467
000070 64 1a c0 3d 21 f9 30 ba 34 01 1f 3d c8 b3 1f be
       0.093800336 -0.000675099 0.038819507 -0.15595925
000080 37 7f 0f bc 38 a6 d9 bc 51 1d b8 3d f7 cd 2b bd
       -0.008758358 -0.026568517 0.08989967 -0.04194447
000090 98 b3 ca bd 42 6c d9 bd cb 26 b5 bd 2d 48 d7 bd
       -0.09897536 -0.10616352 -0.0884529 -0.10511813
0000a0 78 86 0e bc 0c c7 fb bc 75 e7 9e bd bc 8d 92 3d
       -0.008699052 -0.030734561 -0.07758991 0.0715594
0000b0 d7 d3 b7 bd 6a b6 cf bd ac 83 04 3e 69 5b d5 bd
       -0.08975952 -0.101422146 0.12940854 -0.10417826
0000c0 4e 41 e5 3d 78 43 72 bd 3f d7 81 3c 75 23 e1 3d
       0.111940965 -0.059146374 0.015849708 0.10993091
0000d0 eb 67 4f be 53 fd 0c bd 1b 59 dd bd f7 74 a9 bc
       -0.20254485 -0.034421276 -0.10808011 -0.020685656
0000e0 bf ee 6d 3d 52 65 aa bd 72 8c ba bd cc c0 3a bd
       0.058089014 -0.083201066 -0.09108819 -0.04559402
0000f0 3e ee a5 bd 3b 20 11 bc c9 ba 57 bd 73 3b 39 bd
       -0.08102082 -0.008857782 -0.052668367 -0.04522271
000100 dd 57 c4 3d f6 95 30 3e a0 2c 76 bd 87 23 f2 3b
       0.09587071 0.17244706 -0.06010115 0.007389489
000110 c3 fa 55 3e 28 e6 f8 bd 15 a8 19 3d 9a 9b 12 be
       0.20896439 -0.12153274 0.03751381 -0.1431717
000120 62 72 83 3c 11 91 61 3d a7 bc b0 bd b0 bc 98 bd
       0.016045753 0.055069987 -0.086297326 -0.07457864
000130 0d 98 fe 3d af 47 2a bd d8 ad 6d bb ef 45 b8 3c
       0.12431345 -0.04157227 -0.003626695 0.022494284
000140 3a c6 02 be 8a 94 31 bd fb 9e 8d bd 04 d8 03 be
       -0.1277093 -0.04335455 -0.06915089 -0.12875372
000150 ac 5c 4d bd 48 15 a6 3c d2 6c 69 3d a2 d0 6a 3e
       -0.050137207 0.02027382 0.056988545 0.2293115
000160 c7 aa 4a bc 82 5c 57 3d ad d6 0f be 89 c5 b8 bb
       -0.012369818 0.052578457 -0.14046736 -0.0056387824
000170 a6 4e 97 3d 3c ac bb bd ab 51 f5 3b fb 11 d8 3b
       0.07388048 -0.091637105 0.007486542 0.0065939403
000180 36 1c 36 be 77 20 fb 3d 17 28 84 3c fd 0e b7 3d
       -0.17784199 0.122620516 0.016132398 0.08938406
000190 fc e3 3b bb bc 98 8e bd 6e 77 de bd 81 e6 92 3d
       -0.0028669825 -0.069627255 -0.10862623 0.071728714
0001a0 4f 86 0b be c5 6a 27 bd 7c 72 94 bd 4d a6 b0 3d
       -0.13625453 -0.040873308 -0.07248399 0.08625469
0001b0 9b e1 cd bd 98 92 b8 3c c8 86 12 3d 46 ef b7 3d
       -0.100527965 0.022530839 0.03577307 0.08981185
0001c0 63 73 5a bb e2 9e 77 bd b3 aa 80 3d 65 59 85 3d
       -0.0033332936 -0.060454257 0.06282558 0.06511191
0001d0 b5 da 86 3d 83 06 ea 3d c0 40 30 3d 03 a7 11 3e
       0.06584684 0.11427023 0.0430305 0.14223866
0001e0 29 44 09 3e 32 93 ab bd fe 88 07 be e5 cf 04 be
       0.13404907 -0.08377685 -0.13235852 -0.1296993
0001f0 94 54 1c 3d 63 35 c3 3d cd e6 96 bd 88 fa 50 bd
       0.038166597 0.09531667 -0.073682405 -0.051020175
000200 d7 42 cd 3c 1d 10 86 bd bc 31 19 be 59 3d 94 3d
       0.025056286 -0.06546042 -0.14960378 0.07238264
000210 3e b0 80 bd ad 9b e5 bd 0b 53 3c 3e 6e a4 af bd
       -0.062836155 -0.112113334 0.18391053 -0.08576284
000220 e9 3f a9 3c 80 3d 99 3c 3c e7 d0 3d b1 d6 34 bd
       0.020660358 0.018706083 0.102003545 -0.04415006
000230 92 1b 0e 3e af 70 0d be a2 3e cf 3d d2 2d 86 3d
       0.13877705 -0.13812517 0.10119368 0.06551708
000240 94 45 c8 3c 94 34 3b 3d 6b 69 df bd 6c 75 77 3d
       0.02444724 0.04570444 -0.10908779 0.060414717
000250 80 15 a0 bd 13 87 89 3d e6 4d 80 3c 4e e3 92 3d
       -0.07816601 0.067152165 0.015662145 0.07172261
000260 42 e4 9a bd e3 c2 1d bd 84 57 c1 3d e0 06 d5 bd
       -0.07563068 -0.038515937 0.094405204 -0.10401702
000270 0e 04 f4 3d 04 ef 36 be 93 74 39 be 50 26 98 3c
       0.11914836 -0.17864615 -0.18110876 0.018572956
000280 13 cd f6 bd 78 96 34 3d 52 6e fe bd 93 e3 11 be
       -0.120508336 0.04408881 -0.12423386 -0.14246969
000290 b9 cf a8 bd 06 ad c6 bd d9 90 2a be f1 78 88 bd
       -0.08242745 -0.0970097 -0.16656817 -0.06663693
0002a0 0b 20 cd bb 89 4a 01 be f6 c7 f9 3c cd 98 5c be
       -0.0062599233 -0.12626089 0.030490857 -0.21542664
0002b0 c7 24 da bd 3a c2 06 be 1d 06 41 3e 3c 36 28 3c
       -0.10651546 -0.13160029 0.18849988 0.010266837
0002c0 58 22 84 3d 81 c1 b6 3d 92 1f 0f 3d 9a c4 f6 3d
       0.06451863 0.08923627 0.034942217 0.120492175
0002d0 b7 7c 66 3c 76 d9 eb 3d d5 6d 75 3d 37 9b fc 3d
       0.01406782 0.11516087 0.059919197 0.123342924
0002e0 bb d2 26 3e ee 45 cb bc ab d9 b4 3a b5 95 30 3e
       0.16291325 -0.024813619 0.001379778 0.17244609
0002f0 1e c0 c8 3d 20 b1 55 bd a5 d0 5b 3c 8f f3 04 3e
       0.098022684 -0.052170873 0.013416444 0.12983535
000300 96 fe 51 bd 9d c6 4a be a2 64 5c 3c 28 5f 45 3d
       -0.051268183 -0.19802327 0.013451727 0.04818645
000310 91 41 d5 bc fa cc 07 3b 58 e1 f3 3c 0f b6 28 3e
       -0.026032241 0.002072154 0.029770538 0.164757
000320 cc ca 5d bd 23 6f e0 bc eb 7d 8f 3d 23 88 39 be
       -0.05414848 -0.027396744 0.07006439 -0.18118338
000330 98 60 14 be 1e e3 c2 3c 84 05 2d bd 59 73 19 be
       -0.14489973 0.023789939 -0.04224159 -0.14985408
000340 57 71 09 3e e2 bb 12 bd 37 8b 02 be 4c f5 7c bc
       0.13422142 -0.03582371 -0.12748419 -0.015439343
000350 50 b4 36 bd 88 c6 94 3d b5 f1 53 3d ef fa ca bd
       -0.044605553 0.07264429 0.05174418 -0.09911143
000360 c7 47 10 3e 09 32 12 be 26 bf 3d 3e 4f 1e ec 3d
       0.14089881 -0.142769 0.18529949 0.115292184
000370 1b 48 b5 3c ed d5 d3 bd cb d7 f3 3d b8 aa f3 bd
       0.02212911 -0.103435375 0.119063936 -0.118977964
000380 0f f9 f9 3d 07 2e bb bd bc 40 6b bd 6b aa d5 3d
       0.12205707 -0.091396384 -0.057434782 0.10432895
000390 70 48 82 3d 9a bc 11 3e 4d 60 be 3d f3 a6 c0 bd
       0.063614726 0.14232102 0.09295712 -0.09406843
0003a0 04 e2 66 3d 0e d4 f9 bd e1 fc 48 3d 58 74 34 be
       0.05636789 -0.12198649 0.04906929 -0.17622507
0003b0 fd 1d b7 3d e0 81 00 3c fe b2 5b bd e3 46 0f bd
       0.08941267 0.007843465 -0.053637497 -0.034979712
0003c0 0f 2c 5a 3d 79 00 e8 bd eb 08 c1 bd d1 3d 1f bd
       0.053264674 -0.11328215 -0.09425529 -0.038877312
0003d0 1d 28 b9 bd 10 32 ef bc 55 21 21 3e 93 9a 08 be
       -0.09040854 -0.029198676 0.15735371 -0.13340215
0003e0 a2 fe 3e bb 80 d9 9d bc 6d 51 98 3d 1e 11 1a 3e
       -0.0029143472 -0.019268751 0.07437406 0.15045592
0003f0 8b 6c 31 3e 06 f0 ad bd 67 2f dd 3d 06 fb e2 bd
       0.17326562 -0.084930465 0.10800057 -0.11083035

layers.0.conv1d.weight f4 [128, 1, 4]
000000 02 23 8c 3d 86 ac ed bd 37 a8 10 bf ca f2 02 3f
       0.06842615 -0.11605172 -0.56506675 0.51151717
000010 a8 1d e1 be 87 c2 0f 3e a5 ad 37 3e 81 7e eb 3e
       -0.43967938 0.1403905 0.17937334 0.45994952
000020 55 03 98 bd d8 17 23 3e 8a b6 09 bf 9c 90 df 3d
       -0.074225105 0.15927064 -0.5379416 0.10916254
000030 db 0e 9d be 76 dc 00 bd 94 3e 95 3e ec a1 8d 3e
       -0.30675396 -0.031460248 0.29149306 0.276626
000040 e6 9e 0d 3f 8f 30 40 be 6a 04 df be c3 65 bd be
       0.55320585 -0.18768524 -0.43558055 -0.369917
000050 80 75 47 3e 3b af 7b be 03 82 02 3e 06 62 c3 be
       0.19478416 -0.24578564 0.12744908 -0.38160723
000060 7f 1f 0b 3e 3b 5c 84 3e 19 f5 c8 3e 83 63 b1 3e
       0.13586234 0.25851616 0.39249495 0.34646234
000070 5f 8c 40 be 5a 7d 21 3e 16 17 a8 be 02 cd 10 bf
       -0.18803547 0.15770474 -0.32830113 -0.5656282
000080 d4 08 b5 3d 46 06 d4 be e3 5a f7 be 98 fe 28 bf
       0.088395745 -0.41411036 -0.4831153 -0.6601348
000090 f4 c7 80 3e 88 e6 8c be ba d4 76 be 93 3b 92 be
       0.25152552 -0.2751963 -0.24104586 -0.28561077
0000a0 71 eb 99 bd 1f cf 15 3e 19 b1 16 bf a8 ae f8 be
       -0.0751561 0.14629792 -0.5886398 -0.48570752
0000b0 10 81 ec be a3 2e 93 bd b9 d9 9d 3e 18 ea af be
       -0.46192217 -0.071866296 0.30830172 -0.34358287
0000c0 95 cb ff 3e e4 d3 0c 3f 24 73 8f bd b2 0f 60 3c
       0.49960008 0.5501082 -0.07004383 0.013675617
0000d0 64 37 f4 3b 12 d6 95 bd d5 b8 bc 3e 47 59 ae be
       0.007452892 -0.07316221 0.36859766 -0.34052488
0000e0 d6 c7 c7 3e a9 4e 87 be e8 ab f3 3e 5e 79 d4 be
       0.3901965 -0.264272 0.47592092 -0.41498846
0000f0 0e e1 cf 3e 9e aa cc 3e 94 11 ce be 12 b0 51 3e
       0.4060139 0.3997392 -0.40247786 0.20477322
000100 6b 07 27 3f 27 67 1e 3f 25 ec 05 3f 51 6b a9 3e
       0.65245694 0.6187615 0.5231345 0.33089688
000110 7c 88 77 bc 0a 86 8a 3c 8b 8d 0b be 3d e4 0a 3e
       -0.015108224 0.016909618 -0.13628213 0.13563628
000120 45 66 ab be 43 f0 5e be 21 53 72 3e 70 60 5c be
       -0.33476463 -0.2177134 0.23664524 -0.21521163
000130 d2 a5 c2 be 50 15 a4 be 85 ee 85 be e8 3d 0b bf
       -0.38017136 -0.3204751 -0.26158538 -0.54391336
000140 df 63 04 bf 6e 8a 08 bf bf 5b 69 3d 95 ea de 3e
       -0.5171489 -0.53336227 0.05697226 0.43538347
000150 1f 1e 94 3e 23 5f 67 3e 95 19 8f 3e 84 fc 84 be
       0.2892923 0.22594886 0.27949205 -0.25973904
000160 4c 88 f8 3e b7 df 14 3e 6f 98 f1 be 23 b7 54 3e
       0.48541486 0.14538465 -0.4718661 0.20772986
000170 4a f4 1a bf 81 31 4e bd 14 7d c5 3e 26 04 be 3e
       -0.60529006 -0.05034018 0.3857199 0.3711254
000180 54 24 a9 3e 96 cd 8c 3e 5c 2c fb be 1b e1 c9 3c
       0.3303553 0.275006 -0.4905728 0.024643471
000190 06 b5 05 3f 81 f5 00 bf fe 0d 69 be 57 6c 59 be
       0.52229345 -0.5037461 -0.22759244 -0.21232735
0001a0 7c a4 30 3d 68 3b a6 3d 9b d4 02 bc a4 e1 c8 3e
       0.043125615 0.081167996 -0.007985259 0.3923465
0001b0 25 85 5e 3e e3 3f cb 3e 02 8b 0d bf c2 a2 cf be
       0.21730478 0.3969718 -0.55290234 -0.40553862
0001c0 fd 7a 77 3e 89 38 0f 3f 94 d4 f8 3e 99 76 09 3f
       0.2416801 0.5594564 0.48599684 0.5369659
0001d0 e2 f3 01 3e b3 3a e9 be 25 6f 42 be 86 50 ed be
       0.1269069 -0.45552596 -0.18987711 -0.46350497
0001e0 38 05 c3 3e eb ed 1c 3e 68 85 1a be 08 1f 3f bd
       0.3808992 0.15325134 -0.15089953 -0.046660453
0001f0 17 d4 ce 3e 93 4b dc 3d 89 52 04 bf 9f 20 a4 3e
       0.40396187 0.10756602 -0.5168844 0.32056138
000200 f2 9d ea bd 02 7f 4c 3e ce 2e b7 be f0 c6 12 bf
       -0.11455907 0.19970325 -0.35777897 -0.57334805
000210 f0 8f 7c 3e 0e 5a a5 3e 7c ab a5 be 5f de 83 be
       0.24664283 0.3229527 -0.32357395 -0.25755593
000220 23 f3 7b be 90 30 c5 3e 33 e6 c9 3e c4 9d 04 bf
       -0.24604468 0.38513613 0.3943344 -0.5180323
000230 53 84 f5 3e a2 57 80 3e ca 8b da be 0a 2f db 3e
       0.47952518 0.2506686 -0.42684776 0.42809325
000240 ec c2 97 be 58 ad bb 3c d1 29 6e 3e cb 1b 2a bf
       -0.296409 0.022909805 0.23258139 -0.6644866
000250 8f 25 07 3f d7 1b a5 be 00 fd df 3e c3 44 aa be
       0.52791685 -0.32247803 0.4374771 -0.33255586
000260 e5 35 6a 3e f2 e3 e5 be 91 42 11 bf 4e 95 65 3c
       0.22872122 -0.4490047 -0.567422 0.014012648
000270 56 d0 4e be 34 77 74 3e a7 c5 f7 3d a3 b5 86 be
       -0.20196661 0.23873597 0.12098246 -0.26310453
000280 8d 0f 42 bd 63 76 bc 3d 01 c4 f7 be a7 8e ce be
       -0.04737811 0.09202268 -0.48391727 -0.4034321
000290 81 77 71 3e e3 bc 72 be 1b 55 f1 be 46 b9 05 be
       0.23580743 -0.23704867 -0.47135243 -0.13058957
0002a0 0a fb 2b bd 4b ea ad be 74 75 96 be a1 93 06 bf
       -0.041987456 -0.33967814 -0.29386485 -0.52569014
0002b0 96 65 45 be 86 27 23 3e 56 91 ba 3d 73 ad 10 bf
       -0.19277033 0.15933046 0.09109752 -0.5651466
0002c0 63 99 b8 3e 6f ae 17 bf 88 db 06 bf 3e 46 2f be
       0.36054525 -0.5925054 -0.5267873 -0.17116639
0002d0 bb 72 2f be 03 6e d1 be 9e 69 ac bd 55 78 6d be
       -0.1713361 -0.40904245 -0.084185824 -0.23190434
0002e0 e4 48 c6 3e e9 d1 66 3e fe 85 da be 43 6b 69 3c
       0.38727486 0.22541012 -0.42680353 0.014246765
0002f0 08 d2 13 bf f8 ac c5 3e 2d eb c4 3e a0 f6 45 3e
       -0.5774236 0.38608527 0.38460675 0.19332361
000300 70 e3 6a 3d 57 1f 16 3f 71 40 05 bf 15 55 ea bd
       0.057345808 0.5864157 -0.52051455 -0.11442009
000310 bd f6 ac 3e 8f 90 75 bc c4 71 fc 3e 1b 30 bb 3e
       0.33781996 -0.014988079 0.49305546 0.3656014
000320 86 b4 6f be f1 41 f4 be c9 23 93 be f8 1d 0f bf
       -0.23408708 -0.4770656 -0.2873824 -0.55905104
000330 60 40 2b be 3d 49 0c bf 31 09 06 3f 50 c2 e8 3e
       -0.16723776 -0.5479925 0.52357775 0.4546075
000340 12 34 f8 3e bd 10 be be 13 ee c6 bd 79 ae 86 be
       0.48477226 -0.37122145 -0.09713378 -0.26304987
000350 a7 ae da 3e 76 9f de be ef 0b 01 3f 49 68 da be
       0.42711374 -0.43481034 0.50408834 -0.42657688
000360 32 83 ea bd 67 cb c7 bd ac ee 3a 3e 25 48 15 3f
       -0.11450805 -0.09755593 0.18255109 0.5831321
000370 72 fe db be 76 0f ce be f4 39 9d be aa 27 03 bf
       -0.42967564 -0.4024617 -0.30708277 -0.512324
000380 58 9f ab be ed c1 cd 3e 17 a9 a9 be ab bf c4 be
       -0.33520007 0.40187016 -0.33136818 -0.3842748
000390 94 14 e6 3e 46 95 32 3e b2 29 e7 3e d4 9f a4 3e
       0.44937575 0.17439756 0.45148998 0.3215319
0003a0 80 f8 94 3e 8f 3c b9 3d a2 4f 99 3e e5 a0 e2 3e
       0.2909584 0.09044754 0.29943568 0.44263378
0003b0 1e 0e 32 3d e5 0a dd 3e 1a dd db be b8 29 04 3e
       0.043470494 0.43172374 -0.42942125 0.1290654
0003c0 23 4e 40 3e 26 3b 4e be 30 4a 79 3e 3d b7 7c be
       0.18779807 -0.20139751 0.24344707 -0.24679275
0003d0 f0 50 d7 be 4b 25 0d be 8b e2 37 3e 56 91 c6 be
       -0.42053938 -0.13783757 0.17957513 -0.38782758
0003e0 59 be 8c 3e 38 10 96 3e d2 74 c6 3e ea 00 df 3e
       0.27488974 0.2930925 0.38761002 0.43555385
0003f0 0c 72 d0 be 8a 78 e5 be 1b ba 63 be b2 a3 34 be
       -0.4071201 -0.44818527 -0.22238962 -0.1764057

layers.0.conv1d.bias f4 [128]
000000 7a f0 93 be 5e 5a 98 bd df 52 d1 3e 46 54 5f be
       -0.28894407 -0.07439111 0.40883538 -0.21809492
000010 3c 8b dc 3d eb 10 43 3e 5d 72 82 3e 03 fc 24 be
       0.10768744 0.19049422 0.25477877 -0.1611176
000020 bc 49 b5 3d fc ce 04 be 75 18 54 3e 68 f1 56 be
       0.08851954 -0.12969583 0.20712455 -0.20990527
000030 fa 11 54 bd ad e2 95 be 06 d7 ff 3d ba 23 65 3e
       -0.051774956 -0.29274502 0.12492184 0.2237691
000040 0a 59 fc be 1c 6c 0d 3e 1e e8 d8 bc 31 98 96 be
       -0.4928668 0.13810772 -0.02647787 -0.29412988
000050 96 14 8f bd f9 40 fc 3e 59 2a d5 3e 02 6a d9 3d
       -0.06986348 0.4926832 0.4163387 0.106159225
000060 93 50 c9 3e f7 7a 03 3f 75 4f 8d 3e 5a ae ad bd
       0.39319286 0.51359504 0.27599683 -0.084805205
000070 2a 76 7b be a7 a0 bb 3e 89 59 8a be 54 89 d3 bd
       -0.24556795 0.36646006 -0.27021435 -0.10328928
000080 85 c6 95 be 05 7c 42 3e 67 2c 19 bf f0 ad d4 3e
       -0.2925302 0.18992622 -0.5983338 0.41538954
000090 e2 92 d7 be bc 22 dd 3b 15 91 6c 3d 20 0b b5 3e
       -0.4210425 0.0067485254 0.05775555 0.3536005
0000a0 a4 f9 1e 3e 46 ba 8e be 83 37 e3 3e 84 91 80 be
       0.15524918 -0.2787649 0.4437829 -0.2511102
0000b0 82 c9 03 bf f5 38 37 3e 34 71 e6 3d 17 1b 0d 3f
       -0.5147935 0.17892821 0.112520605 0.5511946
0000c0 3a 21 d9 3e 14 65 ea 3e 94 d5 d4 3c 2d da cd 3e
       0.42408162 0.4578024 0.025980748 0.40205517
0000d0 df 9b 53 3e a8 ca 12 3f c4 02 a2 be 81 71 f4 be
       0.20664929 0.5734048 -0.31642735 -0.47742847
0000e0 7f 5d 09 be 80 a9 06 3f 11 9f e5 3d 99 77 bf 3e
       -0.13414572 0.52602386 0.1121198 0.37395933
0000f0 7c 91 ff 3e 6a a6 02 3f ed 78 2b 3e 44 7c 5a bd
       0.49915683 0.5103518 0.16745348 -0.053341165
000100 5d ba da 3e fc d8 b8 3e f6 ce 9f 3e 12 c4 2c 3e
       0.4272031 0.36103046 0.31212586 0.1687167
000110 7d 06 95 3e fb 2b fb be 2f 3d 80 3e a4 51 01 bf
       0.29106513 -0.49056992 0.2504668 -0.505152
000120 c0 51 a7 3c fe eb 69 3e e1 a1 dc bd de c5 1a 3d
       0.020424724 0.2284393 -0.107730635 0.037786357
000130 0a 7c f8 3e d9 32 23 be 60 6a b4 3e 2a 51 70 3e
       0.48532134 -0.15937366 0.35237408 0.23468462
000140 b8 f6 8a 3e fc e8 de bc 56 de c2 3d 88 81 c6 be
       0.27141356 -0.027210705 0.095150635 -0.387707
000150 00 ad 8a 3d 18 f1 18 bd 92 d0 7b 3e 75 5b 50 3e
       0.067712784 -0.0373393 0.24591282 0.20347388
000160 17 52 04 be b3 17 aa be 4b 6c cd 3d dd 9b 83 be
       -0.1292194 -0.33221206 0.10030421 -0.25704852
000170 33 24 55 3e 4c 3f 08 3f 7c 17 b1 3e 17 88 b8 be
       0.2081459 0.53221583 0.3458823 -0.36041328
000180 fa 44 96 be dd 75 b9 3e b5 d5 bb 3d 6b e2 73 be
       -0.293495 0.36222735 0.09171621 -0.2381684
000190 57 63 98 3e 6b b0 77 3e d4 5d 46 3d f1 94 c8 3e
       0.2976329 0.24188392 0.048429325 0.39176133
0001a0 94 39 02 be dc b4 f8 be 13 00 b3 3e 86 8d db be
       -0.12717277 -0.48575485 0.34960994 -0.4288141
0001b0 30 8a b8 3e 6f 42 9c 3d aa 38 06 be 78 75 e0 be
       0.3604293 0.07629859 -0.13107553 -0.43839622
0001c0 44 6b 38 3d 20 b2 89 3d 62 58 b8 3e 41 ec db 3e
       0.04502417 0.06723428 0.3600493 0.42953685
0001d0 dc a4 79 be 60 57 57 bc c9 de be 3e 6e 2c 5f be
       -0.24379295 -0.01314339 0.37279347 -0.21794292
0001e0 e9 cb 8a 3e c8 4f 11 3f a8 14 db be 6c cd f4 be
       0.27108696 0.5676236 -0.42789197 -0.47812974
0001f0 cc 71 6a 3d 73 3a 41 3d 13 2f 21 be 07 83 00 bf
       0.05723743 0.047174882 -0.15740614 -0.5019993

layers.0.out_proj.weight f4 [64, 128]
000000 e1 61 2c bd 61 9e 2c be 5d 17 a0 3b d4 37 8f bc
       -0.042085532 -0.16857292 0.0048855976 -0.017482676
000010 b5 f4 3b bd 80 ca 90 bd 21 29 2d bd da 0a 1c bc
       -0.045887668 -0.07069874 -0.04227555 -0.009524072
000020 79 f8 f1 bd 57 74 75 bd f3 5a 56 3d 8c 9a 0e bd
       -0.118149705 -0.059925403 0.05233283 -0.034815356
000030 28 40 0b bb af 9c d4 3d 5d ed 84 3d 06 ec b1 3d
       -0.0021247957 0.103814475 0.06490586 0.08687596
000040 a0 e1 97 3e 61 8d 66 bc cd 4c da bd 7c a9 94 bc
       0.29664326 -0.014071793 -0.1065918 -0.018147223
000050 a2 0e fe bd 77 20 a3 3d ee 38 20 bc b0 a8 b4 3c
       -0.12405135 0.079651766 -0.009779198 0.022053093
000060 9c 81 a0 bd d8 a2 3a bc 41 bf 7d 3d f0 2c a8 3c
       -0.07837221 -0.011391364 0.061949972 0.02052924
000070 5d ff cf 3d be d8 77 bd 33 3b 19 bc dd 6b ba 3d
       0.101561286 -0.060509436 -0.009352493 0.091026045
000080 45 91 3f bd 21 4f 82 bc 0d cf 5e 3d 6e b1 e2 3a
       -0.0467694 -0.015906872 0.054396678 0.001729531
000090 83 14 0d 3d ba f7 d6 bc 67 27 5a bd 02 d6 7d 3d
       0.03444339 -0.026241172 -0.053260233 0.061971672
0000a0 a8 79 f6 bc f4 10 03 be 8e 9f 17 bb 09 30 98 3b
       -0.030087307 -0.12799436 -0.0023135873 0.004644398
0000b0 4c 0a b8 3c 24 05 8c bc e3 2e b5 3d 40 94 4e 3c
       0.022465847 -0.017092295 0.088468336 0.012608588
0000c0 e0 5b 85 bb 1d 20 e1 ba a9 6d 11 bd 9a de e4 bd
       -0.0040697902 -0.0017175708 -0.03550497 -0.111752704
0000d0 eb ab 5b 3d 2d e1 a7 bd 9b e6 8d bd 56 67 b4 3d
       0.05363075 -0.08197246 -0.0692875 0.08808772
0000e0 ff d7 3d 3e ce 1a a4 bd e9 a9 a2 3d e8 52 97 bd
       0.18539427 -0.08012925 0.07942564 -0.0738886
0000f0 50 b7 da bd b5 f8 e6 3d 36 e2 32 bd 4a 40 2f bc
       -0.10679495 0.11277906 -0.043672763 -0.01069648
000100 48 06 c3 bc d5 e9 c2 3c 34 b0 3f 3d 92 3c 85 3c
       -0.023806706 0.02379314 0.0467989 0.016264234
000110 d7 ba 9b bd 31 84 b7 3d c1 4c c7 bd 97 b2 ae bd
       -0.07603996 0.089607604 -0.097314365 -0.08530157
000120 13 22 c1 3d 60 53 36 be 37 9a a7 3d b2 67 a4 3c
       0.09430327 -0.17805243 0.08183711 0.020068977
000130 c3 72 bd 3d 39 2e 60 3d df 7d c2 3a ab 73 d0 bd
       0.09250405 0.05473158 0.0014838538 -0.10178312
000140 50 2f 29 3d f2 23 0f bd 5a 21 b9 bc 59 91 68 3d
       0.041304886 -0.03494639 -0.022598911 0.05677924
000150 76 28 3a 3d 1d eb f4 3d 1e df 6b bd 58 90 79 3d
       0.045448743 0.11958907 -0.057585828 0.060928673
000160 f2 cc da 3d a1 51 80 bd 89 e6 aa bc cf 1e 22 3e
       0.106836215 -0.062655695 -0.02086188 0.15832065
000170 fb 54 d3 bd 3b 79 29 bd f3 9c 0c 3d 80 05 b0 3b
       -0.10318943 -0.04137538 0.034329366 0.0053717494
000180 69 c8 8e 3d e8 fb c0 bd 36 31 a7 bd b2 6c a1 bd
       0.06971819 -0.09423047 -0.08163683 -0.0788206
000190 2f 32 0f be 84 a7 84 3b 4e ee ad bb 2a 06 83 3d
       -0.13983987 0.0040482897 -0.005307949 0.0639766
0001a0 6d 6b 0c 3e 95 93 a3 bd 75 8b 6b 3d f0 aa 94 3c
       0.13712855 -0.079871334 0.057506043 0.018147916
0001b0 dd 22 85 bc a9 0f f9 3d 5a 43 c4 bd 83 ab 26 3d
       -0.016251976 0.1216119 -0.09583159 0.04069091
0001c0 5c b4 a4 3b dc 87 e2 3d 6c aa b9 bd 11 c3 8e bd
       0.0050263833 0.11061069 -0.090657085 -0.069708
0001d0 b7 66 f1 bd 3d d7 99 bd 20 e0 1d be f7 c2 99 bd
       -0.117871694 -0.075117566 -0.15417528 -0.0750789
0001e0 a0 af 6c bd 7c e5 56 3d f9 d0 bc 3c c6 7c 37 3e
       -0.057784677 0.052464947 0.023048865 0.17918691
0001f0 83 30 1f be fd 5b 8e 3d a8 57 5f bc 44 d6 53 3c
       -0.1554585 0.06951139 -0.013631739 0.012929503
000200 2b 54 39 3e 40 23 07 ba 27 dd a0 3d be 45 d1 3a
       0.18098514 -0.0005155094 0.078546815 0.0015966219
000210 23 f5 2c bd 8c 73 f9 bd a9 c1 30 3d a8 5c 2e bd
       -0.042225968 -0.12180242 0.04315344 -0.042568833
000220 2d fd 70 3d 75 c2 95 bd b1 9c 17 bd 7f 00 67 3c
       0.058835197 -0.0731248 -0.037014667 0.014099239
000230 02 89 38 bd 83 69 9a bd cb 8c c2 3d 5a a1 30 bb
       -0.045052536 -0.07539656 0.094995104 -0.0026951642
000240 16 eb 79 3d 89 5d af 3d 86 cb f2 3d 12 2e c3 bc
       0.06101521 0.08562762 0.11855225 -0.023825679
000250 bc b2 23 be f4 c2 7d 3c ee f0 0a be 0b ee fa bc
       -0.1598615 0.015488375 -0.1356847 -0.030631086
000260 80 3a 26 bd 1a b8 fc bd 54 32 89 3d 18 ad 50 3d
       -0.040583134 -0.12339802 0.066990525 0.050946325
000270 54 76 9e bd 30 cf d2 bb bd 34 d7 bc ac ed d8 bd
       -0.07737413 -0.00643339 -0.026270265 -0.10592207
000280 7b 0e e1 3d c4 fa b9 bc 44 75 36 3d 5c f2 16 3d
       0.1098909 -0.022702582 0.044545427 0.036852226
000290 66 5d 5f bd 39 5d e5 bd 7f b0 8d 3d 9e ef 83 bd
       -0.05453243 -0.111994214 0.069184296 -0.06442188
0002a0 35 43 5c bd db 74 b6 bd 0d d1 8b 3d 4a cc 0d bd
       -0.05377503 -0.08909007 0.06826983 -0.034618653
0002b0 76 d3 a4 bd 21 0f 22 3d f0 c5 10 be 2a 1f 84 be
       -0.080481455 0.03956521 -0.14138007 -0.25805026
0002c0 e3 d9 d9 bd 5c 51 7d bd a2 69 0b 3c e0 45 01 be
       -0.10637262 -0.06184517 0.008509072 -0.12624311
0002d0 16 b6 8c bd 98 0d 04 bd 7f ff 0b 3c a4 53 39 bd
       -0.06870668 -0.032239527 0.008544802 -0.04524578
0002e0 03 3f 1b bd 16 38 c5 3d 65 9d 23 bd 09 d4 91 3c
       -0.03790189 0.09629838 -0.039945025 0.017801302
0002f0 e9 fe ad bd 19 3f b0 bc 7e d1 f3 bc 61 5d 11 be
       -0.08495886 -0.021514462 -0.02976298 -0.14195777
000300 3e 4a 36 3d f5 a6 69 3d f5 f2 b7 3d fa a2 fe 3c
       0.044504397 0.05704399 0.08981887 0.031083573
000310 3c 1b 0a bd 43 d6 dc 3d 22 95 4b 3d 16 4d 3d bd
       -0.03371738 0.10783055 0.04970277 -0.046216093
000320 22 42 19 3d 0b de 11 bd fd 27 68 3d 17 d5 95 bd
       0.037416585 -0.035612147 0.05667876 -0.07316034
000330 87 c9 cd 3c df c2 93 3d 7b 62 89 ba cf 3e 12 3d
       0.02512051 0.07214903 -0.001048162 0.03570443
000340 63 bb 04 bd 0f 02 89 bd 02 56 ad bd f9 3f 02 3e
       -0.03240527 -0.06689846 -0.0846367 0.12719716
000350 95 8e 10 3d 4f 9d 2b bd 9c 16 93 3d dc ae a9 3c
       0.035292227 -0.041898068 0.07182047 0.020713262
000360 56 40 ec bd f2 a5 74 3c 3a 47 0d 3e 37 47 0f bd
       -0.115357086 0.014932143 0.13796702 -0.034980025
000370 a9 a1 cf bd 3e ed ae 3c 78 6f 67 bd 15 66 ac 3c
       -0.10138256 0.02135336 -0.05650279 0.02104477
000380 96 b6 0b bd af c1 e3 3d 14 16 9c 3b d1 8f 85 bc
       -0.034109674 0.111209266 0.004763374 -0.016303929
000390 f6 e6 56 3c 8b f0 39 bd c4 17 d9 3d 16 44 69 3c
       0.013116589 -0.045395415 0.10600236 0.014237424
0003a0 ce 52 f4 bc af 25 a1 3d 4a a6 09 bd e6 94 84 bd
       -0.02982464 0.07868516 -0.03360585 -0.064737126
0003b0 a4 db 57 3d 7e b7 53 bc 66 7e 77 3d b9 83 77 3c
       0.0526997 -0.012922166 0.060423277 0.015107089
0003c0 bd 31 4b bd b9 9b 12 be c9 19 00 3d a2 7a dd 3d
       -0.04960798 -0.14317216 0.03127459 0.10814406
0003d0 18 aa d4 bc 4b d0 95 bd 10 c4 d4 3d 1a e7 36 3d
       -0.025960013 -0.07315119 0.103889585 0.04465399
0003e0 c8 f1 2d 3d f4 37 4a 3c 45 af dd bc 96 15 04 3e
       0.04246691 0.012342442 -0.027061114 0.1289886
0003f0 0b 85 2d 3c 52 41 af 3c 7f 28 4f 3e 1c 64 12 bd
       0.010590802 0.021393452 0.20230292 -0.035740003

layers.0.forward_s6.A_log f4 [128, 16]
000000 79 53 f5 bd eb 67 15 3f 98 bd 88 3f e8 1b a7 3f
       -0.11978812 0.5836169 1.068286 1.3055391
000010 00 07 bc 3f c1 6d d5 3f 4d 4b ee 3f 66 6e 02 40
       1.4689636 1.6674119 1.861673 2.0379882
000020 26 e7 06 40 7e 07 0e 40 98 98 11 40 93 91 1b 40
       2.1078582 2.2192073 2.2749386 2.4307601
000030 6a 21 1c 40 af c5 20 40 34 15 2c 40 28 6d 2f 40
       2.4395394 2.5120656 2.6887941 2.7410374
000040 ee 21 71 be 74 eb ed 3e cd c9 5d 3f 30 69 92 3f
       -0.235481 0.464687 0.8663605 1.1438351
000050 0b a4 ad 3f 9c 25 c7 3f 0d a1 da 3f 8b b6 e7 3f
       1.3565687 1.5558352 1.7080399 1.8102583
000060 ae 84 fa 3f c0 ce 04 40 9c cb 05 40 b2 c2 0f 40
       1.9571741 2.075119 2.0905523 2.2462583
000070 67 1a 14 40 24 96 18 40 3e d0 1f 40 e6 2f 21 40
       2.3141115 2.3841639 2.497085 2.5185485
000080 c6 8c 01 3e 41 e6 3b 3f 03 a9 88 3f 42 2c a8 3f
       0.12651357 0.73398215 1.0676578 1.3138506
000090 83 ac be 3f ce 89 d0 3f fd 7b e8 3f 3c b5 fa 3f
       1.4896396 1.6292055 1.8162838 1.9586558
0000a0 7d 03 03 40 3d 7b 0a 40 86 31 0c 40 1b 85 17 40
       2.047088 2.1637719 2.1905227 2.367499
0000b0 d6 f1 1b 40 a2 bf 1c 40 1d 15 25 40 6f 20 29 40
       2.4366355 2.4491963 2.5794137 2.6426046
0000c0 2c c9 b2 bd 46 2e 15 3f e2 93 8c 3f e4 4d ad 3f
       -0.08729777 0.5827373 1.098263 1.3539395
0000d0 41 8a c4 3f ce 11 d6 3f da 85 f3 3f bd 1c ff 3f
       1.5354692 1.6724184 1.9025223 1.9930645
0000e0 c6 19 03 40 3a d9 0a 40 89 3b 10 40 5d 0b 19 40
       2.048448 2.1695085 2.2536337 2.3913186
0000f0 92 4d 1c 40 47 29 21 40 f4 3d 29 40 30 8a 2f 40
       2.4422345 2.5181444 2.6444063 2.7428093
000100 4c ae 76 be 85 84 0e 3f 34 51 84 3f 99 3a 9e 3f
       -0.24089926 0.5567096 1.0337281 1.2361633
000110 52 80 ba 3f 61 e6 ce 3f 70 a3 e7 3f ea ba fa 3f
       1.457041 1.6164056 1.8096752 1.9588292
000120 c1 a3 06 40 48 92 0b 40 92 77 12 40 de 75 16 40
       2.1037447 2.1808033 2.288548 2.350944
000130 50 f3 1b 40 99 02 25 40 42 7d 29 40 12 96 2f 40
       2.4367256 2.5782835 2.6482701 2.7435346
000140 70 31 d4 3d 71 ce 42 3f 4e 20 98 3f 3b ae b9 3f
       0.10360992 0.76096255 1.1884859 1.4506296
000150 6e 68 d9 3f 50 5f f1 3f f0 17 00 40 01 83 0a 40
       1.6984994 1.8857212 2.001461 2.1642458
000160 94 ef 0f 40 a6 8c 14 40 d8 62 20 40 be 1d 21 40
       2.2489977 2.3210845 2.506033 2.5174403
000170 64 de 25 40 1c 1a 2a 40 b4 75 2f 40 51 c4 33 40
       2.5916986 2.6578436 2.741559 2.8088572
000180 41 bf e2 3c 35 34 3d 3f 25 e3 8c 3f fa 94 b5 3f
       0.027679088 0.73907787 1.1006819 1.4186089
000190 77 ed d2 3f 74 1f ed 3f 23 44 fc 3f 56 a3 06 40
       1.6478719 1.8525224 1.9708294 2.1037192
0001a0 db 3e 0e 40 80 b9 14 40 a5 e5 19 40 d3 26 21 40
       2.2225864 2.323822 2.4046414 2.5179946
0001b0 ad 92 25 40 7e 1a 28 40 01 67 2e 40 b5 5d 31 40
       2.5870774 2.626617 2.7250369 2.7713444
0001c0 3c 87 27 be 7d 68 1e 3f 36 7b 70 3f aa 32 a9 3f
       -0.16360182 0.61878186 0.93938005 1.3218586
0001d0 59 d9 b8 3f a3 df e7 3f 80 e6 f7 3f 5b 64 01 40
       1.4441329 1.8115124 1.9367218 2.0217502
0001e0 f5 95 00 40 a2 0e 0e 40 8b bf 0e 40 03 91 15 40
       2.0091527 2.219643 2.2304409 2.3369758
0001f0 05 7c 18 40 95 1a 23 40 a8 aa 20 40 6a 4e 27 40
       2.3825696 2.5484974 2.510416 2.614161
000200 be ac b2 3d 42 24 4b 3f 2f ee 99 3f f5 a5 c2 3f
       0.08724354 0.793522 1.2025813 1.5206896
000210 f8 2f db 3f 50 14 ed 3f 1f ea 02 40 50 50 0c 40
       1.7124014 1.8521824 2.0455396 2.192402
000220 0a 72 11 40 9f 20 19 40 df 26 1d 40 b2 4d 25 40
       2.2725854 2.392616 2.4554975 2.5828671
000230 e9 bf 29 40 c2 0c 30 40 27 50 34 40 25 1f 38 40
       2.6523383 2.7507787 2.817392 2.876901
000240 62 c2 7f 3d 31 43 31 3f 49 93 8a 3f 5e d4 ac 3f
       0.062441237 0.6924315 1.0826198 1.3502309
000250 79 20 ca 3f 15 8f e2 3f 11 03 f8 3f c6 5c 02 40
       1.579116 1.7699915 1.9375936 2.0369124
000260 a4 0c 0b 40 f0 ac 11 40 db 7e 17 40 26 0c 20 40
       2.1726465 2.2761803 2.3671176 2.5007415
000270 6c 68 23 40 52 e1 26 40 60 10 2d 40 36 e3 30 40
       2.5532484 2.6075025 2.7041245 2.7638679
000280 60 e0 8c bd a8 76 11 3f 47 f2 83 3f d0 f6 a5 3f
       -0.06878734 0.5682168 1.0308312 1.2965946
000290 37 98 c5 3f 64 f1 d5 3f ca 9f ef 3f 6c cb 00 40
       1.5437077 1.6714292 1.8720639 2.012416
0002a0 10 67 05 40 66 19 0b 40 6a f5 16 40 2c 06 19 40
       2.0844154 2.1734252 2.358729 2.3910017
0002b0 c3 a8 1d 40 0a 7d 23 40 a7 33 28 40 f9 de 2d 40
       2.4634254 2.5545068 2.6281526 2.7167342
0002c0 66 12 34 be 3c 8d 0d 3f e4 c2 81 3f dc 36 ae 3f
       -0.17585143 0.5529363 1.0137601 1.3610492
0002d0 07 f9 d6 3f 78 34 d5 3f 8f 8b f8 3f ff 50 0a 40
       1.6794747 1.6656637 1.941759 2.1611936
0002e0 84 bc 0e 40 44 d0 12 40 02 66 1e 40 8c a3 1f 40
       2.230256 2.2939615 2.474976 2.494357
0002f0 67 f2 23 40 05 25 2a 40 7e 81 2d 40 90 0c 2f 40
       2.56167 2.6585095 2.7110286 2.7351418
000300 9c e1 b2 bd 9a cc 1c 3f bf 02 86 3f 75 48 a8 3f
       -0.08734438 0.612497 1.0469588 1.3147112
000310 8c 14 c3 3f da 7c db 3f 17 f4 f0 3f 97 6b 02 40
       1.5240645 1.7147477 1.882449 2.0378168
000320 f3 e4 07 40 f8 0b 0f 40 25 1b 15 40 ca 2c 1b 40
       2.123349 2.2351055 2.3297818 2.4246087
000330 86 28 1f 40 37 01 25 40 5b 17 2b 40 50 92 2e 40
       2.4868484 2.5781991 2.6733005 2.7276802
000340 84 15 5c be 73 3d fc 3e 8a 82 69 3f b1 26 96 3f
       -0.21492583 0.49265632 0.9121481 1.1730558
000350 0f b6 b5 3f f3 6d d3 3f f2 dc e0 3f d8 11 f3 3f
       1.4196185 1.6517929 1.7567427 1.898982
000360 22 82 02 40 ad 84 08 40 15 0f 12 40 0f 36 15 40
       2.0391927 2.133098 2.2821705 2.3314245
000370 f2 e0 1b 40 42 04 20 40 3e 88 25 40 75 b9 2a 40
       2.4356046 2.5002599 2.5864406 2.6675694
000380 43 a2 47 3d cd fb 39 3f 32 3d 97 3f 8a 35 b7 3f
       0.04873873 0.7264984 1.181555 1.4313214
000390 02 4d d1 3f 9d 46 e5 3f 21 b8 fe 3f 1a 12 04 40
       1.6351626 1.7912174 1.9899942 2.0636048
0003a0 16 9f 0d 40 30 33 15 40 db e6 18 40 fa 9d 1f 40
       2.2128348 2.3312492 2.3890903 2.4940171
0003b0 83 b4 24 40 fe 7c 2a 40 ee 86 2d 40 8b 32 33 40
       2.5735176 2.663879 2.7113605 2.79996
0003c0 08 8c cf 3d 79 cc 2e 3f 2d 39 89 3f e6 56 ab 3f
       0.10134131 0.6828075 1.0720574 1.3385894
0003d0 79 6f ca 3f a3 08 e1 3f 33 71 fb 3f d7 8a 05 40
       1.5815269 1.7580761 1.9643921 2.086599
0003e0 6b 97 0e 40 46 84 16 40 fd 7c 1c 40 fc 65 28 40
       2.2279918 2.3518233 2.4451287 2.6312246
0003f0 71 51 2b 40 80 8a 30 40 f7 8e 35 40 3d 00 3a 40
       2.6768458 2.7584534 2.836851 2.9062645

layers.0.forward_s6.D f4 [128]
000000 39 a1 95 3f 58 24 79 3f 31 54 78 3f 6c 87 7b 3f
       1.1689826 0.9732108 0.97003466 0.9825351
000010 fb 4c 83 3f 68 50 88 3f 5c 35 79 3f 70 e8 82 3f
       1.0257868 1.0649538 0.97347045 1.0227184
000020 68 b7 85 3f 02 bf 82 3f ea 8e 8f 3f 85 66 8c 3f
       1.0446596 1.0214541 1.1215489 1.0968786
000030 dd 3f 85 3f 18 dc 86 3f 0c 5e 86 3f 7c e4 86 3f
       1.0410115 1.0535917 1.0497451 1.0538478
000040 66 25 93 3f 38 a9 84 3f 78 eb 8e 3f 03 ca 78 3f
       1.1495788 1.0364141 1.1165609 0.97183245
000050 6b d1 85 3f 11 7f 87 3f bc 6d 84 3f 10 fa 8c 3f
       1.0454534 1.0585653 1.0345988 1.1013813
000060 ee d4 7e 3f 37 29 86 3f f3 9e 78 3f 28 15 8e 3f
       0.99543655 1.0481328 0.9711754 1.1100206
000070 01 d3 8e 3f cd db 85 3f 44 e7 7c 3f 57 5a 83 3f
       1.1158143 1.0457703 0.98790383 1.0261945
000080 d5 6a 8d 3f f1 cc 94 3f 32 f5 80 3f e7 fb 7a 3f
       1.1048228 1.1625043 1.0074828 0.9804062
000090 49 b8 85 3f 5f f5 84 3f e8 5d 8e 3f 22 59 86 3f
       1.0446864 1.0387381 1.1122408 1.0495951
0000a0 19 70 81 3f ee 5f 82 3f e7 8b 7a 3f 55 7e 89 3f
       1.0112334 1.0185525 0.97869724 1.0741678
0000b0 7f 0e 83 3f 15 be 81 3f 65 59 8c 3f 47 ec 92 3f
       1.0238799 1.0136133 1.0964781 1.1478356
0000c0 0c d6 81 3f 6a 80 72 3f 7c dc 89 3f 38 bf 8c 3f
       1.0143447 0.94727194 1.0770411 1.0995855
0000d0 c2 cc 82 3f 66 68 81 3f 19 04 89 3f 29 23 83 3f
       1.0218737 1.0109985 1.0704376 1.0245105
0000e0 b8 23 80 3f f5 6b 6d 3f 16 a3 8f 3f ea d5 83 3f
       1.00109 0.92742854 1.1221645 1.0299656
0000f0 e8 f7 89 3f 11 c6 75 3f 80 06 8d 3f bd 00 86 3f
       1.077878 0.9600535 1.1017609 1.0468975
000100 3f d5 8e 3f 8b 27 90 3f 7e 19 82 3f 7b 81 82 3f
       1.1158828 1.1262068 1.016403 1.0195764
000110 0c a9 86 3f da 5d 81 3f ff aa 7e 3f 9f 70 63 3f
       1.0520339 1.0106766 0.9947967 0.8884372
000120 9c 22 82 3f a9 81 99 3f 5d d7 81 3f a2 7f 79 3f
       1.0166812 1.1992694 1.0143849 0.9746038
000130 e4 05 85 3f ee e1 85 3f 90 1c 80 3f 49 55 82 3f
       1.0392423 1.0459573 1.0008717 1.0182277
000140 8a 55 80 3f 60 c1 84 3f a7 00 86 3f 25 00 89 3f
       1.0026104 1.0371513 1.0468949 1.0703169
000150 a9 f2 87 3f 46 94 83 3f 93 14 78 3f 23 fc 86 3f
       1.0620929 1.0279624 0.96906394 1.0545696
000160 ae 95 77 3f 3c 39 96 3f 38 b0 87 3f 11 56 82 3f
       0.9671277 1.1736217 1.0600653 1.0182515
000170 91 2b 85 3f 98 4c 81 3f 98 bf 8d 3f 1a 65 88 3f
       1.040392 1.01015 1.1074095 1.0655854
000180 35 97 73 3f 2f 6c 79 3f 27 99 5b 3f 0e 42 82 3f
       0.951526 0.974307 0.85780567 1.0176408
000190 ab 25 8c 3f ab a0 82 3f 6c a2 75 3f 0e 10 89 3f
       1.0948995 1.0205282 0.9595096 1.0708025
0001a0 d2 2f 84 3f 17 1a 85 3f d3 ea 81 3f 3d 2c 85 3f
       1.0327094 1.0398587 1.0149788 1.0404125
0001b0 f7 11 8a 3f fd ab 7e 3f 49 62 8a 3f c9 45 9d 3f
       1.0786732 0.99481183 1.0811244 1.2286922
0001c0 3f 61 88 3f c9 6c 84 3f 2d d9 96 3f 2a 57 82 3f
       1.0654677 1.0345699 1.1785027 1.018285
0001d0 ec cc 86 3f f3 a1 7f 3f a1 94 68 3f 67 17 88 3f
       1.0531287 0.9985649 0.9085179 1.0632142
0001e0 d6 da 70 3f 2b 13 82 3f 47 dc 74 3f 85 60 82 3f
       0.9408392 1.01621 0.95648617 1.0185705
0001f0 11 f8 87 3f a4 e3 82 3f eb 2f 92 3f 1e de 82 3f
       1.0622579 1.022572 1.1420873 1.0224035

layers.0.forward_s6.x_proj.weight f4 [36, 128]
000000 81 20 d2 3d 5b c6 b1 bc 82 18 1e be d7 e6 94 bb
       0.10260106 -0.021701029 -0.15439036 -0.00454412
000010 86 d5 5a 3d b3 d7 5b 3d a6 10 38 3d 94 5e b6 3d
       0.053426288 0.053672504 0.044937752 0.08904758
000020 40 2e 18 be e7 01 94 3c 25 56 32 be be d6 2a 3c
       -0.14861393 0.018067313 -0.17415674 0.010427175
000030 66 2d 07 3e fd 16 0f bd 13 38 0b 3e 1d e7 35 be
       0.13200912 -0.034934033 0.1359561 -0.17763944
000040 2d f2 0d be 62 16 41 bc 90 b6 44 3d ab f1 88 3d
       -0.13861914 -0.011785122 0.048025668 0.066867195
000050 07 01 bd 3c 25 bd fa bd 1f 51 2a be 64 de a6 bd
       0.023071779 -0.12243108 -0.16632508 -0.081478864
000060 f2 01 ac bd cc 63 b0 3b 8a 6e e3 bc bc b6 08 3e
       -0.083988085 0.0053829905 -0.02776267 0.13350958
000070 fe 5a 32 3e b9 8a 9d bd 65 e7 ce bd ef 08 b7 bd
       0.17417523 -0.07692475 -0.10102729 -0.08937251
000080 e4 c0 ac 3c 5f c7 a0 3d 32 4c 87 bd fa 27 e5 3c
       0.021088071 0.07850527 -0.0660633 0.027973164
000090 de 3f 95 bd 06 0a 7f bc 30 be dd 3d 96 20 76 3d
       -0.07287572 -0.015566355 0.10827291 0.06008967
0000a0 1f b2 8d bc 0e 34 16 bd 9a 28 4c be fd be 15 bc
       -0.017296849 -0.036670737 -0.19937363 -0.009139773
0000b0 07 fb a6 3a 4b 3b 39 bd cf 5d d1 bd 3c 3b a7 3d
       0.0012739607 -0.04522256 -0.10222971 0.08165595
0000c0 17 04 24 be 92 6e ee bd f2 52 e5 3c 10 28 00 3d
       -0.16017185 -0.11642183 0.027993653 0.031288207
0000d0 61 ea a8 bb 66 d3 bb 3c 35 47 53 bd 42 21 0c 3e
       -0.0051548933 0.022927951 -0.05158158 0.13684562
0000e0 3b 43 b9 3c 80 3e a5 bd 4c a7 13 bd 3d ae 23 bd
       0.022615066 -0.080685616 -0.03604822 -0.03996109
0000f0 3f ba 28 3d 46 8d 0d be d8 42 82 3d 57 8c c9 bc
       0.041193243 -0.13823423 0.06360406 -0.024603052
000100 5b 38 4b be 2d f7 e2 3c 29 d2 3a bd bd b6 c3 3d
       -0.19845717 0.027705753 -0.04561058 0.09556339
000110 3a 04 3b 3d a5 78 b9 3d 05 3e 84 bd 93 48 17 bb
       0.045658328 0.09056214 -0.06457142 -0.002308403
000120 5e dd 74 3d 94 bd ac bd 81 89 9e bc 81 90 87 3d
       0.059781425 -0.08434597 -0.019352676 0.06619359
000130 2d 09 35 bd 15 fd 8b 3d 21 b2 fd bc c5 58 53 be
       -0.044198204 0.06835381 -0.030968728 -0.20639332
000140 ad 04 93 bd 84 7e 93 bc df 48 d5 bd 48 80 9e 3d
       -0.07178626 -0.018004663 -0.1041429 0.077393115
000150 fe 4f 2c 3d 28 62 e2 bd 4f 67 f9 bc b2 da 02 be
       0.042068474 -0.11053878 -0.03044477 -0.12778738
000160 b1 52 04 be ea 83 63 bd b1 43 03 be 60 82 17 be
       -0.1292217 -0.055545725 -0.12818791 -0.14795828
000170 4a 57 e5 3c e6 06 da 3b 86 a1 6f 3d 5a 2c 82 bd
       0.027995724 0.0066536544 0.05850365 -0.06356116
000180 6d 74 c4 bd 50 c3 89 be cb 02 54 3d f2 f0 f8 3c
       -0.09592519 -0.26906824 0.051760476 0.03038833
000190 1a a3 2c 3d 8a c9 88 3d 97 e1 9a 3c aa fe fe 3d
       0.042147733 0.066790655 0.018906398 0.12450917
0001a0 02 e8 1e bd a2 c6 6b bd 88 8d b9 3d 2e 69 4b bd
       -0.03879548 -0.057562478 0.09060198 -0.049660854
0001b0 2f 01 46 bd 07 7e b8 bd ff 79 24 3e 31 37 b8 bc
       -0.048340973 -0.09008413 0.16062163 -0.022487255
0001c0 43 66 91 3b 52 cd 7b 3d 3a f8 bd bb a4 67 8f bd
       0.0044372394 0.061475106 -0.005797413 -0.0700219
0001d0 00 43 2c 35 dc eb 11 3d a4 8f 4e be 93 70 bb bd
       6.417249e-07 0.035625324 -0.20171982 -0.09152331
0001e0 e9 80 3c be b4 2f 2e bb 80 ed 92 bc 8a 9e 10 be
       -0.1840855 -0.0026578726 -0.017935514 -0.14122978
0001f0 b8 09 0f bd 68 45 84 3d d1 2f 79 3d 28 c6 b0 3c
       -0.034921378 0.06458551 0.060836617 0.021578863
000200 93 62 46 bc 10 45 4a 3d 1d 2f 2a bd fe 85 cb bd
       -0.012108463 0.04938227 -0.041548837 -0.09937666
000210 41 f9 bc 3d 5e 9b 88 bc 40 d0 ee 3d d5 fd 0b be
       0.09227229 -0.016675647 0.11660814 -0.13671048
000220 03 14 b5 be 80 78 8b 3d 56 e5 23 3d 60 cc 19 bc
       -0.3536683 0.06810093 0.040013634 -0.009387106
000230 1e 44 35 3e 97 67 69 3d 91 70 cc 3d a0 5d c5 bc
       0.17701766 0.056983557 0.09982408 -0.024092495
000240 74 20 5a be da 7c 9e 3d b5 c0 fd bc e5 e0 04 be
       -0.21301442 0.07738657 -0.030975679 -0.12976415
000250 56 f4 3b 3d a7 5e e3 3b 8c 1e c1 bd 6a 7a 06 3d
       0.045887314 0.0069387737 -0.094296545 0.032831587
000260 77 50 3e be 96 5e 70 bd 07 cf 6e bb 0c ed 61 3d
       -0.18585382 -0.058683954 -0.0036439316 0.055157706
000270 c2 a2 a1 bd a3 ef 8f bd 75 d9 23 be f3 a5 58 bc
       -0.07892372 -0.07028129 -0.16000922 -0.013223159
000280 de 27 45 be 4e 2f 90 3d aa ab 6e bd e0 ae 0c 3d
       -0.1925349 0.07040273 -0.05826918 0.03434646
000290 f9 70 2d bd 2c 1f 0a 3b 2e 82 3b be 8e 1e a4 39
       -0.042344067 0.0021075709 -0.18311378 0.00031303283
0002a0 07 06 88 3c 70 5e 8e bd 2b 65 12 be d0 18 c9 3c
       0.016604437 -0.06951606 -0.14296405 0.024547964
0002b0 b4 0d ba bc 09 6a a6 3d 47 75 30 be 39 da 9a 3d
       -0.022711612 0.08125693 -0.17232238 0.07561154
0002c0 0b 80 91 bc 7d f2 f9 bd 86 80 0c be 1d 3e a2 3b
       -0.017761251 -0.12204454 -0.13720903 0.004951252
0002d0 6b c4 7c 3d 6d d1 54 3c 3c ae 3a be 21 04 3a bd
       0.061710756 0.012989384 -0.18230528 -0.045414094
0002e0 c2 55 81 bc 19 66 a2 bd 43 7e b7 3b f0 f5 9d 3d
       -0.015787963 -0.0792963 0.0055997684 0.077129245
0002f0 de 6b fc bc 95 8f 59 3d f1 99 06 bc 4f 62 f6 bd
       -0.030813154 0.053115446 -0.008215413 -0.120304696
000300 af 44 7d 3d 88 8b f3 3b d2 4a b7 bd f3 af 11 bd
       0.06183308 0.007432405 -0.08949818 -0.03556819
000310 1b be 97 3d 9e dd 8c 3d 34 47 c1 bd 6f 68 58 be
       0.074093066 0.068782076 -0.09437409 -0.21133588
000320 a5 06 69 3d 26 23 28 3d 3e 8d 94 be 05 3a 34 3d
       0.056891102 0.041049145 -0.2901401 0.044000644
000330 1d 6c 56 3d 5e 18 f2 bd 1d a1 0a 3e df 0c 5e bd
       0.0523492 -0.11821054 0.13538022 -0.054211494
000340 d1 6c 18 bd 29 be 33 be ec 8c ce bd 28 d9 34 bd
       -0.03721315 -0.17553009 -0.100854725 -0.04415241
000350 e7 07 85 3d 7b 3c 99 3d 56 cf 9d 3d c9 79 d2 3c
       0.06495648 0.07482239 0.07705562 0.025692837
000360 f6 e9 2a 3d 87 e3 87 be ff 6b 00 be 9b 44 88 bd
       0.04172703 -0.26540777 -0.12541197 -0.066537105
000370 66 06 a3 3d 14 90 e6 3c 8a 0d 30 bd f8 55 2e be
       0.07960205 0.028144874 -0.04298166 -0.17024982
000380 d9 25 e7 bd bd 91 91 3d b6 7c 20 3d 1f 0f 64 bd
       -0.11286516 0.071078755 0.039181434 -0.055678483
000390 fe 44 bd 3d f5 d5 8d 3d e3 09 e8 3c 0c 85 4e bd
       0.09241675 0.06925575 0.028325027 -0.050419852
0003a0 c4 b0 ff bd af fa 81 bc b7 20 61 bd 35 15 6a bd
       -0.12484887 -0.015866606 -0.05496284 -0.05714913
0003b0 c7 8f a9 bc c5 fe 3c be ba cb 72 3c 2b d3 40 be
       -0.020698441 -0.18456562 0.01481908 -0.18830554
0003c0 49 19 13 3c ff e0 0a bd 15 9d 8b 3d ff e7 b5 3d
       0.008978196 -0.03390598 0.068170704 0.0888214
0003d0 55 53 cf bc fe 64 e6 bc 11 06 b2 bd 38 a0 e7 bd
       -0.02530829 -0.028124329 -0.08692563 -0.11309856
0003e0 dc ed 11 bd e3 a1 07 bd 40 8a e1 bd 31 39 d7 bd
       -0.03562723 -0.03311337 -0.11012697 -0.10508955
0003f0 4b 1c e9 3d a8 ef 96 3d 28 ef ab 3d 31 9e 8d bd
       0.113823496 0.073699296 0.08395225 -0.06914938
