checkpoints/mnist/vision_mamba_mnist_epoch_1.pth (torch, 340018 bytes, 33 tensors)

patch_embed.weight f4 [64, 1, 4, 4]
0.28565863 0.26358575 -0.030811612 0.009898446 0.15704651 0.06652728 -0.10786738 -0.09774916
0.034799628 0.22818714 -0.031260263 -0.12870404 -0.1275476 -0.09518415 0.04859721 0.18842174
-0.005616621 -0.099023856 0.06680665 -0.13457711 -0.23262052 0.17241348 0.086209826 0.14520745
-0.14499046 -0.15584913 0.087276325 -0.12991111 -0.1404693 0.1671676 -0.11373391 0.034421835
0.21457991 0.06557581 0.011040683 -0.07650361 0.056757644 -0.17604178 -0.06845506 -0.12003862
0.23692872 -0.063009396 -0.107662685 -0.23870105 -0.33520883 -0.20193706 -0.031652678 -0.058985785
-0.16994447 0.13643976 0.17801708 -0.22138679 0.13058123 -0.067119054 -0.22238609 -0.25652516
-0.07149123 -0.17556094 0.15889893 -0.07228964 -0.11048276 0.022403516 -0.20132497 -0.30863586
0.19078319 -0.20252389 -0.17055796 0.08872082 -0.05538888 0.063036636 -0.25049785 -0.3067012
-0.08543817 -0.2573504 -0.006334688 0.18023802 0.041113626 0.20750666 0.1693355 0.24514775
0.2347042 0.18218595 -0.24582067 -0.09010615 0.24084297 0.19366123 -0.18233764 0.122127704
-0.09899774 0.10351265 -0.09714867 0.14760116 -0.25640482 -0.22294627 0.082217015 -0.011162863
0.1571769 0.2510758 0.22782005 0.10257101 0.06886011 -0.23889907 0.16862246 -0.12889653
-0.03666712 0.14375132 -0.1523996 -0.20295596 0.28110588 0.1751738 -0.025454797 -0.23142381
0.17806682 -0.13518591 -0.15877384 0.23861845 0.19682057 -0.2119167 0.17292477 0.085307404
0.13244542 -0.10267795 -0.19484405 -0.14596494 0.043836057 -0.051112324 -0.16686873 -0.22966705
0.091823965 -0.05806319 -0.13145323 -0.10034409 0.23466615 0.027660517 0.069936134 0.17242688
-0.13472961 -0.12730421 -0.20590168 -0.10175309 0.09156254 0.15233737 -0.26897743 -0.19764853
0.16785628 0.15267038 0.14942914 -0.13050613 -0.2399032 -0.07113061 -0.27526155 -0.20801428
0.07623826 -0.18068077 -0.022189211 0.16888888 -0.1553989 0.22341423 -0.16254157 0.270149
0.021981852 -0.051969033 -0.14928679 0.0039391974 0.23249063 -0.03373374 -0.1477189 0.18126321
0.13399777 -0.053256433 -0.20407279 0.20318864 0.25382596 0.09047328 0.19313282 0.032508753
-0.33563328 -0.18627225 -0.28015676 0.018009692 -0.18084869 0.19881944 -0.07604741 -0.15362565
0.039622165 0.11185458 -0.17089644 -0.14717871 -0.20681156 -0.13703722 0.15659301 -0.24705215
0.11382281 0.14035863 0.21386026 -0.108357176 0.24485767 0.04119621 -0.10650817 0.0012656552
0.20920868 -0.2261268 -0.11734953 0.13282812 0.013765643 0.18085654 -0.2166801 -0.07756191
0.07269332 0.2763086 -0.11672251 -0.22036706 -0.007842202 -0.030988436 -0.019190323 -0.17163488
-0.03255435 0.1616106 -0.21956325 -0.2225635 0.16379516 0.059452523 -0.025047945 0.07017684
-0.28404632 -0.1098894 -0.25757056 0.07574842 -0.08580488 -0.25397274 -0.2594895 0.14546715
0.16529448 -0.14856447 0.12507886 -0.15234464 0.058705054 0.2534218 0.1381089 0.15725361
-0.025609925 -0.10230741 -0.11009279 0.12554368 0.052518692 0.1207021 -0.21951534 0.028802074
0.2034086 -0.012183192 0.013917328 0.0637657 -0.20433986 -0.25929272 -0.15765953 -0.29543126
00000000: d941 923e b6f4 863e a268 fcbc 172d 223c
00000010: cdd0 203e 743f 883d 93e9 dcbd b630 c8bd
00000020: 0e8a 0e3d e4a9 693e c30a 00bd feca 03be
00000030: d79b 02be e8ef c2bd de0d 473d a1f1 403e
00000040: a20b b8bb 05cd cabd edd1 883d 95ce 09be
00000050: 1334 6ebe 298d 303e c78e b03d 43b1 143e
00000060: 6178 14be ea96 1fbe eebd b23d 6b07 05be
00000070: 2fd7 0fbe fc2d 2b3e 53ed e8bd e9fd 0c3d
00000080: d6ba 5b3e 9c4c 863d fbe3 343c edad 9cbd
00000090: b47a 683d 4c44 34be 2b32 8cbd cfd6 f5bd
000000a0: 719d 723e 120b 81bd 417e dcbd 0c6e 74be
000000b0: 7ea0 abbe 97c8 4ebe 3da6 01bd 149b 71bd
000000c0: ec05 2ebe ddb6 0b3e 1c4a 363e 38b3 62be
000000d0: 16b7 053e b775 89bd 2eb9 63be 4457 83be
000000e0: fe69 92bd 3fc6 33be 67b6 223e 970c 94bd
000000f0: c944 e2bd 9487 b73c 2228 4ebe 8505 9ebe
00000100: ab5c 433e 6c62 4fbe bfa6 2ebe 43b3 b53d
00000110: 73df 62bd 5a19 813d 4141 80be f107 9dbe
00000120: 35fa aebd 6ec3 83be 3793 cfbb 5190 383e
00000130: c366 283d a07c 543e 4966 2d3e 0308 7b3e
00000140: 4c56 703e f48e 3a3e 6ab8 7bbe 9389 b8bd
00000150: 8a9f 763e 214f 463e b8b6 3abe 171e fa3d
00000160: 54bf cabd 71fe d33d e2f5 c6bd c224 173e
00000170: 7e47 83be 074c 64be 6561 a83d 71e4 36bc
00000180: fbf2 203e 028d 803e a949 693e c010 d23d
00000190: 8806 8d3d f5a1 74be 5eab 2c3e 74fd 03be
000001a0: 4330 16bd 8c33 133e a40e 1cbe b0d3 4fbe
000001b0: 1ced 8f3e c360 333e 9486 d0bc 5dfa 6cbe
000001c0: 2657 363e 2d6e 0abe 9c95 22be 6558 743e
000001d0: 558b 493e b100 59be 3113 313e a6b5 ae3d
000001e0: c69f 073e d148 d2bd 3385 47be d577 15be
000001f0: 708d 333d 285b 51bd a3df 2abe d72d 6bbe
00000200: 340e bc3d abd3 6dbd ad9b 06be 3481 cdbd
00000210: 534c 703e 4f98 e23c ad3a 8f3d ac90 303e
00000220: 8ff6 09be 095c 02be e4d7 52be ed63 d0bd
00000230: 2485 bb3d 54fe 1b3e 69b7 89be 6064 4abe
00000240: 84e2 2b3e a055 1c3e f403 193e 66a3 05be
00000250: 2fa9 75be edac 91bd 15ef 8cbe b201 55be
00000260: ce22 9c3d 6104 39be 26c6 b5bc 35f1 2c3e
00000270: e420 1fbe b3c6 643e 4c71 26be f850 8a3e
00000280: 4913 b43c 7bdd 54bd a3de 18be 6214 813b
00000290: 0612 6e3e 642c 0abd a043 17be 109d 393e
000002a0: b636 093e 6b23 5abd 75f8 50be af10 503e
000002b0: 7af5 813e 0e4a b93d 9cc4 453e e627 053d
000002c0: 20d8 abbe 27be 3ebe b570 8fbe 1089 933c
000002d0: 6630 39be 5397 4b3e bfbe 9bbd 0b50 1dbe
000002e0: da4a 223d 0414 e53d 7aff 2ebe 04b6 16be
000002f0: 69c6 53be 7c53 0cbe eb59 203e 3dfb 7cbe
00000300: ef1b e93d 2cba 0f3e 2ffe 5a3e 5eea ddbd
00000310: f8bb 7a3e 5bbd 283d f520 dabd 57e4 a53a
00000320: cd3a 563e c98d 67be f354 f0bd 1804 083e
00000330: 4b89 613c 7532 393e 63e1 5dbe c7d8 9ebd
00000340: 3ce0 943d 5278 8d3e 360c efbd e7a7 61be
00000350: 947c 00bc 76db fdbc 0635 9dbc 0ec1 2fbe
00000360: b657 05bd 407d 253e 30d5 60be b0e7 63be
00000370: ebb9 273e 7d84 733d 5931 cdbc e0b8 8f3d
00000380: 856e 91be b20d e1bd 4ae0 83be fd21 9b3d
00000390: 78ba afbd b708 82be cfdb 84be 57f5 143e
000003a0: f542 293e 4921 18be ac14 003e 3c00 1cbe
000003b0: b674 703d 81c0 813e 6b6c 0d3e 1707 213e
000003c0: e8cb d1bc 8c86 d1bd 5478 e1bd 868e 003e
000003d0: d71d 573d aa32 f73d a1c8 60be 54f2 eb3c
000003e0: 584a 503e 039c 47bc 8105 643c 9797 823d
000003f0: 783e 51be 04c2 84be 8071 21be c442 97be

patch_embed.bias f4 [64]
0.26818445 -0.2028421 -0.11124271 0.1414393 -0.120628424 0.022745846 -0.15423153 -0.2321273
-0.109323554 -0.15027826 -0.17596506 0.20609486 0.26442537 -0.06759122 -0.094300754 0.14772573
-0.22882123 -0.25551194 -0.21746854 -0.015910272 -0.26086098 0.073696196 0.07051082 -0.13529257
0.2175885 0.21961214 0.13435456 -0.01976357 -0.17156218 -0.043845855 -0.10202853 -0.17075706
0.20023239 0.13916002 0.18160877 0.11702171 -0.15960225 -0.15982893 0.020749977 -0.12325109
-0.23262711 0.03776287 -0.18566932 0.0011842735 -0.29352382 0.006450007 0.21670675 -0.19549079
0.02979921 0.24280776 0.055998117 0.26062512 0.051697847 -0.09638182 0.2634113 0.24501717
0.13904785 0.16296749 0.22336432 0.18310113 -0.038118917 -0.0394626 0.05571867 0.22013827
00000000: 794f 893e d7b5 4fbe 38d3 e3bd 77d5 103e
00000010: 090c f7bd 7f55 ba3c dfee 1dbe c7b2 6dbe
00000020: 07e5 dfbd 8be2 19be 2f30 34be 880a 533e
00000030: c362 873e 446d 8abd c120 c1bd 6a45 173e
00000040: 1d50 6abe 76d2 82be 13b0 5ebe 4256 82bc
00000050: 928f 85be 08ee 963d fa67 903d 238a 0abe
00000060: 85cf 5e3e 01e2 603e 3e94 093e 36e7 a1bc
00000070: ffad 2fbe b697 33bd 55f4 d0bd f0da 2ebe
00000080: b809 4d3e f77f 0e3e a6f7 393e 14a9 ef3d
00000090: c66e 23be 32aa 23be dbfb a93c 116b fcbd
000000a0: cd35 6ebe 3dad 1a3d 1920 3ebe a039 9b3a
000000b0: c148 96be 955a d33b 60e8 5d3e bd2e 48be
000000c0: 791d f43c 99a2 783e 485e 653d a870 853e
000000d0: 1fc1 533d d563 c5bd d9dd 863e c8e5 7a3e
000000e0: 8f62 0e3e f3e0 263e 9eb9 643e dd7e 3b3e
000000f0: 9522 1cbd 89a3 21bd 4339 643d ed6b 613e

layers.0.in_proj.weight f4 [256, 64]
-0.08654899 -0.013780157 -0.08925333 -0.13068038 -0.023402376 -0.20681317 0.07075852 -0.0056896294
-0.00412298 -0.044785686 -0.037814792 -0.06117292 -0.07634248 -0.038406294 0.123202085 0.05605977
-0.038785893 0.0799878 -0.0628528 0.08266082 -0.1394974 -0.028517269 0.1516212 0.10981
-0.14313008 -0.052711572 0.10860593 0.13613443 0.113904305 0.123130366 0.03927221 0.075341165
-0.058119204 0.046731826 -0.12722582 0.061994065 0.14491592 0.07349114 0.03417564 -0.008292957
0.01705777 0.13499823 0.107762806 -0.0042198016 0.13063183 0.061416715 0.057820432 -0.08945364
-0.1224614 0.11318931 -0.07024712 0.1536251 -0.025879808 -0.032671556 -0.11323099 -0.05813729
0.11800197 -0.05296575 0.071564555 -0.13663067 0.08315397 0.037381176 -0.08859507 -0.12561242
0.028251456 -0.115930274 -0.07605821 -0.05785179 -0.034997374 0.14509352 0.008251366 0.01930723
-0.11143159 -0.044918843 0.045330144 -0.1701286 0.05012668 -0.09606336 -0.11154502 0.01162199
-0.15173848 -0.14747259 0.09934798 0.016764995 0.14875811 0.090333916 -0.049907614 0.07237488
0.053835608 -0.042497795 -0.1496933 0.0499743 0.05566873 0.0017022444 0.024338756 0.057911254
-0.10765072 0.011135109 0.14504482 -0.14798136 0.043574218 0.022986298 0.20227431 -0.09168387
-0.117059566 -0.041268703 -0.12741238 -0.0041324887 0.06840713 0.15886456 -0.040511042 0.19495636
0.10371469 0.116420425 -0.056594297 0.035856932 -0.17804411 -0.10090613 -0.032024343 0.012626485
-0.1152528 0.07532711 -0.19232275 0.18071769 -0.13252968 0.057609204 0.0043432396 0.14249676
0.061639577 0.09817645 -0.021942934 0.1361475 -0.08817418 -0.05534753 -0.07401077 0.15292928
0.0052531776 -0.07051537 -0.07326131 0.037053995 0.17040005 -0.11267919 -0.15466519 0.18839586
-0.12703525 -0.054742686 -0.14966965 -0.07816278 -0.061521564 -0.14163144 0.10379308 -0.12713666
0.15283403 0.10478574 0.07303536 -0.012857327 -0.007999613 -0.17901367 -0.09682871 0.07674328
-0.057511367 -0.052384403 -0.0043462845 -0.051210478 -0.095333256 -0.14000165 -0.00038374827 0.035652917
-0.0369906 0.07086964 0.06875028 -0.1353743 0.040858883 -0.041794248 0.0252086 0.03778152
0.067263804 0.08755444 -0.1962078 -0.044608757 0.026776876 -0.035796095 0.093065105 0.042057037
-0.09815564 -0.16267613 -0.1160332 -0.0926418 0.13731119 -0.19758138 0.007206624 -0.11163529
-0.13087165 -0.082046844 -0.16892636 -0.13901003 -0.028534519 -0.08590994 -0.062905 -0.16514984
-0.14290594 -0.09325799 0.12987918 -0.107126385 -0.06789957 -0.06985148 0.1849073 -0.09612237
0.052653566 0.01115576 -0.0015484946 0.10851464 -0.043691743 0.05940228 -0.009538146 -0.053269353
0.095735304 0.01118539 0.15056333 -0.0029200271 0.06046829 0.005660771 0.25191283 -0.06927185
0.0705663 0.17676523 -0.28008285 0.0881526 0.012415129 0.11183605 0.00056916923 -0.15415306
0.04851167 0.11463948 -0.12423785 0.016947804 -0.01937288 0.016487218 0.013706229 -0.0034260445
-0.006886558 0.06988536 -0.057650946 0.1266553 -0.11094683 -0.0071229255 0.04602874 0.03302559
0.13336614 0.12286744 0.05677605 0.05879018 -0.091727704 0.06561727 0.0010369458 0.012241692
00000000: 9940 b1bd 2bc6 61bc 73ca b6bd 14d1 05be
00000010: 57b6 bfbc d5c6 53be d8e9 903d 1270 babb
00000020: 101a 87bb 3271 37bd afe3 1abd 7590 7abd
00000030: 7259 9cbd eb4f 1dbd 6051 fc3d ee9e 653d
00000040: f5dd 1ebd a5d0 a33d f8b8 80bd 134a a93d
00000050: 68d8 0ebe 0c9d e9bc 9642 1b3e 11e4 e03d
00000060: b190 12be 17e8 57bd c96c de3d d366 0b3e
00000070: a946 e93d c62b fc3d e6db 203d 784c 9a3d
00000080: 670e 6ebd df69 3f3d 7c47 02be 7ded 7d3d
00000090: d764 143e 8682 963d c2fb 0b3d 2fdf 07bc
000000a0: bdbc 8b3c fa3c 0a3e bfb2 dc3d 4346 8abb
000000b0: 5ac4 053e 1890 7b3d 1ed5 6c3d 7833 b7bd
000000c0: 0bcd fabd cccf e73d b9dd 8fbd e64f 1d3e
000000d0: e401 d4bc 9cd2 05bd a6e5 e7bd 5e21 6ebd
000000e0: 04ab f13d 9df2 58bd 7090 923d e9e8 0bbe
000000f0: a14c aa3d 011d 193d 5571 b5bd 8ba0 00be
00000100: 996f e73c da6c edbd 68c4 9bbd 00f6 6cbd
00000110: 6859 0fbd 6593 143e bd30 073c 322a 9e3c
00000120: 3f36 e4bd d2fc 37bd 1aac 393d 3136 2ebe
00000130: a251 4d3d debc c4bd b771 e4bd 296a 3e3c
00000140: 5561 1bbe 0e03 17be f476 cb3d be56 893c
00000150: 0c54 183e fd00 b93d ed6b 4cbd 4839 943d
00000160: ba82 5c3d 2b12 2ebd 3349 19be dab1 4c3d
00000170: e504 643d d81d df3a 1262 c73c 5a34 6d3d
00000180: fb77 dcbd 0870 363c a186 143e 6d88 17be
00000190: e17a 323d c34d bc3c ff20 4f3e c1c4 bbbd
000001a0: edbc efbd 5f09 29bd 6478 02be d469 87bb
000001b0: 0a19 8c3d 64ad 223e e8ee 25bd a4a2 473e
000001c0: 5e68 d43d d56d ee3d 6ccf 67bd b8de 123d
000001d0: 3251 36be e0a7 cebd f52b 03bd 51df 4e3c
000001e0: a909 ecbd 1a45 9a3d 41f0 44be 0f0e 393e
000001f0: dcb5 07be a1f7 6b3d bc51 8e3b acea 113e
00000200: c879 7c3d bc10 c93d abc1 b3bc 406a 0b3e
00000210: aa94 b4bd 17b4 62bd f592 97bd 7e99 1c3e
00000220: d922 ac3b 5d6a 90bd 070a 96bd eec5 173d
00000230: 5a7d 2e3e 59c4 e6bd 8d60 1ebe d8ea 403e
00000240: 8715 02be de39 60bd 0043 19be cf13 a0bd
00000250: 09fe 7bbd d507 11be 7791 d43d 1d30 02be
00000260: 8680 1c3e e899 d63d 9093 953d 8aa7 52bc
00000270: cf10 03bc 5c4f 37be 214e c6bd 952b 9d3d
00000280: 0a91 6bbd 0791 56bd 476b 8ebb 14c2 51bd
00000290: 153e c3bd 985c 0fbe d231 c9b9 cb08 123d
000002a0: 7583 17bd 1a24 913d f2cc 8c3d 8f9f 0abe
000002b0: a55b 273d 7230 2bbd 4482 ce3c ccc0 1a3d
000002c0: 9bc1 893d be4f b33d b3ea 48be acb7 36bd
000002d0: 2e5b db3c ed9e 12bd eb98 be3d 0044 2c3d
000002e0: d305 c9bd 9294 26be d0a2 edbd fcba bdbd
000002f0: 4e9b 0c3e c652 4abe 8b25 ec3b 0ba1 e4bd
00000300: 3803 06be 2d08 a8bd 08fb 2cbe a558 0ebe
00000310: 39c1 e9bc 8df1 afbd 56d4 80bd 0a1d 29be
00000320: ef55 12be 0cfe bebd 0cff 043e 1465 dbbd
00000330: ee0e 8bbd 4b0e 8fbd 5758 3d3e cedb c4bd
00000340: 44ab 573d a6c6 363c dbf6 caba ec3c de3d
00000350: 1df6 32bd ce4f 733d e245 1cbc f730 5abd
00000360: df10 c43d ed42 373c 462d 1a3e ed5d 3fbb
00000370: 99ad 773d fd7d b93b b8fa 803e 66de 8dbd
00000380: 1085 903d f201 353e 0567 8fbe 5a89 b43d
00000390: d368 4b3c 4d0a e53d 4d34 153a 4dda 1dbe
000003a0: 2cb4 463d 1bc8 ea3d 6a70 febd 1fd6 8a3c
000003b0: e0b3 9ebc 3410 873c 1790 603c 7d87 60bb
000003c0: a3a8 e1bb 0e20 8f3d 6623 6cbd edb1 013e
000003d0: 1738 e3bd 6e67 e9bb a288 3c3d d745 073d
000003e0: 2291 083e eda1 fb3d 018e 683d f9cd 703d
000003f0: bcdb bbbd 5962 863d 21ea 873a 6191 483c

layers.0.conv1d.weight f4 [128, 1, 4]
0.23456357 -0.4924667 -0.12473382 0.080227815 0.46051565 0.4732045 0.40925357 0.22043756
-0.1074973 0.33403102 0.09888105 0.24468085 0.21386045 -0.3383948 0.46644685 0.01793888
0.13463624 -0.37715918 0.45524058 -0.033892963 -0.42425528 -0.34942496 -0.01761333 -0.12518616
-0.44721398 0.15985313 -0.10972238 -0.43906483 -0.22509046 0.23054403 0.1278536 0.3648888
0.16341698 0.054476198 0.42046463 0.5303708 -0.42251566 -0.40099534 0.0800926 0.18379101
0.25047785 0.20862992 0.570336 -0.016496912 -0.2190415 -0.2226237 0.3480973 -0.15182783
-0.07263888 0.32960472 0.024019001 0.44410902 -0.1851454 -0.477734 -0.4259888 -0.1713923
-0.23010604 0.3943828 -0.1349033 -0.2938286 0.097104214 -0.43323675 0.4179113 0.08881495
0.33248425 -0.30454654 0.45630527 0.13270523 -0.5598295 0.34133404 -0.08478298 -0.01666842
-0.2690025 0.21695267 0.24021953 -0.48940334 0.11673 0.13393217 -0.027892403 0.49888223
0.31667742 0.3012304 0.5077909 0.061692175 -0.061581723 -0.18113464 0.16551849 0.2246247
0.31077558 0.27510497 -0.30959928 0.35479227 -0.27483302 -0.4510221 0.2127242 -0.28451607
0.43276313 0.38387436 -0.19530049 0.035493013 -0.17074971 0.44460154 0.16512564 -0.06960861
-0.35416627 -0.009176603 0.44568515 -0.44525018 -0.20759428 -0.07008602 0.24117683 0.1847701
0.14596783 0.4627032 0.16160837 0.33029285 -0.46241197 -0.23055351 0.50114965 0.30538604
0.12155905 0.11457204 -0.02563925 0.5342335 -0.22754619 0.3298084 -0.027841004 -0.42848656
0.34724277 0.07768024 -0.36852503 0.4621098 0.06390044 0.24657267 0.3976113 0.31177115
-0.02548609 0.0947521 -0.50464004 -0.094504945 0.32516855 -0.49330318 0.4418049 0.22041482
-0.014504786 0.14182678 0.1799103 -0.498333 -0.13381636 0.46885148 0.19030023 0.46992168
0.38651067 -0.051469732 0.48724702 0.2973069 0.098841526 0.25902545 -0.48736453 0.011418769
-0.2700178 -0.106030285 0.0044551454 -0.4468059 0.08483321 0.20592408 -0.25800526 -0.49028826
0.29580772 -0.343584 0.027967203 -0.57499915 -0.22222355 0.24476965 -0.36538282 0.14655831
-0.29041606 -0.4439081 -0.019528454 0.4201613 -0.15657979 0.37845078 0.1862205 0.06819689
0.34418404 -0.25504553 0.36422542 0.39580634 -0.0125514055 0.56436217 -0.16703783 -0.2521263
0.009646784 0.51869285 -0.32448995 0.158665 -0.39287496 0.31648305 -0.5512183 -0.021037402
-0.054217063 -0.44748476 0.099858694 -0.025820907 -0.5162664 -0.003129164 -0.042931743 -0.26503375
-0.14248535 -0.17328894 0.38207036 -0.45268965 0.47818398 -0.16571906 -0.4680366 -0.4140761
0.41345125 -0.34981775 0.43460637 0.47330853 -0.17402111 -0.5056656 -0.52364373 0.03406008
-0.39347443 0.35914105 -0.14220628 0.06763753 0.5968812 -0.14409715 0.17485276 0.08518073
0.49573985 -0.27957118 -0.27295753 0.13401592 -0.027462801 0.49628896 0.5282944 -0.04857657
-0.09946182 0.35311636 0.30911228 0.28229764 -0.29122177 -0.5232092 -0.51061445 0.20930886
-0.47545853 -0.14639436 -0.085908204 -0.44583178 0.10573107 -0.21274349 -0.11961957 0.5034343
00000000: 6f31 703e 9824 fcbe 7274 ffbd 7b4e a43d
00000010: b5c8 eb3e dc47 f23e af89 d13e 62ba 613e
00000020: 8b27 dcbd 1d06 ab3e 2682 ca3d 9e8d 7a3e
00000030: 3cfe 5a3e 1542 adbe 1fd2 ee3e 8ff4 923c
00000040: 15de 093e 021b c1be 4b15 e93e 59d3 0abd
00000050: fd37 d9be d4e7 b2be d549 90bc cd30 00be
00000060: 3bf9 e4be 8ab0 233e 21b6 e0bd 1bcd e0be
00000070: 1d7e 66be bc13 6c3e 0eec 023e b4d2 ba3e
00000080: c856 273e 6f22 5f3d 2447 d73e 61c6 073f
00000090: f953 d8be 434f cdbe 9707 a43d b633 3c3e
000000a0: a23e 803e 15a3 553e 8a01 123f 8824 87bc
000000b0: 6a4c 60be 78f7 63be cf39 b23e c178 1bbe
000000c0: b1c3 94bd f3c1 a83e 7fc3 c43c 4262 e33e
000000d0: c196 3dbe 8d99 f4be 341b dabe 7781 2fbe
000000e0: eba0 6bbe 8bec c93e 1724 0abe b470 96be
000000f0: 93de c63d 35d1 ddbe 78f8 d53e 9de4 b53d
00000100: 603b aa3e 86ed 9bbe d8a0 e93e e1e3 073e
00000110: fc50 0fbf 56c3 ae3e b3a2 adbd 368c 88bc
00000120: b2ba 89be d728 5e3e 1cfc 753e 1393 fabe
00000130: 2310 ef3d 8425 093e 9c7e e4bc 7e6d ff3e
00000140: 8b23 a23e df3a 9a3e 96fe 013f efb0 7c3d
00000150: 1e3d 7cbd 5c7b 39be ae7d 293e 0404 663e
00000160: fa1d 9f3e 8fda 8c3e cc83 9ebe 55a7 b53e
00000170: eab6 8cbe 5eec e6be 5fd4 593e 17ac 91be
00000180: 2193 dd3e 2e8b c43e dafc 47be 1f61 113d
00000190: 03d9 2ebe d0a2 e33e b216 293e f58e 8ebd
000001a0: 4855 b5be 7659 16bc d830 e43e d5f7 e3be
000001b0: 9893 54be 4289 8fbd 0ff7 763e 6034 3d3e
000001c0: 9778 153e 6fe7 ec3e aa7c 253e 251c a93e
000001d0: 43c1 ecbe 3816 6cbe 584b 003f 8f5b 9c3e
000001e0: f4f3 f83d bfa4 ea3d 6809 d2bc 87c3 083f
000001f0: de01 69be a6dc a83e d112 e4bc 9762 dbbe
00000200: cec9 b13e d116 9f3d 50af bcbe a899 ec3e
00000210: 3cde 823d 8c7d 7c3e b593 cb3e 78a0 9f3e
00000220: 34c8 d0bc 640d c23d 1730 01bf cf8b c1bd
00000230: 7e7c a63e 3c92 fcbe 4034 e23e 6cb4 613e
00000240: 7ba5 6dbc 0a3b 113e 683a 383e 8125 ffbe
00000250: 2807 09be 4d0d f03e 10de 423e 9399 f03e
00000260: bae4 c53e edd1 52bd 7178 f93e 9c38 983e
00000270: 6d6d ca3d fc9e 843e d887 f9be ca15 3b3c
00000280: c63f 8abe 6826 d9bd 78fc 913b bec3 e4be
00000290: 09bd ad3d c3dd 523e 4419 84be 1007 fbbe
000002a0: 1c74 973e 3eea afbe 7a1b e53c 2533 13bf
000002b0: 928e 63be e5a4 7a3e 7513 bbbe 6213 163e
000002c0: 6ab1 94be ec47 e3be 23fa 9fbc 621f d73e
000002d0: 7456 20be 4dc4 c13e 96b0 3e3e d0aa 8b3d
000002e0: e438 b03e 5495 82be c17b ba3e 21a7 ca3e
000002f0: 69a4 4dbc 0a7a 103f f70b 2bbe b316 81be
00000300: 8b0d 1e3c 0ec9 043f 8c23 a6be 1479 223e
00000310: e826 c9be 110a a23e a41c 0dbf a156 acbc
00000320: b612 5ebd b91c e5be b782 cc3d 5e86 d3bc
00000330: 092a 04bf a912 4dbb 32d9 2fbd 81b2 87be
00000340: aee7 11be a872 31be ba9e c33e f0c6 e7be
00000350: 88d4 f43e 42b2 29be 7ea2 efbe c801 d4be
00000360: e2af d33e 501b b3be ba84 de3e 7f55 f23e
00000370: 9732 32be 4d73 01bf 840d 06bf 9582 0b3d
00000380: 7b75 c9be 56e1 b73e 869e 11be 8c85 8a3d
00000390: 35cd 183f 348e 13be 9a0c 333e 3c73 ae3d
000003a0: 9dd1 fd3e f423 8fbe 17c1 8bbe 783b 093e
000003b0: abf9 e0bc 9619 fe3e 4d3e 073f 3af8 46bd
000003c0: a4b2 cbbd abcb b43e f743 9e3e 5189 903e
000003d0: 051b 95be 0af1 05bf a1b7 02bf 1055 563e
000003e0: 4d6f f3be 67e8 15be a4f0 afbd 1044 e4be
000003f0: 8889 d83d 6ed9 59be 1bfb f4bd 12e1 003f

layers.0.conv1d.bias f4 [128]
0.28336388 -0.44571167 0.087858476 -0.21220936 0.4475908 -0.14774768 0.41581473 0.278312
-0.44100347 0.5673132 -0.1275516 -0.47826737 0.08932844 0.19743739 -0.11570154 0.34193954
0.14916854 0.56855637 0.2866191 0.059290316 0.34373793 0.35663307 0.1417757 0.25532496
0.027898699 -0.38347638 -0.565128 0.088982776 0.25285047 0.37335375 -0.23144482 -0.038154043
0.15910444 -0.50541234 0.46163043 0.47164306 0.561893 -0.20924082 0.13873109 0.4267031
0.52917075 0.18569064 0.1593737 0.37263417 -0.20697471 -0.23288637 0.5410065 -0.23080568
0.015331352 -0.37052384 -0.36362842 -0.19788164 0.5556565 -0.2328404 -0.5790876 -0.13188788
-0.0070848996 -0.4376923 -0.016701404 -0.0069570015 -0.12455994 -0.08416648 0.14538705 0.53299934
-0.53018945 -0.016613154 0.33842793 0.12273303 0.38719717 -0.31869587 0.30781782 0.31625533
-0.26533118 0.35483694 -0.12242406 -0.13489908 0.10476506 -0.27464163 -0.54913336 0.0039224606
0.06948133 0.5832624 0.34330598 -0.2889075 0.49017096 -0.07740358 0.43977743 -0.44460392
-0.5091583 0.018831171 -0.052985076 -0.4749169 0.21560642 0.24697086 -0.46592018 0.5079953
0.031632643 0.5383226 -0.3774311 0.054454025 0.39619502 -0.09701682 0.45663384 -0.17303978
0.60496974 0.519998 -0.50938505 0.20656946 0.31602612 -0.5772727 0.1841548 0.5593025
-0.29714024 -0.009317721 0.07668228 -0.28841776 -0.4911816 -0.52462596 -0.5384322 -0.41494423
0.42193592 0.041499186 0.6115392 0.00095363706 -0.23302323 0.49827895 -0.4613568 0.4217065
00000000: 1215 913e 5234 e4be 25ef b33d 694d 59be
00000010: 9f2a e53e 2b4b 17be abe5 d43e e97e 8e3e
00000020: 35cb e1be 703b 113f e39c 02be 76df f4be
00000030: d4f1 b63d 072d 4a3e eef4 ecbd b312 af3e
00000040: a3bf 183e e98c 113f bdbf 923e 67da 723d
00000050: 6bfe af3e 9c98 b63e a62d 113e f4b9 823e
00000060: d08b e43c 0457 c4be 3bac 10bf 9a3c b63d
00000070: 9e75 813e 3928 bf3e dfff 6cbe 6a47 1cbd
00000080: 46ec 223e b462 01bf d35a ec3e 337b f13e
00000090: 38d8 0f3f 3a43 56be 860f 0e3e d478 da3e
000000a0: bc77 073f b025 3e3e dc32 233e e8c9 be3e
000000b0: 2ef1 53be c479 6ebe 677f 0a3f 5358 6cbe
000000c0: 5a30 7b3c 4db5 bdbe 812d babe 7ca1 4abe
000000d0: 813f 0e3f b76d 6ebe 163f 14bf 9e0d 07be
000000e0: 7228 e8bb 3519 e0be 62d1 88bc 8ff7 e3bb
000000f0: 4819 ffbd 7a5f acbd 58e0 143e a572 083f
00000100: 7fba 07bf 4f18 88bc 6d46 ad3e 745b fb3d
00000110: b53e c63e 1b2c a3be 4c9a 9d3e 38ec a13e
00000120: 7dd9 87be 30ad b53e 77b9 fabd fc22 0abe
00000130: 108f d63d d49d 8cbe 0194 0cbf fc87 803b
00000140: 3a4c 8e3d af50 153f cdc5 af3e afeb 93be
00000150: b0f7 fa3e c585 9ebd 822a e13e 20a3 e3be
00000160: 3358 02bf d443 9a3c e106 59bd 4f28 f3be
00000170: eec7 5c3e eee5 7c3e 178d eebe fb0b 023f
00000180: 3b91 013d 83cf 093f a63e c1be 2f0b 5f3d
00000190: 13da ca3e c1b0 c6bd e9cb e93e 5731 31be
000001a0: 4cdf 1a3f 971e 053f 0f67 02bf f286 533e
000001b0: 2dce a13e 25c8 13bf 1393 3c3e 732e 0f3f
000001c0: c422 98be 5ba9 18bc 990b 9d3d 7eab 93be
000001d0: 287c fbbe e34d 06bf b1d6 09bf 9273 d4be
000001e0: fc07 d83e 0dfb 293d d58d 1c3f 80fd 793a
000001f0: a49d 6ebe 6b1e ff3e f536 ecbe eae9 d73e

layers.0.out_proj.weight f4 [64, 128]
0.054821588 -0.023319023 -0.0075544557 0.045713603 -0.069915734 0.017382331 0.0438304 0.05629323
0.08819226 0.11782451 -0.10895397 0.122277275 -0.02590525 -0.079210505 -0.018788349 -0.0005372743
0.055190574 0.015408945 0.082341984 0.015103408 0.078426994 -0.07744559 -0.025206873 0.032801792
0.008185112 -0.09040561 -0.042044163 -0.02064566 -0.0217422 0.035878517 -0.027810875 -0.05407568
0.099796936 0.062729254 0.023073247 0.03347172 0.07557523 -0.09588717 0.04960118 -0.16101532
0.08941538 -0.08092426 0.05617655 0.114786856 0.005264582 -0.061585795 0.007914598 -0.0044946885
-0.08371115 -0.0434382 -0.081426986 0.14462811 -0.14556833 -0.108293176 0.030821828 0.036916118
0.10822055 0.064940766 0.042581663 0.078905314 -0.1257393 -0.022690173 -0.0008958209 -0.12905522
-0.051686052 -0.014790372 0.0050354972 -0.045808285 0.018052643 0.10062264 0.062099054 -0.080392174
-0.08734817 0.03583298 -0.0029619976 0.07107083 -0.13975878 0.0047628237 0.024582712 0.08967843
0.079540335 0.019472413 0.111957416 -0.09217046 -0.0047747325 0.10932944 0.09365404 0.04027838
-0.058010075 0.102709115 0.030194854 -0.073058575 -0.11808738 0.10303973 0.061298776 -0.03394715
-0.013876986 0.12706082 -0.12342368 0.043434788 0.0009036803 -0.01425955 0.017039806 0.08004124
0.052821934 -0.019229965 -0.08215536 0.14914523 -0.012526278 -0.014171472 -0.09136446 0.08934895
0.05318344 0.023189792 0.05782432 -0.2143148 -0.044738743 -0.10583782 -0.22269699 0.10128989
-0.06459632 -0.08735332 0.008709904 -0.005490089 0.14231879 -0.07271538 0.020030458 -0.027395632
-0.056508567 0.066092014 -0.042889815 0.16999047 -0.052618798 -0.02230888 0.06284029 -0.050064575
0.03773367 -0.054415815 -0.05600075 0.03422192 -0.008723075 -0.024307944 0.21220382 -0.10230864
-0.041623466 0.15574847 -0.092095375 -0.19530356 -0.05571831 0.10932894 -0.010489069 0.15419087
-0.032902963 0.05118068 0.1161565 -0.062130973 -0.12328896 -0.034416933 0.0117735285 -0.10361578
0.15944333 0.014469363 0.010232826 -0.046153672 -0.017068846 -0.19085227 -0.053979594 -0.09432754
-0.083167255 0.1959328 -0.12652995 0.09119302 -0.015244014 -0.07296161 -0.09158701 -0.10717776
0.14283049 0.12305996 0.075244226 -0.13532221 0.030930934 -0.010532992 0.01973835 0.11114283
0.016791487 -0.025088428 0.04788263 -0.016547656 -0.00540913 0.105891265 -0.09866315 0.11788676
0.13147801 0.08645175 0.08687828 -0.12690654 0.0866419 -0.15103565 -0.07003776 -0.031558312
-0.007992972 0.03824178 0.00398618 0.052076783 0.15066057 0.07057305 -0.06259234 0.12044566
0.1422017 -0.028147148 0.025883019 0.110751875 -0.04284789 -0.06638712 0.013041155 -0.0063301516
0.09048025 0.17344324 -0.0029105674 0.026900787 -0.05238394 -0.08699454 0.13978885 -0.129226
-0.045522034 -0.09839898 0.07719871 0.070188105 -0.09206544 -0.027170949 -0.15007322 0.017768735
-0.052138187 0.05885787 0.056201484 -0.1036294 -0.005258076 0.016834991 -0.016732113 -0.07106683
0.0134546 -0.062229853 0.043725032 0.08265631 0.013460061 0.126452 -0.016330516 -0.07377645
0.02219265 -0.0025887857 -0.060713522 0.19672833 0.00863876 -0.09318028 -0.079319224 -0.004587887
00000000: 9a8c 603d 8907 bfbc 5e8b f7bb 303e 3b3d
00000010: fb2f 8fbd 6465 8e3c 8187 333d bb93 663d
00000020: 259e b43d fa4d f13d 4223 dfbd 826c fa3d
00000030: 3f37 d4bc 1e39 a2bd 06ea 99bc ded7 0cba
00000040: 830f 623d cd75 7c3c eaa2 a83d 4974 773c
00000050: 559e a03d cb9b 9ebd a57e cebc 2c5b 063d
00000060: d91a 063c 9426 b9bd 8036 2cbd 1621 a9bc
00000070: b31c b2bc 5af5 123d a2d3 e3bc 767e 5dbd
00000080: 5662 cc3d 3278 803d 1b04 bd3c a419 093d
00000090: 30c7 9a3d 7e60 c4bd 9b2a 4b3d 33e1 24be
000000a0: 691f b73d 9ebb a5bd 6219 663d 5f15 eb3d
000000b0: 8482 ac3b 6341 7cbd 3bac 013c 2e48 93bb
000000c0: c070 abbd 41ec 31bd 31c3 a6bd 6419 143e
000000d0: dd0f 15be d0c8 ddbd 0f7e fc3c 5b35 173d
000000e0: bca2 dd3d aaff 843d 1c6a 2e3d 1c99 a13d
000000f0: cec1 00be bee0 b9bc 86d5 6aba 0d27 04be
00000100: c1b4 53bd 5153 72bc d000 a53b 78a1 3bbd
00000110: 23e3 933c 3e13 ce3d 945b 7e3d a7a4 a4bd
00000120: 99e3 b2bd 9ac5 123d 131e 42bb 958d 913d
00000130: ed1c 0fbe 7611 9c3b af61 c93c 53a9 b73d
00000140: 0be6 a23d 9c84 9f3c ee49 e53d dec3 bcbd
00000150: 5c75 9cbb 1de8 df3d b0cd bf3d f1fa 243d
00000160: f99b 6dbd 2859 d23d 335b f73c bc9f 95bd
00000170: ccd7 f1bd 7e06 d33d 6d14 7b3d 2b0c 0bbd
00000180: 4c5c 63bc 3b1c 023e 8ec5 fcbd ade8 313d
00000190: f5e4 6c3a e3a0 69bc 1097 8b3c a9ec a33d
000001a0: d05b 583d 2988 9dbc 1241 a8bd 87b9 183e
000001b0: 053b 4dbc 762f 68bc 4a1d bbbd 95fc b63d
000001c0: e1d6 593d 85f8 bd3c 32d9 6c3d 5775 5bbe
000001d0: f93f 37bd 80c1 d8bd ae0a 64be 1371 cf3d
000001e0: 134b 84bd 4ce6 b2bd fcb3 0e3c 34e6 b3bb
000001f0: 04bc 113e cdeb 94bd ea16 a43c ce6c e0bc
00000200: 8775 67bd 405b 873d 3bad 2fbd fb11 2e3e
00000210: cf86 57bd 1dc1 b6bc 69b2 803d 8310 4dbd
00000220: 9f8e 1a3d 1ee3 5ebd 0b61 65bd 492c 0c3d
00000230: 3aeb 0ebc 7421 c7bc f54b 593e 3187 d1bd
00000240: 5e7d 2abd 877c 1f3e 809c bcbd a8fd 47be
00000250: e238 64bd dae7 df3d 58da 2bbc 36e4 1d3e
00000260: 42c5 06bd d5a2 513d 76e3 ed3d 0c7d 7ebd
00000270: ec7e fcbd c5f8 0cbd c2e5 403c 8334 d4bd
00000280: 1d45 233e e810 6d3c 95a7 273c a20b 3dbd
00000290: f7d3 8bbc c76e 43be b519 5dbd cc2e c1bd
000002a0: 9853 aabd 9ca2 483e 1191 01be 68c3 ba3d
000002b0: 07c2 79bc e66c 95bd f891 bbbd 0380 dbbd
000002c0: 2842 123e dc06 fc3d a519 9a3d e891 0abe
000002d0: df62 fd3c 9292 2cbc 52b2 a13c da9e e33d
000002e0: 4d8e 893c 3f86 cdbc 9420 443d f38e 87bc
000002f0: 123f b1bb 85dd d83d e80f cabd 9d6e f13d
00000300: 2ca2 063e 9d0d b13d 3ded b13d caf3 01be
00000310: 4f71 b13d 17a9 1abe f56f 8fbd 4a43 01bd
00000320: f4f4 02bc 6aa3 1c3d 809e 823b 774e 553d
00000330: c446 1a3e 9a88 903d 6a30 80bd 37ac f63d
00000340: 539d 113e d994 e6bc a008 d43c e1d1 e23d
00000350: 4581 2fbd f8f5 87bd 92aa 553c 296d cfbb
00000360: b64d b93d 1b9b 313e 38bf 3ebb 0a5f dc3c
00000370: 8b90 56bd 322a b2bd cf24 0f3e d253 04be
00000380: 5075 3abd 6885 c9bd 5b1a 9e3d c8be 8f3d
00000390: ce8c bcbd 9c95 debc cbac 19be bd8f 913c
000003a0: da8e 55bd f314 713d 8733 663d a73b d4bd
000003b0: f04b acbb 89e9 893c c911 89bc 7c8b 91bd
000003c0: af70 5c3c bbe4 7ebd 0519 333d b647 a93d
000003d0: 9687 5c3c a27c 013e 93c7 85bc 1b18 97bd
000003e0: 5ccd b53c 9ea8 29bb beae 78bd 2773 493e
000003f0: 9689 0d3c 4dd5 bebd 1e72 a2bd fc55 96bb

layers.0.forward_s6.A_log f4 [128, 16]
0.018621426 0.7087279 1.0654901 1.3848224 1.6072937 1.7301273 1.8688686 1.9951059
2.1484466 2.270822 2.3597157 2.4108796 2.5385745 2.598413 2.6871896 2.8170125
-0.036417965 0.7163654 1.1464243 1.4169188 1.6859384 1.8446448 2.0252204 2.1505868
2.2396197 2.369376 2.4447525 2.5619583 2.6416154 2.7083964 2.7643363 2.8286538
-0.13197719 0.6061484 1.061291 1.3656521 1.5921841 1.8444339 1.9856611 2.1260958
2.2727022 2.3948596 2.486019 2.5508616 2.6134958 2.7239616 2.7427127 2.8184974
-0.020983156 0.6801202 1.1003851 1.3558967 1.571444 1.8190855 1.9307834 2.0584202
2.2115357 2.2989845 2.3760834 2.4749322 2.5092723 2.6183155 2.670692 2.7539964
-0.013099509 0.6996303 1.1316632 1.4155942 1.6342968 1.811879 1.9722567 2.1073432
2.224621 2.347912 2.4431949 2.52377 2.5991843 2.6808362 2.7397377 2.8083305
-0.039027184 0.67238283 1.1031504 1.3817887 1.64567 1.8077478 1.9744295 2.1020715
2.219077 2.3261445 2.4182417 2.5093644 2.582874 2.6637597 2.7152438 2.791492
-0.016256979 0.67460597 1.0833457 1.3653197 1.5956554 1.7478222 1.9153826 2.0287845
2.146291 2.2779858 2.3729668 2.4360242 2.538738 2.6179757 2.6743383 2.7673826
0.015540688 0.71046734 1.1256179 1.4197043 1.6610725 1.8434887 1.9835998 2.1223578
2.251003 2.3505163 2.451347 2.5207124 2.5944362 2.6733263 2.7454078 2.798644
0.016663274 0.71332973 1.1305406 1.3932966 1.5809444 1.7967426 1.9338475 2.0716875
2.198941 2.2879229 2.4067814 2.4697123 2.5685 2.6435997 2.6901104 2.7493858
0.021842001 0.68489593 1.0999525 1.3786186 1.624728 1.7783144 1.9358606 2.0591333
2.183646 2.271933 2.3697188 2.448099 2.5364232 2.6046689 2.6653168 2.7635496
0.14231864 0.77885306 1.2219596 1.5470198 1.7463883 2.0043333 2.1416113 2.2586303
2.4100177 2.5011373 2.6016808 2.650227 2.7492743 2.806938 2.8943038 2.9542148
0.010457299 0.67632455 1.0811453 1.3684989 1.5885973 1.7722791 1.9280046 2.0545783
2.1775012 2.2743125 2.375905 2.4554114 2.5306835 2.6127477 2.6711278 2.7345884
-0.009825577 0.68442994 1.092941 1.3699023 1.5699533 1.7386281 1.903455 2.018061
2.1233525 2.2509954 2.3345246 2.4040136 2.492241 2.567562 2.6319604 2.706853
-0.044957265 0.66990936 1.0875874 1.360512 1.5635401 1.771494 1.943924 2.0524032
2.1390202 2.2508695 2.3523211 2.4373167 2.5265355 2.582128 2.6559203 2.7146804
-0.010319431 0.6033127 1.0169097 1.2883576 1.5211077 1.6665722 1.8103013 1.9420234
2.0786977 2.177639 2.2842844 2.3389204 2.4212623 2.4954443 2.5883534 2.645545
0.025284695 0.6671229 1.0675718 1.3050789 1.5448211 1.7181758 1.857629 2.0063376
2.1161666 2.177778 2.2782602 2.376211 2.4363809 2.4867449 2.5579941 2.6004863
00000000: f68b 983c 316f 353f fb61 883f dc41 b13f
00000010: cdbb cd3f d074 dd3f 1637 ef3f a15f ff3f
00000020: 2680 0940 2655 1140 9505 1740 da4b 1a40
00000030: 0178 2240 664c 2640 eafa 2b40 ef49 3440
00000040: 012b 15bd b963 373f 08be 923f 985d b53f
00000050: d4cc d73f 521d ec3f 369d 0140 37a3 0940
00000060: ee55 0f40 dba3 1740 d376 1c40 20f7 2340
00000070: 3a10 2940 5e56 2d40 e3ea 3040 aa08 3540
00000080: 0725 07be 8b2c 1b3f 62d8 873f b0cd ae3f
00000090: b0cc cb3f 6916 ec3f 252a fe3f f411 0840
000000a0: f473 1140 6145 1940 ef1a 1f40 5141 2340
000000b0: 8443 2740 6355 2e40 9b88 2f40 4362 3440
000000c0: dee4 abbc 5c1c 2e3f 6bd9 8c3f 068e ad3f
000000d0: 1425 c93f cbd7 e83f e923 f73f 28bd 0340
000000e0: cd89 0d40 9022 1340 c011 1840 4a65 1e40
000000f0: eb97 2040 7b92 2740 9eec 2a40 7a41 3040
00000100: 539f 56bc f91a 333f 57da 903f 3132 b53f
00000110: a330 d13f a7eb e73f e872 fc3f b6de 0640
00000120: 3160 0e40 3144 1640 4e5d 1c40 7385 2140
00000130: 0959 2640 d292 2b40 dd57 2f40 b0bb 3340
00000140: f8da 1fbd 4821 2c3f 0834 8d3f 74de b03f
00000150: 51a5 d23f 4864 e73f 1bba fc3f 5788 0640
00000160: 5c05 0e40 8ddf 1440 79c4 1a40 6d99 2040
00000170: cf4d 2540 0a7b 2a40 8ec6 2d40 cea7 3240
00000180: 5b2d 85bc fab2 2c3f 12ab 8a3f ccc2 ae3f
00000190: 703e cc3f a3b8 df3f 422b f53f 9bd7 0140
000001a0: d55c 0940 85ca 1140 b0de 1740 d2e7 1b40
000001b0: af7a 2240 ea8c 2740 5c28 2b40 cc1c 3140
000001c0: 5f9e 7e3c 30e1 353f 3f14 903f dfb8 b53f
000001d0: 069e d43f 70f7 eb3f 99e6 fd3f b6d4 0740
000001e0: 6f10 1040 dc6e 1640 dfe2 1c40 5a53 2140
000001f0: 3e0b 2640 c717 2b40 c3b4 2f40 fc1c 3340
00000200: 6b81 883c c79c 363f 8eb5 903f 8b57 b23f
00000210: 635c ca3f a9fb e53f 5188 f73f 8796 0440
00000220: 73bb 0c40 546d 1240 b508 1a40 c40f 1e40
00000230: 4e62 2440 bd30 2940 c52a 2c40 f0f5 2f40
00000240: ffed b23c 5755 2f3f 3ecb 8c3f 9376 b03f
00000250: 16f7 cf3f ce9f e33f 48ca f73f d7c8 0340
00000260: dbc0 0b40 5a67 1140 79a9 1740 a7ad 1c40
00000270: c254 2240 e5b2 2640 8d94 2a40 ffdd 3040
00000280: fabb 113e ea62 473f 2c69 9c3f bf04 c63f
00000290: a789 df3f ff46 0040 2910 0940 668d 1040
000002a0: bb3d 1a40 a212 2040 f081 2640 529d 2940
000002b0: 1cf4 2f40 dfa4 3340 463c 3940 db11 3d40
000002c0: 1755 2b3c 9b23 2d3f f862 8a3f f92a af3f
000002d0: 2857 cb3f 0bda e23f dbc8 f63f 367e 0340
000002e0: 2e5c 0b40 568e 1140 d40e 1840 7625 1d40
000002f0: b8f6 2140 4237 2740 c2f3 2a40 7f03 2f40
00000300: 75fb 20bc cd36 2f3f 7ee5 8b3f f558 af3f
00000310: 3bf4 c83f 5e8b de3f 6aa4 f33f e927 0140
00000320: 02e5 0740 4f10 1040 da68 1540 5cdb 1940
00000330: e080 1f40 f052 2440 0a72 2840 143d 2d40
00000340: 1c25 38bd 2e7f 2b3f 1036 8b3f 4225 ae3f
00000350: 1522 c83f 51c0 e23f 80d2 f83f 935a 0340
00000360: b5e5 0840 3f0e 1040 6e8c 1640 fffc 1b40
00000370: c2b2 2140 9641 2540 99fa 2940 53bd 2d40
00000380: d512 29bc b372 1a3f 192a 823f e7e8 a43f
00000390: a8b3 c23f 3d52 d53f f4b7 e73f 3994 f83f
000003a0: 6209 0540 705e 0b40 b731 1240 dfb0 1540
000003b0: f6f5 1a40 5cb5 1f40 95a7 2540 9c50 2940
000003c0: d921 cf3c 91c8 2a3f 31a6 883f d30c a73f
000003d0: b3bc c53f 2fed db3f c9c6 ed3f d667 0040
000003e0: 466f 0740 b760 0b40 04cf 1140 d713 1840
000003f0: aaed 1b40 d426 1f40 2db6 2340 5e6e 2640

layers.0.forward_s6.D f4 [128]
1.0032272 0.94861275 1.0227237 1.0513448 1.0824965 0.97954243 1.0295304 0.980565
0.97190243 0.96401155 1.1497955 0.97547656 1.0207952 0.9649361 1.0891201 0.9827919
1.0539412 1.025182 1.0929711 1.0134604 1.0241233 0.9656543 1.0411224 1.0321846
1.0100217 1.1178297 1.0714736 1.0165106 1.015665 1.0487436 1.0064441 1.0553449
0.9973063 0.96526796 1.0033768 1.093352 0.9875012 1.0710511 0.9791133 1.1181588
0.9948215 1.0776138 1.1034685 1.0582944 0.96642774 1.0101689 0.96697307 1.0268186
0.9211337 1.1161366 0.9573229 0.9802948 1.0590975 1.0389987 1.0109481 1.258646
1.0606793 0.98424935 1.0541769 1.0333508 1.0341847 1.1529397 0.9857404 1.0333672
0.942699 1.0168548 1.0279304 1.2075366 1.0047064 0.9983222 0.96019286 0.999354
0.9776808 1.0070826 1.0062011 1.2112578 1.032262 0.96398807 0.9504128 1.035695
1.1604841 0.926454 1.1437953 0.88014716 1.072359 1.077433 1.1207964 1.0286403
1.074891 1.0539213 1.0591943 0.99524385 1.0091965 0.9744552 1.130708 1.0707213
0.9741386 0.9942004 1.0389494 1.1440252 1.1070514 1.048482 1.1200918 1.1080642
1.0685345 1.0061835 0.98000395 0.99811774 1.0707576 0.98018456 0.9675461 0.9969611
0.9795229 0.8487456 0.9980125 1.0831594 0.95519036 1.0746459 1.0595833 0.9965502
1.0640414 1.0043695 0.9739206 1.1436635 0.76460636 0.99685806 0.979884 0.97711766
00000000: c069 803f 49d8 723f 9ce8 823f 7792 863f
00000010: 3f8f 8a3f 4bc3 7a3f a7c7 833f 4f06 7b3f
00000020: 99ce 783f 76c9 763f 802c 933f d5b8 793f
00000030: 6ba9 823f 0d06 773f 4a68 8b3f 4098 7b3f
00000040: 8ce7 863f 2a39 833f 7ae6 8b3f 12b9 813f
00000050: 7916 833f 1f35 773f 8043 853f a01e 843f
00000060: 6448 813f 0b15 8f3f 0c26 893f 051d 823f
00000070: 5001 823f 3b3d 863f 29d3 803f 8b15 873f
00000080: 774f 7f3f cd1b 773f a76e 803f f5f2 8b3f
00000090: e1cc 7c3f 3418 893f 2ba7 7a3f d41f 8f3f
000000a0: 9fac 7e3f 40ef 893f 753e 8d3f 3176 873f
000000b0: cf67 773f 374d 813f 8c8b 773f cb6e 833f
000000c0: 6bcf 6b3f 90dd 8e3f 1d13 753f 9af4 7a3f
000000d0: 8290 873f e9fd 843f bf66 813f 501b a13f
000000e0: 57c4 873f c4f7 7b3f 45ef 863f d744 843f
000000f0: 2a60 843f 8793 933f 7c59 7c3f 6045 843f
00000100: b954 713f 4c28 823f 3993 833f 8f90 9a3f
00000110: 389a 803f 0b92 7f3f 33cf 753f aad5 7f3f
00000120: 4a49 7a3f 15e8 803f 33cb 803f 7f0a 9b3f
00000130: 2921 843f ecc7 763f 414e 733f a791 843f
00000140: be8a 943f 172c 6d3f e267 923f 5351 613f
00000150: 0f43 893f 53e9 893f 4276 8f3f 7caa 833f
00000160: 0796 893f e5e6 863f ae93 873f 4dc8 7e3f
00000170: 5a2d 813f e575 793f 0abb 903f 650d 893f
00000180: 2661 793f eb83 7e3f 4bfc 843f 6b6f 923f
00000190: dcb3 8d3f a834 863f 2b5f 8f3f 0cd5 8d3f
000001a0: bdc5 883f 9fca 803f 8ae1 7a3f a584 7f3f
000001b0: 960e 893f 60ed 7a3f 1ab1 773f d838 7f3f
000001c0: 03c2 7a3f 6447 593f bf7d 7f3f f8a4 8a3f
000001d0: 5b87 743f ff8d 893f 6da0 873f ea1d 7f3f
000001e0: 8232 883f 2e8f 803f dc52 793f 9163 923f
000001f0: 3ebd 433f 1732 7f3f aed9 7a3f 6224 7a3f

layers.0.forward_s6.x_proj.weight f4 [36, 128]
0.05103004 0.17145513 -0.050136846 0.10791089 -0.0341853 -0.021575639 0.07452672 -0.026615256
0.09092345 -0.09448009 0.014249527 0.15483938 -0.030293848 0.021401463 0.004599658 -0.13954262
-0.12238121 -0.06934826 -0.10322359 -0.020177938 0.06631896 -0.081107885 -0.09726263 0.17927253
-0.06787268 0.084834576 0.120181456 -0.073281795 -0.08275792 -0.03684923 0.11250647 -0.017487947
-0.013415042 0.24076883 -0.06837367 -0.06951328 -0.065785296 0.1477043 0.017339503 -0.05143099
-0.010947008 0.045135904 0.073944815 -0.07904409 0.05453661 0.045729037 -0.18041982 0.008424247
-0.033899188 -0.045515854 0.11385209 0.06149588 -0.08558133 0.13803148 0.118360676 0.08204022
0.06369995 0.08738134 -0.01845107 0.09545466 0.15005295 0.121344544 -0.018020868 -0.119874194
0.0037829834 0.038001195 -0.017648224 -0.19023335 0.042804662 0.109298676 -0.1368267 0.053508736
-0.025314737 0.15574168 -0.06464326 0.12846227 0.025956253 0.13484988 0.11931654 0.011014332
-0.07523342 -0.11244831 0.07968497 -0.089298464 0.0066891015 0.11470395 0.040029053 0.21267276
0.23564845 -0.022876032 0.060075156 0.12797892 0.046137806 -0.08772081 0.10647519 -0.13213778
0.15644039 -0.07452079 0.14499271 0.083026856 0.083778344 0.007513749 0.08640066 0.0483739
-0.026250374 -0.053103194 0.051647346 0.02394119 -0.080606356 0.15428026 0.19673602 -0.14215724
0.086173266 0.024420027 -0.09915666 0.13659298 0.12560654 0.21134679 0.24788441 0.113169335
0.08165475 -0.042351045 0.035024162 0.026928183 0.19772422 -0.16580398 0.25550824 -0.08328845
-0.13368122 -0.20495299 -0.14624025 -0.08163165 -0.03678902 -0.052347023 0.073389955 -0.04264868
-0.15550047 0.042295497 -0.0251691 -0.13535859 0.02051299 -0.07228121 -0.034234665 0.20742698
0.15227738 0.11281129 0.067840636 0.07410037 -0.04247466 0.089976065 0.08337476 -0.2749866
-0.015961265 -0.10255729 -0.07305154 -0.04145661 0.12809283 0.12195578 -0.054124765 0.056129303
-0.036576297 -0.23550116 0.08288034 0.038238898 0.029770795 -0.24423109 -0.02453872 -0.090066664
0.078831986 -0.06390168 -0.020433547 0.0020856531 -0.014998773 -0.01879914 0.26569062 -0.12789138
-0.054081116 -0.029862758 -0.08699456 -0.119901635 -0.00067671266 -0.13941702 -0.07988089 -0.21744898
-0.08957035 -0.14640775 0.012767862 -0.13438493 -0.044374406 -0.15390293 -0.094955355 0.18329869
-0.1620764 -0.15660892 0.022504319 0.16744529 -0.11197361 -0.14466012 0.033504374 0.029190002
-0.1657495 0.01014925 0.09962593 -0.11902748 0.0809404 -0.0978297 -0.17641945 -0.019310731
-0.098166406 0.15978272 -0.003975638 0.013088926 0.03651194 0.09862453 -0.04922801 -0.07231189
-0.14896393 -0.011987786 0.034643184 -0.22520867 -0.08221577 -0.048006576 -0.047167953 0.09938715
0.056939863 0.023195805 -0.014316954 -0.15206166 -0.03862859 -0.10882174 0.046306964 -0.021395994
0.04099613 0.054657087 -0.09747515 0.08269768 0.07911047 -0.120876424 -0.16613644 0.14510797
-0.15301228 -0.06109833 -0.09514287 -0.14610712 -0.123734385 -0.21747747 -0.24958114 -0.0925259
-0.05838846 0.07880847 0.1567143 0.086112246 -0.12698145 0.033287033 -0.27335167 0.051835753
00000000: e004 513d ef91 2f3e 4b5c 4dbd 6200 dd3d
00000010: e305 0cbd 65bf b0bc 77a1 983d 3d08 dabc
00000020: 1336 ba3d c77e c1bd d976 693c 378e 1e3e
00000030: ce2a f8bc 1f52 af3c bab8 963b 43e4 0ebe
00000040: 00a3 fabd 7606 8ebd e466 d3bd 344c a5bc
00000050: 3cd2 873d e41b a6bd a131 c7bd 3893 373e
00000060: d500 8bbd c0bd ad3d b221 f63d c414 96bd
00000070: fc7c a9bd 38ef 16bd cb69 e63d e242 8fbc
00000080: c4ca 5bbc 1b8c 763e 7f07 8cbd fb5c 8ebd
00000090: 71ba 86bd cc3f 173e 930b 8e3c 4da9 52bd
000000a0: 145b 33bc 6de0 383d 6170 973d dee1 a1bd
000000b0: c861 5f3d 5f4e 3b3d f9bf 38be da05 0a3c
000000c0: e0d9 0abd d56e 3abd 492b e93d 1be3 7b3d
000000d0: 4445 afbd 2058 0d3e 1567 f23d b404 a83d
000000e0: 1f75 823d fdf4 b23d b326 97bc bc7d c33d
000000f0: 7ba7 193e 7d83 f83d 80a0 93bc 9a80 f5bd
00000100: eeeb 773b 24a7 1b3d 0293 90bc 88cc 42be
00000110: f153 2f3d fcd7 df3d 4c1c 0cbe fa2b 5b3d
00000120: da60 cfbc bf7a 1f3e af63 84bd 9d8b 033e
00000130: 35a2 d43c 1616 0a3e 3b5c f43d 7575 343c
00000140: fb13 9abd 4d4b e6bd e031 a33d 1de2 b6bd
00000150: 4030 db3b e8e9 ea3d 81f5 233d e3c6 593e
00000160: d44d 713e 8466 bbbc 5e11 763d e80c 033e
00000170: fffa 3c3d f8a6 b3bd aa0f da3d 204f 07be
00000180: e931 203e 5b9e 98bd f878 143e fc09 aa3d
00000190: fb93 ab3d e535 f63b d4f2 b03d b623 463d
000001a0: 060b d7bc bc82 59bd 2b8c 533d 5120 c43c
000001b0: f214 a5bd a5fb 1d3e 2b75 493e ab91 11be
000001c0: 9c7b b03d 820c c83c a612 cbbd 08df 0b3e
000001d0: 009f 003e 4b6b 583e 69d5 7d3e 53c5 e73d
000001e0: 9b3a a73d 4a78 2dbd 7f75 0f3d 7e98 dc3c
000001f0: 3878 4a3e 85c8 29be fad1 823e 2393 aabd
00000200: bbe3 08be 32df 51be 01c0 15be 7f2e a7bd
00000210: 15b0 16bd d569 56bd 794d 963d 62b0 2ebd
00000220: 843b 1fbe 0b3e 2d3d 6e2f cebc 719b 0abe
00000230: dc0a a83c 2c08 94bd a639 0cbd bd67 543e
00000240: 9aee 1b3e 9b09 e73d 08f0 8a3d efc1 973d
00000250: e9f9 2dbd 5f45 b83d 63c0 aa3d 0bcb 8cbe
00000260: 33c1 82bc 8e09 d2bd 0c9c 95bd 68ce 29bd
00000270: c42a 033e f4c3 f93d eeb1 5dbd d7e7 653d
00000280: 07d1 15bd 3727 71be 2bbd a93d 64a0 1c3d
00000290: e2e1 f33c b717 7abe 6d05 c9bc df74 b8bd
000002a0: aa72 a13d e2de 82bd 4164 a7bc 74af 083b
000002b0: 6abd 75bc a700 9abc 9a08 883e f5f5 02be
000002c0: 2984 5dbd bea2 f4bc 342a b2bd fd8e f5bd
000002d0: 6b65 31ba 56c3 0ebe 9898 a3bd f2aa 5ebe
000002e0: a970 b7bd eaeb 15be 4b30 513c 349c 09be
000002f0: f0c1 35bd bb98 1dbe f477 c2bd a7b2 3b3e
00000300: 5bf7 25be 175e 20be fa5a b83c c776 2b3e
00000310: 6c52 e5bd c821 14be e23b 093d df1f ef3c
00000320: 3dba 29be 0a49 263c ae08 cc3d aec4 f3bd
00000330: 15c4 a53d f05a c8bd 4da7 34be 8a31 9ebc
00000340: 780b c9bd 159e 233e 1246 82bb ef72 563c
00000350: 8b8d 153d a8fb c93d 4fa3 49bd 4218 94bd
00000360: 008a 18be 6b68 44bc 03e6 0d3d 1a9d 66be
00000370: be60 a8bd 8ba2 44bd 2f33 41bd 7d8b cb3d
00000380: c639 693d 2105 be3c a891 6abc 0db6 1bbe
00000390: 0339 1ebd efdd debd 5fac 3d3d a746 afbc
000003a0: 8feb 273d 1ce0 5f3d 0da1 c7bd 675d a93d
000003b0: ac04 a23d 0f8e f7bd ac1f 2abe 2f97 143e
000003c0: 40af 1cbe 3e42 7abd 44da c2bd 1b9d 15be
000003d0: 7468 fdbd 6ab2 5ebe 3392 7fbe 387e bdbd
000003e0: bd28 6fbd 5666 a13d b779 203e 9e5b b03d
000003f0: 6d07 02be fc57 083d c0f4 8bbe ba51 543d
