checkpoints/mnist/vision_mamba_mnist_epoch_5.pth (torch, 340018 bytes, 33 tensors)

patch_embed.weight f4 [64, 1, 4, 4]
00000000: 1b8b 923e a299 7e3e 7504 79bc cefc e53c
00000010: 5e52 1c3e 0f0b aa3d 7b4b e2bd d8fc a3bd
00000020: e290 6e3d b8d7 5c3e e8e6 32bd 6489 24be
00000030: 4d27 0bbe e1f8 01be 075c 4b3d b26f 583e
00000040: e676 1bbb ef9e abbd 171a f43c ba81 1dbe
00000050: 17c2 51be 1205 513e 1a57 d03d 6c8f 343e
00000060: aa1c 21be 219b 18be 3b17 883d 5c7f e5bd
00000070: 266b 22be d8db 3d3e 2747 d8bd c084 f83c
00000080: 341d 393e 1b5e cb3d 2a25 0e3d 444a 07bd
00000090: 8a94 843d 1d5d 3fbe 5978 9ebd 637a 35be
000000a0: cecf 833e 8c5e 15bd f81a a2bd e700 8abe
000000b0: e08b bcbe 1f6a 5abe c2ed fe3b ed9d 89bc
000000c0: e6bb 4cbe d195 3a3e 43cd 5a3e 5ebf 3cbe
000000d0: b71f 9e3d 0446 c3bd 62f0 57be a591 81be
000000e0: fa94 a4bd 437f 15be 51f0 403e ebeb 03bd
000000f0: 390b 97bd bfa4 8b3d 0aa6 2ebe d5d4 9bbe
00000100: 09ba 2e3e 4061 27be a13a 0bbe f453 843d
00000110: c8c6 45bd 1a9b f13c 1320 82be d2ff 9fbe
00000120: e774 02be 866c 8dbe 9142 39bd 7b85 ec3d
00000130: a056 833d eb4a 463e 5b22 323e 185a 793e
00000140: a554 693e cfbe 143e 8ceb 98be d4e1 f4bd
00000150: 8664 613e 6da8 583e dba3 18be 4e56 173e
00000160: 3625 3ebd 2490 083e 7102 dabd 845e f13d
00000170: b1d7 a4be def4 6cbe 5839 883d 9c2a 313d
00000180: edfc 083e 5284 4f3e 1649 6d3e 44fc 0d3e
00000190: 8344 1f3d 18f2 82be e74a 1c3e e995 d3bd
000001a0: 5f5c a5bd 440c f33d af82 14be a274 56be
000001b0: bed6 853e 1278 3d3e 6cd8 85bc 1fc7 40be
000001c0: c6ab 233e c7b0 11be cb1e 2abe cf93 7d3e
000001d0: 9508 4f3e 4b4c 41be 2cdf 0d3e df02 6d3d
000001e0: 4c22 2d3e 662b 74bd 9526 47be f392 44be
000001f0: e2a7 5bbb 1634 d4bd 0553 42be d939 3abe
00000200: f8f0 b13d 37c9 a7bd 73f9 11be 35c3 dcbd
00000210: 0ffc 833e e4e1 b73d 06f1 123e 622c 4e3e
00000220: b915 18be 802c e5bd e919 43be b247 d6bd
00000230: 5776 863d bfdf 3c3e c82d 84be bfd3 19be
00000240: 903e 353e 2ad4 683e c3d5 373e a140 13be
00000250: 1e15 96be 083c e4bd 9101 9bbe c512 6bbe
00000260: a60f 083d 58a2 46be 9f0c 21bd bbef 163e
00000270: dbf9 07be b5ad 423e 189c 13be f82a 8e3e
00000280: 742d 983c c5df b0bd 251b 05be fa9d 063d
00000290: c73c 543e 43d0 b5bd 8e12 3ebe 4e63 423e
000002a0: 4f9b 923d 0c87 86bd 6c50 6abe 164f 5c3e
000002b0: ba4e 553e d8e4 6e3d dcd0 1c3e 5ac0 123d
000002c0: 112c c2be 6cd3 2bbe 4b81 78be c162 9e3c
000002d0: 6426 0dbe 37e4 6a3e 06fa e43c 46d2 13be
000002e0: 5351 9e3d f34f 1c3e cac0 fcbd 81fa d7bd
000002f0: b972 64be f6d0 ffbd f9f2 4f3e 22ab 5abe
00000300: 15e6 cd3d f04f 033e adab 6d3e 5e87 b8bd
00000310: 35f2 643e 6f90 213d 5e98 c7bd 6400 18bc
00000320: 1aa4 683e 3bfa 50be 64e8 fabd db38 ab3d
00000330: 72de 523d 9d44 3e3e 01b6 60be 8cdc 9bbd
00000340: e5f2 5d3d e6c7 9a3e b07a 55bd 4752 73be
00000350: 5ce6 a2bc 7c40 97bd bdbf 20bd 6f45 42be
00000360: fc68 91bd e3b2 fd3d 16ea 7fbe c5c8 7fbe
00000370: b7e7 323e 1a10 ae3d c40e db3c 3f40 e13d
00000380: 37a4 90be 6664 d3bd 4996 4bbe 0c75 b13d
00000390: 02b5 6cbd db8d 91be 32f8 85be 681a ed3d
000003a0: d306 f03d 3529 23be 8cf6 b13d 344a 2bbe
000003b0: d222 9b3d bc43 823e a35f 243e 7c28 2d3e
000003c0: 95d1 c3bc 074f b7bd 07d4 c6bd 0893 1b3e
000003d0: 896f 513d 1ead 023e 6308 38be 6572 113d
000003e0: 76de 8b3e 1567 543d b9cd 513d f3a0 aa3d
000003f0: 704f 4dbe 2947 7fbe 4108 20be 985c 96be
0.28621754 0.24863294 -0.015198817 0.028074648 0.15265796 0.083028905 -0.11049553 -0.080072105
0.05824364 0.21566665 -0.04367724 -0.16068035 -0.13589211 -0.12692596 0.04964831 0.21136358
-0.0023721992 -0.083799236 0.029797597 -0.15381518 -0.20484196 0.2041209 0.10172863 0.17632836
-0.1573359 -0.14902927 0.06645056 -0.112059325 -0.15861186 0.18540895 -0.10560446 0.030336738
0.18077546 0.099300586 0.03470341 -0.03302981 0.06473644 -0.18687864 -0.07737798 -0.17722468
0.2574448 -0.03646712 -0.079153 -0.26953813 -0.36825466 -0.21329544 0.007779808 -0.016798938
-0.19993553 0.18221213 0.21367364 -0.18432376 0.07720893 -0.09534839 -0.21087793 -0.2530643
-0.080362275 -0.14599328 0.18841673 -0.03220741 -0.073751874 0.06818532 -0.17055526 -0.30435815
0.17063154 -0.16345692 -0.13596584 0.06461325 -0.048285276 0.029492904 -0.25415096 -0.31249863
-0.12739907 -0.2762186 -0.0452295 0.11548897 0.06413007 0.19364516 0.17395918 0.24350774
0.22786196 0.14525913 -0.29867208 -0.11957136 0.22011003 0.21158 -0.14906256 0.14779016
-0.046422206 0.13336235 -0.10644997 0.117856055 -0.3219581 -0.23140284 0.066515625 0.043253526
0.13377734 0.2026532 0.23172411 0.13865763 0.038883697 -0.25575328 0.15262948 -0.103313275
-0.08074259 0.11867574 -0.14502977 -0.2094293 0.26140398 0.18502834 -0.01633855 -0.18825959
0.15983495 -0.14227591 -0.16613309 0.24763416 0.20218118 -0.1887676 0.13854665 0.057864066
0.16907614 -0.0596117 -0.19448312 -0.19196682 -0.0033516814 -0.10361497 -0.18976982 -0.1818613
0.08688539 -0.081926756 -0.14255314 -0.1077942 0.25778243 0.08978632 0.14349756 0.20134118
-0.14852037 -0.11190128 -0.19052853 -0.104628935 0.0656554 0.18444727 -0.25816178 -0.15022181
0.17699647 0.22737184 0.17952637 -0.14380123 -0.29312986 -0.111442626 -0.30274633 -0.22956379
0.03321805 -0.19397867 -0.039318677 0.14739887 -0.13278906 0.19011576 -0.14415014 0.27767158
0.018576361 -0.08636431 -0.12998636 0.032865502 0.2072631 -0.088776134 -0.18561766 0.18983194
0.07158529 -0.06568727 -0.22882241 0.21514544 0.20830813 0.05832371 0.15314049 0.035827972
-0.37924245 -0.1677987 -0.24268071 0.019334199 -0.13784176 0.2293862 0.027951252 -0.14435682
0.07730355 0.15264873 -0.12341459 -0.10545827 -0.22309388 -0.12491028 0.2030753 -0.21354344
0.1005365 0.12823462 0.2321002 -0.09010194 0.2235802 0.039444383 -0.097458586 -0.009277437
0.2271885 -0.20407955 -0.12251356 0.08360454 0.05148167 0.18580861 -0.21944429 -0.07610425
0.05418672 0.30230635 -0.052118957 -0.23761855 -0.019885235 -0.07385346 -0.039245356 -0.189718
-0.07100102 0.123876356 -0.2499164 -0.24978931 0.17471205 0.08499165 0.02674044 0.10998582
-0.28250286 -0.10321884 -0.19881548 0.08664903 -0.05778981 -0.2842854 -0.2616592 0.11577302
0.117200516 -0.15933688 0.08689603 -0.16727525 0.07575001 0.25442302 0.16052108 0.16909975
-0.023903647 -0.0895062 -0.0970841 0.15192807 0.05113176 0.12761351 -0.1797195 0.035509486
0.27318162 0.05185612 0.051221583 0.0833148 -0.20049834 -0.24929489 -0.15628149 -0.29367518

patch_embed.bias f4 [64]
00000000: 7004 873e 3834 59be 6734 13be f271 ce3d
00000010: 1492 c7bd 16a9 153c 91ff aebd f364 78be
00000020: 257a b8bd 2e15 23be 3312 f7bd 3f5e 113e
00000030: 5dd0 8f3e 87a7 60bd 148a c9bd f2cf d43d
00000040: e4f0 39be 536e 8dbe 3b65 42be fe93 6c3d
00000050: b4fb 72be 585c a63d a0e1 cf3c 4f1b 1bbe
00000060: 85c4 643e 794f 603e 3283 d63d 7201 89bc
00000070: 5722 e3bd 013a 6b3d faba 45bd af13 0cbe
00000080: 0e10 1e3e ac7c 103e a73a 0b3e d73e 883d
00000090: 1e28 2fbe 3178 8abd de3e d13c 16b1 0dbe
000000a0: ffc3 71be 09f2 6a3d 4736 1bbe 149f b03c
000000b0: 8bd8 9dbe fdd6 6e3c fca7 5f3e 3013 32be
000000c0: 63c7 593d 4346 813e 7c1b 833d c3ff 723e
000000d0: 5ddc d03a 0fc6 9ebd b65b 8c3e 7599 873e
000000e0: a1ec cc3d 8a2b 1d3e bb2e 433e 9f3b 5f3e
000000f0: 9759 8bbd ce48 573a 7d13 643d 1f74 683e
0.26370573 -0.21211326 -0.14375459 0.10080327 -0.09744659 0.0091345515 -0.08544839 -0.24257259
-0.09007672 -0.15926048 -0.12064018 0.14196108 0.28088656 -0.054847267 -0.098407894 0.10391225
-0.18158299 -0.27623233 -0.18983929 0.057758324 -0.2372883 0.08123082 0.025376141 -0.15147136
0.22340591 0.21905316 0.10474242 -0.016724322 -0.11090534 0.057428364 -0.048274018 -0.13679384
0.15435812 0.14110059 0.13596593 0.06652611 -0.17105147 -0.06761206 0.025542673 -0.13837084
-0.23609923 0.05735973 -0.15157424 0.02156023 -0.30829272 0.014577624 0.21841425 -0.17390132
0.053168666 0.25248918 0.064017266 0.23730378 0.0015934814 -0.077526204 0.2741372 0.26484266
0.10006071 0.1534864 0.19060795 0.21800087 -0.06804197 0.0008212448 0.055682648 0.22700547

layers.0.in_proj.weight f4 [256, 64]
00000000: 3fb5 e1bd a917 9b3d 3831 ffbd 667f d6bd
00000010: b77f 72bd 420e 33be 4268 0dbc 3dce 9fbd
00000020: 51b7 00bd 2966 02bd b205 fbbd 3992 1fbd
00000030: 19f6 c9bd 4899 debd 084f 9a3d 6d10 9c3d
00000040: 2c7c f4bb c2cc 5b3d 0adb 9cbd 4aa0 9f3d
00000050: 1159 10be 8c70 a4bd 22c5 523e 1142 ff3d
00000060: 6b39 bebd 718b 11be dfef 0d3e bf72 b53d
00000070: 4031 c73d 5f73 d53d c546 283d 855a 45bb
00000080: 1331 b5bd 0aa5 61bd 2d47 26bd 6a40 c93d
00000090: 03a4 123e 9d1f 483d 5828 bf3d db65 4dbd
000000a0: 5a20 703d 5974 d13d 6b1f 533d 351a c2bc
000000b0: 81e1 053e a9da 333d b0ba 793d 4c66 bbbd
000000c0: 2401 1bbe 7fa5 083e e85f 07be 3a74 123e
000000d0: da8c a23d c9ad b7bd 4e7a aabd 7542 10bb
000000e0: b229 0e3e 7466 663b 5b3a 7c3d e7fe 1bbe
000000f0: 5d6c fd3d eb97 c83c 708c a7bd df04 1cbe
00000100: 2869 e93c 4cfe e6bd f054 5ebd fe9b 5bbd
00000110: 5438 53bd f30d 7c3e dde7 5fbd 8c3c 593d
00000120: bfba 8ebd 803d 99bd add1 953d 7e27 16be
00000130: 4372 2c3d 67e1 cbbd 59b9 e1bd 9a4b 843d
00000140: bf09 0fbe 61b4 f6bd 0a8d c13d c86b 413c
00000150: 2f35 303e 7b4d 933d 7e04 433d 5687 093e
00000160: 48bc 373d a1f3 6fbd e332 91be 9443 7b3d
00000170: 41b8 403d 290b 10bd 8ca7 1f3c ed5d 18bc
00000180: 5676 1cbe 4d44 3a3d b700 473e 88c1 fbbd
00000190: 2cd3 613d 1b4f 0b3d 74b3 813e 61ea ccbd
000001a0: 783c d6bd 0527 9cbd 25d2 b7bd 662a d9bb
000001b0: c81e ce3d a5b9 373e 9e97 03be 4fb3 153e
000001c0: f2e5 be3d 8a65 ec3d e033 eebc 044e 833d
000001d0: 3c38 1cbe f843 87bd 8ec3 50bd 58c6 0dbd
000001e0: 084e c5bc ec63 d23d 1e58 4bbe dc7f 2d3e
000001f0: 0a35 0dbe f7ed 633d 32d1 86bd 4091 073e
00000200: 9bc0 083d 24e9 4d3e 887f 5b3d bf94 443e
00000210: 8352 14be 4af7 f6bb a834 aebc 49c8 673e
00000220: c245 de3d 68c6 3abd 35ca 01be 196c b43c
00000230: 641a 133e 0f2e bfbd 9552 45be a540 653e
00000240: 7e78 94bd 17a1 96bc 879d 45be 41f4 06be
00000250: e934 14bd d357 b3be 8ff5 b03d 5d63 06be
00000260: 1e72 213e ca40 733d 0bc8 bb3d 972c 153d
00000270: 6b9f 83bd 078b 79be 20a9 29be 2ea4 143e
00000280: 73aa 87bd cfd7 46be b198 553d fe9b d6bd
00000290: c071 e3bd c5db 36be ff6a b8bc 4015 e53d
000002a0: adfc b63d 112e 0ab9 29f4 c43d 7acd e7bd
000002b0: 3831 363d ae49 18be c1e1 a6bc 8b5a 113e
000002c0: a464 b3bb ac64 733b 013e 98be cb2f 1abe
000002d0: 2ce7 873d aef6 bbbd 86f6 b63d ef50 623c
000002e0: 3cdb dbbd cd7a 82be f49c 20be a608 22be
000002f0: 31e1 583e 7c22 a9be 1291 823d 5e30 24be
00000300: 2ee4 fabd ddad 903b ec30 2fbe cb37 b5bd
00000310: 5261 85bc 6a8c bbbd 8ec5 94bd 441b 5cbe
00000320: 34f6 27be d4aa c8bd 7703 933c 06b9 b6bd
00000330: d918 abbd 2dc7 e3bd f0ee 023e 3769 ffbd
00000340: b532 973d 8b30 cfbc 0e52 563c 87b5 c63d
00000350: b8b5 403d f312 b33d ff42 9fbd 6314 00be
00000360: d305 2e3e a01e b5bd aae8 ae3d fab1 f6bd
00000370: 54e1 883d 4360 ee3c e370 6d3e 9a12 8bbd
00000380: 36fd ae3d cb20 373e 1776 51be baa8 003e
00000390: 8de6 853b d301 a03d 572e 3cbd e6c6 21be
000003a0: 1b15 a83d 0f22 e43d 0fe9 74be 691c 5abd
000003b0: 6338 7bbd 80a4 b83c 5205 953c 5401 3f3d
000003c0: 2db5 613c 609c ee3d be4d c6bd f77f d53d
000003d0: 2441 053a 391a d6bd 593b 993d dca8 b93d
000003e0: 0817 ae3d ea52 273e 9355 5f3d f574 8d3d
000003f0: eb71 a0bd 7e5a 563d 96ae 853d 0c78 15bd
-0.11020898 0.07572872 -0.124605596 -0.10473518 -0.05920383 -0.17485908 -0.008630814 -0.07803009
-0.031424824 -0.03183571 -0.12256946 -0.03895781 -0.098613925 -0.1086908 0.07534605 0.076203205
-0.0074610915 0.05366207 -0.07658966 0.077942446 -0.14096476 -0.08029279 0.20583013 0.12463773
-0.09288295 -0.14213349 0.13861035 0.08859777 0.097261906 0.10422396 0.041083116 -0.0030113768
-0.08847251 -0.055089034 -0.040595222 0.09826739 0.14320378 0.048858274 0.09333867 -0.050145965
0.058624603 0.1022727 0.051543634 -0.023694137 0.13074304 0.043909702 0.060969055 -0.09150371
-0.15137154 0.13344382 -0.13220179 0.1430215 0.079370216 -0.08968694 -0.08324109 -0.0022012268
0.13883093 0.0035156282 0.06157909 -0.15233956 0.12374184 0.024486503 -0.08181083 -0.15236233
0.028492525 -0.11278972 -0.05428022 -0.053615563 -0.05156739 0.24614696 -0.05466448 0.053036258
-0.06969213 -0.07482433 0.07315383 -0.14663503 0.042101156 -0.099551015 -0.110216804 0.06459732
-0.13968562 -0.12046123 0.09450729 0.011805482 0.17207788 0.071925126 0.047611706 0.13430533
0.044857293 -0.058581952 -0.28359136 0.061343744 0.04705072 -0.035166893 0.009744536 -0.009299737
-0.15279517 0.045475293 0.19433866 -0.122927725 0.05513303 0.034010988 0.25332224 -0.10005642
-0.10460752 -0.0762463 -0.08975629 -0.0066273687 0.10064465 0.17941912 -0.12850806 0.14619182
0.09321202 0.115428045 -0.02907747 0.06411365 -0.15255827 -0.06604761 -0.050967745 -0.034612983
-0.02408506 0.10272965 -0.19857833 0.16943306 -0.13789764 0.055646863 -0.065828696 0.13239002
0.033386808 0.20108467 0.05358842 0.19197367 -0.144846 -0.0075368034 -0.021265343 0.22634996
0.10853149 -0.04559937 -0.12674792 0.022024201 0.14365536 -0.09334957 -0.19269784 0.22387941
-0.072495446 -0.01838736 -0.19298373 -0.13179113 -0.03618327 -0.35027942 0.086405866 -0.13123842
0.15766189 0.05938796 0.091690145 0.036419477 -0.06426891 -0.24369441 -0.16568422 0.14515755
-0.066243075 -0.19418262 0.05214757 -0.10478972 -0.111056805 -0.17857273 -0.022511957 0.11185694
0.08934913 -0.00013177867 0.09616882 -0.113184884 0.044480532 -0.14871857 -0.02037132 0.14194696
-0.005474644 0.0037138863 -0.29734805 -0.15057294 0.066358894 -0.0917791 0.08933739 0.013813241
-0.10735175 -0.25484315 -0.15684873 -0.15823612 0.21179654 -0.33034122 0.06375326 -0.16034076
-0.12250553 0.0044152574 -0.17108506 -0.08848532 -0.016281758 -0.09157641 -0.07264243 -0.21494776
-0.16402513 -0.09798208 0.017945988 -0.08922009 -0.08354349 -0.11121974 0.1278646 -0.1247124
0.073827185 -0.025291702 0.013081087 0.09702592 0.0470483 0.08743849 -0.0777645 -0.12507777
0.1699441 -0.08843732 0.08540471 -0.12045665 0.06683603 0.029098636 0.23187594 -0.06790657
0.0854439 0.17883603 -0.20455204 0.12564364 0.0040863217 0.07812848 -0.04594263 -0.1579853
0.082071505 0.11139309 -0.2391703 -0.05324975 -0.06133307 0.022539377 0.018191013 0.046632126
0.013776106 0.1165092 -0.09682797 0.10424798 0.0005083254 -0.1045422 0.07482023 0.090654105
0.085004866 0.16340223 0.05452497 0.069070734 -0.07834228 0.052332394 0.0652744 -0.03649144

layers.0.conv1d.weight f4 [128, 1, 4]
00000000: de4b 463e db63 debe 2302 2fbe aa27 603d
00000010: 2da5 d03e a15d d73e 68e8 d43e 9396 803e
00000020: 04ae 48bd 7ade da3e 02a1 2c3e edca 663e
00000030: 368a 133e 040b a0be 3e94 ef3e 2fa4 5abc
00000040: f4d2 053e 66d4 9bbe 5552 d63e 12dd 21bd
00000050: 4b0b ccbe 2c34 8fbe 606f b43c 74bb c5bd
00000060: 8224 ccbe d542 333e 5254 93bd 3100 c2be
00000070: b2e3 b2bd d049 863e 8a28 dc3d 2fe0 9a3e
00000080: 4f1b 173e 80aa d43d f135 ce3e 5f83 0f3f
00000090: b0c7 bcbe 0cdf aebe 5a47 9c3d 41a8 1c3e
000000a0: 94cd 14bd 36c7 cc3d 85e8 143f a73a c6bd
000000b0: b630 2cbe 015a 1dbe b08a 953e fbb5 99bd
000000c0: 01c7 c3bd 3975 853e b41b 2e3d 45f3 cc3e
000000d0: 7ecf efbd a7f8 c4be 7770 c0be 511b 05be
000000e0: 648b 4dbe c73a a13e 25c3 27be e99b 93be
000000f0: 551f 183e 3b01 bcbe f30a d73e 0f52 a33d
00000100: 6c0f 543e b258 92be 02b4 e03e 56a3 743d
00000110: 276e 0dbf 514a 993e 1d4c 9fbc bbbb 3c3d
00000120: a876 e8bd 91ce 143e cb37 a33e 86f5 d3be
00000130: 4030 d73d 1718 df3d 1b6a 333c 4ded f63e
00000140: 94b3 833e eca8 603e e2f1 e83e 9150 243b
00000150: 25a5 82bd 093b 32be 855f 9c3d ee13 413e
00000160: 3488 9c3e cc83 903e d089 a4be df2b 953e
00000170: f94c 59be 324a fabe b9da 563e db65 2fbe
00000180: e56e dc3e eaa2 c13e 1647 15be ac8a fa3c
00000190: f635 48be 004d f63e 059b 893e c481 a3bc
000001a0: 858b aebe 7036 5d3c 8267 fe3e 4c1c b6be
000001b0: 4af2 2dbe b935 acbd 7838 443e 81d9 363e
000001c0: 7753 0b3e 7589 e23e ef80 e23d df57 903e
000001d0: c08f ecbe afea 80be 1967 fc3e e2a8 9c3e
000001e0: dd26 743e 5fa7 cb3d 5e9b 29bd 145b 0a3f
000001f0: d4ec a7be 8b5a ac3e b1b3 4e3d 132f f3be
00000200: d814 a23e ccb6 643d 9962 e5be 9206 c13e
00000210: 44be 243d d51f ae3e 1687 b73e 6d04 ae3e
00000220: e91b 8ebd 9de6 5f3d 4ba2 eebe b579 dbbd
00000230: e90e 9a3e b3d6 e4be 6f60 e63e d3ce 3a3e
00000240: ed0f f0bc 8434 c63d 6cf5 163e c487 fdbe
00000250: cb93 eebd a22a f53e 1470 5d3e 8d51 9f3e
00000260: a2c7 a43e eb5c c3bd cbcd e43e 7fa6 903e
00000270: 3e71 2b3d cd4b 533e 1fde f2be 05b1 153c
00000280: a59b 55be a16e 52bd 13ee 853d d6c9 b2be
00000290: 2e80 213e ea08 023e da2d a2be e55a f2be
000002a0: e7d1 733e d213 dcbe 57e7 da3d 585e 08bf
000002b0: b9d0 78be 5383 323e c454 b7be b10b 053e
000002c0: 1c68 80be 8875 c8be a998 303c f3b4 bb3e
000002d0: 2396 05be 50c7 eb3e afdf 803e 1cd6 0a3e
000002e0: 7cd7 a83e b2f3 74be ee53 933e b854 b33e
000002f0: 1d48 a0bd 097f 183f d161 3ebe ff81 3abe
00000300: f791 613d ca7d 0b3f 0185 9ebe 2b14 093e
00000310: 88db cdbe 9c6c 763e 8775 febe 9594 c9bd
00000320: 5138 ff3b ec45 b1be 391d 073e 1bb4 efbc
00000330: e502 06bf 7273 403d 03fb 31bd 5060 a7be
00000340: bace e9bd 9a4a 03be 7dbd c33e 6bd4 ccbe
00000350: 6ebe 023f e744 f6bd 4872 e7be 4fc0 c9be
00000360: 1726 e73e 5b12 73be 078f e53e 74b6 f13e
00000370: bbd9 36be d841 f6be a4d3 13bf 3d12 a23d
00000380: f696 c0be aa00 da3e cab6 c3bd 11a8 cd3d
00000390: 9980 2d3f ac4b 08be f1fc 373d b398 4e3d
000003a0: bce5 ed3e 2583 98be 9c8c 89be 462a eb3d
000003b0: 44f9 58bd 68bc d43e 478a 073f ae8f 403d
000003c0: e9c2 983c fff7 0b3f 5c73 aa3e 017f 0d3e
000003d0: 4089 1ebe ae2b 08bf acdf 06bf 17fa 0e3e
000003e0: 6dd4 f2be 5a89 dcbd 9036 43bd 61ff eebe
000003f0: a6a0 8c3d 5eb2 3abe a0b4 a3bd 27d9 fa3e
0.19364879 -0.4343556 -0.17090659 0.054725327 0.4075102 0.4206362 0.41583562 0.2511488
-0.04899408 0.4274786 0.16858295 0.22538348 0.14408192 -0.31258404 0.46792787 -0.0133448085
0.13068753 -0.30435485 0.4185969 -0.03951747 -0.39852366 -0.2796949 0.022025764 -0.096548945
-0.39871603 0.17505963 -0.07193817 -0.3789077 -0.08734836 0.2622819 0.1074992 0.30249164
0.14756511 0.10384083 0.4027553 0.5605983 -0.368711 -0.34154546 0.07630797 0.15298559
-0.036328867 0.09998934 0.58167297 -0.09679156 -0.16815457 -0.15366365 0.29207373 -0.07505413
-0.09559441 0.26065996 0.04250689 0.4002935 -0.11709498 -0.38470957 -0.37585804 -0.12998702
-0.20072705 0.31490156 -0.16383035 -0.28829888 0.14855702 -0.3671969 0.4200054 0.07974636
0.20709008 -0.28583294 0.43887335 0.05972608 -0.55246204 0.2993951 -0.019445473 0.04607747
-0.11350757 0.14531924 0.31878504 -0.41398257 0.1050725 0.10893267 0.0109505905 0.4822792
0.25722945 0.21939439 0.45497042 0.0025072435 -0.06379155 -0.17405333 0.076354064 0.18855259
0.30572665 0.28225553 -0.32136393 0.29135033 -0.21220769 -0.48884732 0.20981874 -0.17128699
0.43053356 0.37819606 -0.14577898 0.030583702 -0.19551834 0.4810562 0.26876083 -0.019959338
-0.3409082 0.013501748 0.49688345 -0.35568464 -0.16986957 -0.08408684 0.19162166 0.17856409
0.13606058 0.44245496 0.110597484 0.2819204 -0.46203423 -0.2517905 0.49297407 0.30597597
0.2384295 0.09944033 -0.041407935 0.54045224 -0.32797873 0.3366283 0.050464336 -0.47496852
0.31656528 0.05583839 -0.44801787 0.37700325 0.040220514 0.3400866 0.3584525 0.33987752
-0.06938917 0.05466329 -0.46608195 -0.10716573 0.300895 -0.44695053 0.44995448 0.1824296
-0.029304469 0.09677985 0.14742059 -0.49517643 -0.11649283 0.4788409 0.21624786 0.31116906
0.32183558 -0.09539207 0.44688258 0.28252026 0.041856043 0.20634384 -0.4743509 0.009136443
-0.20860155 -0.051375035 0.0653955 -0.34919614 0.15771553 0.12698713 -0.31675607 -0.47334972
0.2381054 -0.42983872 0.10688656 -0.5326896 -0.24298371 0.17432909 -0.3580686 0.12992741
-0.2507943 -0.3915217 0.0107785845 0.3666149 -0.13045554 0.460505 0.25170657 0.13558239
0.32976902 -0.23921087 0.2877497 0.35025573 -0.078262545 0.5956884 -0.18592001 -0.18213652
0.055070844 0.54488814 -0.3096085 0.133866 -0.40206552 0.24064869 -0.4969904 -0.09842793
0.007788696 -0.3462366 0.13194741 -0.029260686 -0.52348167 0.046985097 -0.043452274 -0.32690668
-0.11416383 -0.12821427 0.38230506 -0.40005812 0.5107182 -0.12024861 -0.45204377 -0.39404532
0.45146248 -0.23737471 0.44835684 0.47209513 -0.17856495 -0.4809711 -0.5774481 0.07913635
-0.37615174 0.42578632 -0.095563486 0.10041822 0.6777435 -0.13310117 0.044918958 0.050438594
0.46464336 -0.29787555 -0.2686509 0.114826724 -0.052972093 0.41549993 0.5294537 0.047012024
0.018647628 0.54675287 0.33291137 0.1381798 -0.15482044 -0.5319165 -0.52685046 0.13962589
-0.47427693 -0.10768385 -0.047659457 -0.46679214 0.06866579 -0.18232104 -0.07993436 0.489938

layers.0.conv1d.bias f4 [128]
00000000: 4329 803e bf46 e5be 249b 633d a99a 33be
00000010: f6b0 c43e 4975 19be fbe9 c43e 183b 783e
00000020: 3921 e6be 39e3 0e3f 78ca 18be c72d 11bf
00000030: 3e49 663d 3165 3b3e 67e9 04be fe47 803e
00000040: b36d f03d 08a8 0e3f fe7f 903e e6c5 613d
00000050: 5cbc a83e 3192 d83e a2df 063e 8723 803e
00000060: 5072 f73c f46e bebe 476f 17bf ed93 283d
00000070: 4e08 633e eea9 b73e 7204 8dbe fd14 a5bd
00000080: e28e 073e cf76 04bf 6bce e33e 0f4d e33e
00000090: 0d30 0e3f dab6 43be bf36 083e ba57 e53e
000000a0: 2c51 063f 5e2e 473e 02fb 2a3e aa29 c53e
000000b0: 1519 84be b6e5 a8be 0b2f 103f a4d2 82be
000000c0: e78f 07bc 70a5 c0be 1836 c9be ea6d 4ebe
000000d0: 1784 163f b8ae 84be 6988 24bf 5c06 d1bd
000000e0: 4139 14bd f2a5 e7be 3519 cebc 1c62 c7bc
000000f0: e89d eabd 13a7 72bd a97f 083e 8ad6 123f
00000100: 6a6f 18bf 5396 053c 2812 9d3e e072 123e
00000110: ab14 a03e 52b0 a4be 7829 913e f17b 833e
00000120: ed4f 8abe 8c8b ae3e 7c44 15be efcf 16be
00000130: 271f 493c 630a 9bbe 8823 11bf e0eb bdbc
00000140: 69d4 a63d 99a4 203f 06d8 ad3e 5b66 93be
00000150: cce6 d83e e4df afbd 0e4a f33e 9432 d7be
00000160: 0b75 fabe 150b 1e3c f95d 9cbd eb51 e3be
00000170: f367 543e 9969 553e fa88 e4be 7d1b 053f
00000180: 2182 40bc 1b9e 013f 61b4 b6be be13 0e3d
00000190: 2682 c43e 8766 0fbe d99f e23e 4485 31be
000001a0: 1848 1b3f 432d 0c3f bad3 0cbf 66c8 623e
000001b0: 1237 923e 96db 2bbf 1f21 313e 5dfb 043f
000001c0: f004 9ebe bd4c 6cbd 09d5 783c dbfb 99be
000001d0: 69f0 08bf 419a 01bf c2aa 05bf 674c e8be
000001e0: 9ff2 ca3e 2ae5 9a3d c548 183f b694 073c
000001f0: e294 82be 8c33 f63e 3b60 cebe 85a8 c43e
0.2503148 -0.44780537 0.055567876 -0.17539467 0.3841626 -0.14986147 0.38459763 0.24241292
-0.44947222 0.55815464 -0.14920986 -0.56710476 0.056222193 0.1830032 -0.12979661 0.25054926
0.117396735 0.55725145 0.2822265 0.05512037 0.32956207 0.42299035 0.13171247 0.25027105
0.030205876 -0.37194026 -0.5915417 0.041156698 0.22171137 0.35871834 -0.27542454 -0.08060644
0.13238099 -0.5174379 0.44493422 0.4439473 0.5554207 -0.19112721 0.13302134 0.44793493
0.5246761 0.19451281 0.16697314 0.3850835 -0.25800386 -0.32987756 0.5632178 -0.2555133
-0.008274055 -0.3762622 -0.39299083 -0.20159116 0.58795303 -0.2591455 -0.64270645 -0.10206291
-0.036187414 -0.45243794 -0.025158504 -0.024338774 -0.114558995 -0.059241366 0.13329948 0.5735861
-0.59545004 0.008153516 0.30677915 0.14301634 0.31265768 -0.32165772 0.2835195 0.25680497
-0.27014104 0.3409084 -0.14576906 -0.14727758 0.012275494 -0.30281362 -0.5669484 -0.023183763
0.08145983 0.62751156 0.33953875 -0.2878903 0.42363584 -0.085876256 0.47517437 -0.42030776
-0.48917422 0.009646197 -0.07635111 -0.44398436 0.20742778 0.20841064 -0.44635755 0.5199507
-0.011749775 0.50631875 -0.35684493 0.034686796 0.38380545 -0.14003955 0.4426258 -0.17335993
0.6065688 0.54756564 -0.5501057 0.22146758 0.2855764 -0.67131937 0.17297791 0.5194605
-0.30863142 -0.05769037 0.01518751 -0.30074963 -0.53491837 -0.50626 -0.5221368 -0.4537079
0.3963823 0.07563241 0.5948604 0.008275202 -0.25504214 0.48086202 -0.40307793 0.3840982

layers.0.out_proj.weight f4 [64, 128]
00000000: 554f f13c 88c8 0f3d f52d cbbd 38da 143d
00000010: 05b5 29bd d347 a53d f825 9d3c fd93 2e3d
00000020: 8cd6 183d 78d2 163e 3c3a b4bd bb26 b83d
00000030: f9a8 c9bc bfa5 0fbd b9c9 21bd 5394 06bd
00000040: 2ac1 0d3e ffb0 7ebd 6cc6 ab3c 5714 d93c
00000050: df5b 113e 15cb 59be f031 dfbb c851 b93d
00000060: 479a 27bb 2326 2bbd 8657 f2bc f3a8 b63b
00000070: 7e2e 84bc a58b 193e 88d1 3dbd 64b8 febd
00000080: 978c d83d ce1f f03d 9fda d5bc b37f 093c
00000090: d68c b63d 8e95 abbc 3f38 a73d d7e4 95bd
000000a0: 8bca 3c3d 7f04 16be 54e7 4d3d 9db4 dc3d
000000b0: ae09 853c 8ef3 c93d 5971 183d ac64 06bb
000000c0: bf1a e3bd 71cc ffbd 7a08 9abd 24e3 293e
000000d0: 2513 20be 3b41 3cbe 6bd3 95bc 4b78 b23d
000000e0: 2742 483e c7ac 663d bfc9 9a3d 7448 683d
000000f0: 45e3 c7bd df71 52bd 346b 98bb baa1 2abe
00000100: 83ea 643c 6b89 8b3d e3fb df3c c370 c8bd
00000110: f376 2d3d b963 933d 5c5c 8c3d 493d e2bd
00000120: 0014 17bd fd6e f03c 419c 623d cdde 323e
00000130: a7c0 76be a325 1c3d ea3a 693d f981 913d
00000140: 3c5b d83d 513d b73d 8031 dd3d ea4e c6bd
00000150: 7a77 59bc f633 b13d cc8d fe3d ab37 c13d
00000160: afb9 52bd 18e8 e83d 366a 663d 3378 f7bd
00000170: d3f6 f9bd fd2d a03d 0033 053e 6d95 bebc
00000180: 912b 8cbb 7672 a13d eb2f 97bd 1909 bfbc
00000190: 2e84 87bb c8d3 8a3c b2e7 303c c106 833d
000001a0: 622b 603d 666c 77bd b8e2 51bd b942 343e
000001b0: 708e 55bd 1ee6 96bd b009 abbd e718 353d
000001c0: 00f4 083e 28fc 923d 42af 8d3d 07e5 64be
000001d0: e56e 0a3b e97a d8bd 0b4d 5cbe fd58 273e
000001e0: c348 d7bd 6937 8dbe a822 f23c b8c5 5e3c
000001f0: 5685 943d 4d88 ecbd 3f43 343d 1871 c8bc
00000200: 5fd7 69bd 1c11 87bd 0aba 07bd b652 4a3e
00000210: b1e6 a3bd 93aa bfbd 5abf 463d 73b1 263d
00000220: 7a11 61bd a16b 7cbd 6fb5 bbbd bee0 efbb
00000230: 40d5 86bd bb3b f8bc 6e18 1b3e 906d a2bd
00000240: 3d88 6abd ced6 1c3e 262e d4bd 88c4 5bbe
00000250: 885b 4cbd 9952 8c3e a081 ad3b df6c ff3d
00000260: aa68 91bd ee0b 89bc 5429 d13d 1fa4 68bd
00000270: 492c 1dbe c022 c6bc f6f8 953c fa7c 01be
00000280: c86e 0d3e 1b80 533c f479 f33d 654c 6abd
00000290: a021 63bd 8802 5cbe 5eab 05bd d572 78be
000002a0: 9d94 79bc 285f 9b3e 69a8 0fbe 2ff0 2b3e
000002b0: 9556 e33c e8bb 8dbe febe d7bd 8d48 1f3d
000002c0: 430b 423e ac9a 063e 1d99 823d 1bd0 c2bd
000002d0: 26a7 a93d f30d b6bc 1506 743d 99a8 c73d
000002e0: 4fb3 59bd fe0f d03a d525 b53d aba1 0d3c
000002f0: c90c 0dbc a80e ce3d 85b1 9abd aea5 293e
00000300: 563a 0a3e 4c56 7f3c 2939 e13d 1537 edbd
00000310: 1d51 793d d658 54be 4128 a4bd 62d9 afbc
00000320: e0a3 253c b81b 723d dc4b 3bbc 047b 143e
00000330: e1d8 393e db27 f63c da70 2cbe 9537 2a3e
00000340: 467d 353e 0eb9 ba3c d684 cc39 c6b1 e73d
00000350: 69be 65bd b32c abbd 237c afbc 2939 00bd
00000360: 3854 313d c091 3b3e 20d2 60bd 648a d23d
00000370: 948e 68bd e3a4 acbd 8849 573e afbe 3cbe
00000380: 1ac9 4fbd 9251 cebd 851b 913d f793 e73d
00000390: ec0f 79bd 0941 cfbc dc7c 17be 3505 803b
000003a0: 3469 8bbd 41a6 dfba 60d5 8e3d 822f a6bd
000003b0: 3da6 89bd 211b 233e 0fed 4ebd 1b1d 7cbd
000003c0: 08b4 463b c1ed 2fbd 39a8 1dbc af07 cf3d
000003d0: 56cb 26bb 6b92 c13d 0543 22bc 498a f8bd
000003e0: 7de7 de3c c205 9f3d 16bd 2ebd 4353 393e
000003f0: 4c6d 743c 41d3 a0bd 0169 98bd 672f b7bb
0.029456774 0.03510335 -0.09920875 0.036340922 -0.0414324 0.0807034 0.019183144 0.0426216
0.037313983 0.14728725 -0.0880017 0.08991762 -0.024616705 -0.035070177 -0.03949902 -0.032856297
0.13843217 -0.062180515 0.020968638 0.026498957 0.14195202 -0.21268876 -0.006811373 0.09048802
-0.0025574134 -0.041784417 -0.02958275 0.0055743395 -0.01613545 0.14994676 -0.046342403 -0.124375135
0.105736904 0.11724816 -0.026105223 0.008392262 0.08913581 -0.020945337 0.08165025 -0.07319038
0.046091598 -0.14650153 0.05026944 0.10776637 0.016239967 0.098609075 0.03721747 -0.0020506782
-0.11089086 -0.12490166 -0.07521148 0.16590554 -0.15632303 -0.18384258 -0.018289289 0.0871435
0.19556485 0.056317117 0.07558011 0.05670972 -0.09760145 -0.051378127 -0.0046514515 -0.16663256
0.013971928 0.0681332 0.027341789 -0.097871326 0.042349767 0.07196755 0.06853554 -0.110468455
-0.036884308 0.029349798 0.055324797 0.17467804 -0.24096929 0.03812183 0.05694095 0.071048684
0.105642766 0.08947242 0.10800457 -0.096830204 -0.013273114 0.08652489 0.12429389 0.09434446
-0.051446613 0.11372393 0.056253634 -0.12083473 -0.12205281 0.078212716 0.13007736 -0.023264611
-0.0042776545 0.0788316 -0.073821865 -0.023319768 -0.00413563 0.016946688 0.010797428 0.063977726
0.054728873 -0.06040611 -0.051241606 0.17603578 -0.052137792 -0.0736811 -0.08351457 0.0442132
0.13374329 0.07177001 0.069181934 -0.22352992 0.0021123227 -0.10570318 -0.21513765 0.1634254
-0.10511925 -0.27581337 0.029557541 0.0135969445 0.07251994 -0.11549435 0.044009443 -0.02446799
-0.05709016 -0.0659506 -0.033136405 0.19758114 -0.08002985 -0.09358706 0.04852233 0.040696573
-0.054948308 -0.06162608 -0.09165465 -0.0073204925 -0.06583643 -0.03030192 0.15146038 -0.07931054
-0.057258833 0.15316316 -0.103603646 -0.2146169 -0.04989198 0.27406767 0.0052949935 0.124719374
-0.07100041 -0.016729321 0.10212961 -0.056797143 -0.15348925 -0.024186492 0.01830719 -0.12645331
0.13811791 0.012908961 0.11888495 -0.05720176 -0.05545199 -0.2148534 -0.03263413 -0.24262555
-0.015233186 0.30346036 -0.14029087 0.16790842 0.027751246 -0.27682424 -0.10534476 0.03888755
0.18949609 0.1314494 0.0637686 -0.09512349 0.08283834 -0.022223448 0.059576113 0.09748954
-0.053149518 0.0015873907 0.088451065 0.008644502 -0.008609005 0.10061389 -0.075533904 0.16567108
0.13498816 0.01558454 0.109972306 -0.11582772 0.06086837 -0.20737013 -0.0801549 -0.02146596
0.010109872 0.059108466 -0.0114316605 0.14500052 0.18149139 0.030048301 -0.16839924 0.16622765
0.1772357 0.02279332 0.00039008883 0.113132045 -0.056089792 -0.08358135 -0.021421498 -0.031304512
0.043293208 0.18317318 -0.05488789 0.10280302 -0.056776598 -0.08429887 0.21024144 -0.18432115
-0.050728895 -0.10074152 0.07085327 0.11307519 -0.0608062 -0.025299566 -0.14793724 0.0039068707
-0.06807175 -0.0017063097 0.06974292 -0.0811453 -0.067211606 0.15928318 -0.050519045 -0.061551195
0.003031971 -0.04295135 -0.009622627 0.101088874 -0.0025450788 0.09451755 -0.009903674 -0.12135751
0.027209992 0.0776477 -0.042660795 0.18098168 0.0149186365 -0.078527935 -0.07441903 -0.0055903676

layers.0.forward_s6.A_log f4 [128, 16]
00000000: 0ed9 433d d918 353f 1e7d 8b3f b163 b23f
00000010: 53fa d43f 2c1f e33f beb2 f43f b454 0340
00000020: e10a 0e40 e99d 1640 c0a4 1c40 9189 1c40
00000030: a8ec 2540 ad71 2940 9d38 2e40 45a8 3540
00000040: 42ac 903b b391 393f d80e 913f dca0 b53f
00000050: 7629 d73f b630 de3f 4260 f23f 7473 0140
00000060: 13c4 0840 1f9e 1140 882a 1440 e05d 1b40
00000070: 4cf7 2140 ae17 2740 6153 2e40 cc77 3140
00000080: 083b e5bd 1e0f 4b3f 31ce 8d3f dd03 b23f
00000090: 69d7 cc3f 7268 ed3f 9e8f fe3f 4588 0640
000000a0: d04e 0f40 9671 1540 9904 1d40 de28 1e40
000000b0: 72b1 2240 413e 2640 e06e 2840 f036 3540
000000c0: c756 a73d 3b39 423f 63f5 913f 2c4b b43f
000000d0: 4700 c93f e96d e33f 8326 ef3f 18b5 f83f
000000e0: 6e5d 0a40 8203 1140 4753 1340 3e99 1740
000000f0: e938 1c40 3122 2240 d03c 2740 449d 3140
00000100: f381 58bd 8776 273f 7e97 953f 89b8 b53f
00000110: f9b7 d73f 5347 ec3f eaa8 0040 4462 0840
00000120: 8c01 1040 7094 1a40 224d 1f40 d523 2340
00000130: ae9a 2840 20c6 2e40 b766 3140 191e 3440
00000140: 4a2a ddbd 08d3 183f d38b 8c3f 22f3 b33f
00000150: ee29 e23f 4f68 ef3f b638 0140 eeff 0840
00000160: 9dc2 1140 4820 1840 cdec 1b40 a803 2140
00000170: d62e 2640 7f22 2a40 c9de 2e40 4a5c 3340
00000180: dce2 54bd daa3 273f 30a1 843f fc68 a93f
00000190: 5b24 c63f 7ff3 d63f b538 ed3f 9e24 fb3f
000001a0: 1752 0640 fa80 1040 ee5a 1540 28c9 1840
000001b0: 765f 1f40 0e8f 2440 4486 2740 421a 2e40
000001c0: dc3d cabd a854 083f 83f5 863f e993 a73f
000001d0: ae27 d83f d7d5 fa3f 1ed3 0540 6aa0 0f40
000001e0: 55c0 1540 852b 1a40 6e38 2140 9c6b 2840
000001f0: afd9 2840 c176 2e40 7c62 2e40 a8bd 2940
00000200: 0c07 cabd ac36 0f3f d687 863f 0fc9 a93f
00000210: a854 c83f 1857 e83f 2037 fa3f 7c15 0340
00000220: 110b 0b40 37f6 0b40 f186 1240 e52e 1940
00000230: fc46 1e40 424d 2340 6ce1 2440 43d4 2740
00000240: 3c34 38be 1ac5 0a3f c43f 953f 5abc c13f
00000250: b2d2 e83f 9eb7 fb3f e062 0640 8553 0d40
00000260: 3dca 1540 790f 1c40 010c 2240 613f 2340
00000270: 71b0 2a40 bbf9 2d40 7662 3040 f9fd 3840
00000280: df67 8e3e 4d08 5b3f fbd0 9d3f 7d10 c83f
00000290: b883 e33f eeb6 0840 0df1 1540 f9e5 1b40
000002a0: 7404 2740 016b 2840 a62e 3040 2c7d 3440
000002b0: d5f8 3b40 93a5 3d40 e96d 4340 0055 4340
000002c0: 77e6 2dbe 2658 063f 1046 883f 8a22 b33f
000002d0: 39d2 d23f 4387 e63f 917c f83f 2c08 0340
000002e0: 0cec 0c40 567a 1240 a905 1840 7c74 1a40
000002f0: 9a32 2240 8ff7 2640 7761 2a40 1a10 3140
00000300: 200c 86bd 056e 2c3f a145 8a3f 75c2 a93f
00000310: b207 c93f 3d4a e63f 8ddc f93f 12d6 0340
00000320: 2b6d 0940 1ab9 1340 730c 1740 a5d5 1940
00000330: f67b 1f40 bfcc 2340 9602 2740 ff2d 2940
00000340: 9f9a 46be a910 173f 8ce9 843f eca8 ab3f
00000350: ba52 c53f 3de2 e63f 2037 fb3f 8091 0340
00000360: 311d 0740 084c 0d40 2a6e 1440 ec34 1940
00000370: 0871 1d40 077d 1f40 29e5 2340 7f32 2540
00000380: bd52 7d3c 3abe 0c3f 6c7f 913f 5068 8e3f
00000390: 050b c73f 392d d23f 3847 e53f 6ccc f13f
000003a0: 85da 0440 a2e4 0540 5784 0c40 dd1a 1040
000003b0: 0b19 1740 4d6e 1840 e8d8 1f40 e1f2 1e40
000003c0: 1fef 3f3e 457c 2d3f 8728 883f 9dab 8e3f
000003d0: 82af bc3f 1718 d23f 6c17 dd3f bb69 f43f
000003e0: d8fd fe3f 26c3 0040 586e 0940 0958 0c40
000003f0: 5cef 0f40 5202 1040 7cf0 1140 d6db 1740
0.04781442 0.7074104 1.0897558 1.3936673 1.6638893 1.7743888 1.9117048 2.0520449
2.219414 2.353388 2.4475555 2.4458964 2.5925694 2.6475632 2.7222054 2.8383954
0.004415066 0.72487944 1.1332655 1.4189715 1.6809528 1.7358615 1.8935626 2.0226717
2.1369674 2.275276 2.315096 2.4276047 2.5307188 2.6108203 2.723839 2.7729368
-0.111929 0.7931994 1.107855 1.3907429 1.6003238 1.8547499 1.9887578 2.1020672
2.2391853 2.3350577 2.4534056 2.4712443 2.5420804 2.5975497 2.6317673 2.831478
0.08170848 0.75868577 1.1403011 1.4085441 1.570321 1.7767917 1.8683628 1.9430265
2.1619525 2.265839 2.3019578 2.3687282 2.4409735 2.5333369 2.6130867 2.7752237
-0.052858304 0.65415233 1.1686857 1.4196941 1.6853019 1.8459266 2.0103097 2.1309977
2.2500944 2.41531 2.4890828 2.549062 2.634441 2.7308426 2.7718942 2.814337
-0.107990816 0.5969701 1.0980171 1.4058573 1.7669046 1.8703707 2.0190864 2.1406207
2.2775033 2.3769703 2.4363282 2.5158482 2.5966086 2.6583555 2.7323477 2.8025079
-0.051974162 0.6548439 1.036169 1.3235164 1.5479845 1.6793059 1.8532931 1.962055
2.0987604 2.257872 2.333675 2.3872776 2.4902015 2.5712314 2.61757 2.7203526
-0.0987508 0.53254175 1.0543674 1.3092014 1.6887109 1.9596509 2.0910106 2.244166
2.339864 2.4089062 2.5190692 2.631568 2.6382864 2.7259982 2.724761 2.6522007
-0.09864625 0.559428 1.0510204 1.3264483 1.5650835 1.8151579 1.9548073 2.0481863
2.1725504 2.1869028 2.2894862 2.3934872 2.4730825 2.5515904 2.5762587 2.6223304
-0.17988676 0.54207003 1.1660085 1.5135605 1.8189299 1.966541 2.0997849 2.2082226
2.3404686 2.4384444 2.5319827 2.5507433 2.6670191 2.7183673 2.7560096 2.8905013
0.27813622 0.8555954 1.2329401 1.5630032 1.7774572 2.1361651 2.3428376 2.4359114
2.6096468 2.631531 2.7528472 2.82014 2.9370625 2.9632308 3.0535834 3.052063
-0.16982447 0.52478254 1.0646381 1.3994915 1.6470405 1.8010029 1.9413015 2.0473738
2.2019072 2.2887168 2.3753455 2.4133596 2.5343385 2.6088598 2.6621988 2.7666078
-0.065452814 0.67355376 1.0802499 1.3262469 1.5705473 1.7991406 1.9520432 2.0599408
2.147288 2.3081727 2.3601348 2.4036648 2.491941 2.5593717 2.6095328 2.6434324
-0.19394921 0.59009796 1.0383773 1.3410926 1.5415871 1.8037792 1.9626198 2.0557556
2.1111567 2.2077656 2.3192239 2.393855 2.4600239 2.492006 2.5608618 2.581207
0.015461621 0.5497776 1.1367011 1.1125584 1.5550238 1.6420051 1.7912359 1.889051
2.0758374 2.0920796 2.1955774 2.2516396 2.3609035 2.3817322 2.497614 2.4835742
0.18743561 0.67767745 1.0637368 1.1146122 1.4741061 1.6413602 1.7272773 1.9094766
1.9921217 2.011911 2.1473598 2.1928732 2.2489843 2.2501416 2.280303 2.3727927

layers.0.forward_s6.D f4 [128]
00000000: a7aa 733f 0c54 603f 0e8c 833f b1ff 7d3f
00000010: 45be 863f 1454 473f bca3 7d3f 5e5a 843f
00000020: e43e 763f 415a 583f 7724 a23f 6c77 633f
00000030: ab8a 793f e8dc 603f e420 863f fdf1 5e3f
00000040: 369f 6e3f ccf6 6f3f f270 923f 1268 5e3f
00000050: b734 753f 89f0 713f 8a8e 843f df1f 863f
00000060: 6df3 883f 2378 863f 7e56 863f 5e25 513f
00000070: 9428 6d3f 31e6 5e3f 5fec 803f 6cdd 873f
00000080: 0af7 713f 80f6 633f 9f46 933f c184 8a3f
00000090: aa73 713f 167e 7e3f 6771 603f a8a3 933f
000000a0: 05d1 5d3f 5a8f 9b3f d4a2 833f 70fb 903f
000000b0: 0b8b 713f 3ccb 8c3f d380 643f e601 753f
000000c0: 1a40 483f 690c 953f 0e06 663f e71e 543f
000000d0: 7044 8d3f f7c1 773f ace7 783f 71f7 a23f
000000e0: 6cee 8d3f 0ead 533f f3c0 7d3f 1f93 713f
000000f0: 5f4a 8e3f cd2e 7f3f c361 6a3f 43d6 813f
00000100: 0d42 873f 449c 5c3f b597 863f 7c4b 963f
00000110: c282 7d3f 6f6d 843f d425 463f 0b62 873f
00000120: 817a 6c3f 7696 7e3f 7d5c 813f 709b a33f
00000130: 77bb 903f 3c6d 5e3f 3a42 443f 7373 833f
00000140: 858e 933f ffc2 5f3f bbb0 9c3f e852 4d3f
00000150: 3244 803f 77a6 4b3f aafe 8f3f a7c4 7e3f
00000160: 5639 833f 01ac 863f cf3e 913f 23f4 8c3f
00000170: 9bc5 5e3f efff 553f 7401 a43f a604 833f
00000180: f374 6e3f 9615 4b3f be26 753f 670c 933f
00000190: fb41 8f3f 78b6 833f de8e 843f b3ea 8e3f
000001a0: 36a8 893f 01e1 7d3f d251 513f a34b 593f
000001b0: 275d 733f f90a 6f3f 8a7f 473f 6410 4b3f
000001c0: 7012 7d3f 5ee3 2a3f ab29 7a3f 28aa 853f
000001d0: 5288 503f 3280 7d3f a5c9 843f 85d9 833f
000001e0: d6d3 853f f7b8 923f f47d 563f 0c1c 9a3f
000001f0: a3b0 ea3e 28b2 773f 09e9 8d3f 1160 6b3f
0.9518227 0.87628245 1.0277116 0.9921828 1.0526816 0.7786267 0.99077964 1.0340078
0.96189713 0.84512717 1.2667378 0.888541 0.97477216 0.87837076 1.0478787 0.87087995
0.93211687 0.9373596 1.1440718 0.8687755 0.9578356 0.9450765 1.0356 1.0478476
1.0699288 1.0505413 1.0495145 0.8169764 0.9264004 0.87069994 1.0072135 1.0614448
0.94517577 0.89048004 1.1505927 1.0821763 0.94317114 0.9941114 0.8767304 1.1534319
0.86647063 1.2153122 1.0284066 1.1326733 0.9435279 1.0999522 0.8925907 0.9570602
0.7822281 1.1644412 0.8985299 0.82859653 1.103651 0.9678034 0.97228503 1.2731763
1.1088386 0.82685935 0.9912254 0.94365114 1.1116446 0.9968079 0.9155542 1.0143512
1.0567032 0.8617594 1.0515047 1.1741786 0.99027646 1.0345896 0.7740147 1.0576795
0.92374426 0.99448335 1.010635 1.2781811 1.130721 0.8688543 0.76663554 1.0269607
1.1527869 0.87406915 1.2241434 0.8020463 1.0020812 0.7955088 1.1249592 0.9951882
1.0251873 1.0521241 1.1347293 1.1012005 0.8702027 0.8359365 1.2812943 1.0235794
0.931472 0.7932981 0.9576224 1.148816 1.1192011 1.029006 1.03561 1.1165375
1.0754459 0.99171454 0.8176547 0.8488104 0.95064014 0.9337612 0.77928984 0.79321885
0.9885626 0.66753185 0.9771983 1.0442553 0.8145801 0.99023736 1.0374037 1.0300757
1.0455272 1.1462697 0.8378594 1.2039809 0.45837888 0.9675622 1.1086742 0.9194346

layers.0.forward_s6.x_proj.weight f4 [36, 128]
00000000: d0de 5e3c 890b 3f3e bac3 be3c 1a63 e63d
00000010: 0460 b5bc e08d b73c 4452 b33d 8405 433c
00000020: cfa1 ca3d 7eea c1bd 5567 6e3c d1ff 0f3e
00000030: fa44 f73c 1714 493d a84f b1bd 738b c7bd
00000040: 9886 dabd e45f e7bd 5a8b 91bd 37eb 40bd
00000050: 7ad6 d63d ec36 a1bd b9e1 89bd e143 343e
00000060: 64ba abbc 23be 113e 9152 cf3d 930f ecbc
00000070: b357 c2bd 2654 93bd 35b7 c23d 03f7 87bd
00000080: 66f4 b4bc 2dd0 9c3e 0fc3 c2bd 93f4 22bd
00000090: bc5f 96bc e9fb 413e 068f 303d 7532 99bd
000000a0: f7d1 d53b b38e b33d ac07 083e d75f d7bd
000000b0: 9148 393d 4a4e aa3d 9adf 4ebe b774 a63d
000000c0: 126a 33bd 1037 003c 7c8e 863d 654c b93d
000000d0: cab8 763c b777 f23d bd86 0c3e 2799 5e3e
000000e0: 94e8 e33d 0d04 213e 109b 123d 18ac 203e
000000f0: ac0b cf3e 3616 1f3e e1be ce3c 475a a7bd
00000100: 7693 ba3c 34a5 a73d 6745 183c 1d63 98be
00000110: 81f7 b33d 87d9 9a3d 8c57 03be 7c03 873d
00000120: 8195 c1bd f9d0 573e 23b9 55bd 0ac9 a23d
00000130: e6f7 26bd 20c9 103e 8772 d63d 2dc7 a9bc
00000140: fb8b 9eba 2139 f8bd afb2 d53d 7795 93bd
00000150: 3754 863c 4be3 d93d ed69 653d 8a39 533e
00000160: 5620 253e 3679 503a 012f b43d 5c4c 4b3e
00000170: f98b 2e3d 16b6 48bd 2b09 8b3d 721b 07be
00000180: 5eb9 4a3e a3f2 dfbd bf15 393e 5528 013e
00000190: bdcb 163e 78c6 14bd fb34 fc3d 5e9f 043d
000001a0: c69c 84bc bf66 24bd 3cb4 903d 9ef3 913d
000001b0: 800f 07bd 488a 313e 4619 853e e0ec 2fbe
000001c0: f318 9a3b 39d8 033e 7bb0 a2bd 19f7 003e
000001d0: 1543 263e 24b1 803e 38c9 c73e ae69 803d
000001e0: 6182 c13d b728 e6bc e26d 4c3b 490d 91bd
000001f0: 90eb 6b3e 13fa 14be e081 8e3e 9253 2cbd
00000200: b20a 19be 40e7 55be 91ae 87be 4988 06be
00000210: 20a1 43bd 749d f7bd 7e66 673d 54de c9bd
00000220: 7ff3 35be 7a59 5b3d 0dcf be3c f1e3 02be
00000230: f0b2 26bd 4b81 a7bd fbd6 273d 726e 303e
00000240: 0f62 073e b4a0 0c3e 0b24 9939 7c89 d43d
00000250: be0f bebd 3ddf d93d 7dd9 423d d4db 83be
00000260: e956 57bd bb03 4bbe 46fa b5bd aef9 a3bd
00000270: 5901 183e 1ab7 253e 4a5d 28bd 29e5 493d
00000280: 86da fbbc 1a05 aebe 58bf f53d b756 de3c
00000290: f38d 033d f001 a8be 317a 38bd 7ad2 89bd
000002a0: 19cb 8d3d 9120 c9bd 93ac aebd d64a c8bb
000002b0: ad5e 17bc 3764 a2bd 0ceb 893e ba69 40be
000002c0: 9270 45bd c7db 49bd 287a 87bd f7e5 58be
000002d0: 0d19 dcbd 4672 00be 7ae2 e7bd 145f c6be
000002e0: d328 22be 6677 5abe aaf4 3fbd b418 3ebe
000002f0: 5848 c5be f70e 4abe 7114 0bbe 63e0 313e
00000300: d0c7 58be e3b3 67be d35d e3bc 104d 5a3e
00000310: 2a1a 27be 1961 11be a575 653d 02d1 19bb
00000320: f10d 34be 6486 1abd 54b0 e03d afe7 09be
00000330: 0275 fa3d dddf c8bd 4d69 3ebe 8378 f2bc
00000340: 70ad 46be 2f1c 313e ecf4 57bd a4d4 013c
00000350: 0d10 763d ea1d d93d 44b3 0fbd bfa2 a3bd
00000360: 130b d6bd a644 f5bb c44f 3bbc f604 abbe
00000370: 79ca b1bd bc13 abbd da2b c6bd 3384 bc3d
00000380: 5d90 893c 825a 3e3d 7688 6abd c8b9 5cbe
00000390: 86ee e9bd 1851 99bd 0e46 0b3d 8840 3a3c
000003a0: 355d cc3c 1818 7f3d ab9e 00be eff6 633d
000003b0: b540 593d 1862 21be e89b 84be bbe8 293e
000003c0: a817 56bd 2cc2 59bd 8dc3 a0bd 9121 4dbe
000003d0: d8ce 0ebe 4d7d 9dbe e3cd e2be a5bd 42bd
000003e0: 94da 8dbd 9f9b 283d c8c9 5b3e a3da fd3d
000003f0: de72 2abe 3e6b b93c 3f5d b5be 60aa 073c
0.013602927 0.18656744 0.02328669 0.11249371 -0.02214051 0.022406518 0.08755925 0.0119031705
0.09894144 -0.09468554 0.014551003 0.1406243 0.030184258 0.049091425 -0.08657771 -0.09743395
-0.10670203 -0.112975866 -0.07106657 -0.04709932 0.10490127 -0.07871804 -0.06732506 0.17604019
-0.020962901 0.14232688 0.1012317 -0.02881602 -0.094893835 -0.071937844 0.095076 -0.066389106
-0.022089195 0.30627576 -0.09509861 -0.039784025 -0.018356197 0.18943752 0.043105148 -0.07480327
0.006525274 0.08767452 0.13284177 -0.10516327 0.04523522 0.08315714 -0.20202485 0.0812773
-0.04380233 0.007825628 0.065701455 0.09047774 0.015058706 0.1183924 0.13723274 0.2173811
0.11128345 0.15724202 0.03579241 0.15690649 0.40438592 0.15535817 0.025237503 -0.08171516
0.022775393 0.08185807 0.009293891 -0.29763117 0.08787442 0.07561021 -0.12826365 0.065924615
-0.09452344 0.2107581 -0.052178513 0.079485014 -0.040763758 0.14139223 0.10471063 -0.020724857
-0.0012096161 -0.121202715 0.10434472 -0.072062425 0.016397579 0.10639056 0.05600922 0.20627418
0.16125616 0.0007952632 0.08798028 0.19853348 0.042613957 -0.049001776 0.06788858 -0.13194063
0.19797274 -0.10934951 0.18074702 0.12613042 0.14726157 -0.036322087 0.12314793 0.032378547
-0.016188037 -0.04013705 0.07065627 0.071265444 -0.032973766 0.17337906 0.25995845 -0.17180204
0.004702681 0.12875451 -0.07943817 0.1259426 0.16236527 0.25135148 0.39020705 0.06270157
0.09448696 -0.028095586 0.0031193425 -0.07082612 0.23039079 -0.1454852 0.27833462 -0.042071886
-0.14945486 -0.20888996 -0.2650037 -0.13137926 -0.047761083 -0.12090579 0.05649423 -0.09856859
-0.17768668 0.05355213 0.023292089 -0.12782265 -0.04069799 -0.081789576 0.040976506 0.17229632
0.13221 0.13733178 0.00029209288 0.103777856 -0.09280346 0.106382824 0.047570694 -0.25753653
-0.05257312 -0.19825642 -0.088856265 -0.08006607 0.14844264 0.16183129 -0.041104592 0.04929081
-0.030743849 -0.33988267 0.119993865 0.027140958 0.032117795 -0.32813978 -0.045038406 -0.06729598
0.069235034 -0.09820665 -0.0852901 -0.0061124368 -0.009238881 -0.07929271 0.2693714 -0.18790331
-0.04820306 -0.04928186 -0.06615096 -0.21181475 -0.107469656 -0.12543592 -0.11322494 -0.38744414
-0.15835886 -0.2133461 -0.04686419 -0.18564111 -0.38531756 -0.19732271 -0.13582017 0.17370753
-0.21169972 -0.22627215 -0.0277547 0.2131846 -0.16318575 -0.14197196 0.056020398 -0.0023470526
-0.17583443 -0.03772582 0.10971132 -0.13467287 0.12229349 -0.098083235 -0.18594857 -0.02959848
-0.19402099 0.17295907 -0.05272381 0.007924233 0.0600739 0.10601409 -0.03508307 -0.07990026
-0.10451331 -0.00748499 -0.011432592 -0.33402222 -0.08681197 -0.083533734 -0.09676333 0.092049025
0.01679247 0.046473034 -0.057259046 -0.21555245 -0.11422448 -0.074861705 0.034002356 0.0113679245
0.024946788 0.062278837 -0.12560527 0.055655416 0.053040225 -0.15760076 -0.25900197 0.16592686
-0.052268654 -0.053163692 -0.07849798 -0.20032336 -0.13946092 -0.3075966 -0.44297704 -0.04754414
-0.06926456 0.041164037 0.21463692 0.12395217 -0.16645381 0.022634145 -0.35422704 0.008280367
