checkpoints/mnist/vision_mamba_mnist_epoch_3.pth (torch, 340018 bytes, 33 tensors)

patch_embed.weight f4 [64, 1, 4, 4]
000000 16 6f 97 3e 69 67 7c 3e 9b 21 7e bc 37 92 d6 3c
       0.2957694 0.24648823 -0.015510942 0.026192768
000010 80 c4 1b 3e b4 8f 95 3d de 3a d1 bd 34 68 b3 bd
       0.15211678 0.073028 -0.10216306 -0.087601095
000020 eb 6c 2c 3d 31 cc 60 3e c9 5f 18 bd e1 45 1f be
       0.04209606 0.21952893 -0.037200723 -0.15554
000030 27 a7 f6 bd fe 9d f6 bd 2e 8c 1c 3d 16 35 44 3e
       -0.120436005 -0.12041853 0.038219623 0.19160876
000040 71 31 94 bb a2 3d b4 bd 8d 2e 33 3d 18 95 19 be
       -0.0045224954 -0.08800818 0.043745566 -0.14998281
000050 eb 9e 56 be 7b 27 3c 3e 59 dc c4 3d b4 92 21 3e
       -0.2095906 0.18374436 0.096123405 0.15778619
000060 87 51 13 be 9e 6c 1f be 62 32 a2 3d b1 1a fd bd
       -0.14386569 -0.15568778 0.07919766 -0.123586066
000070 69 eb 1f be 4f 9f 38 3e a8 db c9 bd a8 1c 11 3d
       -0.15617146 0.18029521 -0.09856349 0.03542772
000080 60 a7 37 3e 64 d8 9d 3d 38 db 84 3c 81 c9 61 bd
       0.17934942 0.07707289 0.016217813 -0.05512381
000090 7a 3a 6c 3d f5 18 48 be b6 99 a5 bd bd 3b 1e be
       0.057672955 -0.1954077 -0.08085959 -0.15452476
0000a0 54 e8 78 3e ab ac 38 bd 92 c0 cd bd 7b 13 7f be
       0.24307376 -0.045086544 -0.100464955 -0.24909775
0000b0 76 7f bd be b8 fd 4f be 20 23 31 bb 9c fb d6 bc
       -0.37011307 -0.2031163 -0.0027028993 -0.026243024
0000c0 d9 14 3b be ea 5f 33 3e e4 52 50 3e 08 a8 53 be
       -0.18269671 0.17517057 0.2034412 -0.20669568
0000d0 83 37 d3 3d 53 6f a6 bd fe 53 63 be f6 f8 8a be
       0.103133224 -0.08126702 -0.22200009 -0.27143067
0000e0 ef b1 a9 bd 0e c2 23 be ce 00 2c 3e 65 b0 5e bd
       -0.08285891 -0.15991995 0.16797182 -0.05436744
0000f0 8e 74 ca bd 22 c1 5c 3d 2e d9 3a be c9 ef 9f be
       -0.09885512 0.053895123 -0.1824691 -0.3123763
000100 af f2 3c 3e 1a b3 2a be 2a 2d 06 be e5 a6 b7 3d
       0.18451951 -0.16669884 -0.13103166 0.089673795
000110 19 1d 67 bd 3c c0 2f 3d 29 68 85 be 79 c7 a2 be
       -0.056424234 0.04290794 -0.2605603 -0.3179281
000120 e7 fb e5 bd 5b 8e 89 be ff aa 1d bd 8c c3 0a 3e
       -0.11229687 -0.2686642 -0.038493153 0.13551158
000130 20 ba 79 3d 1b 45 4d 3e 04 3e 2d 3e 20 a8 83 3e
       0.06096852 0.20045893 0.16918188 0.25714207
000140 c2 e2 73 3e 56 b2 19 3e 2a 47 9a be 16 ef ec bd
       0.2381697 0.15009436 -0.3013242 -0.115690395
000150 bb 67 79 3e a5 19 4e 3e f1 66 25 be 5f 18 0a 3e
       0.24355976 0.2012697 -0.1615255 0.1348586
000160 1a 74 97 bd 00 c4 e4 3d 1b 81 d6 bd b5 4a 0e 3e
       -0.073951915 0.111701965 -0.10473844 0.13895686
000170 c2 16 a2 be 19 8a 76 be 87 96 9c 3d 20 15 e0 3c
       -0.31657988 -0.24076118 0.07645898 0.027353823
000180 71 9d 18 3e 81 b2 62 3e c4 5c 79 3e 9d 61 0d 3e
       0.14903809 0.22138406 0.24351794 0.13806768
000190 4d 04 46 3d 33 2a 77 be 17 46 1d 3e f9 b0 ee bd
       0.048343945 -0.24137191 0.15358768 -0.116548486
0001a0 1b eb 42 bd 17 ec 0b 3e 89 1d 20 be c8 e2 5a be
       -0.047587495 0.1366428 -0.15636267 -0.21375573
0001b0 d7 29 89 3e 33 7c 3f 3e 4e 30 a0 bc d1 56 47 be
       0.26789734 0.18699722 -0.019554283 -0.19466712
0001c0 ae 88 26 3e b5 81 08 be 04 85 2c be 4a 9b 80 3e
       0.16263077 -0.1333073 -0.16847616 0.25118476
0001d0 31 b0 59 3e a8 0f 3e be 49 c3 1b 3e d4 1d 8c 3d
       0.21258618 -0.1856066 0.15211214 0.06841627
0001e0 ad ad 19 3e f8 f6 93 bd b1 88 4b be a4 0d 2c be
       0.15007658 -0.0722484 -0.19876362 -0.16802078
0001f0 24 30 18 3b 3d e8 b6 bd 41 5e 3c be 80 61 4a be
       0.0023222053 -0.08931015 -0.1839533 -0.19763756
000200 98 75 9e 3d cc 93 8c bd b3 47 19 be bf 0a f5 bd
       0.07737273 -0.068641275 -0.14968757 -0.1196494
000210 24 1b 78 3e 29 cf 88 3d e1 bd ef 3d f4 78 35 3e
       0.24229103 0.06680138 0.117061384 0.17721921
000220 d9 8b 10 be 01 7d eb bd de d3 4b be 90 36 e9 bd
       -0.14115848 -0.11498452 -0.1990504 -0.1138736
000230 7b a8 94 3d 00 40 36 3e f4 85 82 be 3c e6 2e be
       0.072586976 0.17797852 -0.25492823 -0.17080015
000240 c1 13 37 3e 01 a4 4d 3e 49 a8 3c 3e b1 8c 01 be
       0.1787863 0.20082094 0.1842357 -0.12651326
000250 99 1e 88 be cd 41 c8 bd 4a 55 96 be d4 68 6b be
       -0.26585844 -0.097781755 -0.29361945 -0.22989208
000260 e8 8a 73 3d 54 20 40 be 1c bc 10 bd fe 09 1b 3e
       0.059458643 -0.18762332 -0.035335645 0.1514053
000270 03 24 13 be 69 16 5c 3e 69 61 13 be 42 20 93 3e
       -0.14369206 0.21492924 -0.14392628 0.28735548
000280 44 7a 03 3d 5b a5 9d bd 22 cb 0a be 2e 52 f3 3c
       0.032099023 -0.07697555 -0.13554052 0.029702272
000290 d8 1d 66 3e 2c ac 57 bd d5 38 28 be 67 99 3c 3e
       0.22472322 -0.05265443 -0.1642793 0.18417893
0002a0 bf a9 dc 3d c6 97 3d bd cc 48 58 be 44 fd 4e 3e
       0.10774564 -0.04628732 -0.2112152 0.202138
0002b0 f6 4c 70 3e 72 b6 87 3d 7f 09 29 3e fa be 01 3d
       0.23466858 0.066265956 0.16507529 0.03167627
0002c0 b0 91 c7 be 22 fa 36 be 20 13 8b be 9c 34 97 bb
       -0.38978338 -0.17868856 -0.2716303 -0.004614426
0002d0 4f d5 2c be 07 15 4e 3e 4b 9f c2 bc 3c 21 1f be
       -0.16878246 0.20125209 -0.023757597 -0.15540022
0002e0 d2 5d 32 3d 02 b5 03 3e 76 8e 18 be c0 3a 03 be
       0.043546505 0.12862018 -0.14898095 -0.1281538
0002f0 65 78 68 be 03 d4 06 be 6e 8b 3d 3e af 77 6b be
       -0.22702177 -0.13166814 0.1851022 -0.22994874
000300 c0 22 e5 3d 93 65 05 3e eb fc 5f 3e e1 31 c6 bd
       0.11188269 0.13027029 0.21873824 -0.096774824
000310 df 0d 6c 3e aa e7 28 3d 25 18 df bd 5c 48 02 bc
       0.23052166 0.041236557 -0.10893277 -0.007951822
000320 b4 4d 61 3e 1d c4 5c be ed 45 02 be 21 c1 de 3d
       0.22002298 -0.21559186 -0.12721987 0.1087668
000330 61 ad 26 3d 99 80 3f 3e 6f 91 61 be a1 cb a4 bd
       0.04069269 0.187014 -0.22028135 -0.08046652
000340 6a d1 90 3d b6 f7 98 3e 3b 21 82 bd 67 0d 65 be
       0.070711926 0.29876488 -0.063539945 -0.22368394
000350 84 2a 76 bc 25 d1 50 bd c7 94 04 bd 40 d5 3b be
       -0.015024785 -0.050980706 -0.032368448 -0.18343067
000360 eb 06 48 bd ef fd 11 3e 0e 35 76 be 7f c0 75 be
       -0.048834722 0.14257024 -0.24043676 -0.23999213
000370 35 f7 32 3e fd 19 b1 3d 66 f3 31 3c 93 9e d3 3d
       0.17477114 0.08647535 0.010861253 0.1033298
000380 47 0a 95 be 10 d5 dd bd 8e a3 57 be 88 91 b3 3d
       -0.29109403 -0.10831654 -0.21058485 0.08767992
000390 6e 24 9b bd 94 61 8c be a6 ac 88 be 09 d5 ec 3d
       -0.07575308 -0.27418196 -0.2669422 0.11564071
0003a0 03 f2 16 3e b3 b5 1c be ff 7f d7 3d a7 30 27 be
       0.14740758 -0.15303688 0.1052246 -0.16327153
0003b0 35 7c a5 3d 50 31 80 3e 0d 5f 18 3e e2 7e 30 3e
       0.08080331 0.25037622 0.14880009 0.17235902
0003c0 0e f4 fe bc a9 45 b9 bd 1d 10 e1 bd c6 0f 08 3e
       -0.031122234 -0.0904649 -0.109894015 0.13287267
0003d0 31 79 52 3d 2d 5c 04 3e 4b e7 47 be 39 31 d5 3c
       0.05138511 0.12925787 -0.19521825 0.026024448
0003e0 d2 71 71 3e de fa ff 3c 18 a4 d3 3c f5 2f a9 3d
       0.23578575 0.031247552 0.025835082 0.082611
0003f0 a5 32 5e be 81 6f 80 be 61 46 2b be 95 aa 9c be
       -0.21699007 -0.2508507 -0.16726066 -0.30598894

patch_embed.bias f4 [64]
000000 ed aa 87 3e 15 85 56 be 71 4c 0c be 15 79 ea 3d
       0.26497594 -0.20949204 -0.13701035 0.11448876
000010 3c 8b e5 bd d3 79 5f 3c 6a 5d e0 bd 10 4a 7b be
       -0.112081975 0.013639885 -0.10955317 -0.24539971
000020 88 8a d5 bd f9 48 21 be fd 13 17 be 93 73 31 3e
       -0.10426813 -0.15750493 -0.14753719 0.17329244
000030 58 bb 8c 3e fc 6c 80 bd 0b b7 d2 bd 26 59 f6 3d
       0.27486682 -0.06270787 -0.10288819 0.120287225
000040 ff 8e 47 be bd 88 8b be de be 53 be 58 8a 2f 3d
       -0.19488142 -0.2725276 -0.20678279 0.042856544
000050 7c 4f 80 be e6 15 a7 3d 81 29 2a 3d 22 94 17 be
       -0.25060642 0.08158474 0.041543487 -0.14802602
000060 aa 5c 69 3e 1d a6 64 3e ab 0a dd 3d ce 19 99 bc
       0.22789255 0.22328992 0.107930504 -0.018689062
000070 ce 23 08 be 73 2f b9 3c 1f f3 86 bd 8a bb 1c be
       -0.13294908 0.022605633 -0.065893404 -0.15305915
000080 ce b4 30 3e 9d 3f 0e 3e 50 af 2a 3e c9 93 b5 3d
       0.17256472 0.13891454 0.16668439 0.088660784
000090 0a 6f 2a be cc 3f dc bd 5a 48 eb 3c 1b 69 07 be
       -0.1664392 -0.10754356 0.028721023 -0.13223688
0000a0 d9 11 72 be c9 ff 50 3d ab 8c 2a be 7d b9 3c 3c
       -0.23639621 0.051025186 -0.16655223 0.011518833
0000b0 26 23 9d be 0e 13 17 3c 8d 90 63 3e ad ff 3f be
       -0.3069088 0.009220852 0.2222311 -0.18749876
0000c0 d3 84 26 3d 3c b4 83 3e d6 2c 77 3d a8 a2 77 3e
       0.040654015 0.25723445 0.060345493 0.24183142
0000d0 64 d9 ba 3c ad 5b ba bd 9b 43 8e 3e f3 15 86 3e
       0.022808738 -0.09099517 0.27785954 0.2618862
0000e0 8a 43 ee 3d d6 9b 28 3e 36 53 54 3e 7e 28 4d 3e
       0.11633976 0.16465697 0.20734867 0.20034978
0000f0 9a bd 65 bd b0 56 64 bc 21 ee 81 3d f1 28 66 3e
       -0.05608902 -0.013936684 0.063442476 0.22476555

layers.0.in_proj.weight f4 [256, 64]
000000 d6 90 e5 bd b7 5f a4 3c 36 28 02 be 9b 12 f2 bd
       -0.11209266 0.020065172 -0.12710652 -0.11819955
000010 e2 aa 8d bc 50 04 62 be e1 59 5e 3c ad 9e 88 bd
       -0.017293397 -0.22071958 0.0135712335 -0.0667089
000020 c5 80 1a bd 9f ce a8 bc d6 f2 87 bd 3c 37 38 bd
       -0.03772046 -0.020606337 -0.06638114 -0.04497455
000030 8e d8 ba bd 4e 41 99 bd b3 a0 02 3e 9e fd 60 3d
       -0.09123336 -0.07483159 0.12756614 0.05492937
000040 6c fe 88 bc d7 47 88 3d a1 e2 84 bd 75 99 a3 3d
       -0.01672288 0.06654327 -0.064885385 0.07988254
000050 83 5d 32 be ee 98 12 bd de 4d 44 3e ff a9 09 3e
       -0.17418484 -0.035790376 0.19170329 0.13443755
000060 6a 98 07 be 0d 18 ab bd 01 76 12 3e 2e f3 f3 3d
       -0.13241735 -0.08354197 0.14302827 0.11911617
000070 26 5d e3 3d b1 e3 f5 3d 34 96 6f 3d 5d dc 12 3c
       0.11101751 0.12006319 0.058492854 0.0089636715
000080 88 53 6f bd e4 ab fa b8 85 a0 ea bd 05 74 c7 3d
       -0.05842927 -0.00011952946 -0.11456398 0.09738926
000090 3f 91 2c 3e 2f cb 68 3d 4b ca 85 3d cb fb 1e bd
       0.16852282 0.056834396 0.06532725 -0.038814347
0000a0 92 0e bb 3c 2c 2b fd 3d fd 35 a7 3d 2b 6f ee bb
       0.022834096 0.1236175 0.08164594 -0.007276436
0000b0 16 82 15 3e 41 57 70 3d ea 1a b2 3d f8 d1 03 be
       0.14600405 0.05867696 0.0869654 -0.12873065
0000c0 53 f8 16 be 78 cc fe 3d e0 02 99 bd 84 c8 29 3e
       -0.14743166 0.12441343 -0.074712515 0.16580397
0000d0 91 3f f8 3c 73 5f 2e bd f1 4c db bd 38 74 99 bc
       0.030303748 -0.042571496 -0.10708035 -0.018732175
0000e0 fe a4 1a 3e 10 d7 cb bb 91 a3 b3 3d e3 a8 17 be
       0.15102002 -0.006220706 0.08771432 -0.14810519
0000f0 bd dd ce 3d b6 33 3f 3d a5 75 da bd b3 ed 0a be
       0.10100887 0.046680175 -0.1066697 -0.13567238
000100 2c 42 d4 3c 13 8e ec bd e3 16 87 bd f4 21 87 bd
       0.02591046 -0.11550536 -0.06596162 -0.06598273
000110 a9 f3 47 bd 8c 43 66 3e a3 33 65 bd 42 68 26 3d
       -0.048816357 0.22486705 -0.055957448 0.04062677
000120 bf 12 c8 bd 15 47 8d bd 26 0d 82 3d 00 79 26 be
       -0.097692005 -0.068983234 0.06350164 -0.16257095
000130 73 0c 26 3d c5 24 08 be 92 4a f2 bd 8a 12 5e 3d
       0.040539216 -0.13295276 -0.118306294 0.0542169
000140 86 77 14 be c6 4a 0a be 6d a8 b8 3d dc 88 8f 3c
       -0.1449872 -0.13505086 0.090165 0.017521314
000150 9b ab 1e 3e 1c 5e 99 3d 53 2d 86 3c 11 ad f9 3d
       0.1549515 0.07488653 0.016379034 0.12191213
000160 02 44 5b 3d d7 63 6c bd 61 2a 57 be 13 9a 50 3d
       0.053531654 -0.057712402 -0.2101226 0.050928187
000170 31 bb 59 3d 16 05 e8 bc 04 76 fd 3c 07 90 d1 3b
       0.053157035 -0.028322738 0.030940063 0.006395343
000180 73 d7 12 be d2 62 d0 3c bc 9c 35 3e 70 1d 16 be
       -0.1434 0.025437746 0.1773557 -0.14659667
000190 23 29 45 3d 3c 9e e3 3c 28 4d 6f 3e af 6a d8 bd
       0.048134934 0.027785413 0.23369277 -0.10567223
0001a0 8c 7b d9 bd 3b 91 67 bd a2 86 c9 bd 98 01 49 bc
       -0.10619268 -0.056534987 -0.09840132 -0.012268446
0001b0 d2 15 ad 3d 9f e6 2b 3e 12 50 be bd 24 b6 2c 3e
       0.084514275 0.16787194 -0.09292616 0.16866356
0001c0 7c f7 b1 3d 4f b3 f1 3d b8 07 6d bd 57 8a 2d 3d
       0.08689782 0.118017785 -0.05786869 0.04236826
0001d0 34 1c 22 be 98 1b 91 bd cf 10 a7 bc 4d 55 b2 bc
       -0.15831071 -0.07085341 -0.020393757 -0.02176919
0001e0 ba 72 89 bd fb 17 b6 3d 94 71 5c be 75 fe 33 3e
       -0.067113355 0.08891293 -0.21527702 0.17577536
0001f0 4a 51 f9 bd d7 6a 6f 3d ab 6e 4d bd 05 32 10 3e
       -0.12173708 0.0584515 -0.05015437 0.14081581
000200 2d 55 20 3d 24 88 2d 3e 3f be 3f 3d f7 3e 45 3e
       0.03914373 0.16946465 0.046812292 0.192623
000210 84 1f d6 bd 0a 3e 9d bc ef 15 43 bd b3 d2 4b 3e
       -0.1045523 -0.019194622 -0.04762834 0.19904594
000220 b5 a6 99 3d ec df 11 bd fb 9b f4 bd 84 ef 52 3d
       0.075025 -0.03561394 -0.119438134 0.05149795
000230 6a 89 16 3e 5e 77 a6 bd 10 4c 33 be 3f 8e 5f 3e
       0.14700857 -0.08128236 -0.17509484 0.21831606
000240 7c ab bc bd 37 ba b7 bc 20 e6 45 be ae 6f fb bd
       -0.092123955 -0.022427661 -0.19326067 -0.122771606
000250 c3 90 2a bd 78 dc 89 be 55 12 bc 3d 7e 18 06 be
       -0.04164196 -0.26926017 0.09183184 -0.1309528
000260 2c 97 14 3e 61 6d 9a 3d 69 3d b9 3d 5c 8e fb bb
       0.14510792 0.075403936 0.09044916 -0.0076768827
000270 d7 01 87 bd 0c 1e 6b be 17 b8 2f be 1e aa 11 3e
       -0.06592148 -0.2296068 -0.17160068 0.14225051
000280 c5 a0 69 bd 8e dc 1c be 9d 68 16 3d b6 dc 87 bd
       -0.057038087 -0.1531851 0.03672086 -0.06633894
000290 9a ff cf bd 1e 50 38 be 26 92 eb bc b0 1d de 3d
       -0.10156174 -0.17999312 -0.028756212 0.10845506
0002a0 34 f9 68 3d 05 7a ce 3a 41 6a c0 3d a9 25 0f be
       0.056878284 0.0015752917 0.09395266 -0.1397921
0002b0 b4 15 45 3d 2d 83 f6 bd 4a b6 8b bb e4 89 b9 3d
       0.0481164 -0.120367385 -0.004263674 0.09059504
0002c0 e7 94 4c 3d ce b8 89 3c c8 3e 89 be 05 08 04 be
       0.04994669 0.016811755 -0.2680571 -0.12893684
0002d0 49 2a 91 3d 28 d2 7d bd 15 66 a7 3d 90 11 ae 3c
       0.070881434 -0.061968 0.081737675 0.021248609
0002e0 fe 2b ef bd 64 69 67 be 0f 33 fc bd 52 68 1a be
       -0.11678313 -0.22598797 -0.12314426 -0.15078858
0002f0 6e 2c 4f 3e bc db 96 be c6 23 26 3d ab 12 24 be
       0.20231792 -0.2946452 0.04056146 -0.16022746
000300 3c f4 0a be ac ad 8c bc e8 4d 2b be e3 7c f8 bd
       -0.1356973 -0.017172657 -0.16728938 -0.12133195
000310 71 47 97 bb e6 e3 ab bd f8 e2 aa bd 8d d9 4a be
       -0.004616671 -0.083930776 -0.08344072 -0.19809552
000320 ad 52 2d be d1 62 99 bd 2d dd 92 3d a0 fb e9 bd
       -0.1692607 -0.07489551 0.07171092 -0.11424947
000330 67 de c4 bd fd 7e d3 bd c4 ea 24 3e 6e 03 f8 bd
       -0.096127324 -0.103269555 0.16105181 -0.12110029
000340 b4 2a bd 3d 17 36 0a bc 22 fc 22 b9 9b 8e de 3d
       0.092366606 -0.008435748 -0.0001554345 0.108670436
000350 01 5a 75 3c 68 ed d4 3d 20 c7 61 bd a5 26 b5 bd
       0.014975072 0.10396844 -0.05512154 -0.088452615
000360 b4 bf 0a 3e 10 ab 6a bd 98 13 01 3e fc 2f d7 bd
       0.13549691 -0.057292044 0.1260513 -0.10507199
000370 b0 bf 75 3d 77 a2 d2 3b d7 64 7e 3e 9f 23 92 bd
       0.05999726 0.0064280587 0.24843155 -0.071357004
000380 62 ba ac 3d 6e a7 37 3e 79 9a 81 be 52 01 ce 3d
       0.08433987 0.17934963 -0.25313166 0.100588456
000390 09 17 cf 3c 7c 30 9e 3d 09 6d 5f bd 89 29 18 be
       0.025279539 0.077240914 -0.054547343 -0.14859594
0003a0 4e 73 a6 3d 93 16 e6 3d 73 41 37 be b5 63 2c bd
       0.081274614 0.112347744 -0.1789606 -0.042087276
0003b0 e4 d4 3e bd 15 b6 46 ba d6 d4 b9 3c 2d 35 f3 3c
       -0.046589747 -0.0007580233 0.022684496 0.029688442
0003c0 cc b7 10 3c af a7 ac 3d 77 46 d1 bd eb 2b ca 3d
       0.008832883 0.084304206 -0.10218518 0.09871658
0003d0 29 18 0c bd 34 1c 35 bd c2 f5 ba 3d 35 e4 5f 3d
       -0.03420273 -0.04421635 0.09128906 0.054660995
0003e0 d7 ba c3 3d f1 80 17 3e e0 95 3d 3d c2 88 72 3d
       0.09557121 0.14795281 0.04628551 0.059212454
0003f0 73 59 7a bd d7 3e 92 3d 2a 07 e0 3c 12 ad a8 bc
       -0.06112046 0.07140892 0.027347166 -0.020590339

layers.0.conv1d.weight f4 [128, 1, 4]
000000 91 8f 4d 3e 03 42 f0 be 7a 0c 34 be e7 3d 93 3d
       0.20074297 -0.46925363 -0.17582884 0.07189541
000010 6b bd d8 3e c3 64 e8 3e 01 a9 d4 3e ec cb 76 3e
       0.42332014 0.45389375 0.4153519 0.24101228
000020 80 a6 75 bd 2b c2 cb 3e 00 a7 19 3e 41 9e 7e 3e
       -0.05997324 0.39796576 0.15005112 0.24865057
000030 70 8c 35 3e 52 e7 99 be 04 38 f4 3e a2 55 e1 3a
       0.17729354 -0.30059296 0.47698987 0.0017191658
000040 67 c2 e1 3d af ba aa be 81 cc df 3e b0 cc da bc
       0.110234074 -0.33345553 0.43710712 -0.02670893
000050 dd 6d cd be 31 17 a2 be 8c 25 81 bb 3b d2 dc bd
       -0.40122882 -0.3165832 -0.0039412435 -0.10782286
000060 24 a1 d2 be ec 47 32 3e c1 ea b8 bd c6 34 d1 be
       -0.41138566 0.17410249 -0.09029151 -0.40860575
000070 b1 3a 28 be 7c b0 6d 3e b1 4f 23 3e ff 87 a7 3e
       -0.16428639 0.23211855 0.15948369 0.32720944
000080 6a b3 18 3e 52 3d b5 3d c1 43 e3 3e 9e 50 10 3f
       0.14912191 0.088495865 0.4438763 0.5637301
000090 8e 32 d0 be c9 93 bc be 25 97 a8 3d 09 57 30 3e
       -0.4066357 -0.368315 0.082319535 0.17220701
0000a0 07 76 75 3d c4 31 02 3e 63 2c 16 3f c1 8e 51 bd
       0.059927013 0.12714297 0.5866148 -0.05116153
0000b0 60 a1 34 be f4 bb 4b be 12 91 ad 3e 7f 73 e6 bd
       -0.17639685 -0.19895917 0.33899742 -0.11252498
0000c0 bc b1 b6 bd 7b 0b 96 3e b5 32 44 3d bb 44 d5 3e
       -0.08920619 0.29305634 0.04789992 0.41654
0000d0 ab 9f 1f be 81 90 d7 be 9c 4f cd be 43 e7 18 be
       -0.15588252 -0.42102435 -0.400998 -0.1493197
0000e0 21 73 3e be df 07 ba 3e e9 b6 2b be 16 1a 90 be
       -0.18598606 0.3633413 -0.16768993 -0.28144902
0000f0 e7 33 0d 3e cc 79 bf be 98 50 d5 3e de 24 a4 3d
       0.1378933 -0.3739761 0.4166305 0.08014844
000100 76 ee 8f 3e 43 26 95 be e4 2e e4 3e 75 65 d7 3d
       0.2811162 -0.29130754 0.44567025 0.10517398
000110 48 47 10 bf 3b 2b a0 3e 04 13 10 bd f4 09 f6 3c
       -0.56358767 0.31282982 -0.035174385 0.030034043
000120 8c 9f 19 be 75 a4 47 3e 25 29 95 3e ff 54 df be
       -0.15002269 0.19496329 0.29132953 -0.43619534
000130 4b b9 c7 3d b4 c8 07 3e ca c5 6f 3c 74 6d fa 3e
       0.09752139 0.13260156 0.014634559 0.4891163
000140 41 7c 8e 3e 69 d3 81 3e b1 f8 f3 3e 15 18 fd 3c
       0.27829173 0.25356606 0.47650674 0.030895272
000150 70 23 8a bd a1 86 40 be 69 03 d4 3d 51 dd 70 3e
       -0.067450404 -0.18801357 0.10352213 0.23521926
000160 85 4d a0 3e aa 82 8b 3e 1d 9e aa be 08 fa a4 3e
       0.31309143 0.27248126 -0.33323756 0.3222201
000170 f8 73 85 be 32 b3 fc be 83 50 5a 3e 82 4d 44 be
       -0.2606504 -0.49355465 0.21319775 -0.19170192
000180 c0 d6 e0 3e 34 3c bf 3e 2e 2a 31 be 23 57 f9 3c
       0.4391384 0.3735062 -0.17301247 0.030437058
000190 96 49 59 be 1f 96 ec 3e d9 30 68 3e 98 9f 32 bd
       -0.21219477 0.46208283 0.22674884 -0.04360923
0001a0 e1 9f b3 be e5 e9 0d bd c9 92 ee 3e 1d 13 cf be
       -0.35082915 -0.034646887 0.46596363 -0.4044427
0001b0 2c da 3f be ad 59 e5 bd 0d 67 58 3e 79 33 3f 3e
       -0.1873557 -0.11198745 0.21133061 0.18671979
0001c0 ab fa 0f 3e c4 1d e7 3e 9a e6 16 3e fd 75 9f 3e
       0.14060466 0.45139897 0.14736405 0.31144705
0001d0 af e0 e5 be 5f 2a 71 be 06 91 02 3f 89 47 97 3e
       -0.44897982 -0.2355132 0.5100254 0.29546764
0001e0 76 77 56 3e fe 98 e2 3d cc 16 36 bd 80 66 0b 3f
       0.20944008 0.11064337 -0.044455335 0.5445328
0001f0 6f 7e a1 be 1e 26 b8 3e e8 e3 28 3d 12 ad e9 be
       -0.31541774 0.3596658 0.041232973 -0.45639855
000200 b5 da 98 3e e9 b5 dd 3c 47 f3 d5 be bb cb e0 3e
       0.2985436 0.02706428 -0.41787168 0.43905434
000210 85 0d 5a 3d f8 93 94 3e 3b bd cf 3e e1 c7 aa 3e
       0.05323555 0.2901914 0.4057406 0.3335562
000220 72 e3 03 bd 18 f4 29 3d ba c2 f2 be d0 cf c1 bd
       -0.03219933 0.04149255 -0.4741419 -0.09463465
000230 0b ca 9d 3e e4 12 ec be 00 fd e3 3e 3f a0 53 3e
       0.3081821 -0.46108162 0.4452896 0.20666598
000240 b8 d9 e6 bc 86 17 d0 3d 64 40 1c 3e 26 37 07 bf
       -0.028179988 0.10160737 0.15258938 -0.52818525
000250 2a ac f9 bd 8f 96 f4 3e 04 ee 4f 3e 88 9e b7 3e
       -0.12191041 0.47771117 0.2030564 0.35863137
000260 7a ef aa 3e 3b d9 a2 bd 99 81 f0 3e 9f ed 95 3e
       0.3338583 -0.0795159 0.46973875 0.29282853
000270 47 df 9b 3d f4 c2 50 3e 31 e9 f1 be 87 22 03 bc
       0.07610946 0.20386869 -0.47248223 -0.008003837
000280 3b 62 67 be 75 47 8f bd fb 9a 22 3d 83 c8 c6 be
       -0.22596066 -0.06996051 0.039698582 -0.38824853
000290 1d d6 00 3e 99 2a 35 3e 55 c3 8f be 5f 3b f6 be
       0.12581678 0.17692031 -0.28078714 -0.48092172
0002a0 3b 8f 74 3e 1b 4f cd be 57 11 a5 3d 0f c6 0c bf
       0.23882763 -0.40099415 0.08059948 -0.54989713
0002b0 2a af 62 be 3a 7a 56 3e 51 ab b9 be 4a c8 11 3e
       -0.22137132 0.20945063 -0.36263517 0.1423656
0002c0 bc 15 89 be 72 a1 d3 be 36 9a 93 bb 97 71 cf 3e
       -0.26774395 -0.4133411 -0.0045044674 0.4051635
0002d0 68 b9 07 be 13 35 ea 3e bc 53 7c 3e 1b d6 ca 3d
       -0.1325432 0.45743617 0.24641317 0.099041186
0002e0 1b a9 ae 3e 5a 70 72 be 0a 36 a6 3e 8a fd c0 3e
       0.34113392 -0.23675671 0.32463104 0.37693435
0002f0 71 ce 8f bd db d8 14 3f d3 45 3a be 6c 98 61 be
       -0.070217974 0.58143395 -0.18190698 -0.220308
000300 f4 a7 82 3d c0 26 0c 3f 5a 69 9d be fb 3d 1a 3e
       0.06379691 0.5474663 -0.3074444 0.15062706
000310 fe 11 cc be fd 6d 94 3e 36 88 04 bf 82 02 a4 bd
       -0.39857477 0.28990164 -0.5177034 -0.08008291
000320 55 18 0f bd 5b a6 cb be 95 93 05 3e a3 11 00 bd
       -0.034935314 -0.39775357 0.1304458 -0.03126682
000330 18 f9 0a bf 67 df d5 3c 3c 73 32 bd 25 21 95 be
       -0.54286337 0.026107503 -0.043566927 -0.2912685
000340 1f 58 b3 bd aa 9c 19 be ae 59 c5 3e 8d 45 d1 be
       -0.08757042 -0.15001169 0.38544983 -0.40873376
000350 f5 ee 01 3f 47 02 f1 bd 7f b8 f0 be 25 b3 d4 be
       0.50755244 -0.117680125 -0.4701576 -0.41542926
000360 b1 d2 e1 3e d8 fc 8b be 8d d2 e8 3e da 17 fa 3e
       0.44106057 -0.27341342 0.45473137 0.48846322
000370 80 19 4f be f3 7d 01 bf 46 41 13 bf ac 6e 9e 3d
       -0.20224571 -0.5058281 -0.57521474 0.07735953
000380 d4 9d c0 be 1a a8 d3 3e 61 bc fe bd 5f 8f f8 3d
       -0.37620413 0.4133919 -0.12438274 0.12136721
000390 1c 3c 29 3f a6 5f 32 be 5f ce 00 3e db 48 77 3d
       0.66107345 -0.174193 0.12578724 0.060372215
0003a0 58 a4 f4 3e b2 a9 8d be 0b 53 8a be 51 65 00 3e
       0.47781634 -0.2766853 -0.27016482 0.12538649
0003b0 de 74 42 bd 0d 1e e6 3e 50 b6 0b 3f 65 46 85 3c
       -0.047474734 0.44944802 0.5457506 0.016268918
0003c0 01 a7 19 bd fd f4 00 3f f2 7e b5 3e ad b2 11 3e
       -0.037512783 0.5037382 0.35448414 0.14228316
0003d0 48 81 71 be 94 ee 01 bf 6b 05 10 bf 93 50 21 3e
       -0.23584473 -0.50754666 -0.5625827 0.15753393
0003e0 f4 39 f0 be ab 43 e8 bd 4c 26 7b bd fc bf f3 be
       -0.46919215 -0.11341032 -0.06131582 -0.4760741
0003f0 4a 69 b6 3d 46 95 3d be c8 98 be bd 35 33 06 3f
       0.08906801 -0.18513975 -0.093064845 0.52421886

layers.0.conv1d.bias f4 [128]
000000 4c b1 81 3e bb 9d e5 be 8f 57 8c 3d 34 15 4a be
       0.2533058 -0.448469 0.06852638 -0.19734651
000010 73 1e d6 3e 55 a0 11 be 9c a6 cd 3e a4 2d 87 3e
       0.41820106 -0.14221318 0.40166175 0.2640201
000020 18 cc e1 be f1 c0 10 3f 8b 35 0e be 31 3d 07 bf
       -0.44101024 0.56544405 -0.13887613 -0.52827746
000030 00 f4 a6 3d e3 e6 48 3e 59 73 03 be 54 75 92 3e
       0.08152008 0.19619326 -0.1283697 0.2860514
000040 da 82 0b 3e 2e 19 12 3f 49 bf 89 3e 5b f8 69 3d
       0.13624135 0.5706967 0.26903751 0.057121616
000050 18 3c a8 3e 81 05 d4 3e 17 22 0d 3e 9d 8e 86 3e
       0.32858348 0.4141045 0.13782535 0.2628068
000060 0c 8a 91 3c f2 b4 c1 be 36 0a 17 bf b1 5e 83 3d
       0.017766021 -0.37833363 -0.58999956 0.06414545
000070 20 60 7b 3e 38 12 b7 3e 7b 00 82 be 97 a8 6a bd
       0.24548388 0.35756087 -0.25390992 -0.057289686
000080 68 5c 26 3e 9e 38 03 bf c9 e2 e5 3e c2 66 ed 3e
       0.16246188 -0.51258266 0.44899586 0.4636746
000090 53 f9 0e 3f 32 f9 46 be 04 a3 0e 3e 1c 73 e2 3e
       0.5584919 -0.19430998 0.13929373 0.44228446
0000a0 d8 a4 05 3f 49 a3 41 3e 9d 14 2e 3e 45 b8 c2 3e
       0.52204657 0.18909945 0.17000051 0.38031211
0000b0 87 31 78 be cd 06 99 be eb 28 0f 3f ee ff 78 be
       -0.24237643 -0.29888 0.5592181 -0.2431638
0000c0 2e 25 7a ba e6 40 c3 be 44 18 c2 be 76 e0 47 be
       -0.00095422834 -0.3813545 -0.37909138 -0.19519219
0000d0 11 1d 13 3f a3 b7 76 be a5 d5 21 bf ca ac c4 bd
       0.57466227 -0.2409349 -0.6321662 -0.096032694
0000e0 bf 58 5e bc a2 8b e0 be 21 e0 a8 bc f4 18 4a bc
       -0.013570963 -0.4385653 -0.020614685 -0.012335051
0000f0 7b 25 f2 bd 6d 44 8a bd f4 26 12 3e 66 a0 12 3f
       -0.11823555 -0.067513324 0.14272672 0.57276
000100 ec b8 13 bf 3f 6d 31 ba 42 d6 9f 3e 30 ce 0c 3e
       -0.57704043 -0.0006768293 0.31218153 0.1375053
000110 2b e6 ae 3e 0e a2 a5 be 8f 4c 96 3e c8 3e 90 3e
       0.3415998 -0.323502 0.29355285 0.28172898
000120 70 56 8b be 1b 93 af 3e 4f 95 10 be 2a 65 12 be
       -0.27214384 0.3429192 -0.14119457 -0.14296404
000130 32 eb 37 3d d1 07 91 be 55 4c 0f bf 0d 35 96 bc
       0.044902034 -0.28326276 -0.5597585 -0.018335843
000140 5a 94 ac 3d 87 b2 1a 3f bf 3c ac 3e e1 b7 95 be
       0.08426733 0.6042866 0.33640096 -0.2924185
000150 a6 06 ee 3e 71 29 82 bd bc fa f6 3e 86 0c db be
       0.46489447 -0.063555606 0.4823817 -0.42782992
000160 0f 11 fd be 77 4f 40 3c e5 b9 83 bd ab 48 ea be
       -0.49427077 0.011737696 -0.06431941 -0.45758566
000170 1f 4c 55 3e 2d 4a 66 3e 09 e9 e1 be bb 22 09 3f
       0.20829819 0.22489233 -0.44123104 0.5356862
000180 01 6a 15 3c b3 eb 07 3f 45 dd bd be 5e 1a 21 3d
       0.009119512 0.53094023 -0.37082878 0.039331786
000190 03 42 c9 3e 19 74 fb bd 1e 48 ea 3e df 76 2f be
       0.39308175 -0.12278003 0.45758146 -0.1713519
0001a0 1f e4 1c 3f a5 22 10 3f 3e 31 04 bf c9 66 5f 3e
       0.61285585 0.56302863 -0.5163764 0.21816553
0001b0 7a f8 9c 3e be 39 22 bf 8a 97 38 3e c9 bd 0a 3f
       0.30658323 -0.6336936 0.18026558 0.5419584
0001c0 82 63 97 be 88 5a e8 bc ed 15 4c 3d e1 b2 9c be
       -0.29568106 -0.028363481 0.049825598 -0.30605224
0001d0 14 26 09 bf 1f d5 05 bf 1d af 08 bf b7 7d e7 be
       -0.5357373 -0.5227832 -0.533922 -0.452131
0001e0 61 7f d2 3e 7f c4 9e 3d 4d 6c 19 3f 0d e6 a2 3b
       0.41112807 0.077523224 0.5993088 0.004971272
0001f0 a4 33 7b be e3 4e ff 3e 8a d5 de be 8b 9e cc 3e
       -0.24531418 0.49864873 -0.43522292 0.3996471

layers.0.out_proj.weight f4 [64, 128]
000000 fd fa 51 3d f5 b9 c9 3c 61 9d 34 bd 89 35 39 3d
       0.05126475 0.024624804 -0.0440954 0.04521707
000010 97 be 2e bd 1e 12 4a 3d e4 f6 c2 3c 4c 8e 33 3d
       -0.04266223 0.049333684 0.023799367 0.043836877
000020 32 e5 7f 3d d5 0b de 3d c9 00 fc bd fe c1 d4 3d
       0.062474437 0.108421005 -0.12304837 0.103885636
000030 63 78 09 bd ff a3 40 bd 92 87 41 bc 24 83 9b bb
       -0.033562075 -0.0470314 -0.011812108 -0.004745858
000040 79 cc b2 3d 50 d2 4d bd 0d 77 81 3d 9c 88 d5 3c
       0.08730406 -0.050249398 0.06321535 0.026066117
000050 5a 61 d7 3d af c8 2a be bf 43 e2 bb 5c d5 66 3d
       0.10516615 -0.16678117 -0.0069050486 0.05635582
000060 ed aa 9b 3c c0 d7 b5 bd 93 e8 22 bd 20 fb ac 3c
       0.019002402 -0.08879042 -0.03977258 0.02111584
000070 ca ef ed ba 17 aa b7 3d b7 1a 23 bd 2c a4 e8 bd
       -0.0018153128 0.08967989 -0.0398204 -0.11359438
000080 3a ab da 3d 41 e7 a2 3d 1e 2f 10 3d 61 63 bd 3b
       0.1067719 0.079542644 0.035201184 0.005779669
000090 9d a4 d1 3d 26 b0 52 bd f0 e5 81 3d ca 2e 02 be
       0.102364756 -0.05143752 0.06342685 -0.12713161
0000a0 18 c2 d3 3c b7 6e 10 be 08 28 53 3d 54 41 d6 3d
       0.025849387 -0.14104734 0.05155185 0.10461679
0000b0 26 fd 13 bc 01 36 0a 3d 9d 38 80 3c 42 ec 3b bc
       -0.009032523 0.03374291 0.015651995 -0.0114699025
0000c0 a1 5b d4 bd 4a ac 86 bd 22 49 93 bd 69 e8 35 3e
       -0.10369039 -0.0657583 -0.07191683 0.17764439
0000d0 9c 37 1a be b4 54 26 be e3 a5 60 3a c0 01 9f 3d
       -0.15060276 -0.16243249 0.0008569641 0.07764006
0000e0 96 9a 24 3e 90 6a 6b 3d 11 2d 61 3d e0 4c 61 3d
       0.16074595 0.057474673 0.05497462 0.055004954
0000f0 1b 6c e7 bd 59 e9 f2 bc 8d 00 18 3c 48 71 33 be
       -0.11299916 -0.029652284 0.009277475 -0.17523682
000100 2d 8c 04 3b 89 e6 0c 3d ad fd 06 3d 98 17 a3 bd
       0.0020225153 0.034399543 0.032956768 -0.079634845
000110 07 b4 a4 3c 1d 4c cf 3d 50 4d 8b 3d 1d 0b 83 bd
       0.020105375 0.10121939 0.068018556 -0.06398604
000120 c6 7e 1d bd b2 74 1c 3d 3f e0 0f 3d 21 90 26 3e
       -0.03845098 0.038197227 0.035125967 0.16265918
000130 3f a6 56 be 12 32 8a 3c 76 85 44 3d 7f e6 c5 3d
       -0.20961855 0.016869579 0.04797884 0.09663104
000140 56 1a ca 3d f0 24 31 3d 10 e8 c9 3d 40 d6 c6 bd
       0.098683044 0.043248117 0.098587155 -0.09708834
000150 f4 3f b0 bc 6c f0 b8 3d 64 d2 0a 3e ae 90 8a 3d
       -0.02151487 0.09030232 0.1355682 0.06765877
000160 e9 ef 0f bd 0b 94 f2 3d 96 14 62 3d 1b 16 be bd
       -0.035140906 0.11844643 0.055195414 -0.0928156
000170 9c b3 e8 bd 3d cf c7 3d 03 a8 0d 3e 3d c7 66 bc
       -0.11362383 0.097563244 0.13833623 -0.014085588
000180 95 8c 1c bc fd 45 c5 3d 29 15 b3 bd b7 45 73 39
       -0.009555002 0.0963249 -0.0874427 0.00023200257
000190 84 ca 2a 3c 38 a3 ab 39 4c 70 a6 3c 21 69 a0 3d
       0.01042426 0.0003273727 0.02031722 0.07832552
0001a0 c4 a3 4f 3d 6e 3d 59 bd e6 5b b3 bd 82 6a 37 3e
       0.05069329 -0.0530371 -0.087577626 0.17911723
0001b0 50 4f be bc 85 00 25 bd 9b 16 8b bd 09 55 5b 3d
       -0.023231179 -0.0402837 -0.06791421 0.053547893
0001c0 fd b9 d3 3d b2 ec 4b 3d 0b 38 78 3d 2b b0 5c be
       0.10338209 0.049786277 0.06060032 -0.21551578
0001d0 ec 91 aa bc cd e0 ea bd 0f 42 5b be bb a0 19 3e
       -0.020821534 -0.114686586 -0.21411918 0.1500272
0001e0 6f e4 d3 bd 66 20 79 be 4c 75 f7 3c 85 1e 85 3b
       -0.103463046 -0.24328765 0.030207299 0.004062476
0001f0 51 5b c8 3d e1 0e d2 bd ac 14 48 3d a8 9c 93 bc
       0.09783042 -0.10256744 0.04884784 -0.018019035
000200 b7 74 98 bd ba d8 02 3c dd 77 ae bc 89 7a 3f 3e
       -0.074441366 0.007986242 -0.02129739 0.18699087
000210 49 91 90 bd 42 df ea bc e4 d5 71 3d 45 bd a9 bb
       -0.07058961 -0.02867091 0.059041873 -0.0051800334
000220 0b f4 f1 bc c9 6a 51 bd 9b 44 89 bd dd 7e 51 3c
       -0.029535314 -0.05112723 -0.067025386 0.012786594
000230 73 9d 05 bd ab 03 16 bd 6d 3f 2e 3e 64 c3 b6 bd
       -0.03262086 -0.03662459 0.17016383 -0.089239866
000240 5b 41 24 bd f1 e6 1f 3e 30 62 94 bd 95 fb 5f be
       -0.04010139 0.15615441 -0.0724529 -0.21873315
000250 3b 17 6a bd ba 86 68 3e 5b 6a 55 bc 40 19 02 3e
       -0.05715106 0.22707644 -0.013025845 0.12704945
000260 8d ed 9a bd 30 96 1d 3c 5f 4e 07 3e 08 09 3d bd
       -0.075648405 0.009618327 0.1321349 -0.04615119
000270 6f a2 20 be 1d 52 14 bc 1f 98 db 3c 61 7e f3 bd
       -0.15686963 -0.00905278 0.026805935 -0.11889339
000280 e1 44 0b 3e 84 21 95 3c c5 9b 2d 3d e7 66 2a bd
       0.13600494 0.018204458 0.04238488 -0.04160204
000290 e5 31 3e bd 6e 3c 4e be de 57 3c bd d8 8b 28 be
       -0.046434302 -0.2014024 -0.045982234 -0.16459596
0002a0 0a 53 4c bd ab 57 7d 3e c0 7f 03 be 5a c8 0c 3e
       -0.04988388 0.24740474 -0.12841702 0.13748303
0002b0 5c c9 de 3b 98 dd 5a be 17 0c bd bd 96 b4 6e bc
       0.0067989063 -0.21373594 -0.092308216 -0.014569422
0002c0 ea ff 23 3e e0 0d ab 3d b8 08 af 3d 87 6e e6 bd
       0.16015592 0.08352256 0.08546585 -0.1125155
0002d0 2b 23 5b 3d fe c4 2a bc d1 bb 29 3d 92 cc a4 3d
       0.053500336 -0.010422943 0.04143888 0.08046831
0002e0 17 49 06 bd db 97 d3 bb a2 8a 42 3d 5a 2b 02 bc
       -0.032784548 -0.0064573116 0.04749549 -0.007944906
0002f0 c8 c7 6b bc ed 38 a7 3d ca ff ad bd 69 97 0b 3e
       -0.014390893 0.081651546 -0.084960535 0.13631977
000300 17 ba f0 3d 07 be e0 ba e2 2f 8e 3d 45 73 fd bd
       0.11754244 -0.0017146476 0.06942727 -0.123755015
000310 4b 63 b3 3d 24 3e 2d be 4f 42 a2 bd 52 25 43 bd
       0.08759173 -0.16918236 -0.079228036 -0.047643013
000320 33 34 46 3c 98 5f 33 3d e5 e0 1f bc d0 6c ea 3d
       0.012097406 0.043792337 -0.009758209 0.114465356
000330 ab f3 36 3e 5f 6e 6f 3d ec cf 03 be c4 4b 18 3e
       0.1786639 0.058454867 -0.12872285 0.14872652
000340 cd 65 26 3e 37 7e 70 bb d4 3a 15 3d bd 81 ee 3d
       0.16249771 -0.0036696324 0.036433056 0.11645839
000350 5c d7 4a bd e8 70 aa bd f8 e9 07 bc 43 fa 07 bd
       -0.04952179 -0.083223164 -0.008295529 -0.033197653
000360 b0 61 43 3d cc 03 35 3e 32 6e 27 bd 7b 75 33 3d
       0.047700584 0.1767723 -0.040876575 0.04381321
000370 4e fb 5e bd fc 09 ba bd 3d 57 45 3e fc cd 38 be
       -0.05443888 -0.090839356 0.1927156 -0.18047327
000380 10 3c 02 bd 09 b5 c4 bd 4f 3d 62 3d b5 bc cd 3d
       -0.03179556 -0.09604842 0.05523425 0.10045759
000390 7b 6d a5 bd ee 33 1d bd 83 92 20 be 44 18 f9 3b
       -0.08077522 -0.038379602 -0.1568089 0.0076017696
0003a0 22 15 85 bd 3f 0f 17 3d 8c 5b 61 3d cd b7 dc bd
       -0.064981714 0.036879774 0.055018947 -0.10777245
0003b0 a4 dc 1d bd f0 51 a6 3d 8c cc 29 bd d6 1b 8f bd
       -0.038540497 0.08121097 -0.041454837 -0.06987731
0003c0 41 6f 23 3d 8d 7e 30 bd fa 4e ce 3c 78 51 d7 3d
       0.039901022 -0.04308944 0.025184143 0.10513586
0003d0 cb 09 10 3c 23 5b e4 3d 0a 5b 02 bd 3f 88 c5 bd
       0.008791397 0.111501954 -0.031825103 -0.096451275
0003e0 f0 96 08 3d b1 fe 84 3d e2 43 54 bd 02 28 5d 3e
       0.03334707 0.06493891 -0.05182255 0.21597293
0003f0 6e 09 97 3c 3b e2 ca bd 9a 21 c2 bd c1 b9 4e bc
       0.018437114 -0.09906431 -0.09479065 -0.012617529

layers.0.forward_s6.A_log f4 [128, 16]
000000 75 40 95 3d a3 cc 48 3f 56 cb 8f 3f b9 36 b9 3f
       0.07287685 0.7843725 1.1233928 1.4469825
000010 f3 00 d7 3f 65 86 e2 3f 34 2c f2 3f 86 ec 01 40
       1.6797165 1.7697264 1.891974 2.0300612
000020 4c de 0c 40 db 41 15 40 57 77 1a 40 f4 26 1b 40
       2.201068 2.3321445 2.413534 2.4242525
000030 21 dc 23 40 cc 8a 28 40 79 4d 2e 40 1c 5d 35 40
       2.5603106 2.6334715 2.7234786 2.833808
000040 f9 a8 db bd f8 47 2d 3f 89 6c 90 3f a0 91 b2 3f
       -0.10725588 0.6768794 1.1283122 1.3950691
000050 53 14 d7 3f 9e 53 ed 3f 3d d6 01 40 82 02 0a 40
       1.6803077 1.8541143 2.028701 2.156403
000060 2d ae 0f 40 b7 1c 18 40 f9 48 1c 40 c5 39 23 40
       2.2450058 2.3767526 2.441954 2.550401
000070 81 7b 28 40 dc 02 2c 40 ec 0a 30 40 4c db 32 40
       2.632538 2.6876745 2.7506666 2.7946348
000080 4c db c4 bd 33 10 36 3f 48 a2 8d 3f c1 25 b1 3f
       -0.0961214 0.7111847 1.1065149 1.3839647
000090 64 75 cd 3f d8 6c ed 3f 53 8e fe 3f 32 47 07 40
       1.605145 1.8548841 1.9887184 2.1137204
0000a0 4a cb 0f 40 bb 30 16 40 fd 99 1d 40 b2 e8 1f 40
       2.2467828 2.3467243 2.4625237 2.4985776
0000b0 a4 f3 23 40 e8 d2 28 40 95 f8 2a 40 11 d3 34 40
       2.5617456 2.6378727 2.6714222 2.8253825
0000c0 e6 b5 68 3c 23 c3 37 3f 70 e2 8f 3f f1 3c b2 3f
       0.014203524 0.7178213 1.1240978 1.3924848
0000d0 6e 3e c9 3f f9 85 e5 3f a5 44 f2 3f 87 4e fe 3f
       1.5722177 1.793151 1.8927199 1.9867715
0000e0 f2 30 0b 40 0d 2b 11 40 d9 1d 14 40 0f b5 18 40
       2.1748624 2.2682526 2.3143218 2.386051
0000f0 5d de 1c 40 bd 79 23 40 b5 3d 28 40 b7 65 31 40
       2.451072 2.5543053 2.6287663 2.7718332
000100 01 7e 6e bc 9c 41 31 3f bf 14 94 3f df 24 b9 3f
       -0.014556409 0.69240737 1.1568831 1.4464377
000110 34 06 d6 3f c8 c4 eb 3f b7 44 00 40 d0 86 08 40
       1.6720643 1.8419428 2.004194 2.1332283
000120 6f ac 0f 40 62 a2 19 40 be fd 1e 40 4f 58 23 40
       2.2448995 2.400536 2.4842372 2.552265
000130 df 2f 28 40 2f 7d 2e 40 58 62 31 40 b8 df 34 40
       2.6279218 2.7263906 2.7716274 2.8261547
000140 b6 8c 99 bd d8 51 24 3f b9 13 8e 3f ab 93 b5 3f
       -0.074975416 0.64187384 1.1099769 1.418569
000150 ad 3e db 3f 73 27 ed 3f 2c 0a 01 40 64 c1 08 40
       1.7128502 1.8527664 2.0162458 2.1368036
000160 b7 d3 10 40 70 76 17 40 14 7f 1c 40 60 de 21 40
       2.262922 2.3666039 2.4452562 2.5291977
000170 ed ac 26 40 42 2f 2b 40 19 88 2e 40 ba 17 33 40
       2.6043046 2.6747594 2.7270567 2.7983232
000180 5d 21 4c bc 7a 3e 2c 3f bd 05 87 3f 84 ff ab 3f
       -0.012459126 0.6728283 1.0548626 1.3437352
000190 4b b6 c7 3f 39 d8 d8 3f d8 f6 ee 3f 3d e0 fc 3f
       1.5602506 1.6940986 1.8669081 1.9755932
0001a0 c8 ca 06 40 35 21 10 40 e5 9e 15 40 bb 12 1a 40
       2.1061268 2.2520268 2.3378232 2.4073932
0001b0 1b 55 20 40 1f db 25 40 61 45 29 40 0f af 2f 40
       2.5051944 2.591499 2.6448596 2.7450597
0001c0 07 84 c1 3c e3 a3 32 3f d7 da 93 3f 43 22 b9 3f
       0.023622526 0.6978132 1.155116 1.4463581
0001d0 59 9b db 3f 70 1f f5 3f 1a d3 02 40 10 01 0c 40
       1.7156783 1.9150219 2.0441346 2.1875648
0001e0 65 12 14 40 85 5d 19 40 96 ca 1f 40 40 35 24 40
       2.3136227 2.396333 2.4967399 2.5657501
0001f0 33 c4 28 40 6f 29 2d 40 78 cd 31 40 66 56 33 40
       2.636975 2.705654 2.7781658 2.8021483
000200 bb 01 b0 bd e0 8d 19 3f 98 d8 8d 3f d7 40 ad 3f
       -0.0859408 0.5998211 1.1081724 1.3535413
000210 8a 49 cc 3f 78 f9 e8 3f 19 14 fa 3f ba 9f 04 40
       1.5959942 1.8201132 1.9537383 2.072249
000220 8b 9c 0c 40 d3 23 0f 40 02 98 15 40 9d 95 1b 40
       2.1970546 2.2365615 2.3374028 2.4310067
000230 de 62 21 40 a1 b8 26 40 fc 82 28 40 5a 7b 2a 40
       2.5216594 2.6050189 2.6329947 2.6637788
000240 db 4b c4 bd 1a fb 1f 3f b9 10 95 3f a6 13 bd 3f
       -0.09584781 0.62492526 1.1645728 1.4771621
000250 66 81 e0 3f ae 18 f4 3f 3c 95 03 40 9f e1 0a 40
       1.7539489 1.9070032 2.0559835 2.1700208
000260 70 e8 12 40 5a c5 18 40 55 d9 1e 40 b9 b2 21 40
       2.2954369 2.3870454 2.482015 2.5265334
000270 b2 68 28 40 2b 52 2c 40 4e 26 2f 40 86 5e 36 40
       2.63139 2.6925151 2.736713 2.8495193
000280 be c5 57 3e ac e5 54 3f b1 00 a1 3f 22 46 d1 3f
       0.21071526 0.8316295 1.2578336 1.6349528
000290 bd a7 ea 3f 2d 85 07 40 d7 6f 13 40 5d dd 19 40
       1.833244 2.1175034 2.3037012 2.404136
0002a0 70 40 24 40 ad 4e 27 40 3b 32 2e 40 a9 84 32 40
       2.566433 2.614177 2.7218158 2.789347
0002b0 6a e6 39 40 f2 8d 3b 40 a0 78 43 40 3e 7b 46 40
       2.9046884 2.9305387 3.0542374 3.101272
0002c0 0d 6b b6 bd d6 79 1c 3f bc 45 89 3f b8 9b b2 3f
       -0.08907137 0.61123407 1.0724406 1.3953772
0002d0 43 48 ce 3f 82 39 e2 3f 72 07 f6 3f 7a ac 02 40
       1.6115803 1.76738 1.9221022 2.0417771
0002e0 96 38 0b 40 40 80 11 40 68 41 17 40 9b 61 1b 40
       2.1753287 2.2734528 2.363367 2.4278324
0002f0 e6 82 21 40 6a c1 26 40 fd 50 2a 40 1d b5 2f 40
       2.5236144 2.605555 2.6611931 2.7454293
000300 4a ae 22 bd 6b d2 2e 3f 51 66 8c 3f cb bc ac 3f
       -0.039716996 0.6828982 1.0968724 1.3495115
000310 60 e4 c9 3f 3d 8b e3 3f ec 37 f7 3f 79 ab 02 40
       1.577282 1.7776867 1.9313941 2.0417159
000320 68 c4 08 40 32 f5 11 40 80 5e 16 40 48 c8 19 40
       2.1369877 2.2805905 2.3495178 2.4028492
000330 81 0c 1f 40 c3 cb 23 40 af cc 27 40 41 59 2a 40
       2.4851382 2.5593116 2.621868 2.6616976
000340 05 0e 04 be c4 ab 1e 3f e0 b6 87 3f 59 fe a9 3f
       -0.12895973 0.61980844 1.0602684 1.3280746
000350 7b f6 c4 3f d2 a3 e4 3f 6f 82 fa 3f 29 28 04 40
       1.538772 1.7862494 1.9571055 2.0649512
000360 b5 c6 07 40 ce ab 0e 40 1f 9b 15 40 e8 8f 1b 40
       2.121503 2.2292361 2.3375928 2.4306583
000370 2c bd 1f 40 10 c3 22 40 87 ea 26 40 ad 87 28 40
       2.4959211 2.5431557 2.6080644 2.633281
000380 b8 98 57 3c 8d ae 0a 3f e5 a9 88 3f d7 40 9b 3f
       0.01315897 0.54172593 1.0676848 1.2129163
000390 40 04 c1 3f 74 7a cf 3f 58 99 e1 3f 6d ed f2 3f
       1.5079422 1.6209245 1.7624922 1.8978707
0003a0 0c 38 04 40 93 e7 06 40 da 03 0e 40 35 2a 12 40
       2.0659208 2.1078842 2.218985 2.283826
0003b0 b4 f1 17 40 5f 9e 1a 40 f4 25 22 40 bc fb 24 40
       2.3741274 2.4159162 2.5335665 2.5778646
0003c0 81 ee 10 3e 29 78 30 3f f8 47 89 3f 67 d7 9b 3f
       0.14153482 0.6893335 1.0725088 1.217511
0003d0 40 d1 c3 3f bc ee d5 3f 18 41 e3 3f 36 02 f9 3f
       1.5298233 1.6713481 1.775424 1.94538
0003e0 f0 ea 02 40 1f c7 05 40 b4 dc 0c 40 c3 4c 10 40
       2.0455894 2.0902784 2.2009706 2.2546852
0003f0 2b 37 14 40 34 7a 16 40 00 79 1a 40 bf ab 1f 40
       2.3158672 2.3512087 2.4136353 2.4948575

layers.0.forward_s6.D f4 [128]
000000 d1 c1 7f 3f 61 a7 5e 3f ae e3 80 3f 69 8b 81 3f
       0.99905115 0.8697415 1.0069482 1.012067
000010 af 9d 89 3f e8 c2 67 3f 1f b8 82 3f 0b c9 7d 3f
       1.0751246 0.9053178 1.0212439 0.9913489
000020 fd b3 75 3f ba a2 62 3f 83 8f 9e 3f 91 bb 76 3f
       0.95977765 0.8852955 1.2387546 0.96379954
000030 f8 3b 7e 3f 72 7a 69 3f a1 ed 87 3f 7f 9e 63 3f
       0.99310255 0.9120246 1.0619394 0.8891372
000040 a4 a1 7d 3f 86 0f 77 3f ab a2 8f 3f 0c a6 6b 3f
       0.9907477 0.9650806 1.1221517 0.9205024
000050 64 4d 7b 3f ab 11 7b 3f f1 d6 86 3f ee c9 84 3f
       0.98164964 0.98073834 1.0534345 1.0374124
000060 a0 e4 88 3f dd 13 8c 3f 9d 4b 89 3f 96 24 63 3f
       1.0694771 1.0943562 1.07262 0.887277
000070 9b ff 7e 3f 24 3a 6e 3f 35 a7 80 3f 2c 98 87 3f
       0.99608773 0.93057466 1.0051028 1.0593314
000080 00 14 7d 3f 5c b2 6f 3f bd 23 82 3f 8e 12 8b 3f
       0.9885864 0.9363153 1.0167156 1.0865037
000090 42 b0 79 3f fe ba 83 3f aa d1 64 3f a7 4b 91 3f
       0.97534573 1.029144 0.8938242 1.1351212
0000a0 3f 3b 6e 3f 9d 0a 94 3f bb f5 85 3f 21 a6 90 3f
       0.9305915 1.1565739 1.0465616 1.1300699
0000b0 8d 69 78 3f ac 50 87 3f 4c 14 69 3f 84 4b 83 3f
       0.9703606 1.0571494 0.91046596 1.025742
0000c0 88 f6 5a 3f 5b eb 93 3f 9b 70 6a 3f 97 f3 6c 3f
       0.85532427 1.15562 0.9157807 0.9255919
0000d0 9b a0 88 3f 2f 62 81 3f d1 7c 7a 3f e9 dc a3 3f
       1.0674013 1.0108088 0.97846705 1.2801791
0000e0 75 94 8b 3f e9 94 63 3f 0f 78 80 3f 08 d9 82 3f
       1.090468 0.88899094 1.0036639 1.0222483
0000f0 71 c7 8b 3f ae 5a 88 3f ad 80 6b 3f 2b e4 82 3f
       1.092024 1.0652673 0.9199322 1.0225881
000100 74 34 80 3f a7 c8 6e 3f b7 a3 82 3f 8f 23 9a 3f
       1.0016007 0.9327492 1.0206212 1.2042102
000110 0b 04 82 3f 52 67 84 3f 17 fb 56 3f 3b 49 8a 3f
       1.0157484 1.0344031 0.8397688 1.0803598
000120 3e a5 6e 3f 49 be 81 3f b3 e5 82 3f 85 16 a3 3f
       0.9322089 1.0136195 1.0226349 1.2741247
000130 a5 43 8e 3f 75 0b 6b 3f 83 bd 58 3f c2 81 83 3f
       1.1114393 0.9181436 0.8466417 1.0273974
000140 55 c2 96 3f f6 74 5e 3f ef 62 96 3f 7d f1 54 3f
       1.1778055 0.8689722 1.1748942 0.8318098
000150 12 8a 85 3f 51 50 67 3f 4d 2a 93 3f 85 d4 82 3f
       1.0432761 0.9035693 1.1497284 1.0221106
000160 19 7b 83 3f ca 7a 87 3f 07 b8 94 3f a4 e0 8c 3f
       1.0271941 1.0584347 1.1618661 1.1006055
000170 2a fd 6f 3f 7e 6c 68 3f 21 28 9d 3f 52 0b 89 3f
       0.9374567 0.90790546 1.2277871 1.070658
000180 62 61 6b 3f 61 a4 64 3f 69 cc 74 3f a5 82 95 3f
       0.9194547 0.8931332 0.95624405 1.1680495
000190 da ad 8f 3f 68 90 85 3f 7c 5e 88 3f 97 7d 8f 3f
       1.122493 1.0434694 1.0653834 1.1210202
0001a0 ed 25 8a 3f 24 a0 82 3f 33 5a 63 3f 7f e2 63 3f
       1.0792824 1.0205121 0.8880951 0.8901748
0001b0 20 cc 7b 3f 5a b1 70 3f f4 0a 5b 3f 49 8c 64 3f
       0.98358345 0.94020617 0.8556359 0.8927656
0001c0 9d f0 7e 3f 9b 94 38 3f a8 1d 78 3f 6b 43 89 3f
       0.99585897 0.72101754 0.9692025 1.0723699
0001d0 b0 64 57 3f 7a f7 83 3f 14 d7 8a 3f fd ec 87 3f
       0.8413801 1.0309899 1.0846887 1.0619198
0001e0 a6 02 86 3f 81 e5 8d 3f a7 3f 62 3f 1b b5 97 3f
       1.0469558 1.1085664 0.88378376 1.1852144
0001f0 46 7d 15 3f 15 59 7c 3f 6c 2c 7f 3f 43 9d 6e 3f
       0.5839428 0.9857343 0.9967716 0.9320871

layers.0.forward_s6.x_proj.weight f4 [36, 128]
000000 bb d2 cc 3c d4 e7 44 3e aa 12 06 bc 01 5d 08 3e
       0.025002828 0.1922906 -0.008183161 0.13316728
000010 a9 11 9d bc 37 c4 5b 3c 0a 19 be 3d ef ad 3e 3c
       -0.01917346 0.0134134805 0.092821196 0.011638149
000020 84 87 bc 3d 97 c2 b3 bd 75 33 13 3d f7 02 25 3e
       0.09205535 -0.087773494 0.035937745 0.16114412
000030 df 6e 5d 3c e9 9a 11 3d 23 f6 2d bd 8f b9 f1 bd
       0.013515203 0.035548124 -0.042471062 -0.118029706
000040 3d a1 11 be 8d 8e c6 bd 51 f2 93 bd 8f 62 2c bd
       -0.14221664 -0.09695158 -0.072239526 -0.04208618
000050 96 56 e0 3d 39 1f 9f bd f7 52 93 bd d0 cd 4b 3e
       0.10954015 -0.07769627 -0.07193559 0.1990273
000060 40 77 e6 bc ee fa e5 3d e5 4a e2 3d a9 11 75 bd
       -0.028133035 0.11229502 0.11049441 -0.059831295
000070 51 f3 c2 bd e3 fe 53 bd 3d c8 e0 3d 9a a1 f6 bc
       -0.09519065 -0.05175675 0.109756924 -0.030106355
000080 31 4d c4 bb da bb 92 3e 15 04 c7 bd f2 de 60 bd
       -0.0059906472 0.28658944 -0.097175755 -0.054900117
000090 8e e3 6e bd 78 19 3a 3e bc ef 14 3d 55 e6 12 bd
       -0.05832248 0.18173778 0.03636144 -0.035864193
0000a0 90 ad 8d bc d7 19 72 3d f6 56 c1 3d ec fd b6 bd
       -0.017294675 0.059106674 0.094404146 -0.089351505
0000b0 38 34 73 3d 7f dc 7d 3d d2 c5 64 be ae a9 41 3d
       0.05937597 0.06197786 -0.22341087 0.04728096
0000c0 1d e0 9d bd 7e 8a 9f bc fb 54 84 3d d7 ea c7 3d
       -0.07708762 -0.019475218 0.06461521 0.09761589
0000d0 6c e8 3b bd c1 b8 15 3e 70 45 04 3e 48 cd 36 3e
       -0.04587595 0.1462126 0.12917113 0.17851746
0000e0 59 18 e2 3d 94 d5 12 3e e3 b7 b9 3c b4 19 06 3e
       0.110398 0.14339286 0.022670692 0.13095742
0000f0 56 f5 a9 3e 8d 45 1b 3e cf 5b b1 3c 7c ec fa bd
       0.3319499 0.1516325 0.021650223 -0.12252137
000100 0d 31 9e bb 18 17 b2 3d 9a 59 01 3c c0 20 91 be
       -0.0048276247 0.08695811 0.007894898 -0.283453
000110 18 40 09 3d a3 09 cc 3d 59 86 fc bd 82 82 8e 3d
       0.03350839 0.099627756 -0.12330312 0.06958486
000120 32 c5 9c bd 83 d7 46 3e 7c c9 45 bd d4 38 f3 3d
       -0.076547995 0.19418149 -0.048287854 0.118760735
000130 39 5b 51 bc 7d 15 1a 3e c5 41 09 3e c7 a3 71 bc
       -0.012778097 0.1504726 0.13403995 -0.01474852
000140 aa 79 06 bd 46 cd f5 bd 52 dd ab 3d 4c 9f be bd
       -0.03283087 -0.120020434 0.08391823 -0.09307727
000150 ed 43 60 bc 33 b1 e8 3d af dc 49 3d ba 39 69 3e
       -0.01368807 0.11361923 0.049282726 0.22775927
000160 87 bc 5b 3e 24 e5 c8 bb 70 34 b8 3d 23 dd 32 3e
       0.21458636 -0.0061308313 0.08994377 0.1746717
000170 56 79 28 3d 7e 46 62 bd 04 fb c9 3d 9d 58 10 be
       0.04113134 -0.055243008 0.098623306 -0.14096303
000180 23 c5 39 3e 29 a7 c8 bd 3d bc 44 3e df 7b fa 3d
       0.18141608 -0.09797508 0.19212432 0.12230658
000190 70 b2 02 3e 2f ba 21 bc de 7f d8 3d da 82 4e 3d
       0.12763381 -0.00987105 0.10571264 0.05041776
0001a0 3f 12 20 bd 4c b3 14 bd b7 ad 9d 3d 9f 15 9e 3d
       -0.0390799 -0.036303803 0.07699149 0.07718968
0001b0 ab c9 a6 bd 94 48 1f 3e a5 f7 81 3e 22 56 34 be
       -0.08143934 0.1555503 0.2538425 -0.17610982
0001c0 69 76 3e 3c bf 49 96 3d e5 5e 9c bd d3 16 17 3e
       0.011624911 0.07338285 -0.07635287 0.147548
0001d0 2b e6 1b 3e c5 3b 7a 3e 11 02 b6 3e b6 45 b9 3d
       0.15224521 0.24436863 0.35548452 0.090464994
0001e0 1a 12 c7 3d 99 33 2c bd e6 60 fd 3c 94 52 17 bc
       0.097202495 -0.042041395 0.030929994 -0.009235997
0001f0 02 8a 66 3e 83 49 1c be 39 8e 89 3e b1 27 5b bd
       0.22513583 -0.15262417 0.2686632 -0.05350465
000200 17 44 24 be 21 55 5e be ec 39 7b be b5 ae e1 bd
       -0.16041599 -0.21712162 -0.24533814 -0.11019651
000210 60 4b 32 bd d5 aa b6 bd 70 a5 70 3d 6d db b6 bd
       -0.043528914 -0.089193024 0.058751523 -0.08928571
000220 33 f2 26 be db 55 2f 3d 7f 3f b2 3b 22 4e 07 be
       -0.16303329 0.042806488 0.005439698 -0.13213399
000230 ce 74 a3 bc be 91 9e bd bd 50 13 bb 3e ec 3e 3e
       -0.019953158 -0.07742642 -0.0022478544 0.18644807
000240 35 02 1c 3e c5 ae ee 3d 95 19 d6 3c df d0 b6 3d
       0.15235217 0.116544284 0.026135245 0.08926558
000250 1c 90 b9 bd b3 48 d9 3d ca 16 7b 3d bb 56 8f be
       -0.0906069 0.106095694 0.06130103 -0.27995858
000260 04 fb 19 bd 4d db 42 be 9d 05 8e bd b9 9d 8e bd
       -0.037592903 -0.19028969 -0.069346644 -0.06963677
000270 2a 8f 12 3e ab 65 16 3e 09 c5 5d bd 78 70 56 3d
       0.14312425 0.14687221 -0.054142985 0.052353352
000280 1e 62 03 bd 7d 37 a7 be 8d 4d cc 3d 42 4a 07 3d
       -0.032075994 -0.32659522 0.09975729 0.033029802
000290 3d da 19 3d 68 0a a3 be 7f f7 13 bd 80 b9 ba bd
       0.037561644 -0.31843877 -0.036124703 -0.091174126
0002a0 64 96 9e 3d a9 8c ab bd ba 4d 96 bd 2e 70 08 bc
       0.077435285 -0.08376438 -0.07339044 -0.008327527
0002b0 70 fd 61 bc 6b 93 65 bd 06 73 8c 3e 53 62 23 be
       -0.013793334 -0.05604879 0.27431506 -0.15955476
0002c0 fd 38 aa 3a e8 21 03 bd 8f 9c 74 bd 72 1a 36 be
       0.0012986955 -0.032014757 -0.05971962 -0.17783526
0002d0 08 02 70 bd f6 46 11 be a4 34 bf bd bc bd b1 be
       -0.058595687 -0.14187226 -0.09336212 -0.34715068
0002e0 a1 10 0a be aa 55 5a be 24 45 02 bd 9d 7b 2c be
       -0.13482906 -0.21321741 -0.03180422 -0.1684403
0002f0 d5 40 99 be 9b 8f 4d be 59 43 ff bd 67 4b 3d 3e
       -0.29932275 -0.20074312 -0.124640174 0.18485795
000300 07 d7 38 be 9f e3 63 be 29 20 89 bc d4 7e 4f 3e
       -0.18050776 -0.222548 -0.016738968 0.20263225
000310 02 39 00 be fb 82 0d be 77 91 2a 3d e8 96 b8 ba
       -0.12521747 -0.13819496 0.041642632 -0.001408306
000320 f3 16 23 be 2b 58 a4 bc 46 80 db 3d a3 20 07 be
       -0.15926723 -0.020061573 0.107178256 -0.13196044
000330 68 19 f3 3d 61 8d c5 bd 6d f0 3a be 1e 0a bf bc
       0.1187008 -0.096461065 -0.18255778 -0.023320254
000340 b0 17 1c be 12 ac 24 3e 00 43 12 bd a7 88 69 3b
       -0.15243411 0.16081265 -0.035708427 0.003563443
000350 9e 6f 9a 3d 83 00 d6 3d b4 47 48 bd c3 9b af bd
       0.075408205 0.10449316 -0.048896506 -0.08574631
000360 a5 07 1b be 01 62 81 bb f1 fc bc bb 38 c7 a0 be
       -0.15139635 -0.0039484506 -0.0057674577 -0.31401992
000370 fc a7 b2 bd b4 9c ab bd 68 8c ab bd 03 9b d0 3d
       -0.08723447 -0.08379498 -0.0837639 0.10185816
000380 7c d0 09 3d e7 dd fe 3c 28 2c 31 bd da 95 5e be
       0.03364609 0.03111167 -0.043255 -0.21736851
000390 40 15 b1 bd 05 23 a8 bd 63 02 23 3d de 3c 47 bc
       -0.08646631 -0.082098044 0.039797198 -0.012160508
0003a0 3c 03 e1 3c de 7a 66 3d c7 3e f6 bd 10 d8 62 3d
       0.027467363 0.05626952 -0.120236926 0.055381835
0003b0 11 45 87 3d 05 d6 04 be 34 9d 7c be 06 8a 22 3e
       0.0660497 -0.12972267 -0.24669343 0.15872964
0003c0 08 75 41 bd 56 6d 19 bd e5 fc de bd 13 e1 48 be
       -0.04723075 -0.037457787 -0.108880796 -0.19617109
0003d0 79 9a 05 be 32 b5 92 be 59 9d c4 be fc 46 6b bd
       -0.13047208 -0.28653866 -0.38401297 -0.057440743
0003e0 62 0f 86 bd 4d 2a 9f 3d 4e 2b 3c 3e ba 37 cd 3d
       -0.06545903 0.0777174 0.18375894 0.100203946
0003f0 9e 80 14 be ed e2 a7 3c 26 58 b1 be 06 78 b2 3c
       -0.14502189 0.020493949 -0.34637564 0.021785747
