checkpoints/mnist/vision_mamba_mnist_epoch_4.pth (torch, 340018 bytes, 33 tensors)

patch_embed.weight f4 [64, 1, 4, 4]
0	0x3e9164b4	0.28397143
1	0x3e6f6594	0.23378593
2	0xbc84dbe3	-0.016218131
3	0x3cd1e444	0.02562154
4	0x3e1e0436	0.15431294
5	0x3d936400	0.07196808
6	0xbde71c1c	-0.11284658
7	0xbd9cf420	-0.07663751
8	0x3d5cb51c	0.053883657
9	0x3e4cc317	0.19996296
10	0xbd374f9b	-0.044753652
11	0xbe24489a	-0.1604332
12	0xbe02406a	-0.12719885
13	0xbe00feaa	-0.12597147
14	0x3d420f40	0.047377825
15	0x3e4c0aff	0.1992607
16	0x3b99a67c	0.004689036
17	0xbda0fd8f	-0.078608625
18	0x3cc29128	0.023750857
19	0xbe21a1b0	-0.15784335
20	0xbe4fbabc	-0.20286077
21	0x3e4c9400	0.19978333
22	0x3dcdd29d	0.10049937
23	0x3e23856c	0.15968865
24	0xbe1476cc	-0.14498442
25	0xbe1080a2	-0.1411157
26	0x3d95dda2	0.07317664
27	0xbde45eb3	-0.11150875
28	0xbe270d11	-0.16313578
29	0x3e369e47	0.17833816
30	0xbddd7304	-0.10812953
31	0x3d1d0694	0.03833635
32	0x3e350e64	0.17681271
33	0x3db8e428	0.09027892
34	0x3ccb1d83	0.024794346
35	0xbd0eaf89	-0.034835372
36	0x3d6a160d	0.057149936
37	0xbe45b279	-0.19306363
38	0xbdac03f2	-0.0839919
39	0xbe31852c	-0.17335957
40	0x3e7ea716	0.24868426
41	0xbd4600e6	-0.0483407
42	0xbdc84398	-0.097785175
43	0xbe84571e	-0.25847715
44	0xbebcf2da	-0.3690403
45	0xbe5d9ce1	-0.21641876
46	0x3b106764	0.0022034282
47	0xbc5cde30	-0.013480708
48	0xbe459871	-0.19296433
49	0x3e37e053	0.17956667
50	0x3e512daa	0.20427576
51	0xbe459980	-0.19296837
52	0x3dbfc7f7	0.09364312
53	0xbdaaa6a8	-0.083325684
54	0xbe5d3841	-0.2160349
55	0xbe89b214	-0.26893675
56	0xbd9edd9d	-0.07757113
57	0xbe1b86bb	-0.15188114
58	0x3e333ec8	0.17504418
59	0xbd1eeaf5	-0.03879829
60	0xbda80b81	-0.08205319
61	0x3d569cd6	0.052395664
62	0xbe37b2d7	-0.17939316
63	0xbe9942a0	-0.29933643
64	0x3e33ef01	0.17571642
65	0xbe2b7c49	-0.1674663
66	0xbe022865	-0.12710722
67	0x3da82187	0.0820952
68	0xbd4a5494	-0.049397066
69	0x3cea982c	0.028637014
70	0xbe8796b6	-0.2648217
71	0xbe9e2385	-0.30886474
72	0xbde90dcb	-0.11379584
73	0xbe8b0b11	-0.2715688
74	0xbd3c73a1	-0.04600871
75	0x3e086f50	0.13323712
76	0x3d6bb54d	0.05754595
77	0x3e448c22	0.19194081
78	0x3e31661c	0.17324108
79	0x3e819efe	0.25316614
80	0x3e6aa4e2	0.2291446
81	0x3e0df1d8	0.13861787
82	0xbe9def6e	-0.30846733
83	0xbdeabdf8	-0.11462015
84	0x3e65f786	0.22457704
85	0x3e4fcc8b	0.2029287
86	0xbe1f8210	-0.15576959
87	0x3e14ae56	0.14519629
88	0xbd7f08b4	-0.06226416
89	0x3df1a1cf	0.11798441
90	0xbdca76ec	-0.09885964
91	0x3e0cde33	0.13756637
92	0xbea4dc6d	-0.32199422
93	0xbe6d1538	-0.23152626
94	0x3da5ab35	0.08089296
95	0x3d3867f1	0.045021
96	0x3e0c906a	0.13726965
97	0x3e617c33	0.22020034
98	0x3e7b1798	0.24520719
99	0x3e0d8295	0.13819344
100	0x3d0dc518	0.03461179
101	0xbe844275	-0.25831953
102	0x3e156ca4	0.14592224
103	0xbdf03910	-0.11729634
104	0xbd85ba5f	-0.06529688
105	0x3de6e355	0.11273829
106	0xbe2f02f2	-0.17090967
107	0xbe628384	-0.22120482
108	0x3e8586fa	0.2607954
109	0x3e2cdcbd	0.1688108
110	0xbd01fdfe	-0.031736366
111	0xbe450251	-0.19239165
112	0x3e1c9e11	0.15294673
113	0xbe107025	-0.1410528
114	0xbe3672b4	-0.17817193
115	0x3e7d3df1	0.2473066
116	0x3e46ea28	0.19425261
117	0xbe427bee	-0.18992588
118	0x3e183e50	0.1486752
119	0x3d7a902f	0.06117266
120	0x3e0d6752	0.13808945
121	0xbd9bde19	-0.07610721
122	0xbe4f99b7	-0.20273481
123	0xbe316931	-0.17325284
124	0xbc36f100	-0.011165857
125	0xbde4abb0	-0.11165559
126	0xbe4cd739	-0.20003976
127	0xbe43b3a7	-0.191115
128	0x3d9c4721	0.07630754
129	0xbd8e9e5b	-0.06963798
130	0xbe115ac3	-0.14194779
131	0xbdd6b577	-0.104838304
132	0x3e78e799	0.24307097
133	0x3da31858	0.079636276
134	0x3e139bcb	0.14414899
135	0x3e4425c0	0.19155025
136	0xbe18ce4d	-0.14922448
137	0xbdee1ffd	-0.11627195
138	0xbe4fd7bb	-0.20297138
139	0xbddaa4ce	-0.10675965
140	0x3d73d7c1	0.05953193
141	0x3e2a295a	0.16617337
142	0xbe87ce76	-0.26524705
143	0xbe20b16c	-0.15692681
144	0x3e331308	0.17487729
145	0x3e54f0b6	0.20794949
146	0x3e3c94ab	0.18416087
147	0xbe060c63	-0.13090663
148	0xbe8f8866	-0.2803375
149	0xbdeb5a45	-0.11491827
150	0xbe9cded6	-0.3063876
151	0xbe6c21da	-0.23059788
152	0x3d4f2f69	0.050582323
153	0xbe4df10c	-0.20111483
154	0xbd41066d	-0.04712527
155	0x3e11d32d	0.14240713
156	0xbe14940e	-0.14509603
157	0x3e43c50b	0.19118135
158	0xbe1be6c8	-0.15224755
159	0x3e8e4347	0.27785704
160	0x3ce8bede	0.028411325
161	0xbdb4964b	-0.088177286
162	0xbe0b28c0	-0.13589764
163	0x3ce2284b	0.027607104
164	0x3e59dd14	0.21275741
165	0xbda25fd8	-0.07928437
166	0xbe35f83c	-0.17770475
167	0x3e3eafab	0.186217
168	0x3dc6ed25	0.097132005
169	0xbd5bc7d5	-0.05365737
170	0xbe5797ac	-0.21053952
171	0x3e5904ba	0.2119321
172	0x3e59758e	0.2123625
173	0x3d619415	0.055072863
174	0x3e1dc4dd	0.15407129
175	0x3ce775e3	0.028254455
176	0xbec2f795	-0.38079515
177	0xbe2b6eab	-0.16741435
178	0xbe81d453	-0.25357303
179	0x3c3192a8	0.010838188
180	0xbe0e0592	-0.13869312
181	0x3e6ce8f2	0.23135737
182	0x3c0a764c	0.008451056
183	0xbe16bd45	-0.14720638
184	0x3d75bf61	0.059996966
185	0x3e17e32b	0.14832751
186	0xbe0e1625	-0.13875635
187	0xbdd85ee4	-0.10564974
188	0xbe60f6df	-0.21969174
189	0xbdf45c6f	-0.11931693
190	0x3e4bb01f	0.19891404
191	0xbe604ca7	-0.2190424
192	0x3dd7477d	0.10511682
193	0x3e018e02	0.12651828
194	0x3e70765e	0.23482653
195	0xbdb02daa	-0.0860246
196	0x3e658fd7	0.22418152
197	0x3d0f39d0	0.034967244
198	0xbdd9ebb2	-0.106406584
199	0xba9fc344	-0.0012188931
200	0x3e61673d	0.22012039
201	0xbe615ebf	-0.22008799
202	0xbdfcf4ab	-0.12351354
203	0x3dc5d351	0.09659446
204	0x3d421d0d	0.047390986
205	0x3e42a3e9	0.1900784
206	0xbe5c2f8d	-0.21502514
207	0xbda39ac0	-0.079885006
208	0x3d7fe4de	0.062474124
209	0x3e9c7e6f	0.3056521
210	0xbd27db61	-0.0409807
211	0xbe636918	-0.22208059
212	0xbc893708	-0.016749874
213	0xbd899019	-0.067169376
214	0xbd134cdb	-0.035961967
215	0xbe3ebc2f	-0.18626474
216	0xbd64d57c	-0.055867657
217	0x3e018908	0.1264993
218	0xbe82732c	-0.25478494
219	0xbe7f352f	-0.24922632
220	0x3e308bee	0.17240879
221	0x3d9e5f62	0.077330366
222	0x3c952b01	0.018208982
223	0x3dd8d444	0.105873615
224	0xbe92e175	-0.28687635
225	0xbdce9b5f	-0.100882284
226	0xbe4f5771	-0.202482
227	0x3daba0fd	0.083803155
228	0xbd7eddae	-0.06222313
229	0xbe8ed53c	-0.2789706
230	0xbe88adf3	-0.26695213
231	0x3de18f39	0.11013646
232	0x3e0bcb9a	0.13651887
233	0xbe15bc14	-0.14622527
234	0x3dc72ed0	0.09725726
235	0xbe1ff17a	-0.1561946
236	0x3d9a1f58	0.075255096
237	0x3e7f7bbb	0.24949543
238	0x3e1cebfa	0.15324393
239	0x3e317f1c	0.17333645
240	0xbccb8b09	-0.02484657
241	0xbda90511	-0.082529195
242	0xbdd8337a	-0.105566934
243	0x3e15fd72	0.14647463
244	0x3d4ec9c1	0.050485376
245	0x3e114820	0.1418767
246	0xbe3637e6	-0.17794761
247	0x3cfdeb60	0.030996025
248	0x3e76b1c8	0.24091256
249	0x3d351bb3	0.04421587
250	0x3d28949d	0.041157354
251	0x3db8b594	0.09019008
252	0xbe5264e1	-0.20546295
253	0xbe7ddb88	-0.24790776
254	0xbe2759e8	-0.1634289
255	0xbe969e06	-0.29417437

patch_embed.bias f4 [64]
0	0x3e89f217	0.26942512
1	0xbe534b1e	-0.20634124
2	0xbe076771	-0.13223054
3	0x3dd709a6	0.10499887
4	0xbddb9d14	-0.1072332
5	0x3c7aea5c	0.015314665
6	0xbdbfbdaa	-0.093623474
7	0xbe73a05c	-0.23791641
8	0xbdbc294c	-0.09187564
9	0xbe1ccd12	-0.15312603
10	0xbe0ba722	-0.13637975
11	0x3e21255c	0.15736908
12	0x3e8c1665	0.27360836
13	0xbd812776	-0.06306355
14	0xbddb5601	-0.10709763
15	0x3de0c342	0.109747425
16	0xbe41feb0	-0.18944812
17	0xbe8b300d	-0.27185097
18	0xbe4c22fb	-0.19935219
19	0x3d5b671a	0.053565122
20	0xbe7687b3	-0.24075203
21	0x3d9be53b	0.076120816
22	0x3cf8d7db	0.030376365
23	0xbe18cdff	-0.14922331
24	0x3e6b8fe7	0.23004113
25	0x3e623f8a	0.2209455
26	0x3dd48530	0.10376966
27	0xbc6f3cdb	-0.014601911
28	0xbdfdbbd4	-0.12389341
29	0x3d09881f	0.03357708
30	0xbd836860	-0.06416392
31	0xbe0db3c4	-0.13838106
32	0x3e228bf4	0.158737
33	0x3e110bbe	0.14164636
34	0x3e184f1e	0.14873931
35	0x3d9607fc	0.07325742
36	0xbe3124aa	-0.17299142
37	0xbdaec98b	-0.08534535
38	0x3cae96e6	0.021312188
39	0xbe07e020	-0.1326909
40	0xbe6c0842	-0.23050025
41	0x3d5d8faa	0.054092087
42	0xbe21d86e	-0.15805218
43	0x3c9b7508	0.018976703
44	0xbe9befb2	-0.3045631
45	0x3c8b4e46	0.017005097
46	0x3e59034c	0.21192664
47	0xbe369eb1	-0.17833973
48	0x3d4fe575	0.050755937
49	0x3e80b6d6	0.25139493
50	0x3d5c058f	0.05371624
51	0x3e71da74	0.2361849
52	0x3c51b8f3	0.012800443
53	0xbda5c457	-0.080940895
54	0x3e8e518f	0.277966
55	0x3e833f31	0.2563415
56	0x3ddb086a	0.10694964
57	0x3e1dfbed	0.15428133
58	0x3e46a0ef	0.19397329
59	0x3e5afdb9	0.2138585
60	0xbd531063	-0.0515293
61	0xbc194f2d	-0.009357256
62	0x3d5dfae7	0.054194357
63	0x3e658410	0.22413659

layers.0.in_proj.weight f4 [256, 64]
0	0xbde97d67	-0.11400872
1	0x3d45b3d0	0.048267186
2	0xbe03d478	-0.12874019
3	0xbdd524e3	-0.10407426
4	0xbd51b6e2	-0.0511998
5	0xbe633f6a	-0.2219216
6	0x3c94cda2	0.01816446
7	0xbd97f93f	-0.07420587
8	0xbd0c3f91	-0.03424031
9	0xbcef029a	-0.029176045
10	0xbddf4673	-0.10902109
11	0xbd30c8a0	-0.04316008
12	0xbdab59c7	-0.08366733
13	0xbdb78550	-0.08960974
14	0x3dc501c9	0.09619481
15	0x3d81be38	0.063351095
16	0xbcdd0d58	-0.026983902
17	0x3d60d2de	0.0548886
18	0xbd9d0581	-0.076670654
19	0x3d9b6bb9	0.07588906
20	0xbe325677	-0.17415796
21	0xbd8441f4	-0.06457892
22	0x3e459de0	0.19298506
23	0x3df394f2	0.118936434
24	0xbde19130	-0.110140204
25	0xbde11c1b	-0.10991689
26	0x3e24442f	0.16041635
27	0x3deecfd7	0.11660736
28	0x3dd781b5	0.105227865
29	0x3dfb08ac	0.122575134
30	0x3d3e9e0f	0.046537455
31	0x3c6f6913	0.014612454
32	0xbd8956ad	-0.06705985
33	0xbd3e246d	-0.046421457
34	0xbda16f22	-0.07882525
35	0x3dc71a43	0.09721806
36	0x3e1845a0	0.1487031
37	0x3d52f0af	0.051499065
38	0x3da2c2dd	0.079473235
39	0xbd273ed3	-0.0408314
40	0x3d178fd2	0.037002392
41	0x3dfa7914	0.12230125
42	0x3d7be855	0.061500866
43	0xbc8569bc	-0.01628577
44	0x3e06c686	0.13161668
45	0x3d2edf03	0.04269315
46	0x3db86cc8	0.090051234
47	0xbddc488b	-0.10756024
48	0xbe17dd89	-0.14830603
49	0x3e056930	0.13028407
50	0xbdd8ade5	-0.10580043
51	0x3e2043fa	0.15650931
52	0x3d2e7718	0.042594045
53	0xbdabfb26	-0.08397512
54	0xbdc41f55	-0.095762886
55	0x3b99352a	0.004675527
56	0x3e1287a6	0.14309558
57	0xbc3e5a1b	-0.0116181625
58	0x3da36a65	0.079792775
59	0xbe1b0aa0	-0.15140772
60	0x3ddd6535	0.10810319
61	0x3cd7061c	0.02624803
62	0xbd98c773	-0.07459917
63	0xbe11f802	-0.14254764
64	0x3ca50de2	0.020148221
65	0xbddb1b04	-0.10698512
66	0xbd6454ad	-0.055744816
67	0xbd5bc0fa	-0.053650834
68	0xbd570605	-0.052495975
69	0x3e73a344	0.2379275
70	0xbd81a627	-0.06330519
71	0x3d4300b0	0.047608078
72	0xbdac5c7d	-0.08416078
73	0xbd89b3b1	-0.067237265
74	0x3d7d4e05	0.061841983
75	0xbe1692c2	-0.14704421
76	0x3d0be78c	0.034156367
77	0xbdeb99bb	-0.11503931
78	0xbde7ba67	-0.1131485
79	0x3d8448b2	0.06459178
80	0xbe0be1b0	-0.13660312
81	0xbdfa0be4	-0.12209299
82	0x3dbbbab7	0.091664724
83	0x3c34af35	0.011028101
84	0x3e301bf4	0.17198163
85	0x3d8c5b74	0.06853381
86	0x3d390817	0.04517373
87	0x3e0b6963	0.1361442
88	0x3d38dbdb	0.045131546
89	0xbd98ee73	-0.074673556
90	0xbe82ad1a	-0.2552269
91	0x3d4de08d	0.050262976
92	0x3d5075e2	0.05089367
93	0xbd0d706b	-0.03453104
94	0x3c98dc4a	0.01865973
95	0xbacdac45	-0.0015691599
96	0xbe240cfe	-0.16020581
97	0x3cb82298	0.022477433
98	0x3e4711c1	0.19440366
99	0xbe025977	-0.1272944
100	0x3d636db2	0.055524535
101	0x3ce405aa	0.027834732
102	0x3e822f8c	0.254269
103	0xbdd015a9	-0.10160381
104	0xbdcc6f99	-0.09982223
105	0xbd946e35	-0.07247583
106	0xbdbc7914	-0.09202781
107	0xbc875d30	-0.016523927
108	0x3dcd6049	0.100281306
109	0x3e331cd8	0.17491472
110	0xbdf05ba7	-0.11736231
111	0x3e27adea	0.16374937
112	0x3dbd5ebe	0.09246586
113	0x3deb0a05	0.114765204
114	0xbd3f1962	-0.046655066
115	0x3d520958	0.051278442
116	0xbe1508ef	-0.14554189
117	0xbd96c364	-0.073614866
118	0xbd28f9ac	-0.04125373
119	0xbcfad90a	-0.03062107
120	0xbd3aa4e9	-0.045567427
121	0x3dc77c8b	0.097405516
122	0xbe5071c1	-0.20355894
123	0x3e2b4a3a	0.16727534
124	0xbe01b92a	-0.1266829
125	0x3d55d4cb	0.05220489
126	0xbd77bcef	-0.060482915
127	0x3e043775	0.1291178
128	0x3d54dae3	0.05196656
129	0x3e30dd6e	0.17271969
130	0x3cfd3f4a	0.030913968
131	0x3e3d21eb	0.1846997
132	0xbe0d5821	-0.1380315
133	0xbb085120	-0.0020800307
134	0xbd1228ab	-0.035683315
135	0x3e435c62	0.1907821
136	0x3da76402	0.08173372
137	0xbd5cfe8a	-0.053953685
138	0xbe02b798	-0.12765348
139	0x3cff2eb8	0.031150207
140	0x3e24aa3e	0.16080567
141	0xbdc985a8	-0.09839946
142	0xbe4cd0d4	-0.20001537
143	0x3e645ff6	0.22302231
144	0xbdc3ff89	-0.09570224
145	0xbd186821	-0.03720868
146	0xbe465af3	-0.19370632
147	0xbde2a922	-0.11067416
148	0xbd4629c2	-0.048379667
149	0xbea0f4c6	-0.31436747
150	0x3db6afab	0.08920225
151	0xbe0ef6a7	-0.13961278
152	0x3e2d59d7	0.16928802
153	0x3d99c891	0.07508958
154	0x3dc58e42	0.09646274
155	0x3cd7a6aa	0.026324589
156	0xbd85ff0c	-0.06542787
157	0xbe633809	-0.22189344
158	0xbe2bcee3	-0.1677814
159	0x3e0966d1	0.13418128
160	0xbd827d03	-0.063715
161	0xbe30b611	-0.17256953
162	0x3d61c732	0.055121608
163	0xbdb5a22a	-0.08868821
164	0xbdf32ec1	-0.11874152
165	0xbe2dff2b	-0.1699187
166	0xbc229322	-0.0099227745
167	0x3dbb9ff3	0.09161367
168	0x3d5d39f6	0.054010354
169	0x3c367571	0.011136399
170	0x3da814b1	0.082070716
171	0xbde863ee	-0.11347185
172	0x3d099804	0.03359224
173	0xbe02a32f	-0.12757562
174	0xbbf7a6ad	-0.007557711
175	0x3dd6060b	0.10450371
176	0x3cdb7a41	0.026791694
177	0x3ceb78fd	0.028744215
178	0xbe91392b	-0.28363928
179	0xbdfbda91	-0.122975476
180	0x3d85459a	0.06507416
181	0xbda3e432	-0.08002509
182	0x3dc713c9	0.097205706
183	0x3d1f20f8	0.0388498
184	0xbde33e4c	-0.110958666
185	0xbe6dc111	-0.2321818
186	0xbe1358df	-0.1438937
187	0xbe0b9484	-0.13630873
188	0x3e4bf0b5	0.19916041
189	0xbe9bdd92	-0.30442482
190	0x3d64e277	0.055880036
191	0xbe10b4bd	-0.14131446
192	0xbdf469d1	-0.119342454
193	0xbb24c6d8	-0.0025142934
194	0xbe2ca056	-0.16858038
195	0xbdd53c00	-0.10411835
196	0xbbdb4bf3	-0.0066924035
197	0xbdbc69f7	-0.09199899
198	0xbd952304	-0.07282069
199	0xbe602e9a	-0.21892777
200	0xbe3975fa	-0.1811141
201	0xbdab879a	-0.08375473
202	0x3d08ee17	0.033430185
203	0xbdc928ca	-0.09822233
204	0xbdcd531e	-0.10025619
205	0xbdd0bbf8	-0.10192102
206	0x3e1c6bd0	0.15275502
207	0xbe0e33d2	-0.13886955
208	0x3dc9305c	0.09823677
209	0xbca9b319	-0.020715283
210	0x3cb3545f	0.021890817
211	0x3ddbb1e1	0.10727287
212	0x3d28abf6	0.04117962
213	0x3de5c16c	0.11218533
214	0xbda06798	-0.07832259
215	0xbe0526d9	-0.130031
216	0x3e1edc67	0.15513764
217	0xbdb2752d	-0.08713756
218	0x3db2ca5a	0.08730002
219	0xbe10097f	-0.14066122
220	0x3d873542	0.06601955
221	0x3ce91003	0.028450018
222	0x3e75792b	0.23972003
223	0xbd8661c1	-0.06561614
224	0x3dc62f56	0.09676997
225	0x3e4bd042	0.19903663
226	0xbe60dcf8	-0.21959293
227	0x3dfcf03c	0.123505086
228	0x3caadd21	0.020857396
229	0x3d99ac84	0.07503608
230	0xbd5914e1	-0.052998427
231	0xbe1beb85	-0.15226562
232	0x3d991037	0.07473796
233	0x3de53475	0.11191646
234	0xbe6bf1e7	-0.23041497
235	0xbd802227	-0.06256514
236	0xbd7351c4	-0.05940415
237	0x3cb83b8a	0.022489328
238	0x3cf218f0	0.029552907
239	0x3d316d5c	0.043317184
240	0x3ca6128f	0.020272521
241	0x3de411d2	0.111362115
242	0xbdba39d8	-0.09093064
243	0x3de661f6	0.11249153
244	0xbbcb40a5	-0.0062027746
245	0xbdb4bc14	-0.088249356
246	0x3da60142	0.08105709
247	0x3d9fc749	0.078016825
248	0x3dabf6b6	0.08396666
249	0x3e2be2c1	0.16785719
250	0x3d6677a7	0.056266453
251	0x3d958099	0.07299919
252	0xbda72db0	-0.08163011
253	0x3d891efb	0.06695362
254	0x3d790f9c	0.060805902
255	0xbd2ea30e	-0.04263597

layers.0.conv1d.weight f4 [128, 1, 4]
0	0x3e46d155	0.19415791
1	0xbee4d1c5	-0.4469129
2	0xbe3b6419	-0.18299903
3	0x3d889025	0.066681184
4	0x3ed2ef3e	0.41198152
5	0x3edda302	0.43288428
6	0x3ed4fddd	0.41599932
7	0x3e80d82b	0.25164923
8	0xbd3f729c	-0.04674016
9	0x3eda2d17	0.42612526
10	0x3e21b901	0.1579323
11	0x3e515a8e	0.204447
12	0x3e29a04a	0.16565052
13	0xbea68605	-0.32524124
14	0x3ef2bf48	0.4741156
15	0xbc901069	-0.01758595
16	0x3df17f00	0.117918015
17	0xbea16dfb	-0.3152922
18	0x3ed9d523	0.42545423
19	0xbd041be0	-0.032253146
20	0xbec838db	-0.39105877
21	0xbe98250b	-0.29715762
22	0x3bc2e9a3	0.005948262
23	0xbdda5034	-0.10659829
24	0xbecd4a58	-0.40095782
25	0x3e2fd9c5	0.17172916
26	0xbdabc770	-0.08387649
27	0xbecc2836	-0.3987443
28	0xbdd565bb	-0.10419794
29	0x3e82b8a3	0.25531492
30	0x3e10ed5f	0.1415305
31	0x3e9b4632	0.30326992
32	0x3e19f72b	0.15035693
33	0x3dc34968	0.095354855
34	0x3ed866b5	0.4226586
35	0x3f0fcd2a	0.5617243
36	0xbecccff9	-0.4000242
37	0xbeb14bb9	-0.34628084
38	0x3da6b575	0.08140079
39	0x3e246818	0.16055334
40	0xbc45f7a0	-0.012082964
41	0x3e0790c0	0.13238811
42	0x3f168f93	0.58812827
43	0xbdb25b7f	-0.08708858
44	0xbe35c6ca	-0.17751613
45	0xbe2b1da5	-0.16710527
46	0x3e9e5269	0.3092225
47	0xbda2f16b	-0.07956203
48	0xbdc9a245	-0.098454036
49	0x3e8cc328	0.27492642
50	0x3d4a3507	0.049366977
51	0x3ecf7cd3	0.4052492
52	0xbe145c5d	-0.14488359
53	0xbecdc3e1	-0.40188506
54	0xbec87024	-0.39148057
55	0xbe1930c5	-0.1496001
56	0xbe40e72c	-0.18838185
57	0x3ead8d01	0.3389664
58	0xbe2dbf6a	-0.1696755
59	0xbe9342e0	-0.2876196
60	0x3e0697db	0.13143866
61	0xbec0079a	-0.375058
62	0x3ed69d4d	0.41916886
63	0x3dac4c35	0.08412973
64	0x3e836b33	0.25667724
65	0xbe9cb28b	-0.30604967
66	0x3ee686ce	0.45024723
67	0x3d90e64d	0.070751764
68	0xbf0d20f7	-0.55128425
69	0x3e9eb14e	0.30994648
70	0xbce3ee2a	-0.027823526
71	0x3d178f64	0.037001982
72	0xbe19dd3d	-0.15025802
73	0x3e2492b2	0.16071585
74	0x3e9ccaa7	0.3062336
75	0xbedcf083	-0.43152246
76	0x3dc7f831	0.09764136
77	0x3deb0e77	0.11477368
78	0x3c6ef83e	0.014585553
79	0x3ef7dab9	0.4840906
80	0x3e898488	0.26858926
81	0x3e78d189	0.24298681
82	0x3eeced05	0.46274582
83	0x3caaf7d4	0.020870127
84	0xbd736d9a	-0.059430696
85	0xbe3a622f	-0.18201517
86	0x3dc58368	0.096442044
87	0x3e58cbba	0.21171466
88	0x3e9ac152	0.30225617
89	0x3e8c2481	0.273716
90	0xbea99901	-0.33124545
91	0x3e9e0143	0.30860338
92	0xbe7cddaa	-0.24693933
93	0xbef914f2	-0.48648793
94	0x3e4f8a4b	0.20267598
95	0xbe350b14	-0.17680007
96	0x3ed6b74d	0.41936722
97	0x3ebbc9f7	0.36677524
98	0xbe2c08d7	-0.16800247
99	0x3cd26737	0.025683982
100	0xbe4add33	-0.19810943
101	0x3ef369bf	0.47541615
102	0x3e7d4bbd	0.24735923
103	0xbd0be666	-0.034155272
104	0xbeb4244e	-0.35183948
105	0xbc43a3dc	-0.011940923
106	0x3ef6f63e	0.48234743
107	0xbec46292	-0.38356453
108	0xbe2e6f6e	-0.17034695
109	0xbdbb3c66	-0.091423795
110	0x3e5ea86a	0.21743932
111	0x3e571024	0.21002251
112	0x3e030ac3	0.12797074
113	0x3ee7a942	0.4524632
114	0x3df36410	0.1188432
115	0x3e99990b	0.29999575
116	0xbeedbbfd	-0.46432486
117	0xbe78f40c	-0.24311846
118	0x3ef8c1bf	0.48585317
119	0x3e91de72	0.28490025
120	0x3e4bf90e	0.19919226
121	0x3dc535ed	0.09629426
122	0xbd15d8d0	-0.03658372
123	0x3f0b6cfc	0.5446317
124	0xbea5f9fa	-0.3241728
125	0x3eb1ae47	0.34703276
126	0x3d0ebbff	0.034847256
127	0xbeed70a1	-0.46374992
128	0x3e982fd3	0.29723987
129	0x3cd35934	0.025799371
130	0xbee2e7a1	-0.44317344
131	0x3ed685eb	0.41899046
132	0x3cfd5c04	0.030927666
133	0x3ea2b6fe	0.31780237
134	0x3ec809c5	0.39069954
135	0x3eac9611	0.33708242
136	0xbd13dc18	-0.03609857
137	0x3d46832b	0.048464935
138	0xbeee8d30	-0.46592093
139	0xbdc7ad02	-0.097497955
140	0x3e9af5c6	0.30265635
141	0xbee65178	-0.4498403
142	0x3ee6ccf5	0.45078245
143	0x3e494795	0.19656213
144	0xbd06e267	-0.032930758
145	0x3dbce88e	0.09224044
146	0x3e203aeb	0.15647475
147	0xbeff6b36	-0.49886483
148	0xbde88229	-0.11352951
149	0x3ef855af	0.4850287
150	0x3e54ecdd	0.20793481
151	0x3ea81bc8	0.32833695
152	0x3ea64216	0.32472295
153	0xbdcbc362	-0.09949376
154	0x3ee8a523	0.4543849
155	0x3e94d60e	0.2906956
156	0x3d7db82e	0.061943226
157	0x3e5334cd	0.2062561
158	0xbeedc2b2	-0.46437603
159	0x3bc17d80	0.0059048533
160	0xbe5cf315	-0.21577103
161	0xbd86234b	-0.065497
162	0x3d6e0f92	0.058120318
163	0xbebe7e96	-0.37205952
164	0x3dd2b96a	0.10289271
165	0x3e271ae2	0.16318849
166	0xbe9cf8e0	-0.30658627
167	0xbefb6abe	-0.49104875
168	0x3e6380a0	0.22217035
169	0xbed9a5f7	-0.42509434
170	0x3dddb0e6	0.10824756
171	0xbf0c1338	-0.54716825
172	0xbe6455fa	-0.22298422
173	0x3e468b08	0.19388974
174	0xbeb5c488	-0.35501504
175	0x3e066b44	0.13126856
176	0xbe82f37b	-0.25576386
177	0xbecc9372	-0.39956242
178	0x3a429add	0.0007423589
179	0x3ec251a4	0.37952912
180	0xbdf0f322	-0.11765124
181	0x3eeddcd8	0.46457553
182	0x3e7fa22e	0.2496421
183	0x3de53483	0.111916564
184	0x3ea93840	0.33050728
185	0xbe7ab13e	-0.24481675
186	0x3e917fd4	0.28417838
187	0x3eb8dfb2	0.36108166
188	0xbd84654d	-0.06464634
189	0x3f159c15	0.5844129
190	0xbe329b2d	-0.17442007
191	0xbe4558eb	-0.19272201
192	0x3d76ce36	0.06025525
193	0x3f0d86c5	0.55283767
194	0xbe9d13d2	-0.30679184
195	0x3e12911b	0.14313166
196	0xbed0edf8	-0.40806556
197	0x3e76c0cf	0.24096988
198	0xbf03a4ae	-0.51423156
199	0xbdc0674b	-0.093947016
200	0xbc825017	-0.01590733
201	0xbeba418c	-0.36378133
202	0x3df54533	0.11976089
203	0xbccfed13	-0.0253816
204	0xbf078d2a	-0.52949774
205	0x3d3b09a0	0.045663476
206	0xbd4d6a14	-0.050149992
207	0xbea842ce	-0.32863468
208	0xbdcf7dc0	-0.10131407
209	0xbe1c5463	-0.15266566
210	0x3ec3acb6	0.38217705
211	0xbecfe065	-0.40600887
212	0x3efeb4c7	0.49747297
213	0xbe05bcac	-0.13060254
214	0xbef272e2	-0.47353274
215	0xbed51f2b	-0.41625342
216	0x3ee4d8dd	0.44696704
217	0xbe67ae9e	-0.22625205
218	0x3eef73f4	0.46768153
219	0x3efbd0df	0.49182793
220	0xbe45c42b	-0.19313113
221	0xbef3eba3	-0.47640714
222	0xbf123d76	-0.5712503
223	0x3da6866d	0.081311084
224	0xbeb9a26d	-0.36256734
225	0x3ed6dece	0.4196686
226	0xbde3368e	-0.1109439
227	0x3de480b4	0.11157361
228	0x3f29a756	0.6627096
229	0xbe26e8db	-0.16299765
230	0x3db1e9ab	0.08687147
231	0x3ce01ca0	0.0273574
232	0x3ef02bdd	0.46908465
233	0xbe930d1b	-0.28720936
234	0xbe8dc83b	-0.27691826
235	0x3de52187	0.111880355
236	0xbd852aee	-0.06502329
237	0x3ede61b7	0.43433926
238	0x3f0a8980	0.5411606
239	0x3d112a7f	0.035440918
240	0xbc2595f4	-0.010106552
241	0x3f065d08	0.52485704
242	0x3eae1d48	0.34006715
243	0x3de94881	0.11390782
244	0xbe4946bf	-0.19655894
245	0xbf05e70e	-0.52305686
246	0xbf0d9b27	-0.5531487
247	0x3e10aaab	0.14127605
248	0xbef69049	-0.48156956
249	0xbde0d7c9	-0.10978658
250	0xbd5451a8	-0.051835686
251	0xbef4771e	-0.4774713
252	0x3dac7f61	0.08422733
253	0xbe3e8637	-0.18605886
254	0xbdb47a25	-0.0881236
255	0x3f00aed7	0.50266784

layers.0.conv1d.bias f4 [128]
0	0x3e79b7c1	0.24386503
1	0xbee8fae0	-0.45503902
2	0x3d99e6aa	0.07514699
3	0xbe3a68b1	-0.18203999
4	0x3ece3a4b	0.4027885
5	0xbe1266ea	-0.14297071
6	0x3eca0ef2	0.39464527
7	0x3e82700e	0.25476116
8	0xbee7b709	-0.45256832
9	0x3f11a5c6	0.56893575
10	0xbe0de6cb	-0.13857572
11	0xbf0d30b3	-0.55152434
12	0x3d9e898e	0.0774108
13	0x3e49a10a	0.19690338
14	0xbe00e248	-0.1258632
15	0x3e8a0147	0.269541
16	0x3e04e6e0	0.12978697
17	0x3f0fc496	0.5615934
18	0x3e8d278b	0.2756923
19	0x3d4e5db2	0.050382324
20	0x3eaa8e7f	0.3331184
21	0x3ed78c7d	0.42099372
22	0x3e0dfb70	0.13865447
23	0x3e807b60	0.25094128
24	0x3cbf27a2	0.023334328
25	0xbec2c4b1	-0.3804069
26	0xbf179ea5	-0.5922645
27	0x3d4765a4	0.048680916
28	0x3e759483	0.23982434
29	0x3eb7abc6	0.3587324
30	0xbe873288	-0.2640574
31	0xbd84cbc2	-0.06484176
32	0x3e1bad19	0.1520275
33	0xbf0235c5	-0.50863296
34	0x3edf3d99	0.43601683
35	0x3ee971a9	0.45594528
36	0x3f0e866c	0.5567386
37	0xbe4516cc	-0.19246978
38	0x3e07b428	0.13252318
39	0x3edfc01f	0.43701264
40	0x3f06c199	0.52639157
41	0x3e5321c8	0.20618355
42	0x3e354536	0.17702183
43	0x3ec0c7e0	0.37652493
44	0xbe81ab49	-0.25325993
45	0xbea072c4	-0.3133756
46	0x3f104371	0.5635291
47	0xbe7c3011	-0.24627711
48	0xbb8b7fa1	-0.004257158
49	0xbec0a1f9	-0.37623575
50	0xbec6159b	-0.3868836
51	0xbe493528	-0.19649184
52	0x3f16781e	0.58777034
53	0xbe80d175	-0.25159803
54	0xbf273061	-0.65308195
55	0xbdd5b7a7	-0.104354195
56	0xbce21045	-0.027595649
57	0xbee39e78	-0.4445684
58	0xbcc11014	-0.023567237
59	0xbc5b8817	-0.013399146
60	0xbdf20370	-0.11817062
61	0xbd8be49c	-0.06830713
62	0x3e0d27d6	0.13784727
63	0x3f15e945	0.58559066
64	0xbf16fd35	-0.58980113
65	0xbb945347	-0.004526529
66	0x3e9cd305	0.30629745
67	0x3e09d788	0.13461125
68	0x3ea92540	0.33036232
69	0xbea4b59e	-0.32169813
70	0x3e93afdc	0.28845108
71	0x3e802684	0.25029385
72	0xbe89d90b	-0.26923403
73	0x3eaf2704	0.34209454
74	0xbe0e61a9	-0.13904442
75	0xbe179a96	-0.14805064
76	0x3c9cbd38	0.019133195
77	0xbe978d7c	-0.29600132
78	0xbf0feb37	-0.56218284
79	0xbc920083	-0.01782251
80	0x3da07989	0.07835681
81	0x3f1ea2b8	0.6196704
82	0x3eb15c62	0.34640795
83	0xbe93d8de	-0.28876394
84	0x3ee7fc19	0.45309523
85	0xbd8b8825	-0.06813077
86	0x3ef3d17b	0.47620758
87	0xbed93af0	-0.42427778
88	0xbef3f2fe	-0.47646326
89	0x3bc5ace5	0.0060325735
90	0xbd86411d	-0.06555388
91	0xbee75c19	-0.45187452
92	0x3e65a356	0.22425589
93	0x3e5d7767	0.2162758
94	0xbee2f650	-0.44328547
95	0x3f0a7360	0.540823
96	0xbb8d4f84	-0.0043124575
97	0x3f044288	0.5166402
98	0xbeb31c6e	-0.34982628
99	0x3d09c780	0.033637524
100	0x3ec88862	0.39166552
101	0xbe032b11	-0.12809397
102	0x3ee66f1c	0.45006645
103	0xbe307d93	-0.17235403
104	0x3f1e79b6	0.61904466
105	0x3f0c81b5	0.5488542
106	0xbf08b5fd	-0.5340269
107	0x3e626059	0.22107066
108	0x3e98107d	0.2970008
109	0xbf26bc6e	-0.6513127
110	0x3e37bcb0	0.17943072
111	0x3f087fba	0.53319895
112	0xbe945654	-0.28972113
113	0xbd196c0b	-0.037456553
114	0x3d2a2ab9	0.04154465
115	0xbe9bbed7	-0.30419037
116	0xbf0a32a8	-0.53983545
117	0xbf050978	-0.51967573
118	0xbf062c10	-0.52410984
119	0xbeea1409	-0.4571841
120	0x3ed1b68f	0.40959594
121	0x3dbc58ac	0.091966
122	0x3f17f215	0.5935376
123	0x3b8eefbb	0.004362074
124	0xbe82f5f8	-0.25578284
125	0x3efc2646	0.4924795
126	0xbed5a4ca	-0.41727287
127	0x3ecc5edc	0.39916122

layers.0.out_proj.weight f4 [64, 128]
0	0x3d0e6642	0.03476549
1	0x3d364103	0.044495594
2	0xbda12051	-0.07867492
3	0x3cd24cf0	0.025671452
4	0xbd46701f	-0.04844677
5	0x3d802e53	0.06258836
6	0x3cb01e63	0.021498865
7	0x3d2b76cd	0.041861344
8	0x3d60a294	0.054842547
9	0x3e158b09	0.14603819
10	0xbddb2b93	-0.107016705
11	0x3db56c18	0.08858508
12	0xbd48a5b0	-0.048986137
13	0xbd3669d0	-0.044534504
14	0xbccfca84	-0.025365122
15	0xbcdaee6a	-0.026725013
16	0x3deb8430	0.11499822
17	0xbdafa43e	-0.085762486
18	0x3d34fffb	0.044189434
19	0x3ca505bc	0.020144336
20	0x3de8e682	0.11372091
21	0xbe765fe8	-0.24060023
22	0xbc04b373	-0.008099425
23	0x3d8bbe0f	0.0682336
24	0x3cb4e6a4	0.022082634
25	0xbd7c5e82	-0.061613567
26	0xbd131a22	-0.035913594
27	0x3cf555cc	0.029948138
28	0xbc0314f3	-0.0080006
29	0x3e13aa25	0.14420374
30	0xbd2e4cfd	-0.04255389
31	0xbe0757a8	-0.13217032
32	0x3dc7cffd	0.097564675
33	0x3ddde1dc	0.10834095
34	0xbb74ab47	-0.0037333535
35	0x3a6b559b	0.0008977295
36	0x3dbee431	0.09320868
37	0xbc146e5b	-0.009059514
38	0x3d9ab3f8	0.075538576
39	0xbdd7d177	-0.10537999
40	0x3d11f1a1	0.035630826
41	0xbe1e4e9d	-0.15459676
42	0x3d7eb9f3	0.062189054
43	0x3dc271e4	0.09494379
44	0xbbc77c6f	-0.0060878317
45	0x3dc50470	0.09619987
46	0x3c946067	0.018112374
47	0xbafd3c25	-0.0019320293
48	0xbdea5c9e	-0.114434466
49	0xbde8d020	-0.11367822
50	0xbd968017	-0.0734865
51	0x3e3cff09	0.18456663
52	0xbe180e90	-0.14849305
53	0xbe4327f5	-0.19058211
54	0xbc0ada00	-0.008474827
55	0x3dad4172	0.08459748
56	0x3e1c25df	0.15248822
57	0x3d8c53d1	0.06851924
58	0x3d4895d3	0.04897101
59	0x3d4fc822	0.05072797
60	0xbdea1790	-0.114302754
61	0xbd04f618	-0.032461256
62	0x3b840d0e	0.0040298766
63	0xbe47e8de	-0.19522426
64	0x3cf816a5	0.030284235
65	0x3d8236a7	0.0635808
66	0x3ca9c2a1	0.02072269
67	0xbdb367e6	-0.087600514
68	0x3cdf2cdf	0.027243076
69	0x3de20f1b	0.110380374
70	0x3d48707b	0.048935395
71	0xbda489d6	-0.080341026
72	0xbcb2ed6d	-0.021841729
73	0x3ccfe7fc	0.025379173
74	0x3d4c1198	0.049821466
75	0x3e1a036f	0.15040372
76	0xbe6a33df	-0.2287135
77	0x3cdc4aac	0.026891075
78	0x3d2b1605	0.041769046
79	0x3d9f09b7	0.07765525
80	0x3dc0268e	0.09382354
81	0x3dad030b	0.08447846
82	0x3dfa6db2	0.12227954
83	0xbdd9aebb	-0.1062903
84	0xbcbecb34	-0.023290254
85	0x3db02045	0.08599905
86	0x3e0bf4c7	0.13667594
87	0x3dbf640c	0.09345254
88	0xbd5290b6	-0.05140754
89	0x3dfb454c	0.12269077
90	0x3d572661	0.052526835
91	0xbddde29b	-0.10834237
92	0xbdf3f146	-0.11911254
93	0x3dae0615	0.08497254
94	0x3e0fc406	0.14039621
95	0xbc637c75	-0.013884653
96	0xbc27fced	-0.010253173
97	0x3da99b35	0.082815565
98	0xbda311da	-0.07962389
99	0xbc0e5aa1	-0.0086886
100	0x3b79dfbd	0.0038127743
101	0x3af69dab	0.0018815299
102	0x3c2aae0c	0.010417473
103	0x3d928927	0.07155066
104	0x3d294c66	0.041332625
105	0xbcd57302	-0.026055817
106	0xbd7dbe0e	-0.06194883
107	0x3e2dd3f4	0.16975385
108	0xbce3163d	-0.027720565
109	0xbd422046	-0.04739406
110	0xbda29438	-0.07938427
111	0x3d49c049	0.049255643
112	0x3e0bd308	0.13654721
113	0x3d75df39	0.060027335
114	0x3d8c7596	0.06858365
115	0xbe63b8eb	-0.2223851
116	0xbc007ed4	-0.007842738
117	0xbdd882fc	-0.10571858
118	0xbe54a038	-0.20764244
119	0x3e189724	0.14901406
120	0xbde4e909	-0.111772604
121	0xbe89be24	-0.26902878
122	0x3d10bf03	0.035338413
123	0x3c47b1db	0.0121884
124	0x3dc7a0a9	0.0974744
125	0xbdeac9b1	-0.11464251
126	0x3d1c7c67	0.038204577
127	0xbcbec378	-0.023286566
128	0xbd52cb2b	-0.051463287
129	0xbd110060	-0.03540075
130	0xbd3904c8	-0.045170575
131	0x3e566602	0.2093735
132	0xbd983525	-0.074320115
133	0xbd548eaf	-0.051893886
134	0x3d50d3fc	0.050983414
135	0x3c2868f1	0.010278926
136	0xbd771655	-0.06032403
137	0xbd7570d2	-0.059922047
138	0xbda2dc2b	-0.0795215
139	0x3c852a10	0.016255409
140	0xbd49070f	-0.049078997
141	0xbd2e3a9a	-0.042536356
142	0x3e205be3	0.15660052
143	0xbdba0f74	-0.09084979
144	0xbd4b6010	-0.04965216
145	0x3e1b98b0	0.15194964
146	0xbdc0c58e	-0.094126806
147	0xbe542dec	-0.20720643
148	0xbd48f147	-0.049058225
149	0x3e869e9a	0.26292878
150	0x3b499142	0.0030756746
151	0x3e06ca12	0.13163021
152	0xbd80fa3c	-0.062977284
153	0xbc870460	-0.016481578
154	0x3df11b12	0.117727414
155	0xbd82817f	-0.06372356
156	0xbe107c6e	-0.14109966
157	0xbcc6ab16	-0.024251502
158	0x3cd5c62e	0.026095476
159	0xbde44127	-0.11145239
160	0x3e200b18	0.15629232
161	0x3c1a3440	0.009411871
162	0x3dba3e9b	0.09093972
163	0xbd4410e5	-0.047867674
164	0xbd36536d	-0.044513155
165	0xbe5dfcfb	-0.21678536
166	0xbd2d13f2	-0.04225535
167	0xbe473ff9	-0.19457997
168	0xbd29f224	-0.04149069
169	0x3e85be59	0.26121786
170	0xbe05743a	-0.13032618
171	0x3e1f99b6	0.1558598
172	0x3ccf0f40	0.025275826
173	0xbe7e711a	-0.24847832
174	0xbdd67796	-0.10472028
175	0x3cbe2237	0.023209674
176	0x3e399258	0.18122232
177	0x3e0208b7	0.12698637
178	0x3d83b19a	0.06430359
179	0xbdc5f71a	-0.096662715
180	0x3d7812c0	0.060564756
181	0xbc58a069	-0.0132218385
182	0x3d6863e3	0.056735884
183	0x3dc2960c	0.095012754
184	0xbd152477	-0.03641173
185	0xba8eea49	-0.0010903563
186	0x3da3fa87	0.08006769
187	0xba90b338	-0.001103974
188	0xbc1e6ad1	-0.009669022
189	0x3dcad0ec	0.0990313
190	0xbda185a3	-0.07886817
191	0x3e18d49b	0.14924853
192	0x3dead4a2	0.11466338
193	0x3c091e4e	0.008369042
194	0x3db7b8ca	0.089707926
195	0xbdf83bac	-0.121207565
196	0x3d9811a1	0.074252374
197	0xbe405966	-0.18784103
198	0xbd986c71	-0.074425586
199	0xbd367afd	-0.044550885
200	0x3cab5ec7	0.020919217
201	0x3d86f95e	0.06590532
202	0xbca30494	-0.019899644
203	0x3e095e9e	0.13415
204	0x3e313df5	0.17308791
205	0x3d5cad54	0.053876236
206	0xbe182c58	-0.14860666
207	0x3e1b0fcd	0.15142746
208	0x3e31bef6	0.17358002
209	0xbcad6141	-0.021164538
210	0x3c9984eb	0.018740138
211	0x3dd69478	0.10477537
212	0xbd5310fc	-0.05152987
213	0xbdaa48d3	-0.08314671
214	0xbc81b97b	-0.015835514
215	0xbd069ce2	-0.03286446
216	0x3d32f512	0.04369075
217	0x3e2ed5bb	0.17073719
218	0xbd11391c	-0.035454854
219	0x3d90bf93	0.0706779
220	0xbd657563	-0.05602015
221	0xbda5b99e	-0.08092044
222	0x3e51f542	0.20503715
223	0xbe34e0ad	-0.17663832
224	0xbd1b4dbd	-0.037915934
225	0xbdd23d68	-0.102656186
226	0x3d64f8a4	0.055901185
227	0x3dd02f2f	0.101652496
228	0xbd7e6fb8	-0.062118262
229	0xbd03ee13	-0.032209467
230	0xbe1c39f9	-0.1525649
231	0xbba87575	-0.005140955
232	0xbd81a0c4	-0.06329492
233	0x3c6d4bd3	0.01448341
234	0x3d46438c	0.04840426
235	0xbdbcd334	-0.09219971
236	0xbd526681	-0.051367287
237	0x3df33e0b	0.11877068
238	0xbd1cfb6e	-0.03832572
239	0xbd86e674	-0.06586924
240	0x3c867d04	0.016417034
241	0xbcd3f8d1	-0.02587548
242	0x3c1ee176	0.009697309
243	0x3db88cb4	0.09011212
244	0x3be9b43d	0.007132082
245	0x3dd28af5	0.1028041
246	0xbca53630	-0.02016744
247	0xbdf449f5	-0.11928169
248	0x3d066cbb	0.032818537
249	0x3d729bc1	0.05923057
250	0xbd408ec2	-0.047011144
251	0x3e3ea402	0.18617252
252	0x3c663e4a	0.014052937
253	0xbdb94526	-0.09046392
254	0xbdbb3036	-0.09140055
255	0xbbea1e7d	-0.007144748

layers.0.forward_s6.A_log f4 [128, 16]
0	0x3c4662c2	0.012108507
1	0x3f375787	0.7161793
2	0x3f8d570f	1.1042193
3	0x3fb6aaca	1.4270871
4	0x3fd8a968	1.6926699
5	0x3fe7fdd9	1.8124343
6	0x3ff7ef24	1.9369855
7	0x4004ca99	2.0748656
8	0x400fa538	2.2444592
9	0x4017fb53	2.3747146
10	0x401d87ce	2.4614139
11	0x401d435d	2.4572365
12	0x402620f4	2.5957613
13	0x4029ef0f	2.655216
14	0x402f743c	2.7414694
15	0x403543ee	2.832271
16	0xbdb77fce	-0.08959924
17	0x3f2bdfcc	0.6713836
18	0x3f8f044e	1.1173189
19	0x3fb02034	1.3759828
20	0x3fd3bbf2	1.6541731
21	0x3fe7ff69	1.812482
22	0x3ffdf163	1.983929
23	0x4006c437	2.105726
24	0x400c9c1e	2.1970286
25	0x40153173	2.3311431
26	0x40191773	2.3920562
27	0x40200bc8	2.500719
28	0x40259752	2.5873609
29	0x40299dbf	2.650253
30	0x402e57a2	2.7240987
31	0x4030b8e4	2.7612848
32	0xbdc4612b	-0.09588846
33	0x3f47d320	0.78056526
34	0x3f8e64ec	1.1124549
35	0x3fb36c55	1.4017435
36	0x3fce2eee	1.6108072
37	0x3fedc422	1.857548
38	0x3ffe76d7	1.9880017
39	0x4006f6a5	2.108804
40	0x400fcd50	2.2469063
41	0x40162754	2.3461504
42	0x401dc041	2.4648592
43	0x401ef72a	2.4838357
44	0x40239c3a	2.5564103
45	0x4027cbd5	2.621816
46	0x4029ff2a	2.656199
47	0x40351b21	2.8297808
48	0x3d6b5eb9	0.05746338
49	0x3f3f4758	0.74718237
50	0x3f9160de	1.1357687
51	0x3fb3845b	1.4024767
52	0x3fc9b263	1.5757564
53	0x3fe38915	1.7776209
54	0x3ff0358c	1.8766341
55	0x3ffaa9aa	1.9583027
56	0x400a9b53	2.1657302
57	0x4011198c	2.2671843
58	0x40138bb4	2.3054018
59	0x4017e110	2.3731117
60	0x401c7e4c	2.4452085
61	0x4022fbb6	2.5466132
62	0x4027f439	2.6242812
63	0x4032d82c	2.794444
64	0xbd145812	-0.036216803
65	0x3f29d92b	0.66347
66	0x3f941b78	1.1570883
67	0x3fb8b039	1.4428779
68	0x3fd79c3a	1.6844552
69	0x3febe334	1.8428712
70	0x40006d37	2.006666
71	0x40085dc6	2.1307235
72	0x400fc2b6	2.2462592
73	0x401a1ad3	2.4078872
74	0x401f01ec	2.4844923
75	0x40230290	2.5470314
76	0x40283b11	2.6286051
77	0x402e8e9e	2.7274547
78	0x40316ac8	2.7721424
79	0x4034b1a4	2.8233423
80	0xbdd3db12	-0.10344519
81	0x3f1effb1	0.62108904
82	0x3f8eb15a	1.1147873
83	0x3fb66b17	1.4251431
84	0x3fe0630e	1.7530229
85	0x3ff0b274	1.880446
86	0x40027536	2.038404
87	0x400a05b1	2.1565974
88	0x40126ae2	2.2877736
89	0x4018f09b	2.3896854
90	0x401d601e	2.4589915
91	0x4022af15	2.5419362
92	0x40277840	2.6167145
93	0x402bb7f4	2.6831026
94	0x402f5c8c	2.7400236
95	0x403348e2	2.8013234
96	0xbd367d5b	-0.044553142
97	0x3f29618f	0.6616449
98	0x3f858d29	1.0433704
99	0x3faace3e	1.334419
100	0x3fc6fe7d	1.5546414
101	0x3fd890b4	1.691916
102	0x3feec9c2	1.8655322
103	0x3ffc6cf3	1.9720749
104	0x4006d1fc	2.1065664
105	0x4010948c	2.2590666
106	0x4015d4c6	2.3411117
107	0x40197f67	2.398401
108	0x401ff16b	2.49911
109	0x402529bf	2.580673
110	0x40284e4a	2.6297784
111	0x402ed9e4	2.732049
112	0xbc940473	-0.018068528
113	0x3f23ee91	0.640359
114	0x3f8f090c	1.1174636
115	0x3fb28925	1.3948103
116	0x3fdb5c47	1.7137536
117	0x3ff5cc1e	1.9202917
118	0x4003c7ce	2.05907
119	0x400d0dd3	2.2039688
120	0x401465de	2.3187175
121	0x40193149	2.3936331
122	0x401ff2c7	2.499193
123	0x402635f2	2.5970426
124	0x40287b64	2.6325312
125	0x402d8500	2.7112427
126	0x4030febe	2.7655482
127	0x402f3ea3	2.738198
128	0xbde38035	-0.11108438
129	0x3f0fee95	0.5622342
130	0x3f8090b3	1.0044159
131	0x3faa2cd3	1.3294929
132	0x3fca356c	1.5797553
133	0x3fe95fe2	1.8232386
134	0x3ffab00f	1.9584979
135	0x40043fd8	2.0663967
136	0x400c21be	2.1895595
137	0x400da2dd	2.2130654
138	0x40142b61	2.3151476
139	0x401a5bc5	2.4118512
140	0x401fa403	2.4943855
141	0x40241da6	2.5643096
142	0x4025d465	2.5910885
143	0x40283a74	2.6285677
144	0xbe28f7eb	-0.16500823
145	0x3f0eedc1	0.55831534
146	0x3f9539a8	1.165822
147	0x3fbea4d3	1.489405
148	0x3fe5c9c7	1.7952203
149	0x3ff9ba63	1.9510006
150	0x4005c5fd	2.0902092
151	0x400cf0ab	2.2021892
152	0x4014ffb3	2.3281066
153	0x401b052e	2.4221911
154	0x40214af4	2.5201998
155	0x40232cb6	2.549604
156	0x402a2832	2.6587033
157	0x402d972c	2.7123518
158	0x40301286	2.7511306
159	0x4037814f	2.8672674
160	0x3e6ea7fc	0.23306268
161	0x3f5488ea	0.83021414
162	0x3f9f0189	1.2422343
163	0x3fcaeb2d	1.585302
164	0x3fe64549	1.7989894
165	0x40081d22	2.1267781
166	0x4014e8ae	2.3267016
167	0x401ab281	2.417145
168	0x4025a5bf	2.5882413
169	0x4027d187	2.6221635
170	0x402ee594	2.7327623
171	0x40331bf2	2.7985806
172	0x403aedb5	2.9207585
173	0x403c7dc4	2.9451761
174	0x4043ea95	3.0611928
175	0x40463208	3.0968037
176	0xbe059036	-0.13043293
177	0x3f12a92a	0.57289374
178	0x3f889238	1.0669622
179	0x3fb49b12	1.4109824
180	0x3fd133df	1.6343955
181	0x3fe47c5a	1.7850449
182	0x3ff742a8	1.9317217
183	0x4002a8f1	2.0415614
184	0x400be64a	2.1859307
185	0x40119b1e	2.2750926
186	0x40177fe4	2.3671808
187	0x401a8885	2.4145825
188	0x402170fa	2.5225205
189	0x402641db	2.5977695
190	0x4029c8d5	2.6528828
191	0x403034ae	2.7532153
192	0xbd3c9165	-0.046037097
193	0x3f2e9bfe	0.68206775
194	0x3f8ba018	1.0908232
195	0x3faa315d	1.3296314
196	0x3fc8a1da	1.5674393
197	0x3fe3fe91	1.7812063
198	0x3ff7ae6d	1.9350106
199	0x40032615	2.0491993
200	0x4008d545	2.138017
201	0x4012a2a8	2.2911777
202	0x4016ab93	2.354222
203	0x4019be28	2.4022312
204	0x401ebec3	2.4803932
205	0x4023ad64	2.557458
206	0x4027220f	2.6114538
207	0x4029c188	2.6524372
208	0xbe1e8adb	-0.15482657
209	0x3f1d37dd	0.61413366
210	0x3f86b831	1.0524961
211	0x3faa45cf	1.3302554
212	0x3fc49cc7	1.5360345
213	0x3fe54002	1.7910159
214	0x3ffa422f	1.9551448
215	0x40034da8	2.0516148
216	0x4006f6fe	2.1088252
217	0x400da4fc	2.2131948
218	0x4014948c	2.3215666
219	0x4019e45a	2.4045625
220	0x401e0efc	2.4696646
221	0x4020d0bb	2.51274
222	0x40252de9	2.5809271
223	0x40265e6c	2.599513
224	0x3d0fe373	0.03512902
225	0x3f0f424e	0.5596055
226	0x3f8c2f1c	1.0951877
227	0x3f93929e	1.1529119
228	0x3fc55321	1.5415994
229	0x3fd1e699	1.6398498
230	0x3fe50880	1.7893219
231	0x3ff35a12	1.9011862
232	0x40054879	2.0825484
233	0x4007589c	2.1147833
234	0x400de18e	2.2168918
235	0x40120032	2.281262
236	0x4018591b	2.3804386
237	0x401a8057	2.4140832
238	0x402169c7	2.5220811
239	0x4021924c	2.5245543
240	0x3e3c13f1	0.18366982
241	0x3f3182bc	0.6934011
242	0x3f8815c4	1.0631642
243	0x3f970459	1.1798202
244	0x3fc2ec58	1.5228376
245	0x3fd31321	1.6490213
246	0x3fdf74ab	1.7457479
247	0x3ff502e4	1.9141507
248	0x40009b0e	2.0094638
249	0x4002db38	2.04463
250	0x400a71ca	2.1631951
251	0x400d6d37	2.209791
252	0x40117812	2.2729535
253	0x4012e2ec	2.2951002
254	0x4016314b	2.3467586
255	0x401cab0f	2.4479406

layers.0.forward_s6.D f4 [128]
0	0x3f76b827	0.96374744
1	0x3f631fe0	0.8872051
2	0x3f81461a	1.0099518
3	0x3f844440	1.0333328
4	0x3f8829cd	1.0637757
5	0x3f5c1389	0.8596731
6	0x3f8104dd	1.0079609
7	0x3f823e4b	1.017526
8	0x3f792fcb	0.9733855
9	0x3f5fb046	0.87378347
10	0x3fa05ba6	1.2527969
11	0x3f70e9ac	0.94106555
12	0x3f795f65	0.97411186
13	0x3f639c28	0.8891015
14	0x3f8773a8	1.058217
15	0x3f623a67	0.88370365
16	0x3f77de90	0.9682398
17	0x3f709b39	0.9398685
18	0x3f92bdfb	1.1464227
19	0x3f60de5f	0.8783931
20	0x3f75bd11	0.9599162
21	0x3f7672c4	0.9626887
22	0x3f85504c	1.041513
23	0x3f862afd	1.0481869
24	0x3f879663	1.0592769
25	0x3f8cf297	1.1011533
26	0x3f8873a1	1.0660287
27	0x3f5f5272	0.87235177
28	0x3f731710	0.94957066
29	0x3f67610a	0.90382445
30	0x3f838582	1.0275118
31	0x3f86f34b	1.0542997
32	0x3f78fd63	0.9726164
33	0x3f69e78c	0.9136894
34	0x3f8b592c	1.0886588
35	0x3f8b0062	1.0859492
36	0x3f75fe64	0.96091294
37	0x3f8221f7	1.0166615
38	0x3f5ee902	0.8707429
39	0x3f923bb4	1.142447
40	0x3f6a803a	0.9160191
41	0x3f988ea1	1.1918527
42	0x3f857fce	1.0429628
43	0x3f9198fe	1.1374815
44	0x3f781e68	0.96921396
45	0x3f8c1ec1	1.0946885
46	0x3f6494e6	0.892897
47	0x3f7d779c	0.99010634
48	0x3f53dd66	0.827597
49	0x3f95fcf4	1.171782
50	0x3f64e739	0.8941532
51	0x3f643c76	0.89154756
52	0x3f8bf96d	1.0935494
53	0x3f7cbd41	0.9872628
54	0x3f757551	0.95882136
55	0x3fa57f9d	1.292957
56	0x3f8d29df	1.1028403
57	0x3f5a886f	0.8536443
58	0x3f7e637c	0.9937055
59	0x3f79e611	0.9761668
60	0x3f8be986	1.0930641
61	0x3f830fe2	1.0239222
62	0x3f6b748d	0.9197472
63	0x3f81a6a9	1.0128986
64	0x3f859ea2	1.0439036
65	0x3f68997e	0.9085921
66	0x3f82da00	1.0222778
67	0x3f97d3f0	1.1861553
68	0x3f80eb2b	1.0071768
69	0x3f8504a9	1.0392047
70	0x3f4e5afd	0.8060759
71	0x3f880a2f	1.0628108
72	0x3f75228f	0.9575586
73	0x3f7eabdc	0.99480987
74	0x3f8186d7	1.0119275
75	0x3fa67f45	1.300759
76	0x3f8dcdc3	1.1078418
77	0x3f67c7eb	0.90539426
78	0x3f4ec5b5	0.80770427
79	0x3f840c27	1.0316209
80	0x3f949708	1.1608591
81	0x3f6319f8	0.887115
82	0x3f9b8dcf	1.2152652
83	0x3f4ef7c5	0.80846816
84	0x3f846f3e	1.0346448
85	0x3f59c0b4	0.85059667
86	0x3f91319d	1.1343266
87	0x3f815cf8	1.0106497
88	0x3f83b13b	1.0288461
89	0x3f85d5bf	1.0455855
90	0x3f9425c6	1.1574028
91	0x3f8e879f	1.1135138
92	0x3f6a0a17	0.91421646
93	0x3f5d367f	0.8641128
94	0x3fa267b5	1.2687899
95	0x3f8789a7	1.0588883
96	0x3f6ce2ab	0.9253337
97	0x3f569011	0.8381358
98	0x3f7456ec	0.9544513
99	0x3f93adc5	1.1537405
100	0x3f8faf37	1.1225346
101	0x3f847565	1.0348326
102	0x3f867add	1.0506245
103	0x3f8e7acc	1.1131225
104	0x3f8c375d	1.0954396
105	0x3f7eade2	0.99484074
106	0x3f5a7dab	0.85348004
107	0x3f5c2beb	0.86004514
108	0x3f77cd64	0.96797776
109	0x3f6bf253	0.9216663
110	0x3f4e9427	0.8069481
111	0x3f583171	0.8445044
112	0x3f7cecc6	0.9879879
113	0x3f33398a	0.7000967
114	0x3f77a36d	0.9673374
115	0x3f87ce2b	1.0609792
116	0x3f53aabc	0.82682395
117	0x3f81577a	1.0104821
118	0x3f89b32a	1.0757802
119	0x3f847da4	1.0350842
120	0x3f84fadc	1.0389056
121	0x3f8e6f98	1.1127806
122	0x3f5a4c2b	0.85272473
123	0x3f9763cd	1.1827332
124	0x3f065898	0.52478933
125	0x3f794163	0.973654
126	0x3f86a41e	1.0518835
127	0x3f6bcd11	0.9210978

layers.0.forward_s6.x_proj.weight f4 [36, 128]
0	0x3cf64faf	0.030067293
1	0x3e38b337	0.18037115
2	0x3c74e2cf	0.0149466535
3	0x3ddbc515	0.1073095
4	0xbcbe1824	-0.02320487
5	0x3b1e2cab	0.002413551
6	0x3db10e8d	0.086453535
7	0x3c607cef	0.0137016615
8	0x3dc0c23d	0.09412048
9	0xbdd00ce3	-0.10158708
10	0xbb95b9f3	-0.004569286
11	0x3e1902a7	0.14942418
12	0x3d010455	0.031498272
13	0x3d25bb86	0.04046204
14	0xbd82892f	-0.06373822
15	0xbdd01a3c	-0.10161254
16	0xbdf7bff1	-0.12097157
17	0xbdc48fc3	-0.09597733
18	0xbd772753	-0.060340237
19	0xbd2b48da	-0.041817524
20	0x3dd85dca	0.10564764
21	0xbdbbdf10	-0.09173405
22	0xbda2c2f1	-0.07947338
23	0x3e3aebac	0.18253964
24	0xbd123ea9	-0.03570429
25	0x3e16d9ac	0.14731473
26	0x3dca2057	0.098694496
27	0xbcabd088	-0.020973459
28	0xbdc44b31	-0.09584654
29	0xbda2c541	-0.079477794
30	0x3dd56e91	0.104214795
31	0xbd130457	-0.03589281
32	0xbc3097c3	-0.01077837
33	0x3e994b8d	0.29940453
34	0xbdbcbb8a	-0.09215458
35	0xbd3e918c	-0.046525523
36	0xbd0b674d	-0.034034062
37	0x3e44369a	0.19161454
38	0x3d0a335d	0.03374039
39	0xbd7f02f8	-0.06225869
40	0xbbf6d627	-0.007532853
41	0x3d987d28	0.07445747
42	0x3defe079	0.11712737
43	0xbdd0f9c8	-0.10203892
44	0x3d2fc21f	0.042909738
45	0x3da59467	0.08084946
46	0xbe53b4cb	-0.20674436
47	0x3d67c160	0.0565809
48	0xbd8c6317	-0.068548374
49	0xbbd18d68	-0.0063950308
50	0x3d7e82ba	0.06213639
51	0x3daf896f	0.08571135
52	0xbcb5f296	-0.0222104
53	0x3df6a153	0.12042489
54	0x3e075c10	0.13218713
55	0x3e49c50a	0.1970407
56	0x3ddf6bfd	0.10909269
57	0x3e163611	0.14669062
58	0x3ce2dd9c	0.027693562
59	0x3e1592f7	0.14606844
60	0x3ebe3a45	0.3715383
61	0x3e1e2f94	0.15447837
62	0x3c9f525f	0.019448457
63	0xbdd19c60	-0.10234904
64	0x3c61e881	0.013788343
65	0x3dab111d	0.083528735
66	0x3cf82e1b	0.030295422
67	0xbe946933	-0.2898651
68	0x3d67380d	0.05644994
69	0x3dbd76fd	0.09251211
70	0xbe0133f1	-0.1261747
71	0x3d836a5f	0.06416773
72	0xbdae1b41	-0.08501292
73	0x3e4d8f2e	0.2007415
74	0xbd66111e	-0.056168668
75	0x3d989a07	0.074512534
76	0xbc78c339	-0.015183263
77	0x3e14b92e	0.14523765
78	0x3de25375	0.110510744
79	0xbcb34085	-0.021881351
80	0xbc5e911a	-0.0135844
81	0xbdf2daa3	-0.11858108
82	0x3df77be3	0.120841764
83	0xbd8c68cf	-0.06855928
84	0xbc4d7c42	-0.012541832
85	0x3dd4b20d	0.10385523
86	0x3d545742	0.051841028
87	0x3e5295b8	0.20564926
88	0x3e392228	0.18079436
89	0xba6223d9	-0.00086265575
90	0x3db26dad	0.08712325
91	0x3e3dd9d3	0.18540125
92	0x3d47c0d1	0.04876787
93	0xbd35a3d2	-0.044345684
94	0x3da496be	0.08036564
95	0xbe112295	-0.14173348
96	0x3e3d2896	0.18472514
97	0xbdd9896c	-0.10621914
98	0x3e372d23	0.17888312
99	0x3e01f65f	0.1269164
100	0x3e0c6065	0.13708647
101	0xbce7a68c	-0.028277658
102	0x3de77a8f	0.11302673
103	0x3d019efa	0.031645752
104	0xbc3574f2	-0.011075245
105	0xbd1e6eea	-0.038679995
106	0x3d8e60c8	0.06952053
107	0x3d87b9f2	0.06627263
108	0xbd2a8b44	-0.04163672
109	0x3e26d5fe	0.16292569
110	0x3e88615d	0.26636782
111	0xbe2c4cf7	-0.16826235
112	0xbc967c04	-0.018369682
113	0x3ddc7976	0.10765354
114	0xbd8aec01	-0.067832954
115	0x3e047255	0.12934239
116	0x3e1562d5	0.14588483
117	0x3e821674	0.25407755
118	0x3ebfafb3	0.37438735
119	0x3d8a9ebc	0.067685574
120	0x3db56996	0.088580295
121	0xbd584c82	-0.05280734
122	0x3ac66d24	0.0015138728
123	0xbd700069	-0.05859414
124	0x3e631ef2	0.22179773
125	0xbe1110b2	-0.14166525
126	0x3e8f1b55	0.2795054
127	0xbd3fc40f	-0.046817835
128	0xbe2b4594	-0.1672576
129	0xbe5516e3	-0.20809512
130	0xbe86caa8	-0.2632649
131	0xbdc270d9	-0.0949418
132	0xbd108b47	-0.035289075
133	0xbdaff2c9	-0.085912295
134	0x3d81fe8b	0.06347378
135	0xbdd075e2	-0.10178734
136	0xbe2e099e	-0.16995856
137	0x3d867e1c	0.06567022
138	0x3ce66f54	0.028129257
139	0xbe09beca	-0.13451687
140	0xbd1dfbea	-0.038570322
141	0xbd9a4314	-0.075323254
142	0x3cc6f32f	0.02428588
143	0x3e34b0ab	0.17645518
144	0x3e16004c	0.14648551
145	0x3df7d8a8	0.12101871
146	0x3bc086fc	0.0058754664
147	0x3dc3c04c	0.09558162
148	0xbdaedca6	-0.08538179
149	0x3df53912	0.11973776
150	0x3d77de82	0.060514934
151	0xbe82f198	-0.25574946
152	0xbd040331	-0.032229606
153	0xbe547f6d	-0.20751734
154	0xbd95edd9	-0.073207565
155	0xbdbd5168	-0.09244043
156	0x3e18d655	0.14925511
157	0x3e31dad4	0.17368633
158	0xbd26a3f6	-0.04068371
159	0x3d1c59dc	0.038171634
160	0xbcdaf509	-0.02672817
161	0xbeaea5b0	-0.34110785
162	0x3dd5a1f4	0.10431281
163	0x3d1e8af9	0.038706753
164	0x3d2b85ab	0.041875523
165	0xbeabb9ad	-0.33540097
166	0xbd06d14c	-0.032914445
167	0xbd92467b	-0.07142349
168	0x3daaedad	0.08346114
169	0xbdc0562f	-0.09391438
170	0xbd914e4c	-0.07095012
171	0xbbde5835	-0.0067854174
172	0xbb358f55	-0.002770384
173	0xbda15239	-0.07877011
174	0x3e899178	0.26868796
175	0xbe248ff6	-0.16070542
176	0x3b18cfc4	0.0023317197
177	0xbd2392d0	-0.039934933
178	0xbd753028	-0.05986038
179	0xbe4a04fb	-0.19728462
180	0xbd8d40d0	-0.06897128
181	0xbe024a25	-0.12723596
182	0xbddd09f7	-0.10792916
183	0xbebc0422	-0.36721903
184	0xbe1361a2	-0.14392713
185	0xbe6b9b49	-0.23008455
186	0xbd231f01	-0.03982449
187	0xbe327e12	-0.17430905
188	0xbeafd64f	-0.34343192
189	0xbe4b435b	-0.19849913
190	0xbe03a741	-0.12856771
191	0x3e422bff	0.18962096
192	0xbe4fce23	-0.20293479
193	0xbe61e3df	-0.22059582
194	0xbd2e6e71	-0.042585794
195	0x3e55eecd	0.20891877
196	0xbe0bcdb5	-0.1365269
197	0xbe1c3e33	-0.15258102
198	0x3d641adb	0.055689674
199	0x3b77df33	0.0037822246
200	0xbe2fdb92	-0.17173603
201	0xbc841644	-0.016123898
202	0x3dee57e4	0.116378576
203	0xbde18190	-0.1101104
204	0x3df3274c	0.1187273
205	0xbdcb2d53	-0.09920754
206	0xbe3ada04	-0.18247229
207	0xbcc6a4ab	-0.024248442
208	0xbe35d3dc	-0.17756599
209	0x3e2eafb0	0.17059207
210	0xbd7a154f	-0.061055478
211	0x3b128d26	0.0022361963
212	0x3daf9de2	0.08575036
213	0x3de7de83	0.113217376
214	0xbd0b452b	-0.03400151
215	0xbda1a4e0	-0.078927755
216	0xbdeedd1f	-0.11663269
217	0xbad2966c	-0.0016066558
218	0xbc1fe8ee	-0.009760125
219	0xbea7ddad	-0.32786313
220	0xbdbce226	-0.09222822
221	0xbdb54e1f	-0.08852791
222	0xbdca6ac5	-0.09883646
223	0x3ddcce9d	0.10781596
224	0x3d1bf2eb	0.03807346
225	0x3d22e702	0.039771087
226	0xbd0bc36a	-0.03412191
227	0xbe64d285	-0.22345932
228	0xbdbeffa7	-0.093261056
229	0xbd956fac	-0.0729669
230	0x3d2a8bbb	0.041637164
231	0x3bd6c3e2	0.006554113
232	0x3c893355	0.01674811
233	0x3d709bf3	0.058742475
234	0xbdfed7a8	-0.12443477
235	0x3d81042e	0.06299625
236	0x3d5aa54e	0.053380303
237	0xbe13e770	-0.14443755
238	0xbe85f01f	-0.2615976
239	0x3e26dbe8	0.16294825
240	0xbcaf890a	-0.02142765
241	0xbd0a7195	-0.033799727
242	0xbdd27e42	-0.10277988
243	0xbe3f5690	-0.18685365
244	0xbde79702	-0.11308099
245	0xbe9c9d81	-0.30588916
246	0xbed0b917	-0.40766212
247	0xbd47b376	-0.04875513
248	0xbd627ae3	-0.055292975
249	0x3da34205	0.079715766
250	0x3e5beaf3	0.21476345
251	0x3e044b72	0.12919405
252	0xbe0ea2df	-0.13929318
253	0x3c97f07c	0.01854729
254	0xbeb70cfb	-0.3575209
255	0x3cac93af	0.021066515
