checkpoints/mnist/vision_mamba_mnist_epoch_2.pth (torch, 340018 bytes, 33 tensors)

patch_embed.weight f4 [64, 1, 4, 4]
0	0x3e94ab49	0.2903693
1	0x3e814739	0.2524965
2	0xbc8d573a	-0.017253507
3	0x3c7d44f8	0.015458338
4	0x3e1ffce3	0.15623812
5	0x3d8dd1f4	0.06924811
6	0xbdd5e2ff	-0.10443687
7	0xbdd6cfcc	-0.10488853
8	0x3cf290ef	0.029610125
9	0x3e5a94f5	0.21345885
10	0xbd1e24f8	-0.038609475
11	0xbe1ad360	-0.15119696
12	0xbe02509c	-0.12726063
13	0xbde0ee38	-0.109829366
14	0x3d2170a0	0.03941405
15	0x3e40d372	0.1883066
16	0xbba66aee	-0.005078665
17	0xbdbaf691	-0.0912906
18	0x3d547083	0.051865112
19	0xbe0964ad	-0.13417311
20	0xbe6230e4	-0.22088963
21	0x3e37b242	0.17939094
22	0x3dbb00b3	0.09130993
23	0x3e27946c	0.16365212
24	0xbe1089e6	-0.14115104
25	0xbe1ab9e0	-0.15109968
26	0x3da845ce	0.08216439
27	0xbdecf3d6	-0.115699455
28	0xbe1eef67	-0.15521012
29	0x3e304aaf	0.1721599
30	0xbddef534	-0.108866125
31	0x3d11f3b2	0.035632797
32	0x3e5d0f25	0.21587808
33	0x3d9ca2ec	0.076482624
34	0x3c763026	0.015026128
35	0xbd684272	-0.056703992
36	0x3d8b4626	0.06800489
37	0xbe450d3f	-0.19243334
38	0xbda92d11	-0.08260549
39	0xbe0a5b13	-0.13511305
40	0x3e764f39	0.24053659
41	0xbd716fc1	-0.058944467
42	0xbde2c322	-0.11072375
43	0xbe7f42c2	-0.2492781
44	0xbeb35195	-0.3502318
45	0xbe4d5fa6	-0.20056018
46	0xbcb7a991	-0.022419723
47	0xbd4b61fc	-0.049653992
48	0xbe26a958	-0.16275537
49	0x3e205599	0.15657653
50	0x3e3ec2c9	0.18628992
51	0xbe57bd43	-0.21068291
52	0x3e05e769	0.13076557
53	0xbd9a5e58	-0.07537526
54	0xbe68b63b	-0.22725765
55	0xbe897160	-0.2684431
56	0xbd8d0be3	-0.06887033
57	0xbe25ad98	-0.16179502
58	0x3e283b16	0.1642879
59	0xbd74f605	-0.059804935
60	0xbdc858e7	-0.09782582
61	0x3d2aaa19	0.041666124
62	0xbe448214	-0.19190246
63	0xbea0ef08	-0.31432366
64	0x3e34811d	0.17627378
65	0xbe402422	-0.18763784
66	0xbe1170d3	-0.14203195
67	0x3db0b268	0.08627778
68	0xbd82d675	-0.06388561
69	0x3d395825	0.045250077
70	0xbe85898b	-0.260815
71	0xbea27437	-0.3172929
72	0xbdcb6cd8	-0.0993287
73	0xbe861371	-0.26186708
74	0xbceec417	-0.029146237
75	0x3e1f2587	0.1554166
76	0x3d3ae66a	0.045629896
77	0x3e4dedc2	0.20110229
78	0x3e2c1c7a	0.16807738
79	0x3e801951	0.25019315
80	0x3e73ac59	0.23796214
81	0x3e1df3be	0.15425012
82	0xbe910b7d	-0.28329077
83	0xbdc6d3b3	-0.09708347
84	0x3e7382a2	0.23780301
85	0x3e465d66	0.19371566
86	0xbe32dd90	-0.17467332
87	0x3e04f00b	0.12982194
88	0xbdb5fb4e	-0.08885823
89	0x3dd51a32	0.10405387
90	0xbdcab977	-0.09898656
91	0x3e115068	0.14190829
92	0xbe954b10	-0.2915883
93	0xbe6932bd	-0.22773261
94	0x3db1c04f	0.08679258
95	0x3c44e3fc	0.012017246
96	0x3e232427	0.1593176
97	0x3e6f80ea	0.2338902
98	0x3e7e2264	0.24817806
99	0x3e089921	0.13339664
100	0x3d607e75	0.0548081
101	0xbe7fa12f	-0.2496383
102	0x3e2046eb	0.15652053
103	0xbde8a356	-0.11359279
104	0xbd48a694	-0.048986986
105	0x3e04aadd	0.12955804
106	0xbe2839c1	-0.16428281
107	0xbe57df00	-0.21081161
108	0x3e8988d3	0.268622
109	0x3e2ce4bf	0.16884135
110	0xbd1ba608	-0.038000137
111	0xbe54b1d8	-0.20770967
112	0x3e2c1038	0.16803062
113	0xbe09eed5	-0.13470013
114	0xbe289ad8	-0.16465318
115	0x3e85bbee	0.2611994
116	0x3e4f7dd3	0.20262842
117	0xbe4e1523	-0.2012525
118	0x3e1cdde5	0.15319021
119	0x3db1ac6c	0.08675465
120	0x3e0b1054	0.13580447
121	0xbdc98a8f	-0.09840881
122	0xbe4e9a48	-0.20176041
123	0xbe1efc8a	-0.15526024
124	0x3cb72d23	0.02236039
125	0xbdac6332	-0.084173575
126	0xbe4066d8	-0.18789232
127	0xbe59651d	-0.21229978
128	0x3db96684	0.090527564
129	0xbd827754	-0.06370416
130	0xbe043af5	-0.12913115
131	0xbdcd0b56	-0.10011928
132	0x3e7982ff	0.24366377
133	0x3d6300be	0.05542063
134	0x3dd0c38f	0.1019355
135	0x3e3b817a	0.1831111
136	0xbe0beffc	-0.13665766
137	0xbdf08c3e	-0.11745499
138	0xbe4e13e9	-0.20124783
139	0xbde2bbb3	-0.11070957
140	0x3da23d51	0.079218514
141	0x3e20a7b6	0.15688977
142	0xbe8af9ce	-0.2714371
143	0xbe3f5ec9	-0.18688501
144	0x3e31c057	0.17358528
145	0x3e3951ad	0.18097563
146	0x3e30c091	0.17260958
147	0xbdfedbe1	-0.12444282
148	0xbe802b2f	-0.25032946
149	0xbdb11153	-0.086458825
150	0xbe90f2f7	-0.28310367
151	0xbe633442	-0.22187904
152	0x3d80fd84	0.06298354
153	0xbe3fdb9c	-0.18736118
154	0xbd07c337	-0.033145156
155	0x3e1ec8fe	0.1550636
156	0xbe222204	-0.15833288
157	0x3e5b1791	0.21395709
158	0xbe21323b	-0.15741818
159	0x3e8a5073	0.27014503
160	0x3ca6130e	0.020272758
161	0xbd93a2f4	-0.07208815
162	0xbe09c99e	-0.13455817
163	0x3ca3fe34	0.020018674
164	0x3e69e2ac	0.22840375
165	0xbd4408df	-0.047860023
166	0xbe254eca	-0.16143337
167	0x3e4687a5	0.19387682
168	0x3df18356	0.117926285
169	0xbd4e4e7b	-0.050367814
170	0xbe517382	-0.20454219
171	0x3e5ceed3	0.21575479
172	0x3e70de5d	0.23522325
173	0x3d8cd476	0.06876461
174	0x3e3b6874	0.18301564
175	0x3d2d957d	0.04237889
176	0xbebe6ad4	-0.37190878
177	0xbe3b7ffc	-0.18310541
178	0xbe8fdca3	-0.2809802
179	0x3af99897	0.0019042668
180	0xbe3395c2	-0.17537597
181	0x3e4b8259	0.19873942
182	0xbd444715	-0.04791935
183	0xbe2b4dcf	-0.167289
184	0x3d2a5ccd	0.041592408
185	0x3dffa8a9	0.12483341
186	0xbe238a52	-0.15970734
187	0xbe173028	-0.14764464
188	0xbe609c62	-0.21934655
189	0xbe0865cc	-0.13320082
190	0x3e2d4a45	0.16922863
191	0xbe810af3	-0.25203666
192	0x3deb0477	0.11475461
193	0x3e0b2f74	0.1359232
194	0x3e62df55	0.22155507
195	0xbdcffc15	-0.10155503
196	0x3e7567fc	0.23965448
197	0x3d2df62d	0.0424711
198	0xbdd8b00d	-0.10580454
199	0xbc7009c8	-0.0146507695
200	0x3e5b861f	0.21437882
201	0xbe646a71	-0.22306229
202	0xbdfc5378	-0.12320608
203	0x3de3db1c	0.11125776
204	0x3cfbf758	0.030757591
205	0x3e3c1d9d	0.18370672
206	0xbe5eb321	-0.2174802
207	0xbda62c35	-0.081139006
208	0x3d95f4eb	0.07322105
209	0x3e900d59	0.28135183
210	0xbd9c82e2	-0.076421514
211	0xbe650d5d	-0.22368379
212	0xbc21cede	-0.009875981
213	0xbd422628	-0.04739967
214	0xbcf8a912	-0.030354057
215	0xbe3e82e2	-0.18604615
216	0xbd3ede4f	-0.04659873
217	0x3e193062	0.14959863
218	0xbe70e8a7	-0.2352625
219	0xbe781dcb	-0.24230115
220	0x3e2b20e7	0.1671177
221	0x3d90aa82	0.07063772
222	0xbc80d918	-0.015728518
223	0x3daac3df	0.08338141
224	0xbe9aa5e8	-0.302047
225	0xbdefdef3	-0.11712446
226	0xbe6ddb84	-0.2322827
227	0x3d9b2f0f	0.07577335
228	0xbdaf0d09	-0.08547408
229	0xbe8b41a7	-0.27198526
230	0xbe88224c	-0.26588666
231	0x3e07df87	0.13268863
232	0x3e2a50ff	0.1663246
233	0xbe13a3c7	-0.14417945
234	0x3de13c1e	0.109977946
235	0xbe205fdc	-0.15661567
236	0x3d92ab14	0.07161537
237	0x3e7d9c1f	0.24766587
238	0x3e0fc513	0.14040022
239	0x3e260870	0.16214156
240	0xbc9ccd8e	-0.019140985
241	0xbdc4f74e	-0.09617482
242	0xbdf48c75	-0.119408526
243	0x3e0beb7f	0.13664053
244	0x3d6b5b74	0.057460263
245	0x3e03d113	0.12872724
246	0xbe530d65	-0.20610578
247	0x3cf67b43	0.030088073
248	0x3e69c3e9	0.2282864
249	0x3c11d003	0.0088996915
250	0x3ceef9e9	0.0291719
251	0x3da3474e	0.07972585
252	0xbe4a85b0	-0.1977756
253	0xbe7e1b97	-0.24815212
254	0xbe1e5db7	-0.15465437
255	0xbe99d090	-0.30041933

patch_embed.bias f4 [64]
0	0x3e8a5a23	0.27021894
1	0xbe52066d	-0.20510264
2	0xbdfe7302	-0.1242428
3	0x3e018ec8	0.12652123
4	0xbdf07384	-0.11740783
5	0x3c8ff186	0.017571222
6	0xbdf013c6	-0.117225215
7	0xbe730e61	-0.23735954
8	0xbdd9e1f6	-0.10638802
9	0xbe1a5b52	-0.15073898
10	0xbe208073	-0.15674
11	0x3e3c1589	0.1836759
12	0x3e8b78fd	0.27240744
13	0xbd73f0ea	-0.059555925
14	0xbdceaafd	-0.10091207
15	0x3e048dda	0.12944737
16	0xbe59aa6e	-0.2125642
17	0xbe89377b	-0.2680014
18	0xbe569014	-0.20953399
19	0x3c94d800	0.018169403
20	0xbe8074a5	-0.25088993
21	0x3d9df155	0.07712046
22	0x3d40d9c3	0.047082674
23	0xbe1995ed	-0.14998598
24	0x3e63404e	0.22192499
25	0x3e61e88f	0.2206137
26	0x3df04a1f	0.117328875
27	0xbc96b676	-0.018397551
28	0xbe1548a8	-0.14578497
29	0x3b897aa3	0.0041955276
30	0xbda49bee	-0.08037554
31	0xbe206a08	-0.15665448
32	0x3e387d62	0.1801658
33	0x3e0c31b4	0.13690835
34	0x3e32b227	0.17450772
35	0x3dcc602f	0.09979283
36	0xbe293f7d	-0.16528125
37	0xbe00f3c4	-0.12592989
38	0x3ca0e43f	0.019640086
39	0xbdff01bb	-0.12451502
40	0xbe70ba03	-0.23508458
41	0x3d3d8c75	0.04627653
42	0xbe381d21	-0.17979862
43	0x3c1e77e3	0.009672138
44	0xbe9adbbf	-0.30245778
45	0x3c169359	0.009190404
46	0x3e5b6cba	0.21428195
47	0xbe3b99bb	-0.18320362
48	0x3d294469	0.041325007
49	0x3e7fd037	0.24981771
50	0x3d64316b	0.05571119
51	0x3e7caf57	0.24676262
52	0x3ce8766b	0.028376779
53	0xbdb94b03	-0.090475105
54	0x3e8be0ea	0.27320033
55	0x3e8362b9	0.25661257
56	0x3e03f2fe	0.12885663
57	0x3e211170	0.15729308
58	0x3e581e71	0.21105362
59	0x3e4b8972	0.1987665
60	0xbd558af4	-0.05213447
61	0xbcd90507	-0.026491655
62	0x3d6c78a9	0.057732258
63	0x3e66b97e	0.22531697

layers.0.in_proj.weight f4 [256, 64]
0	0xbda8f816	-0.08250444
1	0xbcba37fe	-0.022731777
2	0xbde98db6	-0.11403982
3	0xbe09ca29	-0.13456024
4	0xbac225e9	-0.0014812323
5	0xbe449dd2	-0.19200829
6	0x3ce24ef9	0.027625548
7	0xbd5f1f85	-0.05447342
8	0xbd0c4f6a	-0.034255423
9	0xbc8e5344	-0.017373689
10	0xbd053f54	-0.032531098
11	0xbd65b865	-0.056084055
12	0xbdb18876	-0.08668606
13	0xbd2ba11f	-0.041901704
14	0x3e086a99	0.13321914
15	0x3d51407e	0.051086895
16	0xbc9d68b6	-0.01921497
17	0x3d993e43	0.074825786
18	0xbd5024ae	-0.05081623
19	0x3dc1688d	0.094437696
20	0xbe1a3978	-0.15060985
21	0xbc78bc84	-0.015181664
22	0x3e3724f6	0.17885193
23	0x3e0a5fe5	0.13513143
24	0xbe150cb7	-0.14555632
25	0xbd26b24f	-0.040697392
26	0x3decb9c8	0.115588725
27	0x3df633eb	0.12021621
28	0x3deafbd2	0.11473812
29	0x3e04533b	0.12922375
30	0x3d46daf4	0.048548654
31	0x3cc068bf	0.023487447
32	0xbd664fd8	-0.05622849
33	0x3d08dd95	0.033414442
34	0xbdf3b3b1	-0.11899508
35	0x3da65aed	0.081228115
36	0x3e29a6c2	0.1656752
37	0x3da46f2c	0.08029017
38	0x3d8beac0	0.068318844
39	0xbd08af6b	-0.033370417
40	0xbb2e1999	-0.002656555
41	0x3df9488b	0.121720396
42	0x3dc20f8b	0.09475621
43	0x3bb36604	0.0054748077
44	0x3e26f6b1	0.16305043
45	0x3db83be1	0.08995796
46	0x3d87be81	0.066281326
47	0xbdf1dd5f	-0.11809801
48	0xbe0dd6ed	-0.13851519
49	0x3dfaffd8	0.122558296
50	0xbd3b57dd	-0.04573809
51	0x3e31c093	0.17358617
52	0x3c1def01	0.0096395025
53	0x3b0a003e	0.0021057273
54	0xbdee5252	-0.11636795
55	0xbd17d5c9	-0.037069116
56	0x3e0b6e02	0.13616183
57	0xbc8ccfa2	-0.01718885
58	0x3da9e587	0.08295732
59	0xbe053cb2	-0.13011435
60	0x3da4fd82	0.08056165
61	0x3d65eab6	0.05613204
62	0xbe09c031	-0.13452221
63	0xbdf6cbe4	-0.12050608
64	0x3caf3c6e	0.02139112
65	0xbdf28cf4	-0.11843291
66	0xbd982358	-0.07428616
67	0xbd976dfe	-0.07394026
68	0xbd5b3c2e	-0.05352419
69	0x3e4897ee	0.19589207
70	0xbd29cf57	-0.0414575
71	0x3d1e4fad	0.038650203
72	0xbdd4d1d3	-0.10391583
73	0xbd9316f0	-0.07182109
74	0x3d84e060	0.06488109
75	0xbe30e4f6	-0.17274842
76	0x3d290bbe	0.041270964
77	0xbe137c61	-0.14402916
78	0xbde94e01	-0.11391831
79	0x3d2d9797	0.042380895
80	0xbe17b7ad	-0.1481616
81	0xbe144135	-0.14478
82	0x3dba589a	0.09098931
83	0x3ca5f035	0.020256141
84	0x3e14a7ee	0.14517185
85	0x3da96c2c	0.08272585
86	0x3ba3ebd8	0.00500248
87	0x3de834c1	0.11338187
88	0x3d6d3afa	0.057917573
89	0xbd7def60	-0.061995864
90	0xbe44eeef	-0.19231771
91	0x3d59e864	0.05320014
92	0x3d728235	0.059206206
93	0xbcc376dc	-0.023860388
94	0x3d38ee05	0.045148868
95	0x3c520036	0.012817433
96	0xbe107c59	-0.14109935
97	0x3ccdf68d	0.025141979
98	0x3e261fb7	0.16223036
99	0xbe1df1e0	-0.15424299
100	0x3d4ed617	0.05049714
101	0x3ce6b766	0.028163623
102	0x3e6a1b32	0.22861937
103	0xbddaa01f	-0.10675072
104	0xbddfc387	-0.10925966
105	0xbd3b06de	-0.045660846
106	0xbdc79c63	-0.09746625
107	0xbc89ca10	-0.016819984
108	0x3d9a8611	0.075451024
109	0x3e2382a8	0.1596781
110	0xbd91a142	-0.071108356
111	0x3e2f056c	0.17091912
112	0x3db1d3ae	0.08682953
113	0x3df68602	0.12037279
114	0xbd83f733	-0.06443634
115	0x3d3896f7	0.045065846
116	0xbe2f5d94	-0.17125541
117	0xbda5a4cf	-0.08088075
118	0xbc48209e	-0.012214808
119	0xbc887ac8	-0.01666011
120	0xbd9ec7c5	-0.07752947
121	0x3da9c833	0.08290138
122	0xbe657a1e	-0.22409865
123	0x3e35f442	0.17768958
124	0xbdf9c97c	-0.12196633
125	0x3d85867a	0.0651979
126	0xbd185944	-0.037194505
127	0x3e144a72	0.14481524
128	0x3d6f785e	0.0584644
129	0x3e07049e	0.13185355
130	0x3ce92225	0.028458664
131	0x3e342e2b	0.17595737
132	0xbdcfcce3	-0.10146501
133	0xbbf4f9ec	-0.007476082
134	0xbda16e1a	-0.07882328
135	0x3e3aea65	0.18253477
136	0x3d438b84	0.047740474
137	0xbd83aad5	-0.06429068
138	0xbde559b5	-0.11198751
139	0x3d6f38d3	0.0584038
140	0x3e2321e9	0.15930904
141	0xbdcd4ea8	-0.10024768
142	0xbe309e14	-0.17247802
143	0x3e694174	0.22778875
144	0xbdec47df	-0.11537146
145	0xbd18af2c	-0.037276432
146	0xbe418954	-0.18900043
147	0xbdda44ba	-0.1065764
148	0xbd4fed80	-0.050763607
149	0xbe69a96d	-0.22818537
150	0x3de079d2	0.109607354
151	0xbe003b95	-0.12522729
152	0x3e1b7519	0.15181388
153	0x3dba9db0	0.09112108
154	0x3da50b1f	0.08058762
155	0xbcbe10db	-0.023201397
156	0xbd6d5a0f	-0.057947215
157	0xbe6e0ac5	-0.23246296
158	0xbe243ab1	-0.16038014
159	0x3dd419f9	0.103565164
160	0xbd71bae3	-0.05901612
161	0xbdc591db	-0.0964696
162	0x3d29b637	0.04143354
163	0xbd5c2b7d	-0.05375241
164	0xbdd72130	-0.10504377
165	0xbe2eb896	-0.17062601
166	0xbc215374	-0.009846557
167	0x3d904bce	0.070457086
168	0x3c567c24	0.013091121
169	0x3cad4520	0.021151125
170	0x3d9ed104	0.0775471
171	0xbe14c2dc	-0.14527458
172	0x3d2fa211	0.042879168
173	0xbdb3dfeb	-0.08782943
174	0x3bb5855a	0.0055395784
175	0x3d8e9e8b	0.069638334
176	0x3d770ef3	0.06031699
177	0x3d6b3170	0.057420194
178	0xbe7ce6e8	-0.24697459
179	0xbdb622d3	-0.08893361
180	0x3d8b17c5	0.06791643
181	0xbd517b77	-0.051143136
182	0x3dbabee8	0.09118444
183	0x3cdb7a9e	0.026791867
184	0xbdd5377d	-0.10410974
185	0xbe412e53	-0.18865328
186	0xbdf85550	-0.12125647
187	0xbdf7988e	-0.12089644
188	0x3e3f9852	0.1871045
189	0xbe8aa02a	-0.2707532
190	0x3cc18502	0.023622993
191	0xbe0caea3	-0.13738494
192	0xbe1fadb7	-0.1559361
193	0xbd23b01e	-0.03996288
194	0xbe2c8e23	-0.16851096
195	0xbe035f06	-0.12829217
196	0x37f5cc04	2.9301278e-05
197	0xbdcad645	-0.0990415
198	0xbdaecc59	-0.0853507
199	0xbe410210	-0.18848443
200	0xbe2aba30	-0.16672587
201	0xbd9c1d46	-0.07622771
202	0x3dcf4b65	0.10121802
203	0xbdca1798	-0.098677814
204	0xbdc9d296	-0.09854619
205	0xbdbeaefc	-0.09310719
206	0x3e46db5f	0.19419621
207	0xbde437e9	-0.111434765
208	0x3db19c15	0.086723484
209	0x3bc19cf7	0.0059086042
210	0xbc2684a5	-0.010163461
211	0x3dd1a768	0.10237008
212	0xbceaa7f3	-0.028644538
213	0x3dceac1b	0.1009142
214	0xbd0222ab	-0.031771343
215	0xbd88eca4	-0.066857606
216	0x3dcd85a0	0.100352526
217	0xbd0f89ef	-0.035043653
218	0x3e115880	0.14193916
219	0xbd8b3f25	-0.06799153
220	0x3d5fb03d	0.054611433
221	0x3b37cd4c	0.002804595
222	0x3e84d8c7	0.25946638
223	0xbd8c2388	-0.068427145
224	0x3dcb5a9b	0.09929391
225	0x3e40e767	0.18838273
226	0xbe91fd77	-0.2851369
227	0x3ddbaa8b	0.10725888
228	0x3d2a8ca1	0.04163802
229	0x3d9ec94a	0.077532366
230	0xbd4c2747	-0.049842145
231	0xbe16fa0e	-0.14743826
232	0x3d89605b	0.067078315
233	0x3decb643	0.11558201
234	0xbe13d485	-0.14436539
235	0xbceccd29	-0.028906422
236	0xbd0dc2d3	-0.034609627
237	0xbbe21b5a	-0.006900233
238	0x3cdbb677	0.026820404
239	0x398216ba	0.00024812465
240	0xbbac0bf2	-0.0052504474
241	0x3d8e1405	0.06937412
242	0xbda4ff8f	-0.080565564
243	0x3de736fd	0.11289785
244	0xbd885e2c	-0.06658587
245	0xbca101fa	-0.019654263
246	0x3d94a318	0.0725767
247	0x3d134d4d	0.03596239
248	0x3e01a174	0.12659246
249	0x3e0d7676	0.1381472
250	0x3d89a8ce	0.0672165
251	0x3d41f162	0.04734934
252	0xbd8fd40d	-0.07022867
253	0x3d92bf21	0.07165361
254	0x3b9112a5	0.0044272714
255	0xbc2528bc	-0.010080513

layers.0.conv1d.weight f4 [128, 1, 4]
0	0x3e66b866	0.2253128
1	0xbef5948a	-0.4796489
2	0xbe31bf47	-0.17358123
3	0x3d4aeb52	0.049540825
4	0x3ee069a5	0.438306
5	0x3ef0cd56	0.4703166
6	0x3ed5313d	0.41639128
7	0x3e736af7	0.23771273
8	0xbd794013	-0.06085212
9	0x3ec1d959	0.37861136
10	0x3e1593d8	0.14607179
11	0x3e8417d3	0.25799426
12	0x3e464181	0.19360925
13	0xbea8dcd1	-0.3298097
14	0x3ef1127f	0.47084424
15	0x3c0e4254	0.008682806
16	0x3dd815fe	0.1055107
17	0xbeb21855	-0.3478419
18	0x3ee7777c	0.45208347
19	0xbcb497b2	-0.02204499
20	0xbed0487c	-0.406803
21	0xbead66b3	-0.33867416
22	0xbc7c15c9	-0.015386053
23	0xbde8a883	-0.11360266
24	0xbed7bbef	-0.4213557
25	0x3e2ca693	0.16860418
26	0xbdc772b8	-0.09738678
27	0xbed8bf8e	-0.42333645
28	0xbe41716b	-0.18890922
29	0x3e757206	0.23969278
30	0x3e1f306e	0.15545818
31	0x3eb15d80	0.34641647
32	0x3e25a51e	0.16176268
33	0x3d8af691	0.0678531
34	0x3eddb51f	0.43302247
35	0x3f0bf1b8	0.5466571
36	0xbed89036	-0.42297524
37	0xbec0f747	-0.37688658
38	0x3d8d4e89	0.06899745
39	0x3e3060cf	0.1722443
40	0x3e186617	0.14882694
41	0x3e1d4abd	0.15360542
42	0x3f17d5ab	0.59310406
43	0xbd413c4a	-0.047176637
44	0xbe4a3464	-0.19746548
45	0xbe546d08	-0.20744717
46	0x3ea76c8b	0.327
47	0xbde77fa3	-0.11303642
48	0xbd89733b	-0.067114316
49	0x3ea32f25	0.31871906
50	0x3d1a4d37	0.037671294
51	0x3edcce0a	0.43125945
52	0xbe31accb	-0.17351072
53	0xbee54ffa	-0.4478758
54	0xbed39059	-0.41321066
55	0xbe267c6e	-0.16258404
56	0xbe4755d6	-0.19466338
57	0x3ec746a2	0.38921076
58	0xbe171dc9	-0.14757456
59	0xbe945ffc	-0.2897948
60	0x3dfed91f	0.12443756
61	0xbecf74e2	-0.40518862
62	0x3ed45ce4	0.4147712
63	0x3db8d768	0.090254605
64	0x3e9c2d64	0.3050338
65	0xbe9b6529	-0.30350617
66	0x3ee5c6fb	0.44878373
67	0x3dedc663	0.11610105
68	0xbf0ed52d	-0.5579403
69	0x3ea53ce8	0.3227303
70	0xbd49cff4	-0.049270585
71	0x3cf284a3	0.029604262
72	0xbe462050	-0.19348264
73	0x3e4aee21	0.19817401
74	0x3e939a05	0.28828445
75	0xbee54f54	-0.44787085
76	0x3dd4129c	0.10355112
77	0x3e0e7438	0.13911521
78	0xbc2383ba	-0.0099801365
79	0x3efb36ab	0.49065146
80	0x3e9a81f1	0.30177262
81	0x3e8c874e	0.2744698
82	0x3ef8c27b	0.48585877
83	0x3d1473af	0.036243137
84	0xbd78ad68	-0.060712248
85	0xbe33092c	-0.17483968
86	0x3e0c7cf6	0.13719544
87	0x3e69c691	0.22829653
88	0x3ea1460c	0.31498754
89	0x3e8bbbdf	0.27291772
90	0xbea932e4	-0.3304664
91	0x3eac9c0c	0.33712804
92	0xbe9045f0	-0.28178358
93	0xbeed7c00	-0.46383667
94	0x3e568552	0.20949295
95	0xbe64c73b	-0.22341625
96	0x3ee6200b	0.44946322
97	0x3ec8cbb6	0.3921792
98	0xbe38f6d0	-0.18062901
99	0x3d141d50	0.036160767
100	0xbe468cc6	-0.19389638
101	0x3ee93e4e	0.45555347
102	0x3e6104ae	0.21974441
103	0xbd418d8e	-0.047254138
104	0xbeb2cb72	-0.3492084
105	0xbc552f2b	-0.013011734
106	0x3ef576ba	0.47942144
107	0xbed598c9	-0.41718128
108	0xbe25488b	-0.16140954
109	0xbde99a6f	-0.11406409
110	0x3e67fa46	0.22654065
111	0x3e3e472b	0.18581836
112	0x3e138905	0.14407738
113	0x3eeec691	0.4663587
114	0x3e09ca26	0.1345602
115	0x3ea7c4ed	0.3276743
116	0xbee6d089	-0.45080975
117	0xbe54d90f	-0.20785926
118	0x3f065329	0.5247064
119	0x3e95a5a7	0.29227945
120	0x3e350d1d	0.17680784
121	0x3e0c56e5	0.13705023
122	0xbc172713	-0.009225625
123	0x3f10586e	0.56384933
124	0xbe6bb3f9	-0.23017873
125	0x3eb98cc8	0.3624022
126	0x39e72550	0.00044087553
127	0xbee456be	-0.4459743
128	0x3ea4636d	0.32107106
129	0x3d8f0942	0.06984188
130	0xbed48075	-0.41504255
131	0x3ee892f6	0.45424622
132	0x3dcb0478	0.09912962
133	0x3e8e3663	0.2777587
134	0x3ed5de02	0.4177094
135	0x3eaefe38	0.3417833
136	0xbcd64ef7	-0.0261607
137	0x3d8a4979	0.06752295
138	0xbef7889b	-0.4834641
139	0xbde71671	-0.11283577
140	0x3ea29131	0.31751397
141	0xbef2755a	-0.47355157
142	0x3ee40e73	0.44542274
143	0x3e5efd31	0.21776272
144	0xbcba67a1	-0.022754492
145	0x3dde7a8c	0.10863218
146	0x3e292669	0.16518559
147	0xbf063086	-0.5241779
148	0xbe04f715	-0.1298488
149	0x3ef0bf79	0.47021082
150	0x3e58df92	0.21179035
151	0x3edebbe9	0.4350274
152	0x3eb6c511	0.35697225
153	0xbd828f05	-0.06374935
154	0x3ef37205	0.47547927
155	0x3e96fe9f	0.29491135
156	0x3dc79a47	0.09746223
157	0x3e720fd7	0.23638855
158	0xbef67bab	-0.48141226
159	0xbab84ee4	-0.0014061597
160	0xbe77b1a8	-0.24188864
161	0xbdbacc18	-0.09120959
162	0x3c97f086	0.018547308
163	0xbed9b676	-0.4252202
164	0x3dc04590	0.09388268
165	0x3e41dcc3	0.1893187
166	0xbe8d646e	-0.27615684
167	0xbefcd17b	-0.4937857
168	0x3e6c9f5d	0.23107667
169	0xbecd73eb	-0.401275
170	0x3d8e55db	0.069499694
171	0xbf11ef59	-0.5700584
172	0xbe62b892	-0.2214072
173	0x3e60d0fa	0.21954718
174	0xbec16809	-0.37774685
175	0x3e089875	0.13339408
176	0xbe8b7020	-0.27233982
177	0xbed8fbd1	-0.4237962
178	0xbbbd282c	-0.005772611
179	0x3ed500de	0.41602224
180	0xbe1322a5	-0.14368685
181	0x3ed8d3ff	0.4234924
182	0x3e6bfb0d	0.23044987
183	0x3da8daf0	0.08244884
184	0x3eadd21b	0.3394936
185	0xbe747639	-0.23873223
186	0x3eae433e	0.34035677
187	0x3ec175f6	0.3778531
188	0xbd22500b	-0.039627116
189	0x3f12ac5e	0.5729426
190	0xbe3214da	-0.17390767
191	0xbe6bafdb	-0.23016302
192	0x3d1f8e28	0.03895393
193	0x3f09581a	0.5365006
194	0xbe9f6ba9	-0.31136826
195	0x3e181647	0.14852248
196	0xbecfae50	-0.40562677
197	0x3e962d6e	0.29331535
198	0xbf094c58	-0.53632116
199	0xbd8292b5	-0.063756384
200	0xbd4122af	-0.047152217
201	0xbedb342c	-0.4281324
202	0x3dddeaae	0.10835777
203	0xbca83b9b	-0.020536235
204	0xbf0be38c	-0.54644084
205	0x3cc61097	0.024177833
206	0xbd51dcf4	-0.051236108
207	0xbe889980	-0.2667961
208	0xbdc79759	-0.09745664
209	0xbe1be7af	-0.15225099
210	0x3ec55217	0.38539192
211	0xbee24556	-0.44193524
212	0x3efbf1f3	0.4920803
213	0xbe14743d	-0.14497466
214	0xbefd4ead	-0.49474087
215	0xbed99e74	-0.42503703
216	0x3eef4c61	0.4673796
217	0xbe8f01eb	-0.2793115
218	0x3ef146ce	0.47124332
219	0x3f00cff7	0.5031733
220	0xbe48eee1	-0.19622375
221	0xbf077cdb	-0.5292489
222	0xbf0d60cc	-0.55225825
223	0x3d489d8d	0.048978377
224	0xbec4c73f	-0.38433263
225	0x3ec6d849	0.38836887
226	0xbdf68a17	-0.12038057
227	0x3dd58db2	0.10427417
228	0x3f24e8b8	0.644176
229	0xbe30d8cf	-0.17270206
230	0x3e246c67	0.16056977
231	0x3d6f76f0	0.058463037
232	0x3ef78de1	0.48350433
233	0xbe8da445	-0.2766439
234	0xbe8b47c3	-0.27203187
235	0x3e0332d3	0.12812357
236	0xbd39f74c	-0.045401856
237	0x3ef20131	0.47266534
238	0x3f0bf357	0.5466818
239	0xbb0b1196	-0.0021220199
240	0xbdbb10b4	-0.09134045
241	0x3ee8826d	0.45412007
242	0x3eafdac2	0.34346586
243	0x3e4e3651	0.20137908
244	0xbe7d08e2	-0.2471042
245	0xbf005072	-0.5012275
246	0xbf096553	-0.53670233
247	0x3e3c85de	0.18410441
248	0xbef1f78a	-0.4725917
249	0xbe03046c	-0.12794656
250	0xbd9a1586	-0.075236365
251	0xbeee55c2	-0.46549803
252	0x3dc89e4b	0.09795817
253	0xbe486267	-0.19568788
254	0xbdf051c6	-0.11734347
255	0x3f073cba	0.52827036

layers.0.conv1d.bias f4 [128]
0	0x3e8707a6	0.26373023
1	0xbee5e8da	-0.44904214
2	0x3da8bb41	0.08238841
3	0xbe4c2e4b	-0.19939534
4	0x3edecca4	0.43515503
5	0xbe171804	-0.14755255
6	0x3ed104ae	0.40823883
7	0x3e8d2896	0.27570027
8	0xbede7282	-0.43446738
9	0x3f11c37c	0.5693891
10	0xbe0adac7	-0.1356002
11	0xbf03119e	-0.51198757
12	0x3da7ea72	0.08199014
13	0x3e48d570	0.1961267
14	0xbdf463e6	-0.119331166
15	0x3ea0630e	0.31325573
16	0x3e125f39	0.14294137
17	0x3f0fb27c	0.5613172
18	0x3e87a876	0.26495713
19	0x3d6e2046	0.058136247
20	0x3eacbd98	0.337384
21	0x3ec105b8	0.37699676
22	0x3e12aceb	0.14323775
23	0x3e83d9c8	0.2575209
24	0x3ccf5aa0	0.025311768
25	0xbec5ab73	-0.38607368
26	0xbf16ac43	-0.588566
27	0x3d8e15fc	0.06937787
28	0x3e81ade0	0.2532797
29	0x3ebc7570	0.36808348
30	0xbe81a3bd	-0.25320235
31	0xbd4cdc33	-0.050014686
32	0x3e2d8071	0.16943528
33	0xbf02213b	-0.50831956
34	0x3ee4f8b6	0.44721
35	0x3eeec0b2	0.4663139
36	0x3f0e98da	0.5570198
37	0xbe4a4f79	-0.19756879
38	0x3e07fa6d	0.13279124
39	0x3edfbfa6	0.43700904
40	0x3f05f0c9	0.52320534
41	0x3e43aa34	0.19107896
42	0x3e33108d	0.17486782
43	0x3ec0abc0	0.37631035
44	0xbe6aba3d	-0.22922607
45	0xbe8a9fb1	-0.2707496
46	0x3f0c58b4	0.5482285
47	0xbe71a503	-0.23598103
48	0x3be3a905	0.006947639
49	0xbebf8990	-0.3740964
50	0xbebc5c4d	-0.3678917
51	0xbe451f73	-0.19250278
52	0x3f115bb1	0.56780535
53	0xbe7283d0	-0.23683095
54	0xbf1d5591	-0.6145869
55	0xbdfcb5e6	-0.12339382
56	0xbc61e9cc	-0.013788652
57	0xbedb64c0	-0.42850304
58	0xbc9ac84a	-0.018894333
59	0xbc302bc7	-0.010752625
60	0xbe0cafb5	-0.13738902
61	0xbd9946c7	-0.07484203
62	0x3e10545c	0.1409468
63	0x3f10b930	0.56532574
64	0xbf0bf482	-0.54669964
65	0xbc766a01	-0.015039922
66	0x3ea604a9	0.3242543
67	0x3e00cfb0	0.12579226
68	0x3eb6cbe4	0.3570243
69	0xbe9d339d	-0.3070344
70	0x3e98426e	0.29738182
71	0x3e968283	0.29396448
72	0xbe888889	-0.26666668
73	0x3eb4c0d7	0.35303375
74	0xbe06bd0a	-0.1315805
75	0xbe08a77a	-0.13345137
76	0x3d95a56e	0.07306944
77	0xbe8db615	-0.2767798
78	0xbf0e5dc1	-0.5561181
79	0xbbdeb6da	-0.0067967
80	0x3da071c4	0.07834199
81	0x3f17c679	0.5928722
82	0x3ead71ab	0.33875784
83	0xbe940f4b	-0.28917918
84	0x3ef3765c	0.4755124
85	0xbd90b4c5	-0.07065729
86	0x3ee98f8d	0.45617333
87	0xbedf80a4	-0.43652833
88	0xbefff6fa	-0.49993116
89	0x3c8dcc11	0.01730922
90	0xbd795471	-0.060871545
91	0xbeec6061	-0.4616728
92	0x3e55c1fc	0.2087478
93	0x3e6b3e5a	0.22973004
94	0xbee50b08	-0.4473498
95	0x3f07e8de	0.530897
96	0x3cad6331	0.021165462
97	0x3f07e6d0	0.53086567
98	0xbebe7326	-0.37197226
99	0x3d2e93dd	0.042621482
100	0x3ecc0658	0.3984859
101	0xbdda4592	-0.10657801
102	0x3eea8ddf	0.45811364
103	0xbe2f78d7	-0.1713594
104	0x3f1b9702	0.60777295
105	0x3f0b5168	0.5442109
106	0xbf020a01	-0.50796515
107	0x3e64487e	0.22293279
108	0x3e9b6191	0.30347875
109	0xbf1a6b3c	-0.60319877
110	0x3e3f4e5d	0.18682237
111	0x3f0ca94b	0.5494582
112	0xbe936b60	-0.28792858
113	0xbc9610c4	-0.018318541
114	0x3d6bf058	0.057602257
115	0xbe98aaf0	-0.29817915
116	0xbf04b852	-0.5184375
117	0xbf06aec0	-0.526104
118	0xbf08c3b1	-0.534236
119	0xbee00781	-0.43755725
120	0x3ed48d75	0.41514173
121	0x3d8c2b35	0.068441786
122	0x3f1b54f2	0.6067649
123	0x3c2d254c	0.010567974
124	0xbe779a34	-0.24179918
125	0x3effc9c1	0.49958614
126	0xbee27052	-0.4422632
127	0x3ed0ef45	0.40807548

layers.0.out_proj.weight f4 [64, 128]
0	0x3d6eaf7e	0.05827283
1	0xbc47e312	-0.012200134
2	0xbccddbb9	-0.025129186
3	0x3d059b1c	0.032618627
4	0xbd8bb928	-0.06822425
5	0x3d15714d	0.036485005
6	0x3cebabdc	0.028768472
7	0x3ceeeddf	0.02916616
8	0x3d8f22e8	0.0698908
9	0x3dfe312b	0.12411722
10	0xbdd7441f	-0.1051104
11	0x3dfa816d	0.12231717
12	0xbd00616b	-0.031342905
13	0xbd89ca3e	-0.06728028
14	0x3c301cd8	0.010749064
15	0xbc69d338	-0.01427155
16	0x3d927372	0.07150926
17	0xbcb3c33a	-0.021943677
18	0x3d7aed1e	0.06126129
19	0x3c94e124	0.018173762
20	0x3da9851c	0.08277342
21	0xbdf43106	-0.11923413
22	0xbc09492e	-0.008379264
23	0x3d52a653	0.05142815
24	0x3c68d323	0.014210495
25	0xbd9c3d58	-0.07628888
26	0xbcd48b49	-0.025945323
27	0xbc80a951	-0.015705736
28	0xbd0014a0	-0.03126967
29	0x3dcf9dee	0.101375446
30	0xbca15841	-0.019695403
31	0xbdcd3a25	-0.10020856
32	0x3df0e117	0.117616825
33	0x3dbca0b9	0.09210343
34	0x3caabc5d	0.020841772
35	0x3bb7f499	0.005613875
36	0x3dadc3a8	0.08484584
37	0xbd8557bf	-0.06510877
38	0x3d7dc6a5	0.06195702
39	0xbe0a5735	-0.1350983
40	0x3d7e408b	0.06207327
41	0xbe03185b	-0.1280226
42	0x3dabbfa4	0.08386162
43	0x3dd93d8d	0.10607443
44	0xbc06d16a	-0.008228639
45	0xbd2eab04	-0.042643562
46	0x3c372283	0.011177662
47	0xb9964e7b	-0.00028668702
48	0xbdb32931	-0.08748091
49	0xbd650f13	-0.05592258
50	0xbd9a0e85	-0.07522301
51	0x3e2c53ee	0.16828892
52	0xbe12664c	-0.14296836
53	0xbdd3696b	-0.10322841
54	0x3cbb30f4	0.022850491
55	0x3da0f4e2	0.07859208
56	0x3e0ee2fa	0.13953772
57	0x3d94b6f6	0.072614595
58	0x3d6f7775	0.058463532
59	0x3dbecc6c	0.09316334
60	0xbdfbceb7	-0.12295287
61	0xbcfedb16	-0.031110328
62	0x3c5791b8	0.013157301
63	0xbe384e48	-0.17998612
64	0xbd09d342	-0.033648737
65	0xbc496b9b	-0.012293722
66	0x3c9757d3	0.018474495
67	0xbd73e05e	-0.059540145
68	0x3c32cef3	0.010913598
69	0x3de81fff	0.11334228
70	0x3d5faade	0.05460631
71	0xbd5745ea	-0.05255691
72	0xbd905baf	-0.07048737
73	0x3d2cef07	0.04222014
74	0x3cb87594	0.022517003
75	0x3e19b872	0.15011767
76	0xbe30d584	-0.1726895
77	0x3cb6108e	0.02222469
78	0x3cfc7e48	0.030821934
79	0x3dc02da3	0.093837045
80	0x3da84255	0.08215777
81	0x3d22db11	0.0397597
82	0x3df4b1e3	0.11947992
83	0xbdd1c4ef	-0.1024264
84	0xbc4b50e4	-0.012409423
85	0x3df19c95	0.11797444
86	0x3dfd2e39	0.12362332
87	0x3da55d3b	0.08074423
88	0xbd84a514	-0.06476799
89	0x3dd38d96	0.1032974
90	0x3d99d9db	0.07512256
91	0xbdaa3996	-0.08311765
92	0xbe001ecf	-0.12511753
93	0x3dccd9ce	0.100024804
94	0x3dd81a7b	0.10551926
95	0xbd2aaa02	-0.04166604
96	0xbc371255	-0.011173804
97	0x3de66f0f	0.112516515
98	0xbdb5072d	-0.08839259
99	0x3cd832cb	0.026391407
100	0xbb55e7f0	-0.0032639466
101	0xbc60d7ea	-0.013723353
102	0x3cb29617	0.021800084
103	0x3d8cd1d3	0.06875958
104	0x3d7760e2	0.06039513
105	0xbbad6493	-0.0052915304
106	0xbdac45fa	-0.084117845
107	0x3e412c97	0.18864666
108	0xbd05a26d	-0.032625604
109	0xbceb3972	-0.028713915
110	0xbda9d294	-0.08292118
111	0x3d97801b	0.07397481
112	0x3d6dcdb4	0.058057502
113	0x3d59ae06	0.053144477
114	0x3d909c36	0.07061045
115	0xbe697aa8	-0.22800696
116	0xbd192b9d	-0.03739511
117	0xbdcc7a87	-0.09984308
118	0xbe5f7ca5	-0.21824892
119	0x3dd45e18	0.103695095
120	0xbda1d68e	-0.07902251
121	0xbe2c7942	-0.16843131
122	0x3cbb4f5d	0.022864992
123	0x3c8152aa	0.015786488
124	0x3dcafc23	0.099113725
125	0xbdc1b507	-0.09458356
126	0x3d00dcb3	0.031460475
127	0xbd002eac	-0.03129451
128	0xbdc0e428	-0.09418517
129	0x3d485760	0.048911452
130	0xbbb5fd6f	-0.0055538933
131	0x3e43a532	0.19105986
132	0xbd80e25e	-0.06293176
133	0xbcb7a4bf	-0.022417424
134	0x3d84a468	0.064766705
135	0xbd03cd22	-0.03217805
136	0xbd09b38c	-0.033618495
137	0xbd52ca70	-0.05146259
138	0xbd7c4e45	-0.06159808
139	0x3ccc6610	0.024951011
140	0xbc7b0d96	-0.015323063
141	0xbca2b667	-0.019862367
142	0x3e3a497c	0.18192095
143	0xbdad4b33	-0.08461609
144	0xbd1a30f1	-0.03764433
145	0x3e18255d	0.14858003
146	0xbdc96330	-0.09833372
147	0xbe532867	-0.20620881
148	0xbd58753d	-0.052846182
149	0x3e2f6d56	0.17131552
150	0xbc026f1a	-0.007961059
151	0x3e10971e	0.14120147
152	0xbd77786d	-0.06041758
153	0x3cf4fde3	0.029906219
154	0x3e108b50	0.14115644
155	0xbd6ab06c	-0.057297155
156	0xbe161868	-0.14657748
157	0xbc78c237	-0.015183023
158	0x3c9b93c0	0.018991351
159	0xbddbd897	-0.107346706
160	0x3e2133b7	0.15742384
161	0x3c869777	0.016429646
162	0x3c81da76	0.01585124
163	0xbd198c48	-0.0374873
164	0xbcff7151	-0.031181963
165	0xbe564649	-0.20925249
166	0xbd467673	-0.048452806
167	0xbe06867b	-0.13137238
168	0xbd954631	-0.072887786
169	0x3e69a1c3	0.22815613
170	0xbdfa7540	-0.12229395
171	0x3e07a30b	0.1324579
172	0x3b661f2d	0.0035113797
173	0xbe171908	-0.14755642
174	0xbdb05422	-0.08609797
175	0xbd3e923c	-0.04652618
176	0x3e1f3092	0.15545872
177	0x3dfd0557	0.12354534
178	0x3d9541d2	0.07287945
179	0xbe058b83	-0.13041501
180	0x3d48d1eb	0.04902832
181	0xba373719	-0.0006989106
182	0x3cc7f169	0.024407106
183	0x3dad04f4	0.0844821
184	0xbb92c49f	-0.0044790055
185	0xbc9afe0f	-0.018919973
186	0x3d5e0bed	0.054210592
187	0xbcc439ad	-0.023953283
188	0xbc68b1b8	-0.014202528
189	0x3dadd113	0.08487143
190	0xbdbcae4b	-0.09212931
191	0x3e0ff739	0.14059152
192	0x3df10a59	0.11769552
193	0xbc20ea8e	-0.009821547
194	0x3daa6146	0.08319335
195	0xbe0827da	-0.13296452
196	0x3dc19d53	0.09453835
197	0xbe224a52	-0.15848663
198	0xbd9d6688	-0.07685572
199	0xbd49aff1	-0.049240056
200	0x3b27f968	0.0025630835
201	0x3d62d376	0.055377446
202	0xbc0c3504	-0.008557562
203	0x3d9e8adf	0.07741331
204	0x3e305609	0.1722032
205	0x3d73f9f6	0.059564553
206	0xbdc00a7d	-0.093770005
207	0x3e086b2d	0.13322134
208	0x3e253a97	0.16135632
209	0xbcb543f0	-0.022127122
210	0x3d03e42a	0.032200016
211	0x3dc007e6	0.093765065
212	0xbd320e62	-0.043470748
213	0xbdb50ded	-0.08840547
214	0x3b929c80	0.0044742227
215	0xbca6fc24	-0.020383902
216	0x3d827536	0.063700125
217	0x3e3e1414	0.18562347
218	0xbd62813e	-0.055299036
219	0x3ca17ff4	0.019714333
220	0xbd65123b	-0.05592559
221	0xbdafb5b1	-0.08579577
222	0x3e3b3837	0.18283163
223	0xbe25bbb2	-0.16184881
224	0xbd0489e3	-0.03235806
225	0xbdc1f3ce	-0.0947033
226	0x3d956f34	0.07296601
227	0x3db34e80	0.08755207
228	0xbdb0ddc8	-0.086360514
229	0xbcf0ad1d	-0.029379422
230	0xbe1afd07	-0.15135585
231	0x3ce30b8b	0.027715465
232	0xbd5800f6	-0.05273529
233	0x3d3db2c0	0.046313047
234	0x3d3199cb	0.04335956
235	0xbdc8b7b1	-0.09800661
236	0xbcb9e98d	-0.022694374
237	0x3d3d47df	0.04621112
238	0xbcf347a0	-0.02969724
239	0xbd88982b	-0.06669649
240	0x3cae4a23	0.021275586
241	0xbd2b700b	-0.0418549
242	0x3d198567	0.037480738
243	0x3ddba7d4	0.1072537
244	0x3c9d8fc8	0.0192336
245	0x3ddcad96	0.107752964
246	0xbcad1e22	-0.021132533
247	0xbdd1474f	-0.10218679
248	0x3cfe989e	0.031078633
249	0x3d3a873e	0.045539133
250	0xbd3f8863	-0.046760928
251	0x3e5d5028	0.21612608
252	0x3c500f25	0.012698923
253	0xbdd795e3	-0.105266355
254	0xbdaa194a	-0.08305605
255	0xbc1a6cf8	-0.009425394

layers.0.forward_s6.A_log f4 [128, 16]
0	0x3d40b0c6	0.047043584
1	0x3f44851d	0.76765615
2	0x3f8ce72d	1.1008049
3	0x3fb508a5	1.4143263
4	0x3fd2f88f	1.6482104
5	0x3fe0151e	1.7506444
6	0x3fefbd73	1.872969
7	0x4000b858	2.0112514
8	0x400bbb6b	2.183314
9	0x40139d06	2.306459
10	0x4018d3ab	2.3879192
11	0x401a7885	2.413606
12	0x4023732e	2.553905
13	0x402732c0	2.6124725
14	0x402d551d	2.70832
15	0x4035d214	2.8409472
16	0xbdd4eb37	-0.10396426
17	0x3f2f6de8	0.6852708
18	0x3f91805b	1.1367296
19	0x3fb3ca4b	1.404611
20	0x3fd72d32	1.6810668
21	0x3fed901e	1.8559606
22	0x40025912	2.0366864
23	0x400a6272	2.1622586
24	0x400fc8f9	2.2466414
25	0x4017f0c9	2.3740714
26	0x401cb3f0	2.4484825
27	0x40245893	2.5679061
28	0x40293031	2.6435664
29	0x402cfd0f	2.7029455
30	0x40309de6	2.7596374
31	0x4033ed98	2.8113766
32	0xbdb766c5	-0.089551486
33	0x3f26ce3f	0.65158457
34	0x3f8bcce4	1.0921903
35	0x3fb1fe67	1.3905762
36	0x3fcc9715	1.5983607
37	0x3febd9f8	1.8425894
38	0x3ffd6573	1.9796585
39	0x40074d0a	2.114077
40	0x4010236f	2.2521627
41	0x40172e42	2.3621984
42	0x401e18fa	2.4702744
43	0x4020f06b	2.514674
44	0x40253e6c	2.581935
45	0x402b1976	2.673429
46	0x402ccc2a	2.6999612
47	0x4034eaac	2.8268232
48	0xbc048acf	-0.008089735
49	0x3f31cffc	0.69457984
50	0x3f8f6439	1.120246
51	0x3fb0a354	1.3799844
52	0x3fc8ac01	1.5677491
53	0x3fe6c96e	1.8030221
54	0x3ff4122f	1.9068049
55	0x4001155c	2.0169287
56	0x400bde17	2.1854303
57	0x401214f1	2.2825282
58	0x401589fb	2.3365467
59	0x401ad095	2.4189808
60	0x401e0a8f	2.4693944
61	0x40252e70	2.5809593
62	0x4028c9a8	2.6373081
63	0x402fd8e0	2.747612
64	0x3cac69e3	0.021046584
65	0x3f35016f	0.7070531
66	0x3f93a5dd	1.1534992
67	0x3fb88bdf	1.4417685
68	0x3fd3f7ae	1.6559961
69	0x3fe8fe3a	1.8202584
70	0x3ffddc49	1.9832851
71	0x40074d29	2.1140845
72	0x400e9d24	2.228341
73	0x401788c1	2.3677218
74	0x401d5581	2.4583437
75	0x40221a18	2.5328426
76	0x4026fbc6	2.609117
77	0x402cb8ff	2.6987913
78	0x403024a6	2.7522368
79	0x40342125	2.814523
80	0xbd665039	-0.05622885
81	0x3f279fc4	0.6547816
82	0x3f8dac0b	1.1068128
83	0x3fb33e92	1.400347
84	0x3fd6dd33	1.6786255
85	0x3fea7d4f	1.8319491
86	0x3fffc119	1.9980804
87	0x4007c42b	2.1213481
88	0x400f75eb	2.2415721
89	0x40164d88	2.3484821
90	0x401bcaac	2.434245
91	0x4021665f	2.5218732
92	0x402632fc	2.5968618
93	0x402b0a12	2.6724896
94	0x402e53ce	2.723865
95	0x4032f6db	2.7963169
96	0xbb6bb934	-0.0035968544
97	0x3f2d432e	0.67680633
98	0x3f8858b2	1.0652068
99	0x3fad1f15	1.352511
100	0x3fc99698	1.5749083
101	0x3fdb9d9b	1.7157472
102	0x3ff195f5	1.8873888
103	0x3fff988a	1.9968426
104	0x4007d353	2.1222732
105	0x40109840	2.2592926
106	0x40166f42	2.3505406
107	0x401aebdf	2.4206464
108	0x40215910	2.521061
109	0x4026b8e8	2.6050358
110	0x402a34c4	2.6594706
111	0x40302c41	2.752701
112	0x3ca0edfd	0.019644732
113	0x3f35c01a	0.7099625
114	0x3f93b3be	1.1539228
115	0x3fb7d078	1.4360495
116	0x3fdc44d8	1.720851
117	0x3ff586b3	1.9181732
118	0x4002dcb2	2.0447202
119	0x400c7664	2.194726
120	0x4014a8f2	2.3228116
121	0x401adb0f	2.4196203
122	0x40215d2d	2.521312
123	0x4024e06d	2.5761979
124	0x4029b7ba	2.6518388
125	0x402e9ba9	2.7282507
126	0x4032d63f	2.7943265
127	0x4034cfff	2.825195
128	0xbd0408ba	-0.032234885
129	0x3f291ca5	0.66059333
130	0x3f911f6d	1.1337715
131	0x3fb26ebe	1.3940046
132	0x3fcc33cb	1.5953306
133	0x3fe8ecde	1.8197286
134	0x3ffa79fe	1.9568479
135	0x4004f9cd	2.0777466
136	0x400cfdcb	2.2029903
137	0x40112681	2.267975
138	0x4017aa78	2.3697796
139	0x401ce89e	2.4516978
140	0x40236bf3	2.5534637
141	0x4028fa01	2.640259
142	0x402ad35b	2.66915
143	0x402d7e74	2.710843
144	0x3c569fc7	0.013099617
145	0x3f2e969f	0.6819858
146	0x3f91cba5	1.1390272
147	0x3fb6b9b2	1.427542
148	0x3fd7ffcb	1.6874937
149	0x3feaff9c	1.8359256
150	0x3ffebc69	1.9901248
151	0x4006ecaa	2.1081948
152	0x400ec0d1	2.2305186
153	0x40145fe5	2.318353
154	0x401aa02a	2.4160256
155	0x401e9bb3	2.4782531
156	0x4024f512	2.577458
157	0x40290b13	2.641301
158	0x402c8825	2.6958096
159	0x4032c2e6	2.7931457
160	0x3e3c322d	0.18378516
161	0x3f51cb11	0.8195048
162	0x3fa222fd	1.2666928
163	0x3fcf722b	1.6206716
164	0x3fe9c910	1.8264484
165	0x40067a20	2.101204
166	0x40109a5c	2.2594213
167	0x401753b9	2.364485
168	0x40216b6a	2.522181
169	0x40257287	2.5851152
170	0x402bdd66	2.685388
171	0x403046a4	2.7543116
172	0x4036ca28	2.8560886
173	0x4039ab0d	2.901065
174	0x404049f9	3.004515
175	0x4041a942	3.0259557
176	0xbd090967	-0.033456232
177	0x3f2658ad	0.6497906
178	0x3f89ccff	1.0765685
179	0x3fb06adb	1.378261
180	0x3fcba638	1.5910101
181	0x3fe2a49f	1.7706488
182	0x3ff65e70	1.924757
183	0x40032745	2.0492718
184	0x400b3501	2.17511
185	0x401193d0	2.2746468
186	0x401798ca	2.3687005
187	0x401c77a1	2.4448016
188	0x4021b05c	2.5263891
189	0x40271681	2.6107485
190	0x402a7b74	2.663785
191	0x402efb13	2.7340744
192	0xbb745af9	-0.003728567
193	0x3f2e8fc6	0.6818813
194	0x3f8cc903	1.0998844
195	0x3faf1064	1.3676877
196	0x3fca61e3	1.5811123
197	0x3fe200e1	1.7656518
198	0x3ff6a6f4	1.92697
199	0x400274a1	2.0383685
200	0x400897a4	2.1342554
201	0x40116570	2.2718163
202	0x4016419f	2.3477552
203	0x4019c151	2.402424
204	0x401f4f90	2.489231
205	0x4023dddf	2.560417
206	0x40283789	2.6283896
207	0x402c2444	2.6897135
208	0xbdde205b	-0.10846015
209	0x3f225486	0.6341022
210	0x3f897f22	1.0741923
211	0x3fab34d1	1.3375493
212	0x3fc6c44c	1.5528655
213	0x3fe47ec1	1.7851182
214	0x3ffaa27a	1.9580834
215	0x400456ec	2.0678053
216	0x4008d30a	2.1378808
217	0x400fe4cc	2.2483397
218	0x4016971e	2.3529735
219	0x401c42fd	2.4415886
220	0x40214c05	2.5202649
221	0x4024afef	2.5732381
222	0x402908ea	2.641169
223	0x402b89e5	2.6802914
224	0xbd833b68	-0.06407815
225	0x3f0a178e	0.5394219
226	0x3f853879	1.0407859
227	0x3f9c9896	1.2234066
228	0x3fc23f1d	1.5175511
229	0x3fd6b7c0	1.6774826
230	0x3fe9424f	1.8223361
231	0x3ffc6ce5	1.9720732
232	0x4006b3e6	2.1047301
233	0x400ab32b	2.1671855
234	0x40122c06	2.283937
235	0x401688c9	2.3520987
236	0x401b6e9b	2.4286258
237	0x401ddd5a	2.4666352
238	0x402383df	2.5549238
239	0x40268bd2	2.602284
240	0x3df3aafd	0.11897848
241	0x3f313a0e	0.6922921
242	0x3f8a4339	1.0801765
243	0x3fa1c69d	1.2638737
244	0x3fc59e5d	1.5438954
245	0x3fd8fa90	1.6951466
246	0x3fe80b0b	1.812837
247	0x3ffc6802	1.9719241
248	0x4004e719	2.076605
249	0x400858f4	2.1304293
250	0x400ee2c3	2.2325904
251	0x4013e4d7	2.3108423
252	0x4017279d	2.3617928
253	0x401a2e85	2.4090893
254	0x401e992c	2.4780989
255	0x4022fd4c	2.54671

layers.0.forward_s6.D f4 [128]
0	0x3f80a2a7	1.0049638
1	0x3f64dda8	0.8940072
2	0x3f813926	1.0095565
3	0x3f81802b	1.0117239
4	0x3f8d02c4	1.1016469
5	0x3f6bd2ec	0.92118716
6	0x3f8383f3	1.0274643
7	0x3f805b10	1.002779
8	0x3f7cd27c	0.98758674
9	0x3f6dd309	0.9290014
10	0x3f9ccdbd	1.2250286
11	0x3f78e395	0.9722226
12	0x3f7fd2a1	0.9993077
13	0x3f730f30	0.9494505
14	0x3f8a163b	1.0788034
15	0x3f71b489	0.944161
16	0x3f84da91	1.0379201
17	0x3f79d730	0.97593975
18	0x3f8e037f	1.1094817
19	0x3f742fbe	0.9538535
20	0x3f81f7a1	1.0153695
21	0x3f733330	0.9499998
22	0x3f8727a0	1.0558968
23	0x3f837551	1.0270177
24	0x3f86c0ad	1.052755
25	0x3f8ed1cf	1.1157779
26	0x3f8a80f5	1.0820605
27	0x3f7864b2	0.9702865
28	0x3f81ae5e	1.0131338
29	0x3f73ee23	0.9528524
30	0x3f829d19	1.0204192
31	0x3f874337	1.0567387
32	0x3f8263d6	1.0186718
33	0x3f7293ce	0.9475678
34	0x3f78aaaa	0.9713541
35	0x3f8bd11f	1.0923194
36	0x3f7b04ee	0.980544
37	0x3f862ecf	1.0483035
38	0x3f6fae9d	0.93625814
39	0x3f914d7d	1.1351773
40	0x3f7638b9	0.961803
41	0x3f8eb57f	1.1149138
42	0x3f8a60e6	1.0810821
43	0x3f8f2c3c	1.1185374
44	0x3f7ca48e	0.9868859
45	0x3f841302	1.0318301
46	0x3f712805	0.9420169
47	0x3f7db01e	0.9909686
48	0x3f617d8d	0.880822
49	0x3f9282aa	1.1446126
50	0x3f6f9e7c	0.936012
51	0x3f7056e6	0.93882596
52	0x3f88d430	1.0689754
53	0x3f845980	1.0339813
54	0x3f7f54a5	0.9973853
55	0x3fa44582	1.2833712
56	0x3f8a7c6c	1.081922
57	0x3f700cde	0.93769634
58	0x3f839828	1.0280809
59	0x3f863936	1.0486209
60	0x3f8a363f	1.0797805
61	0x3f8e1b5b	1.1102098
62	0x3f72832b	0.94731396
63	0x3f84607c	1.0341945
64	0x3f7d829e	0.9902743
65	0x3f7d62c0	0.98978806
66	0x3f8493aa	1.0357563
67	0x3f9b0c52	1.2113135
68	0x3f814a13	1.0100731
69	0x3f821aa8	1.0164385
70	0x3f641bff	0.8910522
71	0x3f83aa09	1.0286266
72	0x3f726941	0.94691855
73	0x3f819468	1.0123415
74	0x3f821790	1.0163441
75	0x3f9e212d	1.2353874
76	0x3f888d55	1.0668131
77	0x3f7597d6	0.9593481
78	0x3f6094e3	0.87727183
79	0x3f8445ca	1.0333798
80	0x3f975de2	1.1825526
81	0x3f648d28	0.8927789
82	0x3f946f4f	1.1596469
83	0x3f56428f	0.8369531
84	0x3f856621	1.0421792
85	0x3f7dffcb	0.99218434
86	0x3f913d14	1.1346765
87	0x3f8139f9	1.0095817
88	0x3f85b46d	1.0445687
89	0x3f872385	1.0557715
90	0x3f92ae39	1.1459419
91	0x3f86de15	1.0536524
92	0x3f78d04b	0.9719283
93	0x3f6f6022	0.9350606
94	0x3f9920e5	1.1963164
95	0x3f8b1f2b	1.0868887
96	0x3f6e28d2	0.93031037
97	0x3f6ee781	0.93321997
98	0x3f7b49ac	0.9815929
99	0x3f9418c3	1.1570057
100	0x3f8f8732	1.1213133
101	0x3f86268c	1.0480514
102	0x3f8c0b60	1.0940971
103	0x3f8d3018	1.1030302
104	0x3f89dfa7	1.0771378
105	0x3f81028f	1.0078906
106	0x3f6fc481	0.93659216
107	0x3f6b6975	0.9195779
108	0x3f81d2f8	1.0142508
109	0x3f74a52d	0.9556454
110	0x3f637235	0.8884614
111	0x3f734298	0.9502349
112	0x3f811db8	1.0087194
113	0x3f4834fd	0.78205854
114	0x3f7d4a06	0.98941076
115	0x3f8a2245	1.0791708
116	0x3f675a0c	0.90371776
117	0x3f876a36	1.0579288
118	0x3f89dd4d	1.0770661
119	0x3f84f641	1.0387651
120	0x3f883f92	1.06444
121	0x3f83d98f	1.0300769
122	0x3f6d82fd	0.92778
123	0x3f95e762	1.1711237
124	0x3f254af1	0.64567477
125	0x3f7bffda	0.98437274
126	0x3f7affba	0.9804646
127	0x3f758a52	0.95914185

layers.0.forward_s6.x_proj.weight f4 [36, 128]
0	0x3ced1bc7	0.02894391
1	0x3e3f4731	0.18679501
2	0xbcebe9ec	-0.028798066
3	0x3dd498a3	0.10380676
4	0xbd3969f0	-0.045267045
5	0xbb6d1dad	-0.0036181018
6	0x3da049af	0.07826554
7	0x3b1c84bd	0.002388283
8	0x3dd74f69	0.10513193
9	0xbde66168	-0.112490475
10	0x3cea58a0	0.028606713
11	0x3e2a4010	0.16626
12	0xbc1c8126	-0.009552276
13	0x3cc9b2e8	0.024621442
14	0xbd18e0a4	-0.03732361
15	0xbdf85c66	-0.121269986
16	0xbe213d9a	-0.15746155
17	0xbdafc481	-0.08582402
18	0xbdb295d4	-0.08719984
19	0xbcdd5aa6	-0.027020764
20	0x3dafbd78	0.0858106
21	0xbdb307e5	-0.0874174
22	0xbdbc071e	-0.09181045
23	0x3e411aa6	0.18857822
24	0xbd3cfc6d	-0.04613917
25	0x3da2d7a9	0.0795129
26	0x3de970f3	0.113984965
27	0xbd894122	-0.06701876
28	0xbdb1682a	-0.08662446
29	0xbd29c65a	-0.04144893
30	0x3df11874	0.11772242
31	0xbd973dda	-0.07384844
32	0xbc9ae2b2	-0.018906925
33	0x3e8f1760	0.2794752
34	0xbda0f6b0	-0.07859552
35	0xbda2ed9f	-0.07955479
36	0xbd8c6806	-0.068557784
37	0x3e315b72	0.1732004
38	0x3cb3e3e1	0.021959247
39	0xbd5cb848	-0.05388668
40	0xbcb138a3	-0.021633452
41	0x3d600a00	0.054697037
42	0x3d96a131	0.073549636
43	0xbdc3c2c6	-0.095586345
44	0x3d6963eb	0.056980055
45	0x3d6f0d78	0.058362454
46	0xbe560b39	-0.20902719
47	0xbba9340f	-0.0051636766
48	0xbda4bdfd	-0.0804405
49	0xbd436bcc	-0.047710225
50	0x3db54ad3	0.08852162
51	0x3dc77062	0.09738232
52	0xbd993b6b	-0.07482036
53	0x3e192506	0.1495553
54	0x3e06b8b6	0.13156399
55	0x3e088622	0.13332418
56	0x3da2a7c0	0.07942152
57	0x3df3033f	0.118658535
58	0x3be8ac9a	0.007100654
59	0x3de68315	0.11255471
60	0x3e8238b4	0.25433886
61	0x3e0e2005	0.13879402
62	0xbad6d2a0	-0.0016389675
63	0xbe0aae71	-0.13543107
64	0x3ac98c9d	0.0015376989
65	0x3d9aca77	0.07558148
66	0xbc2c4a35	-0.010515739
67	0xbe87c51e	-0.26517576
68	0x3cda1c44	0.026624806
69	0x3df6ec62	0.12056805
70	0xbe043915	-0.129124
71	0x3d6f308b	0.058395904
72	0xbd7652e5	-0.060137648
73	0x3e319b23	0.17344336
74	0xbd8079c2	-0.062732235
75	0x3df52fd3	0.11972012
76	0xbb5cc56f	-0.0033687016
77	0x3e274998	0.16336668
78	0x3e0cb909	0.1374246
79	0xbc3a2531	-0.011361406
80	0xbd401118	-0.046891302
81	0xbe013b1d	-0.12620206
82	0x3da5e46e	0.0810021
83	0xbdb6b5b4	-0.08921376
84	0xbc54516f	-0.012958868
85	0x3dee49cf	0.116351716
86	0x3d2e2ad8	0.042521328
87	0x3e6ccd80	0.23125267
88	0x3e674bd1	0.22587515
89	0xbc2e8b9c	-0.010653403
90	0x3d8f6fb3	0.07003727
91	0x3e26f417	0.1630405
92	0x3d19835e	0.037478797
93	0xbd99c872	-0.07508935
94	0x3db8c1da	0.09021349
95	0xbe19080a	-0.14944473
96	0x3e290b98	0.16508329
97	0xbdb632d3	-0.08896413
98	0x3e3636e2	0.17794374
99	0x3df1a5a4	0.117991716
100	0x3dd52be8	0.10408765
101	0x3b9e5fa7	0.00483318
102	0x3db8c73d	0.09022377
103	0x3d4caa7c	0.049967274
104	0xbd148847	-0.036262777
105	0xbd1d9615	-0.038473208
106	0x3da7291a	0.081621364
107	0x3d74a799	0.059730146
108	0xbdaa68d6	-0.08320777
109	0x3e251782	0.16122249
110	0x3e72945a	0.23689404
111	0xbe2c3c74	-0.16819936
112	0xbc3d9566	-0.011571264
113	0x3cda8ce5	0.026678512
114	0xbdc5faa2	-0.09666945
115	0x3e17cf29	0.14825119
116	0x3e0e067f	0.13869666
117	0x3e765959	0.24057521
118	0x3ea06a5b	0.31331143
119	0x3dec9845	0.115524806
120	0x3da9e1ee	0.08295046
121	0xbd68690e	-0.056740813
122	0x3d129732	0.035788722
123	0xbc5f83ba	-0.013642246
124	0x3e55a092	0.20862034
125	0xbe279581	-0.16365625
126	0x3e899ce5	0.26877514
127	0xbda2a33d	-0.079412915
128	0xbe33edf2	-0.17571238
129	0xbe62c930	-0.2214706
130	0xbe6ca976	-0.23111519
131	0xbdab0143	-0.0834985
132	0xbd10ab7c	-0.03531979
133	0xbd8aa63f	-0.0676999
134	0x3d8ecdd4	0.06972852
135	0xbd8cee6a	-0.068814114
136	0xbe3acf0a	-0.18243042
137	0x3d692be9	0.05692664
138	0xbc8071bf	-0.015679238
139	0xbe0b78f6	-0.13620362
140	0x3c09d446	0.008412426
141	0xbd92f181	-0.071749695
142	0xbc9cc05b	-0.019134691
143	0x3e4a3c4f	0.19749568
144	0x3e2d01e8	0.16895258
145	0x3deb5c5c	0.114922255
146	0x3d39addf	0.045331832
147	0x3d9e8981	0.077410705
148	0xbd7a92b2	-0.061175056
149	0x3dcb0406	0.09912877
150	0x3d9891e3	0.07449701
151	0xbe8d9e79	-0.27659968
152	0xbcb95ce5	-0.022627303
153	0xbe1f82ff	-0.15577315
154	0xbd9469c2	-0.07246734
155	0xbd39b1f2	-0.045335717
156	0x3e0675a7	0.13130818
157	0x3e0753e1	0.13215591
158	0xbd6042e4	-0.054751292
159	0x3d90b825	0.07066373
160	0xbcf28487	-0.02960421
161	0xbe9c8de1	-0.30576995
162	0x3da81a6f	0.08208167
163	0x3d5a8cc6	0.05335691
164	0x3d4c8734	0.049933627
165	0xbe9df276	-0.30849046
166	0xbcd16c5c	-0.025564365
167	0xbdadbb47	-0.08482986
168	0x3dac5a61	0.08415676
169	0xbda62c48	-0.08113915
170	0xbd7d3add	-0.061823715
171	0xbc5930a3	-0.013256225
172	0xbc0f3d7d	-0.008742687
173	0xbd4112f4	-0.047137216
174	0x3e8c866c	0.27446306
175	0xbe08f8d8	-0.13376176
176	0xbb93dd7c	-0.004512487
177	0xbc66ef97	-0.014095209
178	0xbd88084b	-0.06642207
179	0xbe2545d2	-0.16139916
180	0xbccf33cd	-0.025293255
181	0xbe10d244	-0.1414271
182	0xbdbbf351	-0.09177268
183	0xbe96d9f6	-0.29463166
184	0xbdd110e4	-0.102083
185	0xbe2ff791	-0.17184283
186	0xbc41ea77	-0.011835686
187	0xbe19160a	-0.14949813
188	0xbe3de127	-0.1854292
189	0xbe43455a	-0.19069424
190	0xbdde3a37	-0.10850947
191	0x3e4f93ed	0.20271273
192	0xbe3ddee2	-0.18542054
193	0xbe59dbe9	-0.21275295
194	0x3c12cc00	0.00895977
195	0x3e4baa22	0.1988912
196	0xbde7a961	-0.11311603
197	0xbe24a3bf	-0.16078089
198	0x3d130ff7	0.035903897
199	0x3c0429f1	0.00806664
200	0xbe280c33	-0.16410904
201	0x3bf7ba92	0.0075600827
202	0x3dddb23f	0.10825013
203	0xbe03058b	-0.12795083
204	0x3dd0ffd9	0.10205049
205	0xbdd5deb7	-0.1044287
206	0xbe3caf55	-0.18426259
207	0xbd0043f8	-0.03131482
208	0xbe11f02e	-0.14251778
209	0x3e2857f5	0.16439803
210	0xbc80677d	-0.015674347
211	0x3c64a290	0.013954774
212	0x3d861f3f	0.065489285
213	0x3ddd168d	0.10795317
214	0xbd401afc	-0.046900734
215	0xbdb18645	-0.08668188
216	0xbe22e171	-0.15906312
217	0xbc240e14	-0.010013122
218	0x3cbd1a49	0.023083823
219	0xbe943458	-0.28946185
220	0xbd9eb0a7	-0.077485375
221	0xbd74d25d	-0.05977093
222	0xbd79e758	-0.061011642
223	0x3ddb1638	0.10697597
224	0x3d5e7e8f	0.054319914
225	0x3ca6185d	0.02027529
226	0xbcafb0f0	-0.021446675
227	0xbe599be4	-0.21250874
228	0xbd66c1b7	-0.056337085
229	0xbdcc5ff4	-0.09979239
230	0x3d51a664	0.051184073
231	0xbcc45d77	-0.023970349
232	0x3d1253d8	0.03572449
233	0x3d677549	0.056508336
234	0xbdfc1498	-0.123086154
235	0x3d98d518	0.074625194
236	0x3da05cf9	0.07830233
237	0xbe059cef	-0.13048147
238	0xbe631b6d	-0.22178431
239	0x3e1f6cd0	0.15568852
240	0xbd4d21b9	-0.05008099
241	0xbd091f60	-0.033477187
242	0xbddb3428	-0.107033074
243	0xbe3ed746	-0.18636808
244	0xbde94635	-0.11390344
245	0xbe8bb8b2	-0.2728935
246	0xbea5a578	-0.32352805
247	0xbda7aceb	-0.08187278
248	0xbd634ac6	-0.05549123
249	0x3db274f8	0.08713716
250	0x3e2bc203	0.16773228
251	0x3dd02b62	0.101645246
252	0xbdff0dde	-0.12453817
253	0x3cdb926c	0.026803218
254	0xbead63b9	-0.33865145
255	0x3d49a798	0.049232095
